saves/bipedal_critic.pt (torch_old, 798477 bytes, 9 tensors)

fc1.weight f4 [600, 24]
000000 bf eb fb 3e 6f cc 64 3f d9 eb aa 3e 9b 50 28 bd
       0.49203297 0.8937444 0.33383062 -0.041092496
000010 7a d9 7f be b7 44 74 3e d2 a8 00 bc 80 26 4f 3e
       -0.24985304 0.23854338 -0.00785275 0.2022953
000020 2a 43 d5 3e 83 88 03 3e d7 34 b9 3d d5 d3 6e be
       0.41652805 0.12845044 0.090432815 -0.23322995
000030 fb ae 80 3d f7 48 3c bd 82 85 b9 bd 0e a3 cc bd
       0.06283375 -0.045968022 -0.09058668 -0.09992038
000040 b8 26 f1 bd a8 6f 0d be 54 a5 eb bd 3d f2 0d be
       -0.11774963 -0.13812125 -0.11506143 -0.13861938
000050 f7 7b ef bd f7 79 e4 bd 12 60 65 bd d6 f4 ab be
       -0.11693566 -0.111560754 -0.055999823 -0.33585232
000060 0b 80 38 3e 02 8e 95 3e 1d e3 ee bc d5 61 ad 3d
       0.18017595 0.29209906 -0.02916103 0.084659256
000070 72 41 a7 3d d1 8e 27 be 24 4b 9b 3e e1 85 fb bd
       0.081667796 -0.16363074 0.30330765 -0.12281395
000080 8b c5 b6 be 64 bc 33 bd 37 3d 5e 3e 77 e3 87 3e
       -0.35697588 -0.043880835 0.21703039 0.2654073
000090 74 b2 2e bf ad b5 a1 3e b5 58 09 3e 3d ca 22 3e
       -0.6824105 0.3158392 0.13412745 0.1589746
0000a0 dc e6 24 3e 11 69 12 3e d1 19 7e 3d d6 8a c2 3c
       0.16103691 0.14297892 0.06203634 0.023747843
0000b0 77 56 17 bd 99 b0 12 3e 14 62 80 3e 1c 11 e6 3d
       -0.036947694 0.14325179 0.25074828 0.11233732
0000c0 46 e2 b5 3e dc 50 94 3f 82 b0 1d bf 0c 09 cb 3e
       0.35524195 1.1587176 -0.61597455 0.3965534
0000d0 fa 75 66 3e 5e c5 1d bd 0b 29 c6 bd 83 a3 b4 bc
       0.22505942 -0.038518302 -0.09675797 -0.022050625
0000e0 81 ff b5 b9 97 38 83 3c 4d aa a3 3d c9 09 db 3c
       -0.00034713375 0.016018195 0.07991467 0.026738064
0000f0 f1 50 99 bc ab f2 a2 bc d9 58 ad 3e b8 45 a4 3e
       -0.018715354 -0.019891104 0.33856848 0.3208444
000100 93 e5 90 3e 1f 01 7a 3e d9 7e a5 3e e9 71 c5 3e
       0.2830015 0.2441449 0.3232334 0.3856347
000110 a6 8a 99 3e d7 61 f7 3e dc 41 2b bf 9f fc 0c c0
       0.29988593 0.48316833 -0.6689737 -2.2029188
000120 d8 99 d2 be ce 0c 8c 3f bc 4a dc bd bb 89 a3 be
       -0.41132998 1.0941408 -0.10756442 -0.31941018
000130 18 8d c9 be 87 e0 ce bb 9b 05 49 bb 2a 1c a3 3c
       -0.39365458 -0.006313387 -0.0030673507 0.01991089
000140 6e 1e 83 bc e7 5f 81 be dd 56 90 bd ca 49 30 be
       -0.016005721 -0.2526848 -0.07047818 -0.17215648
000150 b2 dd 7a bd 0d d0 c3 bd 59 49 51 be f4 f1 2e be
       -0.06124658 -0.09561167 -0.20438136 -0.17084485
000160 97 62 43 be 6f 4f 0e be af 07 13 be 3e da f3 bd
       -0.19080578 -0.13897489 -0.143584 -0.11906861
000170 de 02 1d be 91 de 42 be 66 4c 94 3d 9a 7c f1 3f
       -0.15333125 -0.19030215 0.07241134 1.886615
000180 2e 1c 71 3d b9 74 e6 3f 52 be d8 bf d9 65 f6 3e
       0.058864765 1.8004371 -1.6933081 0.4812458
000190 9e 01 f8 bd 99 9b 74 3c 28 22 4b 3c 28 98 93 3d
       -0.121096835 0.0149296755 0.01239828 0.07206756
0001a0 a7 2f 80 3d 49 00 8c 3d 65 e2 b6 3d 92 74 8b 3c
       0.06259089 0.06835992 0.089299 0.017023358
0001b0 46 f4 97 3d 7f 8a a0 3d 84 97 1b be 3e 4e c3 bd
       0.07419638 0.07838916 -0.15194517 -0.09536408
0001c0 6f 40 c8 bd f9 e3 9f bc 4b 2b f8 3b 77 1e 06 3d
       -0.09777915 -0.019517886 0.0075735203 0.032743897
0001d0 a5 e0 c0 3d 2f 2d d9 3d c9 a5 98 be 6f d1 48 bf
       0.094178475 0.10604321 -0.29813984 -0.7844457
0001e0 e2 71 9f be 51 fc 38 3f 68 48 19 bf 01 95 80 3f
       -0.31141573 0.72260004 -0.5987611 1.0045472
0001f0 56 c2 84 be a0 46 10 3f b9 e6 60 be a2 65 26 3d
       -0.25929517 0.56357765 -0.21963014 0.04062427
000200 7e 3a 2f 3e 2c 6a 43 3d f0 dd 55 3e 21 61 05 be
       0.17112157 0.047708675 0.20885444 -0.13025333
000210 a4 fb 84 bd 80 18 74 bd 7d 01 7e 3d 9f 3a dc 3c
       -0.06493309 -0.059593678 0.062013138 0.026883421
000220 be b0 d0 3c d9 e0 d9 3c 02 b5 6b 3d 60 bf b8 3d
       0.025474902 0.026596474 0.05754567 0.09020877
000230 04 fa 6d 3d 05 ff 9d 3c 9e aa f6 bb b7 a5 90 3e
       0.05809976 0.019286642 -0.0075276634 0.2825143
000240 30 30 e9 bd 68 99 e9 bf 1e 10 83 3e 8a 82 a2 3f
       -0.11386144 -1.8249941 0.25598234 1.2696087
000250 21 3d ee 3c 66 32 7d 3c 48 f5 46 bd 06 7a d6 bc
       0.029081883 0.01545391 -0.048573762 -0.026181232
000260 97 33 f9 3b 8a 9c 3f be fc 79 35 be 2a 78 83 bd
       0.007605027 -0.18712059 -0.17722315 -0.06419404
000270 c5 2e de bd c4 1e e7 3e 2f 12 bf bb 54 af c7 3d
       -0.10848764 0.4514066 -0.005831025 0.09750238
000280 49 5a 25 3e 21 43 23 3e d1 2d c7 3d 83 48 59 bd
       0.16147722 0.15943576 0.09725536 -0.05304767
000290 eb 00 a7 3b cf 9d 13 be 50 7b f0 bc 9d 8c 35 bf
       0.005096545 -0.14415668 -0.029355675 -0.70917684
0002a0 80 85 b8 bd e1 e4 9a 3e 05 80 47 bf c5 56 8f 3f
       -0.09009838 0.30252746 -0.7792972 1.1198355
0002b0 30 b8 2b 3e 83 ab 2a 3d cf 67 10 3e 8a 0a fa 3b
       0.1676948 0.041667473 0.141021 0.007630651
0002c0 e8 c7 15 bc 06 6b 63 3b 97 a0 a0 3c 38 9e d9 bd
       -0.0091419 0.0034701242 0.019607825 -0.10625881
0002d0 52 f3 84 bc 07 8d 59 bd d6 ff e9 3d 6f 9a f7 3d
       -0.016229305 -0.05311301 0.1142575 0.12090003
0002e0 2d fa 35 3d 35 82 21 3d 3f a1 29 bc 2f 7f c5 bc
       0.04442804 0.039430816 -0.0103533855 -0.024108497
0002f0 ed f5 2a bd 52 db 29 bd d4 1b 04 bf 7d b5 e0 3f
       -0.04173844 -0.041468926 -0.5160496 1.7555386
000300 ee 87 cd 3d 9b bd f7 bb 36 c7 89 3e e7 3f dc bb
       0.10035692 -0.0075604445 0.26909798 -0.006721485
000310 bf b2 91 bf bf 82 c8 bd d8 96 af bd cc eb 93 3d
       -1.1382674 -0.09790563 -0.08573693 0.07222709
000320 b2 a3 56 bd 74 f2 79 bd bb 92 81 be 17 d1 05 3e
       -0.052402206 -0.061022237 -0.2530726 0.13068043
000330 d3 9f d7 bd 13 e6 93 3d 33 99 6d be 8e 83 79 be
       -0.10528531 0.072216175 -0.23202972 -0.2436659
000340 d7 13 76 be 4e 93 7e be 28 80 6e be 0a bf 2e be
       -0.24031006 -0.2486088 -0.23291075 -0.17065063
000350 4e 31 66 be 7a 21 45 be 4a 7d 0c bf e5 47 96 3c
       -0.22479746 -0.19251052 -0.54878676 0.018344829
000360 72 d5 6d bd c0 f4 dd 3e b6 e0 2e bf 1c 93 40 3f
       -0.058064885 0.43350792 -0.6831163 0.7522447
000370 1b 4e 26 bb 9e 65 c1 be 13 7c 6e 3e 2b 3d 5b be
       -0.0025376144 -0.3777284 0.23289518 -0.21410052
000380 eb 6c d5 3d fd ec ee ba 7b c0 2e bd 51 4b 45 be
       0.10421165 -0.0018228587 -0.042664032 -0.19267012
000390 ec 11 cd bc e8 0a 11 3d 78 d5 9f bd 9b 91 1a 3a
       -0.02503296 0.03541079 -0.07804388 0.00058963307
0003a0 e0 bb 50 3d ce d4 d5 3d ab aa 28 3e 53 f7 44 3e
       0.05096042 0.1044098 0.16471355 0.19234972
0003b0 f1 92 43 3e fa 19 b9 3d 39 a6 e3 3f a5 05 0c bd
       0.19099022 0.09038158 1.7785102 -0.03418507
0003c0 12 0a 8a bc 16 e1 7a bf 0a 21 8c be 5c e0 53 3f
       -0.016850505 -0.97999704 -0.27368957 0.8276422
0003d0 1a 9e 8a 3e 2e dd d4 bd 67 ef fa bd f5 34 f1 bd
       0.27073747 -0.10393749 -0.122526936 -0.11777679
0003e0 9c 41 d1 bd 3e db c3 be 76 ac c6 bd f9 af 0b 3e
       -0.10217592 -0.38253206 -0.09700863 0.13641347
0003f0 dd 40 8d 3d 32 ca cb 3d 51 67 ee 3e ba 2c f7 3e
       0.06897137 0.09950675 0.465632 0.4827631

fc1.bias f4 [600]
000000 ec 30 9f 39 6b 3f 89 b9 d8 dd ab ba 8b df 90 39
       0.00030363293 -0.00026177926 -0.0013112379 0.00027632373
000010 48 4f 20 37 b8 dd 6e 39 f5 df 20 b9 a5 61 bf 38
       9.555202e-06 0.00022780045 -0.0001534222 9.1257774e-05
000020 0e d3 7b 39 a5 57 b6 39 a1 9a b4 b9 f9 0e 2c b9
       0.0002401585 0.00034779045 -0.00034447483 -0.00016408776
000030 27 2d 10 b9 1a d6 e3 b8 87 d3 6e 38 19 48 86 38
       -0.0001374973 -0.00010864083 5.6940622e-05 6.403047e-05
000040 c2 da 6b 39 28 05 95 37 66 64 6b 3a 09 96 88 3a
       0.0002249284 1.7764585e-05 0.0008979499 0.001042069
000050 48 09 0c b9 5c 75 4d ba d9 39 29 ba 5c 57 21 b9
       -0.00013354898 -0.00078376173 -0.00064554584 -0.000153867
000060 89 85 15 39 89 6f 95 3a 55 d8 7d ba 5f 0f c2 b9
       0.00014259493 0.0011401038 -0.000968342 -0.00037014016
000070 1d 56 3b b9 be c8 6e b9 dc 71 44 b9 72 75 b6 39
       -0.0001786579 -0.00022772231 -0.00018734433 0.0003480125
000080 9a e2 ca 3a 65 45 cc 39 60 5d 4a b9 60 3c c6 b9
       0.001547891 0.00038961615 -0.00019299006 -0.00037810486
000090 03 e9 ee 39 d0 30 1f ba 2d 80 4a 39 52 c3 fe 38
       0.00045568505 -0.0006072642 0.0001931197 0.00012148045
0000a0 f7 d4 49 ba dc 38 a9 b9 74 54 91 39 da 4e 12 39
       -0.0007699276 -0.00032276555 0.00027719478 0.0001395302
0000b0 be e6 5d 39 2a 49 9e 39 94 4f b3 3a 35 81 ee 3a
       0.0002116216 0.0003019062 0.0013680332 0.0018196466
0000c0 20 6f 5d b7 a4 2d 9d b9 de d5 b4 b9 8f 11 20 b9
       -1.31985e-05 -0.00029979378 -0.0003449162 -0.0001526533
0000d0 30 57 67 36 b7 79 19 3a 3c 57 24 3a 96 e6 16 39
       3.4472432e-06 0.0005854624 0.00062691025 0.00014391015
0000e0 6a 93 47 ba 91 30 6e b9 c5 5d 45 3a 85 3c 36 3a
       -0.0007613214 -0.00022715541 0.00075289264 0.0006951767
0000f0 b6 64 24 b9 24 39 0d ba f1 ae bd 39 3b c4 38 ba
       -0.00015677777 -0.0005387238 0.0003617923 -0.00070482836
000100 f6 69 c4 3a ea c0 29 3a 28 3e 18 ba f0 4a c5 39
       0.0014985192 0.0006475585 -0.0005807602 0.000376306
000110 f2 1f 58 38 24 b6 91 39 76 68 50 b9 68 71 7e 39
       5.1528164e-05 0.0002779226 -0.0001987534 0.00024265575
000120 00 0d 8d 80 2c 9e c0 b9 74 04 a3 39 fe 75 a1 b9
       -1.2953468e-38 -0.0003673894 0.000310931 -0.00030796224
000130 82 8e 13 ba 4b b0 3c b9 ee a6 70 b9 f5 60 82 b9
       -0.00056288403 -0.00017994751 -0.0002295037 -0.0002486777
000140 26 8b 35 39 f1 ce 38 39 96 1d 29 39 27 f1 cd b9
       0.00017313342 0.00017624699 0.00016128118 -0.0003928032
000150 08 a7 d8 b8 be 0f 38 3b 01 f3 7e b9 b2 aa d8 39
       -0.000103307946 0.0028085555 -0.00024313854 0.00041325908
000160 30 d4 8e b9 ad 25 c6 39 69 58 41 3a e7 58 a2 39
       -0.00027242443 0.00037793574 0.000737554 0.00030965285
000170 b4 b0 54 81 da 99 e7 b8 fb 3d a6 b9 54 8b 8b b8
       -3.906503e-38 -0.000110435954 -0.00031708166 -6.6539884e-05
000180 24 e7 6b 38 0b 31 86 b9 a0 f4 1a 39 3a 73 c4 b7
       5.6243633e-05 -0.00025595012 0.00014777714 -2.3418677e-05
000190 22 ae 35 3a 3a 09 90 b9 13 74 8c b8 79 9e 81 ba
       0.000693055 -0.00027472695 -6.697341e-05 -0.0009889147
0001a0 a0 9d 0e ba 60 22 ab b6 44 28 18 ba 79 55 6d b9
       -0.0005440358 -5.100199e-06 -0.000580434 -0.00022633922
0001b0 e7 86 04 3a b8 44 ed b9 a9 69 13 39 f4 79 06 b9
       0.00050555024 -0.00045255362 0.00014058374 -0.00012824667
0001c0 7a af 69 39 5e 61 6c b9 31 04 a9 ba 29 51 29 39
       0.00022285982 -0.00022542986 -0.0012894926 0.0001614733
0001d0 00 42 ab 39 60 52 f8 39 8c 9d 90 3a 38 87 51 39
       0.00032664835 0.0004736362 0.0011033281 0.00019982166
0001e0 fd cf aa 39 93 6c bb b9 b2 c2 e5 38 36 a0 52 3a
       0.0003257989 -0.00035748314 0.00010955836 0.00080347375
0001f0 ff e1 9e 39 d6 eb 31 b9 1c 35 15 b9 47 7f 33 3a
       0.0003030449 -0.00016967891 -0.00014229532 0.0006847274
000200 e3 b7 a8 b9 1f 56 90 ba 00 1e d6 b9 06 53 9b b9
       -0.00032180463 -0.0011011994 -0.00040839612 -0.0002962576
000210 af 25 b3 38 89 ca 02 82 cc 4c 94 b6 d0 dc 66 b9
       8.542404e-05 -9.609016e-38 -4.419684e-06 -0.00022016768
000220 d9 3c ef 38 1e 07 18 39 ee 9c 23 b9 dc bc 18 3a
       0.00011407742 0.00014498501 -0.00015603352 0.0005826482
000230 47 e4 af b9 12 a2 2d ba 38 f0 d0 b8 04 78 40 b9
       -0.0003354868 -0.00066235766 -9.962957e-05 -0.00018355256
000240 68 58 03 38 d3 8b 5e b9 aa 88 be 38 dd ee 72 b9
       3.131517e-05 -0.00021223658 9.085362e-05 -0.00023167902
000250 4c 01 0f 37 56 d6 3b b8 90 d9 8d b8 7f 48 10 b9
       8.523766e-06 -4.478389e-05 -6.763928e-05 -0.00013759917
000260 88 9a 63 38 8b 59 16 3a 9e 29 2e b8 82 dc a4 39
       5.4264936e-05 0.0005735389 -4.152359e-05 0.0003144481
000270 1e c3 73 b8 c6 22 3e ba 3c 59 2e 38 cf b6 6f 38
       -5.811743e-05 -0.00072531065 4.156794e-05 5.7152294e-05
000280 bc f1 2f b9 78 29 3f b7 46 f4 97 38 1b fa 58 3a
       -0.00016779354 -1.1394142e-05 7.2457406e-05 0.0008277015
000290 bc 4c 10 ba 36 ad f1 38 ab cf 28 ba 72 ca 9c b8
       -0.00055045984 0.000115240386 -0.00064396363 -7.476368e-05
0002a0 c0 31 fe b8 26 6f c3 b8 f9 ba fa 39 c0 47 92 ba
       -0.000121209305 -9.3190276e-05 0.0004782302 -0.0011160299
0002b0 2f a3 0c 3a 62 01 42 39 44 67 70 38 ca 4f 49 3a
       0.00053648924 0.00018501797 5.7316633e-05 0.0007679431
0002c0 6e a1 9d 96 73 74 e3 39 38 f4 19 3b ba 54 0e b9
       -2.5466594e-25 0.00043383575 0.0023491513 -0.00013573738
0002d0 3e 36 51 b9 65 fe 33 3a 77 28 9a 38 26 7e 70 ba
       -0.00019952 0.0006866216 7.3508294e-05 -0.0009174071
0002e0 00 9e 4c 3a 5f 9c 61 b8 fd 85 5a b9 7b fc ab b8
       0.0007805526 -5.3789812e-05 -0.00020840015 -8.2009436e-05
0002f0 b7 7a 21 b9 e4 8b 12 3a ae 78 39 b9 8b 56 02 ba
       -0.00015399871 0.00055903033 -0.00017687932 -0.00049720024
000300 cf d7 f3 b8 bf ae 2f ba 6c bf d1 38 95 df 8d ba
       -0.000116273404 -0.00067017594 0.00010001552 -0.0010824079
000310 84 1c 1c b9 f5 80 06 ba b0 1c 49 37 87 67 65 39
       -0.00014887942 -0.00051309104 1.1987213e-05 0.00021877709
000320 82 5d b9 3a ee fd a5 39 e9 c8 45 b9 99 12 90 3a
       0.0014142247 0.00031660445 -0.00018862229 0.0010991871
000330 d9 90 8a 39 c1 40 4c b9 b2 c3 84 37 a6 68 10 3a
       0.0002642933 -0.00019479079 1.5826754e-05 0.0005508758
000340 a2 86 34 39 23 8b de b8 ac f1 67 b8 e7 75 8f b7
       0.00017216292 -0.00010611701 -5.5299766e-05 -1.7101831e-05
000350 13 a8 71 39 0b 88 8f 3a e6 dc 98 b9 ae 7b c9 b9
       0.00023046164 0.0010950578 -0.0002915628 -0.00038429856
000360 6c 39 10 3a ec ab 40 ba b6 dd b7 b9 75 f5 80 3a
       0.00055017206 -0.0007349837 -0.00035069668 0.0009838777
000370 a8 ca 53 39 28 ef 9b ba ba 0c a8 b9 50 09 91 38
       0.00020198023 -0.0011896836 -0.0003205294 6.9158734e-05
000380 1d c0 cd b8 1d 77 0d ba a9 a2 eb 39 e8 c5 08 ba
       -9.8109456e-05 -0.00053964724 0.00044943884 -0.00052174786
000390 91 c3 62 ba 76 e2 de 39 32 f1 08 b9 12 98 91 39
       -0.00086503575 0.00042511866 -0.00013059823 0.00027769856
0003a0 0c 4c 55 39 76 c8 90 37 bd 06 2e b9 ca c2 3c ba
       0.00020341593 1.7259485e-05 -0.00016596443 -0.00072006567
0003b0 7a cc 5a 39 d2 c3 86 39 02 d2 67 b8 38 4f c2 b7
       0.00020866274 0.0002570437 -5.5270277e-05 -2.3163491e-05
0003c0 8f 9f a1 39 38 85 b9 39 33 46 a4 b9 46 02 5a b9
       0.00030827193 0.00035385205 -0.0003133282 -0.00020790947
0003d0 6b c1 1b ba 68 87 03 37 02 7e 1d 3a 94 b0 9a 38
       -0.0005941602 7.839735e-06 0.00060078513 7.3761825e-05
0003e0 20 52 05 38 b6 7d 7e b9 4e 00 8e 38 bb 76 69 3a
       3.1786156e-05 -0.00024270159 6.7711444e-05 0.0008905937
0003f0 0d cb 4c b9 15 a0 13 b7 40 c7 27 39 18 2a 58 b9
       -0.00019530598 -8.799155e-06 0.00016000587 -0.00020615046

bn1.weight f4 [600]
000000 a3 92 86 3e ce 7f f2 3e 14 23 60 3f 80 10 6d 3f
       0.2628375 0.47363132 0.87553525 0.926033
000010 42 ec d3 3f 3e 5d 12 3f d6 06 89 3f 0d b3 94 3f
       1.6556475 0.57173526 1.0705211 1.1617142
000020 e4 e1 cb 3e ac cb 5d 3f af 57 56 3f 72 2e 0b 3e
       0.39820778 0.86638904 0.83727545 0.13591936
000030 fb 15 39 3e cc 3a f4 3e 0e d3 29 3f e8 d4 43 3f
       0.18074791 0.47701108 0.6633767 0.76496744
000040 61 ef 66 3f 75 a4 4c 3f b8 75 12 3f 86 ef 8a 3f
       0.90209013 0.7993844 0.57210875 1.0854347
000050 7f 10 05 3f 8f 47 89 3f 7a 59 b8 3f 17 e9 76 3e
       0.51978296 1.0724963 1.4402306 0.24112354
000060 af 74 45 3f c6 cb 22 3f 9d 7f 44 3f 22 c4 a8 3f
       0.7713117 0.63592184 0.7675722 1.3184855
000070 c4 fd 89 3f a5 b1 0b 3f 18 28 b4 3e f2 09 90 3f
       1.0780568 0.5456794 0.3518684 1.1253035
000080 43 2f b2 3f e4 90 b5 3e 6e a1 41 3f 40 e6 0d 3f
       1.3920673 0.35462105 0.7563695 0.5542946
000090 05 e0 dc 3f b6 f9 6f 3f 2f eb 25 3f a9 d5 1f 3f
       1.7255865 0.93740404 0.64811987 0.62435395
0000a0 dc c1 7c 3f e6 50 27 3f 9b 50 02 3f 9b 2a 80 3e
       0.98733306 0.65357816 0.50904244 0.25032505
0000b0 8b ea dc 3e fe 64 12 3f 82 ce 60 3f d6 88 9e 3f
       0.43147692 0.5718535 0.87815106 1.2385509
0000c0 80 17 05 3f a4 88 05 3f 4b cd 79 3f 60 7b 09 3f
       0.51988983 0.5216162 0.9757888 0.5370388
0000d0 dc 77 cd 3e ea 85 3b 3f 8a 3c 45 3f 23 73 02 3f
       0.40130508 0.7325121 0.770455 0.50956935
0000e0 0d dd 18 3f f2 ae f0 3e 16 0f 3d 3f 5f 48 af 3f
       0.59712297 0.47008473 0.73851144 1.3693961
0000f0 65 8f 1c 3f a0 2d 72 3f 46 49 0b 3f 2c 6e 18 3f
       0.611563 0.9460087 0.5440868 0.5954311
000100 f3 9a a5 3f 68 a2 1d 3f f7 e7 3b 3f e7 42 00 3f
       1.2937912 0.6157594 0.73400825 0.50102085
000110 8f ee 4e 3f 4d cb 82 3f 3b 3c ab 3e f7 f2 7f 3f
       0.8083276 1.0218292 0.3344439 0.9998011
000120 90 2c 5b 81 da e6 73 3f 2d 97 8e 3f ff 75 6c 3f
       -4.025592e-38 0.95274127 1.1139885 0.9236755
000130 98 b3 70 3f ca 36 41 3f 39 d4 44 3f cc 71 60 3f
       0.9402404 0.75474226 0.76886326 0.8767364
000140 9d 3f ee 3e 60 b8 b9 3e 1e 33 a1 3f a9 22 0e 3f
       0.46532908 0.3627348 1.2593725 0.5552164
000150 c1 e6 a5 3e 26 8b d2 bd 2d 1f 8f 3f a1 2e 0e 3f
       0.32402614 -0.10280447 1.1181389 0.555399
000160 0e 46 62 3f bc 5e 2f 3f f0 6a 4a 3f ae e0 1c 3f
       0.88388145 0.6850393 0.79069424 0.61280334
000170 04 08 b5 3a bb bd 9c 3f 85 88 0e 3f 72 46 32 3f
       0.0013811593 1.2245401 0.5567706 0.6963874
000180 df 2d 06 3f cc cc 2c 3f cc 92 21 3f 72 c4 33 b9
       0.52413744 0.67499995 0.6311462 -0.00017143952
000190 70 7e 79 3f d9 cd f1 3e e4 ee 0b 3e 43 14 85 3f
       0.97458553 0.47227362 0.13665348 1.0396808
0001a0 34 fc 6f 3f 9b 48 72 ba 2e 56 47 3f 4e e7 3b 3f
       0.93744206 -0.00092423864 0.77865875 0.7339982
0001b0 a7 1a 07 3f 58 53 97 3e e5 98 01 3f 6d d7 4a 3e
       0.52775043 0.29555774 0.50623924 0.19808741
0001c0 1b 6d 89 3f e0 a6 10 3f 98 3f 94 3f ae 2f 54 3f
       1.0736421 0.5650463 1.1581907 0.82885253
0001d0 e4 82 f7 3e f6 d6 72 3f 2a 35 a5 3f 26 9d 84 3f
       0.4834205 0.94859254 1.2906849 1.0360458
0001e0 75 81 d1 3f 7b 4d 4b 3f 3b b8 44 3f a6 bc 82 3f
       1.6367632 0.794151 0.76843613 1.0213821
0001f0 3a 9e 4b 3f f2 c1 f4 3f 9a d3 25 3f fb 60 19 3f
       0.7953831 1.9121687 0.64776003 0.59913605
000200 47 b5 33 3f c1 72 85 3f 50 c8 1b 3f dc dc 58 3f
       0.7019848 1.0425645 0.6085253 0.84712005
000210 f8 d0 1c 3f f2 94 c0 00 87 cd b8 3e a7 af 19 3f
       0.6125636 1.7685847e-38 0.36094305 0.6003365
000220 0b 57 8e 3f 6e 3e 6f 3f 7f 60 6d 3f 79 78 50 3f
       1.1120313 0.93454635 0.92725366 0.81433827
000230 c1 e0 8c 3f e2 ca 8b 3f 46 bc 85 3f e0 ae 86 3f
       1.100609 1.092129 1.0448081 1.0522118
000240 0c fc 90 3f db eb 85 3f 2f 72 3e 3f f6 b1 6a 3f
       1.1326919 1.0462602 0.7439298 0.91677797
000250 92 80 4b 3a 71 40 94 3f d6 d7 5d 3f b8 d3 a0 3f
       0.0007762994 1.1582166 0.86657465 1.2564611
000260 29 1d 8b 3f 3a d2 64 3f 1b bc 69 3f c4 89 98 3f
       1.0868274 0.8938328 0.9130265 1.1917043
000270 7d 3c 4d 3f 1f 78 88 3f e1 7f 7f 3f e6 0d 35 3f
       0.8017042 1.0661658 0.998045 0.7072433
000280 70 d0 06 3f 0f b7 0f 3f da f3 49 3f 4f 68 74 3f
       0.526618 0.561387 0.7888771 0.9547166
000290 32 5d c8 3f e1 c4 3b 3f 0d 5e c6 3f 16 a6 40 3f
       1.5653441 0.7334729 1.5497452 0.7525343
0002a0 1a 7e a9 3f 33 99 1c 3f 12 3c 46 3f d0 0c be 3f
       1.3241608 0.61171263 0.7743541 1.484766
0002b0 eb 82 4d 3f 67 7c 94 3f a3 c9 49 ba e0 fe 04 40
       0.8027789 1.1600465 -0.0007697588 2.0780563
0002c0 87 22 1d 3b 86 cb 96 3f 91 aa 9c 3f 71 6b 3b 3f
       0.0023976879 1.178086 1.2239553 0.7321082
0002d0 d7 a2 6f 3f 0b 2d d5 3f 36 14 42 3f 76 16 a2 3f
       0.9360785 1.6654371 0.7581209 1.2663105
0002e0 36 6c 95 3f a7 ca dc 3f e8 1d b0 3f fe a3 8d 3f
       1.1673648 1.7249345 1.3759127 1.1065671
0002f0 8b 5f 7d 3f 03 44 8b 3f 3e 21 43 3f f4 b3 40 3f
       0.9897391 1.088013 0.762226 0.75274587
000300 6b ee 3b 3f 4b 78 86 3f 7d 5d 25 3f e9 e7 4a 3f
       0.7341067 1.050546 0.64595777 0.79260117
000310 b8 f6 31 3f 50 cf 19 3f 15 34 5c 3f 5f 52 8a 3f
       0.6951709 0.6008196 0.8601697 1.0806388
000320 9f 5e d6 3f b8 5e 24 3f 93 34 13 3f f5 fb 51 3f
       1.6747626 0.6420703 0.57502097 0.8202508
000330 1c 09 d2 3f af 95 28 3f 24 95 87 ba 91 52 a4 3f
       1.640903 0.658534 -0.001034413 1.2837697
000340 41 51 9a 3f 10 0f 96 3f 28 52 62 3e ed 5b 58 3f
       1.2056047 1.1723347 0.22101653 0.8451527
000350 2b fc 12 3d 3e ba 60 3f c5 24 9d 3f 6e da 54 3f
       0.035885017 0.87784183 1.2276846 0.831458
000360 e7 77 52 3f b4 a1 34 3f a6 19 52 3f f8 99 52 3f
       0.82214206 0.7055924 0.82070386 0.8226619
000370 91 fe ce 3e 78 f8 c4 3f de 66 d0 3f 02 a7 10 3f
       0.40428594 1.5388327 1.6281393 0.56504834
000380 8b 85 aa 3f 94 8b 01 3f 28 26 11 3f 89 e7 7e 3f
       1.3322004 0.50603604 0.56698847 0.99572045
000390 1b 70 53 3f ac a9 23 3f 6a 17 05 3f e6 b7 9e 3f
       0.82592934 0.63930774 0.5198885 1.2399871
0003a0 3b 9a 19 3f 03 fd 45 3f 90 cb 53 3f 6e fc 63 3f
       0.6000096 0.7733919 0.82732487 0.8905705
0003b0 43 9b ae 3f 21 a4 1d 3e 24 eb b4 3d 9b e0 1b 3f
       1.3641132 0.15394641 0.08833912 0.60889596
0003c0 32 fb 09 3f 50 88 4a 3f a0 2f 56 3f 83 c2 a5 ba
       0.5389892 0.79114246 0.8366642 -0.001264647
0003d0 2e 59 66 3f a1 09 f4 3e 3e e4 9f 3f f8 c7 cc 3e
       0.8997983 0.47663596 1.2491529 0.39996314
0003e0 55 12 1f 3f 77 5c 91 3f 6b 99 3e 3f 1c 65 ac 3e
       0.6213735 1.1356343 0.7445285 0.3367089
0003f0 10 13 38 3f 0d 68 68 ba 8c 7f 50 3e 33 72 18 3f
       0.7190409 -0.00088656024 0.20361155 0.59549254

bn1.bias f4 [600]
000000 22 04 f5 3c 00 db f4 be 73 6d ba 3d db 53 23 bf
       0.029909197 -0.47823334 0.09102907 -0.6379983
000010 21 b1 a1 bf b1 81 d4 be ea aa 01 bf 5b 49 57 bf
       -1.263218 -0.41505197 -0.5065142 -0.84096307
000020 f0 9b de 3e a5 06 64 be b1 66 e8 be 89 f3 25 3d
       0.43478346 -0.2226816 -0.45390847 0.040515456
000030 ed 60 b6 3e 5d 00 a6 be 6d b3 48 be 97 f4 25 bf
       0.35620824 -0.32422152 -0.19599696 -0.6482634
000040 c3 3d 42 bf ad 78 ae be bf 26 3d be d6 64 f5 be
       -0.7587549 -0.34076443 -0.18471812 -0.47928494
000050 ed e2 7a be 78 62 42 bf 69 8c 49 bf f1 c1 c6 3d
       -0.24500628 -0.759315 -0.78729874 0.0970496
000060 de fc 41 bf ae a1 bb be 94 ce 9c be 42 2b 42 bf
       -0.7577647 -0.3664679 -0.30626357 -0.75847256
000070 65 ac 08 bf 59 b5 a4 bc e8 cb b8 bc 27 53 23 bf
       -0.53388053 -0.020106005 -0.022558168 -0.63798755
000080 14 0a 09 bf d9 5d 06 be 9b 7f c8 be 0c df a7 bd
       -0.53531003 -0.13121738 -0.39159855 -0.0819684
000090 72 22 a3 be a5 69 54 bd d3 ed 4e be 92 f7 c5 bd
       -0.31862217 -0.051858563 -0.2020791 -0.09666361
0000a0 82 4a 16 bf 9f cb bf be 3a e7 89 be 7b 68 4c 3e
       -0.5870744 -0.37460038 -0.26934224 0.19961731
0000b0 5f 82 26 be 1b 7c e8 be 28 63 37 bf 50 79 47 3f
       -0.1626067 -0.45407185 -0.71635675 0.77919483
0000c0 14 ec d2 be f5 09 e2 be d6 d0 17 bf 41 c2 ef be
       -0.41195738 -0.44148222 -0.59303033 -0.4682789
0000d0 f8 73 73 bb 61 96 0f bf da 96 45 bf 52 d0 a8 be
       -0.003714798 -0.56088835 -0.77183306 -0.32971436
0000e0 ba c4 91 bd ff df f7 be e1 e1 bc be 4f 6d 15 bf
       -0.07117601 -0.48413083 -0.36891082 -0.58369917
0000f0 a0 9c e0 be ae 36 40 be bb e6 68 be 0d 01 95 bf
       -0.43869495 -0.18770859 -0.22744267 -1.1640946
000100 1a 8c 9e be 98 8b e7 be 80 ea 53 bf 88 32 91 bd
       -0.30966264 -0.4522369 -0.82779694 -0.07089716
000110 fd ae 29 bf 25 e9 f6 be b9 62 96 3e f3 25 24 bf
       -0.66282636 -0.4822475 0.29372194 -0.64120406
000120 b7 ab 1f 80 29 32 03 bf 22 2c 54 bf e2 97 3a bf
       -2.9085e-39 -0.51248413 -0.8287984 -0.72888005
000130 62 03 33 bf fd 4a 28 be 0d 78 1d bf 5d 97 30 bf
       -0.69927037 -0.16434856 -0.6151131 -0.6898096
000140 08 72 df bd 94 04 21 be 58 52 eb be 29 bb 91 be
       -0.109104216 -0.15724403 -0.4596126 -0.28463104
000150 db 6b 5d be 24 16 db 3e 44 c2 e8 be f6 68 f3 be
       -0.21623175 0.4279033 -0.45460713 -0.47541016
000160 73 6b 45 bf d6 b5 ba 3d 30 17 22 bf f8 f5 c7 be
       -0.7711708 0.09116714 -0.6331663 -0.39054847
000170 ca 64 0a bc fc d3 55 be 38 3d f5 be d6 38 e1 be
       -0.008446882 -0.20881647 -0.4789827 -0.43988675
000180 47 50 74 be 4e 8a fe be 64 39 0f be fd 4f 02 3f
       -0.23858748 -0.49714893 -0.13986737 0.509033
000190 e8 1a c1 bd c1 6a 51 bd e8 d1 16 3f 12 e8 dc bc
       -0.0942896 -0.0511272 0.5891404 -0.026966128
0001a0 82 ab 3b bf 8a ec f8 3e 2e 66 07 bf 9d ac c0 be
       -0.73308575 0.48617965 -0.5289029 -0.37631693
0001b0 ea 79 c2 be 27 42 2f be 20 bb ff be 4b ed d8 3e
       -0.37983638 -0.17115079 -0.49947453 0.4236854
0001c0 e7 64 6f bf 09 42 16 bf 11 78 e8 be 13 6e dd be
       -0.9351334 -0.5869451 -0.45404103 -0.43248042
0001d0 96 d4 3d 3c bb b6 30 bf 27 69 d3 bf d6 34 32 bf
       0.011586329 -0.69028825 -1.6516465 -0.6961187
0001e0 bc ea 80 be d0 7b 05 bf 3d 35 e6 be e1 7b b0 3d
       -0.25179088 -0.5214205 -0.44962493 0.08617378
0001f0 ec d9 b8 bd 12 de 51 bf 36 c2 35 be ab e8 e1 be
       -0.0902594 -0.8197948 -0.17749867 -0.44122824
000200 de 49 85 be 86 d0 21 bf 30 d1 17 bf 69 d4 92 be
       -0.2603292 -0.63208807 -0.5930357 -0.2867768
000210 fd ac 2e be 91 e2 1a 80 f0 e8 13 be 40 66 15 bd
       -0.17058177 -2.469e-39 -0.14444327 -0.036474466
000220 f8 d1 16 bf 04 84 4e be 96 12 86 be 57 95 fd be
       -0.58914137 -0.20167547 -0.26186055 -0.49528
000230 f9 17 00 bf 1c 5a 2a bf 1b 2e e3 be 27 0c de be
       -0.5003658 -0.66543746 -0.44371113 -0.43368647
000240 5e e9 4e bf 68 6e 8b 3d 69 c4 fc be 50 1f 9b be
       -0.8082484 0.06808168 -0.493686 -0.30297327
000250 9b d2 15 3f 5a 79 4f bf 3b 38 08 bf b6 53 ad be
       0.58524483 -0.8104454 -0.532108 -0.3385293
000260 c9 01 af be bb aa 98 be e3 79 28 3e f0 0a 2e bf
       -0.3418105 -0.29817757 0.16452746 -0.6798544
000270 5c f1 d9 be 9a f2 28 bf 51 67 1e bf 9f 99 32 bf
       -0.42566955 -0.6599518 -0.618764 -0.6976566
000280 c9 4c 0d be 28 ed 11 3e 19 6c e7 be e9 3e 06 bf
       -0.13798822 0.14250624 -0.4519966 -0.52439743
000290 9c b0 9b be 49 4a a9 be ee e4 9e bf b9 3f 99 be
       -0.3040818 -0.33064488 -1.2413614 -0.2993143
0002a0 53 38 9d be 78 45 d7 be 83 b2 e6 be 3a d6 ae bd
       -0.30707034 -0.42045188 -0.4505807 -0.08536954
0002b0 7e 17 a6 be cf fc 54 bf 15 ad 0b 3f af d7 53 bf
       -0.32439798 -0.83198255 0.5456098 -0.8275098
0002c0 c5 0b 31 bc 46 b6 0c bf 5b 35 e5 be 50 c5 21 3d
       -0.010806029 -0.5496563 -0.4476727 0.039494812
0002d0 9a fc 6f bd bc 76 88 bf f0 d0 1e 3f c1 b6 21 bf
       -0.05859051 -1.0661235 0.62037563 -0.63169485
0002e0 5f 1e de be 51 ec cf be 3f c6 a5 bd 8a 76 36 bf
       -0.43382546 -0.40609983 -0.08094453 -0.71274626
0002f0 c8 92 f3 be 1b 44 00 bf 07 6a 22 bf cc 69 25 bf
       -0.47572923 -0.5010392 -0.63443035 -0.6461456
000300 df c6 f3 be de 6a b6 be 1d 8d 2c bf aa 52 13 bf
       -0.47612664 -0.35628408 -0.6740282 -0.5754801
000310 c4 65 97 be 40 95 9d bd d6 5e c9 be e7 d2 4e bf
       -0.2956983 -0.07694483 -0.39330167 -0.8079056
000320 19 a4 66 3e 27 3b 69 be 7c b4 a8 be da d7 d3 be
       0.22523536 -0.22776471 -0.329502 -0.4137562
000330 f8 11 32 bf 81 c7 e9 bd 53 a6 fc 3e 75 bf a6 be
       -0.6955867 -0.114150055 0.49345645 -0.32567945
000340 1c 25 45 bf 69 3e 93 be 3e 1d 75 3e d9 95 14 bf
       -0.7700975 -0.28758553 0.23936936 -0.5804115
000350 57 4d c3 3e 57 17 f0 bd 91 99 94 3e 56 3e c2 bd
       0.38144943 -0.11723202 0.29023412 -0.09484546
000360 c5 c0 42 bf 7d 97 c9 be 67 a5 3c be 0e 08 f5 be
       -0.7607539 -0.3937339 -0.18422471 -0.47857708
000370 cc ad 53 3c e9 ff 50 bf 54 3a 14 bf 75 77 91 be
       0.012919854 -0.8164049 -0.579015 -0.2841145
000380 cd be 4f bd ea ab 45 be d9 b1 c4 be a6 06 ba be
       -0.05071907 -0.19303861 -0.38416937 -0.36333197
000390 71 f7 c9 3d 38 6d ee be 79 55 ab be b3 d3 40 bf
       0.09861649 -0.46567702 -0.33463648 -0.7532303
0003a0 b7 4c 45 be b1 e7 a1 be fb 51 b1 3c ef c8 15 be
       -0.19267546 -0.3162208 0.021645537 -0.14627431
0003b0 01 34 15 bf 5f 70 a8 bd 48 70 8d bd 9c a4 4e bc
       -0.58282477 -0.08224558 -0.069061816 -0.012612488
0003c0 30 a8 03 be 34 9e 2e be 8b 7e af be 68 b7 05 3f
       -0.12857127 -0.17052537 -0.34276232 0.5223298
0003d0 00 5d e9 be 15 72 c9 bd 20 7c 3d bf dd 6a 8d 3e
       -0.45578766 -0.098362125 -0.74017525 0.27620593
0003e0 3c 06 15 bf 94 aa 22 bf c7 78 17 bf 6e 0a 26 be
       -0.5821264 -0.6354153 -0.59168667 -0.16214916
0003f0 77 16 ed be 6b 44 e3 3e 0d 4b 85 3d d3 e6 44 bf
       -0.46306202 0.44388136 0.065084554 -0.7691471

bn1.running_mean f4 [600]
000000 d1 d7 87 bf 63 04 5a 3f dd c2 ce bf fe ab 95 3f
       -1.0612737 0.85162944 -1.6153218 1.1693113
000010 af f8 af bf 0c e4 60 3e 05 92 ea be 92 a5 a4 3f
       -1.3747767 0.21961993 -0.4581453 1.2863028
000020 74 6a f9 bf 65 7b 01 40 ea da 6d 3f 58 d8 b6 bf
       -1.9485612 2.0231564 0.9291216 -1.4284773
000030 2d ac 07 c0 fb 9c e2 3f b3 19 0a c0 e5 f7 91 be
       -2.1198838 1.7704157 -2.1578186 -0.2850944
000040 f2 bd 40 40 30 0d e3 3e a6 a9 63 3f 68 ec c3 3f
       3.0115933 0.44346 0.8893074 1.530652
000050 a4 00 80 3f 89 96 23 40 1a 03 49 be 4e a0 10 c0
       1.0000196 2.556063 -0.1963009 -2.2597842
000060 fc fa bb 3e f1 61 0d 40 32 02 a8 3f e5 c6 07 bf
       0.36714923 2.2091029 1.312567 -0.53037864
000070 2f 53 fe 3f 0e 59 c1 bf 35 b5 29 bd fa 12 9c 3f
       1.9869136 -1.5105302 -0.041432578 1.2193291
000080 ea 9a 91 bd e9 13 d8 3f f6 ac 85 3f e7 f7 10 bf
       -0.07109626 1.6881076 1.0443408 -0.5662827
000090 6a ae 82 bf 23 4b 0a 40 9d 88 c1 bf 3e 23 c4 3f
       -1.0209477 2.160836 -1.5119816 1.5323255
0000a0 4a e8 be bf 9c 62 b9 3e bf 0d f2 bf ca b9 9c 3f
       -1.4914639 0.36208045 -1.8910445 1.2244198
0000b0 dc 0d f4 3e a0 9a 0f 40 c4 11 aa 3e fc 3b 93 40
       0.47666824 2.2438126 0.3321668 4.6010723
0000c0 53 b8 d0 3e 96 bc ea 3e bf 70 2d be 36 41 36 3e
       0.40765628 0.45847005 -0.1693754 0.17798313
0000d0 e9 bc ad bf 82 e7 96 3f e5 1e 79 3e d7 91 b0 3f
       -1.3573276 1.17894 0.24328192 1.3794507
0000e0 34 fd 43 bf 01 d0 9c 3e b2 56 d7 3f 8e 37 55 bf
       -0.7655823 0.30627444 1.6823332 -0.83287895
0000f0 c7 69 93 3f 12 83 25 3f bf c9 0b 40 87 12 80 c0
       1.1516656 0.6465312 2.1841886 -4.0022616
000100 e2 49 07 3d 0d f6 3c 3f 2f af 87 3f 8e d5 87 bf
       0.033029445 0.73812944 1.0600337 -1.0612047
000110 cb 64 db 3f ef 63 d3 bf 26 98 cf 3e 69 a7 ef 3e
       1.7140135 -1.6514872 0.40545768 0.4680741
000120 9b 2d 17 00 af 95 33 40 f4 72 17 c0 1f 8f 65 40
       2.128577e-39 2.806011 -2.3663912 3.5868604
000130 b6 95 e7 bf 3e 31 c1 be 76 bb 9e 3f 1c ff 6b 3f
       -1.8092563 -0.3773288 1.2400959 0.9218614
000140 64 f7 0e 40 ad 99 47 3f bf 43 ff bf 65 7c 3d 40
       2.2338495 0.77968866 -1.994255 2.9607174
000150 44 c2 cf 3f df 29 1a 40 36 42 ae bf 45 03 10 40
       1.623116 2.4088056 -1.3613956 2.2501996
000160 81 97 a5 bf 0a 6b 03 c0 b5 ad bc 3d 58 ab c3 bf
       -1.293686 -2.0534081 0.092128195 -1.5286665
000170 58 78 a1 39 cf 4d 3e 40 f6 49 c1 3e 4a b9 02 bf
       0.00030797976 2.973499 0.3775174 -0.5106398
000180 aa 4a 62 3f 72 93 66 3f 61 9d 9b 3f ac b2 61 3f
       0.8839518 0.90068734 1.2157403 0.88163257
000190 e2 fb 5e bf d4 f1 81 bf f8 26 ee bf 02 1b 26 40
       -0.8710309 -1.0151925 -1.8605642 2.5953984
0001a0 86 dc e6 bf 9c 57 0f 3f 4f 1c bf 3f 62 ac 22 40
       -1.8036048 0.55993056 1.4930514 2.5417714
0001b0 d4 22 f6 3f 6b da c6 3f 79 d1 b1 3d 38 ea 93 40
       1.9229379 1.5535406 0.08682532 4.622341
0001c0 2f 1a ae 3f ba ad c3 3f f3 e7 8a bf 1f 60 a4 3f
       1.3601741 1.5287392 -1.0852035 1.2841834
0001d0 a2 d7 d0 3f c0 7e dd 3f fb e4 55 c0 0b 3d f2 bf
       1.6315806 1.7304306 -3.3421009 -1.8924879
0001e0 4f 04 89 bf 2f a5 a6 bf 8f e9 9b 3f f2 43 cd bf
       -1.070444 -1.301916 1.2180651 -1.603636
0001f0 b6 bf b2 bf de 9a 83 3f 24 5c 8c 3f 5f 0c 6f 40
       -1.3964756 1.0281637 1.0965619 3.73513
000200 24 aa 20 3f 9f 30 9b 3f ab 58 8c 3f 07 93 58 3f
       0.62759614 1.2124213 1.0964559 0.84599346
000210 e0 9d 18 be 35 45 bd 81 cd b2 b3 3e 0b 65 e8 3f
       -0.14903975 -6.952694e-38 0.35097352 1.8155836
000220 2a 05 44 bf 54 75 ff bf 79 77 96 bf 08 7a ff 3f
       -0.7657038 -1.9957681 -1.175521 1.9959116
000230 23 ff c0 3e 42 58 71 bf 7d dd c1 be 1c 53 84 3e
       0.37694654 -0.94275296 -0.37864295 0.25844657
000240 cf 80 dd 3c 7a c5 76 3f 85 24 85 3f 15 3b d8 3e
       0.02703896 0.96395075 1.040177 0.42232576
000250 da b5 c4 3d 45 64 13 bf 8c 50 a4 3f 2a 19 93 bf
       0.09604998 -0.57574874 1.2837081 -1.1492054
000260 54 14 ad 3f 2d 28 8a 40 ec ef 9b 3e 2e 2b a0 bf
       1.3521829 4.3174043 0.30456483 -1.2513177
000270 a4 1b d0 3f 09 7d 64 c0 42 53 95 3f e4 dd 7c bf
       1.6258435 -3.5701315 1.1666033 -0.9877608
000280 ae 2c 34 3f 80 c9 11 c0 0f 18 85 3f 81 0f cd bf
       0.70380676 -2.2779236 1.0397967 -1.6020356
000290 74 6e c1 3f 4c 95 b0 3f b9 af b9 40 e9 75 58 be
       1.5111833 1.3795562 5.8027005 -0.21138729
0002a0 db 50 ac bf 96 ea 07 40 83 6e 70 40 8d 69 6f 40
       -1.3462175 2.123693 3.756745 3.7408173
0002b0 70 87 3c 3f d2 52 cc 3f 86 1f 26 3f 76 6e 69 40
       0.7364416 1.5962775 0.6489185 3.647367
0002c0 5f 2e 10 bd 4e 09 de 3e 6f a4 2b 40 f5 55 c9 bf
       -0.035200473 0.43366474 2.6819112 -1.5729357
0002d0 36 f7 46 bf 36 a7 af bf d5 52 84 40 4d 8b d4 bf
       -0.77720964 -1.3722904 4.1351113 -1.6605011
0002e0 66 f2 fc bf 0c 4a 1b bf ee 5d d1 be 8f 11 77 c0
       -1.9761474 -0.6065986 -0.40891975 -3.8604467
0002f0 11 53 08 3f 0f fc 8c 3f fe 13 0c 3f 5a 2f 97 3e
       0.5325175 1.1014422 0.54718006 0.29528314
000300 b9 82 34 be c9 3f 6e c0 a2 33 22 bf 3d 9e 1c 3f
       -0.17627992 -3.7226431 -0.63360035 0.6117895
000310 41 69 c0 3b 3f 3b 0b 3f 3e 00 c2 be ac 4f 3b 40
       0.0058719222 0.5438728 -0.3789081 2.9267378
000320 88 64 1d c0 a7 73 0d 3f d1 02 59 3f 5a e5 be bf
       -2.459261 0.55254596 0.8476992 -1.4913743
000330 1c 88 37 3e e5 f0 46 bf 3e a7 1e 3e 31 ca 01 3f
       0.17923015 -0.77711326 0.15493485 0.50699145
000340 60 bc 08 40 75 1b 70 be fd af 78 bf 54 24 84 3d
       2.1364975 -0.23447974 -0.97143537 0.064522415
000350 78 e9 db bf 15 e3 d8 bf 73 99 55 bf 30 4f aa bf
       -1.7180624 -1.69443 -0.8343727 -1.3305416
000360 ea 5b 97 3f 67 14 2d 3f 16 e3 af bf 42 5f cd bf
       1.1824925 0.67609257 -1.3741176 -1.6044695
000370 30 85 a9 bf c7 b0 3b 40 52 8f 02 bf f9 6f 3a bd
       -1.3243771 2.9326646 -0.5099994 -0.04551694
000380 c1 93 bc bf 31 38 1e 40 e6 3b ee be 65 27 3e 40
       -1.4732591 2.4721797 -0.46530074 2.9711545
000390 79 0d 0b c0 93 db 1f 40 26 5b ea bf c2 65 f5 bf
       -2.1726973 2.4977767 -1.8309066 -1.9171679
0003a0 e0 24 db 3f a3 19 06 bf 7c b3 18 40 ae 0e 88 be
       1.7120628 -0.5238287 2.3859549 -0.265737
0003b0 9b 61 31 40 e1 33 af 3f 21 3e 30 bf bc b6 15 40
       2.7715824 1.3687707 -0.688448 2.3392782
0003c0 b4 6d 06 c0 c8 72 33 3f 9e 19 e1 3f 00 7b 77 3f
       -2.1004457 0.7009702 1.7585943 0.9667206
0003d0 26 9e 86 bf 4e 04 0a 40 2b 18 18 40 0e 4f 14 c0
       -1.0517013 2.1565127 2.376475 -2.317325
0003e0 5f de 31 3f 4a 34 33 3e bb bd 8a bf cb 7e d9 3f
       0.69479936 0.17500415 -1.0839151 1.6991819
0003f0 6f 0e d8 3f e9 df 9e 3f b9 87 40 be d0 42 05 c0
       1.6879405 1.2412082 -0.18801774 -2.082203

bn1.running_var f4 [600]
000000 a4 9e cd 3e 91 1e 8a 3e be 2b 54 3e 6d c1 bc 3d
       0.40160096 0.26976445 0.20719811 0.092165805
000010 7c 08 43 3e 21 dc 16 3e c7 15 87 3d 7b ee 64 3d
       0.19046205 0.1473241 0.065959506 0.055891495
000020 9b e7 20 3f 8a 73 84 3e 2e 03 70 3e 70 54 ce 3e
       0.628534 0.258694 0.23438713 0.40298796
000030 c1 60 87 3e e3 b6 8d 3e a2 43 90 3e 25 9c 41 3e
       0.26441005 0.27678594 0.281766 0.1890722
000040 f2 c5 cd 3e 6d fe a2 3e 89 3c 11 3e 85 f9 a7 3e
       0.40190083 0.31834736 0.14183249 0.32807556
000050 ca 9a 40 3e d5 95 5d 3e ed 66 a0 3e 15 2d 05 3f
       0.18809047 0.21639188 0.31328526 0.52021915
000060 85 1f ee 3d 40 50 1b 3d 11 a6 b2 3d b1 c0 35 3e
       0.116271056 0.03791833 0.08723081 0.17749287
000070 c1 37 9e 3e f4 bb 8a 3e 5b 3c 2a 3e 3e ad 7e 3e
       0.30901912 0.27096522 0.16624586 0.24870774
000080 31 78 9b 3e f6 f7 81 3e 0a 67 51 3e 9d 7e be 3e
       0.30365136 0.25384492 0.20449463 0.37205973
000090 6f 76 9b 3d 46 89 3d 3e 87 e5 10 3e 52 1b a3 3e
       0.07590949 0.18509397 0.14150058 0.3185678
0000a0 9f 62 a5 3e 54 0e e4 3e 3b a5 68 3e 92 92 bd 3e
       0.32301804 0.44542181 0.2271928 0.37025887
0000b0 4e 22 5c 3e 06 9e 1e 3d 43 29 17 3e 32 64 a5 3d
       0.21497461 0.03872492 0.14761834 0.08075751
0000c0 ba 05 fb 3d 32 0a 3f 3f 87 c4 74 3e 69 1b 29 3e
       0.12256952 0.7462493 0.23903094 0.16514362
0000d0 22 0f 1c 3f f0 13 87 3e 6e 1b 66 3d 13 e1 ab 3e
       0.6096059 0.263824 0.056178503 0.33570156
0000e0 01 ba 7f 3e f5 30 cd 3e 90 30 d1 3e eb 8c 39 3e
       0.24973299 0.40076414 0.40857363 0.18120162
0000f0 c1 b0 c3 3e 10 91 e6 3d 27 c6 ea 3d c5 1d bd 3d
       0.3822079 0.11258137 0.11463576 0.09234194
000100 7f 40 0f 3e ce 38 2b 3e aa 7d 13 3e 19 4b 19 3e
       0.13989447 0.16720888 0.14403406 0.14970054
000110 cb 01 22 3e a7 09 8c 3e 50 3d 0d 3f 5c a8 1a 3e
       0.15820996 0.27351114 0.5517168 0.15103287
000120 04 00 00 00 bc ce 40 3e 75 95 e3 3d cf 79 72 3e
       6e-45 0.18828863 0.11112491 0.23679279
000130 e9 70 a5 3d 6d b2 4e 3e bb 37 45 3e d5 ca 47 3e
       0.080781765 0.20185252 0.1925954 0.19510968
000140 24 1b 8f 3e e8 c7 ba 3e b6 09 63 3d bc ee ad 3e
       0.27950394 0.3648064 0.055429183 0.33971202
000150 62 4c 8b 3e be bd c3 3c 28 b8 55 3e 2f ee 7b 3e
       0.27206713 0.023894187 0.20871031 0.24602579
000160 fa 86 0c 3e 46 be 09 3d 65 ab fc 3d 3f f4 9b 3e
       0.13723364 0.033628725 0.123373784 0.30459782
000170 10 99 96 36 38 d6 bf 3d ad e4 86 3d 51 bf 6f 3e
       4.488167e-06 0.09367031 0.06586585 0.23412825
000180 03 37 40 3e 3e e7 da 3d dd 56 df 3e c9 c4 99 3b
       0.18770985 0.10688637 0.4362096 0.004692648
000190 f7 fa 49 3d b9 c1 50 3e f3 d5 90 3e 2f 0c 12 3e
       0.049311604 0.203864 0.2828823 0.1426246
0001a0 aa c8 8a 3e 50 dc 8a 3c b8 65 14 3e e2 9d 32 3e
       0.2710622 0.016950756 0.14491928 0.1744304
0001b0 82 5e 92 3e ac 3a a9 3e bc 37 43 3e aa 1e ab 3e
       0.2858773 0.33052576 0.1906423 0.33421832
0001c0 52 1a 8f 3e 5a 3d b7 3e 4f c9 da 3d ad 26 e4 3e
       0.27949768 0.35788995 0.10682928 0.44560757
0001d0 a1 21 30 3e 84 77 b0 3e 83 0d 50 3e 25 e8 c3 3e
       0.17200328 0.34466183 0.20317654 0.3826305
0001e0 10 6d 4e 3e b6 14 08 3e 13 91 85 3e a0 77 a8 3e
       0.20158792 0.1328915 0.26087245 0.32903767
0001f0 ea f7 25 3e 23 1f 86 3f e7 01 35 3e c5 3b 58 3e
       0.16207853 1.0478252 0.17676507 0.2111655
000200 2b 6d 93 3e 4e 8b 98 3e b6 c2 97 3e 50 96 f0 3e
       0.28794226 0.2979378 0.2964074 0.4698968
000210 a4 2f a7 3e 04 00 00 00 1f e8 b2 3e eb 07 de 3e
       0.32653534 6e-45 0.3494272 0.43365416
000220 b3 90 6c 3e d4 d8 bb 3d 9b e1 ba 3e d7 32 2e 3e
       0.23102073 0.09172216 0.36500248 0.17011581
000230 ec 84 09 3f 6c c7 50 3e 3e 5a 3b 3f 45 aa 94 3e
       0.5371845 0.20388573 0.73184574 0.29036155
000240 94 c8 80 3d c4 f8 5b 3e fc cc 77 3e e6 93 c0 3e
       0.06288257 0.21481615 0.24199289 0.37612838
000250 5c 7c 8d 3d ea c0 ae 3e af 06 9b 3e bc f3 b4 3d
       0.06908485 0.34131557 0.30278537 0.08835551
000260 a8 40 b9 3e fd 4f 47 3d a9 16 a6 3e 69 e7 d0 3d
       0.3618214 0.048660267 0.32439163 0.10200388
000270 a0 b9 53 3e 3b 42 17 3d 98 a8 d8 3d de 5b 11 3e
       0.20676279 0.036928397 0.10579032 0.14195201
000280 21 33 9a 3e da 17 35 3e 29 31 22 3e 97 52 d2 3d
       0.30117133 0.1768488 0.15839066 0.10269659
000290 21 75 cf 3e 06 53 27 3e 1f 5e 78 3e 21 f8 a1 3e
       0.4051905 0.16340265 0.24254654 0.3163462
0002a0 2c d8 44 3e 5f 29 ae 3e 06 3d 59 3e 98 b0 e5 3d
       0.19223088 0.3401594 0.21214685 0.11215323
0002b0 29 ef 1e 3e 6f e5 10 3f bd 1b 3b 3c 52 5b eb 3d
       0.1552092 0.5660009 0.011420188 0.11492027
0002c0 2d 1a a6 39 d5 2e 9d 3d 6c b4 d5 3e ef 54 b0 3e
       0.0003168149 0.07674948 0.41739213 0.344398
0002d0 a3 f6 15 3f e0 1b 50 3e 18 20 78 3e 07 46 00 3e
       0.5857946 0.20323133 0.24230993 0.12526713
0002e0 01 19 32 3e f7 0f e8 3c 71 33 3b 3e ea 65 77 3e
       0.1739235 0.028327925 0.18281342 0.24159971
0002f0 04 18 00 3f 63 7b de 3e 8c 85 94 3e 33 ec 17 3e
       0.50036645 0.43453512 0.29008138 0.14836197
000300 cc 62 c5 3e d6 55 10 3e ad 58 e1 3e 44 0a 45 3e
       0.3855194 0.14095244 0.44012967 0.19242197
000310 8b b8 f0 3e 31 30 24 3e b9 0e 2d 3e 63 4a fd 3d
       0.47015795 0.16034009 0.16900147 0.12367704
000320 4c b2 7d 3e d9 4a 52 3e aa 56 73 3e ff e0 05 3e
       0.24775046 0.20536365 0.23763528 0.1307411
000330 5e 79 d0 3e a9 3f 40 3e be 38 68 3d 2d 55 92 3e
       0.40717596 0.18774284 0.05669474 0.2858061
000340 7c 3b ff 3d 6f 47 80 3d 3b ba 91 3e a6 e0 de 3d
       0.124625176 0.06263625 0.28462395 0.10882692
000350 8e 97 7b 3e e2 9b 31 3e 8a e4 4c 3e 6d 99 bf 3e
       0.24569532 0.17344621 0.20009056 0.37421742
000360 ce 4c 27 3e 13 7f 20 3e 66 3c 6b 3e 1f 40 9b 3d
       0.16337892 0.15673475 0.22972259 0.075805895
000370 42 bd 6b 3e 96 b1 99 3e 9f 43 39 3e da 10 44 3e
       0.23021415 0.300183 0.18092202 0.19147053
000380 d7 bb 94 3e 79 35 68 3e db ce 6d 3e a0 c1 59 3e
       0.2904956 0.22676648 0.2322344 0.21265268
000390 39 cf a5 3e d3 e4 04 3e 6b f1 48 3e 5d 0c 8c 3e
       0.3238466 0.12977915 0.19623344 0.27353182
0003a0 c3 ba 63 3e 9d 42 6c 3e 64 00 36 3e e1 71 d7 3e
       0.22239213 0.23072286 0.17773587 0.4207907
0003b0 17 21 9b 3e b2 2a 23 3e d8 91 3b 3e d3 31 ae 3e
       0.30298683 0.15934256 0.18317354 0.34022388
0003c0 22 11 05 3f 3b 0e 51 3e fa 2b 16 3e 1c a1 60 3b
       0.5197927 0.20415585 0.14665213 0.0034275716
0003d0 ec c5 15 3f 29 99 8b 3e ac 69 8a 3e 9f b8 dc 3d
       0.5850513 0.2726529 0.27033746 0.10777401
0003e0 ea 4e 4d 3e a6 63 3e 3e 13 3c 00 3f 7a bc 81 3e
       0.20049635 0.185927 0.50091666 0.2533911
0003f0 de 3d 71 3e cd c3 9d 3b 9f c6 99 3e cb 1c 4f 3e
       0.23558757 0.004814601 0.30034348 0.20225827

fc2.weight f4 [300, 604]
000000 d8 91 1e bd ad f8 c2 3d 6f 8f 5a be 70 1f d9 bc
       -0.038713306 0.095200874 -0.21343778 -0.026504248
000010 80 64 16 3e bd 73 df be 35 f8 a2 be a2 2b 5c 3f
       0.14686775 -0.4364299 -0.31829992 0.8600408
000020 a3 38 98 3e d4 47 04 3d ce a8 df be 60 57 eb bc
       0.2973071 0.032295063 -0.43683475 -0.028728187
000030 70 bb 21 3e 33 c2 8c 3e ab 2d 4d be c3 32 89 be
       0.15794158 0.27491912 -0.20036952 -0.2679654
000040 1d fe d6 bc 8c ac 40 be 50 c6 24 3e ad 60 6d be
       -0.026244218 -0.18815821 0.16091275 -0.2318141
000050 e6 4a 76 3e 92 e7 06 bf fb 20 2d be 99 fd 93 be
       0.24052009 -0.526971 -0.16907112 -0.28904417
000060 b2 9e b1 bd 48 7f 21 be 66 95 ae 3e ca 70 d0 be
       -0.08672847 -0.1577121 0.34098357 -0.4071105
000070 0b 66 a9 3e 0f e0 58 bd a7 9d 08 be 0c 96 97 bc
       0.33085665 -0.052948054 -0.1334139 -0.018504165
000080 94 f7 6b 3e c9 2a 4b bc bc ad d7 be f8 00 9b 3e
       0.23043662 -0.0124003375 -0.42124736 0.30274177
000090 69 e6 4a 3f 61 71 09 3e 5d 28 f0 bd f7 bb b5 3d
       0.7925783 0.13422157 -0.11726449 0.08873742
0000a0 12 47 14 be 64 5f 01 3e d3 79 ae be 2a 4e f8 bd
       -0.14480236 0.12634045 -0.3407732 -0.121242836
0000b0 4d fd 76 3e 15 06 4f be 6b e8 ad 3e 3c 5d b7 bd
       0.24120064 -0.20217164 0.33966383 -0.0895333
0000c0 bf 4b 29 3e 26 c0 10 bd 5b 92 23 bf 77 99 11 bd
       0.16532801 -0.035339497 -0.63895196 -0.035546746
0000d0 13 26 0e bc 70 65 45 be 71 ef 62 3e fb 75 83 be
       -0.00867607 -0.19276977 0.22161652 -0.2567595
0000e0 3d 82 a1 3c e4 0c 1f 3e c0 89 99 3e 77 82 f6 be
       0.019715423 0.15532261 0.29987907 -0.48146412
0000f0 f1 43 77 bd 8a d5 90 3e ee 84 35 bf d0 b6 70 00
       -0.06036753 0.28287917 -0.7090596 1.0351156e-38
000100 a6 8e ac be cf ac 63 bc 2b 71 80 3e fe 43 24 3d
       -0.33702582 -0.013896181 0.2508634 0.040103905
000110 00 a0 ca be 4e dd a2 bd a0 57 d9 3b 73 cc 2d bf
       -0.39575195 -0.07952367 0.00663276 -0.6789009
000120 88 bb 60 80 14 4c d4 be 2e d6 e7 3e fa fe fb 3c
       -8.883481e-39 -0.41464293 0.45280594 0.03076123
000130 f1 5e 14 be de b7 8b 3a bd 42 09 3e 81 fb 27 3e
       -0.14489342 0.0010659655 0.13404365 0.16404535
000140 d9 a6 6c be 1b 23 89 be 02 86 b9 3e 6a 9f d1 be
       -0.23110522 -0.26784596 0.36235052 -0.40941936
000150 49 d5 ba bd f9 d8 0a 3d 07 5a b2 3d cf 66 9a 3c
       -0.09122712 0.033898327 0.087085776 0.018847851
000160 c2 57 a8 bc 2d 85 e9 3d c4 b2 ab bd 16 7f cd bd
       -0.020549659 0.114023544 -0.08383706 -0.10034005
000170 32 4f b2 25 64 7d c4 bd 89 ec 59 be d3 83 65 3d
       3.0931743e-16 -0.09594229 -0.21281637 0.05603392
000180 7d 2c 04 3e 4b 05 d2 3d cf 69 af bc 17 1e 94 3d
       0.12907596 0.10254916 -0.021412758 0.07232302
000190 1e 4b 37 bf e3 d4 39 3c e7 90 34 3e 28 f8 a3 3c
       -0.71598995 0.01134226 0.17633401 0.020015791
0001a0 df b7 a0 be 76 76 e4 3d 4f 45 71 3d 13 3b 94 3e
       -0.31390283 0.11155407 0.05890399 0.2895132
0001b0 83 8d 71 3d 0f 59 0e bd 85 3c b6 be 24 03 8a be
       0.058972847 -0.0347529 -0.35593048 -0.2695552
0001c0 c1 3a d0 bc 9c 5e 92 be 79 5f a5 bd f0 eb 2b 3e
       -0.025418641 -0.28587806 -0.080748506 0.16789222
0001d0 62 ac 58 bd 91 e9 49 bd 17 b1 18 3d 82 8c 7f be
       -0.052898772 -0.049295012 0.03727826 -0.24955943
0001e0 e6 34 80 be 17 c3 54 bf 84 d7 b3 3d 17 c5 c8 3d
       -0.25040358 -0.83110183 0.08781341 0.09803217
0001f0 65 9f b8 3c f0 47 8c 3e 3b cb 70 be 69 5d d9 3c
       0.022536943 0.27398634 -0.23515026 0.0265338
000200 87 cc 4e be 69 3b 3f 3c 66 81 82 be ba 06 0f 3d
       -0.20195208 0.011671879 -0.25489348 0.034918524
000210 2b 59 56 3d 20 74 b9 00 61 09 22 bd 96 3a 82 be
       0.05233113 1.7031225e-38 -0.039559726 -0.25435323
000220 c2 78 94 be 07 4e ab be 30 56 83 be aa bf 52 3c
       -0.2899838 -0.33457968 -0.25651693 0.012863079
000230 7a 77 38 be 1f 7f 89 bd a5 23 b0 bc be 8a f4 3d
       -0.18014327 -0.067136995 -0.021501372 0.119405255
000240 b8 00 0b 3e 15 13 34 3d f2 67 da bd bf 09 94 be
       0.13574493 0.04396351 -0.10664357 -0.28913686
000250 31 73 09 3e 08 d6 b4 bd 03 9f 95 be b3 0a 8e 3d
       0.13422848 -0.08829886 -0.2922288 0.069356345
000260 80 c6 a2 3c 54 b1 14 3e 68 b7 e6 3d a9 c6 88 bd
       0.019870043 0.1452077 0.11265451 -0.066785164
000270 3e 3a 21 be ca 49 24 be 9b 39 eb bd 62 f9 d2 bd
       -0.15744874 -0.16043773 -0.11485597 -0.10301472
000280 1b d3 05 bd 35 7a 4f be cf 48 27 3e 1a cd 95 3c
       -0.03267203 -0.20261462 0.16336368 0.018286277
000290 a8 41 93 be 03 d3 0f 3e 77 4f 96 be d1 eb a7 be
       -0.2876103 0.14045338 -0.29357502 -0.327971
0002a0 d8 76 ed 3d f4 fe d8 3d bc 6b 8d be 3d 8a 9a bd
       0.11594933 0.105955034 -0.27621257 -0.07545898
0002b0 f7 6a 22 3d 83 0b 28 bf 2a 6d bb 3d 21 37 8e be
       0.03965279 -0.65642565 0.09151681 -0.27776435
0002c0 90 b4 33 3a 27 f9 a2 be c3 a5 b7 bd 4e ff 5a be
       0.0006855214 -0.31830713 -0.089671634 -0.21386454
0002d0 45 d8 ab 3e 98 d4 3a bf 48 a4 92 bd 18 b0 1a 3e
       0.33563438 -0.7298064 -0.071602404 0.15106237
0002e0 77 76 cd 3d 69 bc 74 3e cf 08 3a 3b 43 f6 1a be
       0.10032361 0.23899998 0.0028386598 -0.15133004
0002f0 96 0a ba 3e 56 42 8f be cb ca 6a bc 2e 5e 1e 3d
       0.363362 -0.27980298 -0.014330576 0.038664035
000300 a8 96 b8 3e 08 6b 0d be 52 c4 9f 3b 30 57 53 3e
       0.36052442 -0.1381036 0.004875698 0.20638728
000310 4b 71 8a be 64 2c 1d bc 14 ff e7 bd 10 27 24 3e
       -0.2703956 -0.009593103 -0.11327949 0.16030526
000320 4a e3 be be 93 62 76 3d 98 b6 f1 3d bf 34 9b 3e
       -0.37282783 0.0601526 0.11802405 0.3031368
000330 ad ef 89 bd 22 5d 61 3e f8 c3 c3 3d 9f dd 86 3e
       -0.06735168 0.22008184 0.095588624 0.26340958
000340 9b ad ad 3e 23 ad 1f 3e ff 27 e3 3d d1 d1 4e 3d
       0.33921513 0.1559339 0.11091613 0.050493065
000350 ef 3f 8e 3d 2f b2 ac be aa d2 6c be c7 36 57 be
       0.06945788 -0.33729693 -0.23127237 -0.2101699
000360 da 77 3c be 8f ee 6b 3e 86 dc 49 3e 28 97 85 bd
       -0.18405095 0.23040222 0.1971303 -0.065229714
000370 cf 3d 08 3c ea 84 40 be 2c d8 c8 be fe 23 93 bd
       0.008315518 -0.18800703 -0.39227426 -0.07184599
000380 de 8f cd be 39 27 0e bf c6 2b 04 be 2a 28 21 3e
       -0.40148824 -0.555286 -0.12907323 0.15737978
000390 b6 37 62 be e7 bc bb 3e 42 c4 8f 3d 2f 24 fd be
       -0.22091565 0.3666756 0.07019855 -0.49441668
0003a0 4b a8 fb be 32 6c db 3e 95 de 2b 3e 97 a1 9f 3d
       -0.49151835 0.42855984 0.16784127 0.07794493
0003b0 ce 3a 85 bd 25 11 16 be 1d aa ae 3d d6 42 22 3e
       -0.06505357 -0.14654978 0.0852854 0.15845808
0003c0 1b 8b 52 bd 42 f3 02 bf 5f 2e 98 3b 62 9e c4 3d
       -0.051402193 -0.5115243 0.0046441997 0.096005216
0003d0 05 44 9d be c4 1d d1 3d 1e 16 cc bd 2c a1 29 bd
       -0.30715957 0.102107555 -0.09965156 -0.04141347
0003e0 73 88 c3 bd e7 67 2d bd b9 02 45 be 99 b4 0a 3f
       -0.0954751 -0.042335417 -0.1923932 0.5418182
0003f0 78 49 f6 be 1c 20 16 3d 16 7e 27 3e 7b b3 cd 3d
       -0.48102927 0.036651716 0.16356692 0.10043999
