assault_ram/assault_ram_340.pt (torch_old, 270667 bytes, 6 tensors)

fc1.weight f4 [200, 128]
000000 00 79 2d ba fc 68 83 3e d9 5e df be 1d 38 85 bd
       -0.00066174567 0.25666034 -0.4362705 -0.065048434
000010 d6 70 0b bd ac 2a c2 3c 40 8a e5 ba 2e 03 8f 3e
       -0.034043156 0.023701988 -0.0017512515 0.27932113
000020 45 37 be be 4f d6 4f be 89 2d 9e be 5e 56 0e bd
       -0.37151542 -0.20296596 -0.30894116 -0.034750335
000030 80 41 d9 bd 90 c5 6f bd 9f 3d 15 bd 40 94 56 3b
       -0.10608196 -0.05853802 -0.03643572 0.0032742172
000040 d0 99 33 3e 26 c5 5c be 9d a1 bd be b1 3e 9d be
       0.17539144 -0.21559581 -0.37037364 -0.30711892
000050 a6 7f 03 3d 50 c4 44 3d e8 03 95 bc 8c ef 8d bd
       0.032104157 0.04803878 -0.01819034 -0.069304556
000060 c8 eb 94 3c 6b db 45 bc 1a 74 2f 3e c5 9f 4c bd
       0.018178836 -0.012076239 0.17134133 -0.049957056
000070 c4 ec 48 bd 98 93 d6 bb c8 65 8c bd 14 b6 5d 3d
       -0.049053922 -0.0065483563 -0.06855351 0.05412872
000080 e4 a6 a1 bd 90 bb 7d bd 18 53 b5 be 3c b3 09 3d
       -0.0789316 -0.06194645 -0.35414958 0.033618197
000090 d8 12 0a 3d c1 4b 20 3e 88 7a 41 3e 5b 9d 71 be
       0.033709377 0.15653898 0.18894398 -0.23595183
0000a0 c8 96 88 bc e6 1f 89 bd 70 01 75 3c 11 56 d5 bd
       -0.01667346 -0.06695537 0.014953956 -0.104168065
0000b0 d5 80 a9 bd ca 0d 8a bd 9a a9 15 3d 42 9c f5 3c
       -0.08276526 -0.06740911 0.036538698 0.029981736
0000c0 3a af 05 3d 14 13 4c be 19 59 41 be 07 fb 75 bd
       0.032637812 -0.19929153 -0.18881644 -0.06005385
0000d0 7d f2 91 bd d8 98 1f bd 0c 6e ab 3d 73 20 42 bc
       -0.07126329 -0.038964123 0.08370599 -0.011848557
0000e0 0c d7 2e 3e 13 63 e5 bd 8a ec 7a bd f2 05 3b bd
       0.17074221 -0.112005375 -0.061260737 -0.045659967
0000f0 15 f8 c6 be fc dd f2 3c a6 9c 56 be 4c ed 20 be
       -0.38861147 0.029646866 -0.20958194 -0.15715522
000100 c6 bf 46 3d dd 55 06 bd ae c8 51 3e 76 9b bf be
       0.048522733 -0.03279673 0.2048671 -0.37423295
000110 dd 8b 90 be ca 05 6d be c0 b0 3e bd d1 8e 15 bd
       -0.28231707 -0.2314674 -0.04655528 -0.036513153
000120 86 72 19 bd 7b ff 25 bd d8 68 62 3d 54 dd a7 3d
       -0.037462734 -0.04052685 0.055275768 0.08196512
000130 18 1a 90 3c 49 69 9d bd 28 38 05 3c 4b 7e 62 bd
       0.017590567 -0.07686097 0.0081310645 -0.055296224
000140 02 47 d9 bd 3d 38 29 3e cb a3 89 3d 22 e4 e0 bd
       -0.10609247 0.1652536 0.06720694 -0.10981013
000150 ec 86 87 3c eb a0 15 bd 66 5e 47 3e 13 5d 7e bd
       0.016543828 -0.036530416 0.19469604 -0.06210048
000160 56 ae d6 be a7 89 97 bd a5 d4 a2 3e 3c e5 bc 3c
       -0.41929883 -0.07399302 0.3180286 0.023058526
000170 39 77 8b 3e a8 1d 50 be 45 29 b3 bd 76 da 6a bd
       0.27239397 -0.20323813 -0.08748106 -0.057337247
000180 76 c5 34 3d e4 8c 97 3c d6 35 8d bd c1 8d 94 bd
       0.044133626 0.0184998 -0.06895034 -0.072536
000190 fa f2 7b 3d e6 ea 44 bd 95 c1 74 be 0c cc 87 be
       0.061511017 -0.04807558 -0.2390197 -0.26522863
0001a0 36 31 39 be 64 08 3e be a7 f4 41 be 2d 8d 1c be
       -0.18085179 -0.18557888 -0.18940984 -0.1528823
0001b0 69 ef ba bd e8 6e 59 3c e0 6f 61 be 1b d9 ea 3c
       -0.09127695 0.013271071 -0.22015333 0.028667977
0001c0 8f 50 5c bd 65 40 a4 3d 08 1c c2 3d 88 b1 2e be
       -0.053787764 0.08020095 0.09478003 -0.1705991
0001d0 64 c1 d0 bc 60 b0 82 3b 90 49 53 3c 88 bb ab 3c
       -0.02548284 0.0039883107 0.012895957 0.020963445
0001e0 3f 2f 2b 3e b9 9e 8a bc 0d 75 3f 3d 46 66 a1 3c
       0.16717242 -0.016921388 0.046742488 0.019702088
0001f0 40 e3 15 bf 23 89 94 bd b4 bd 9e bd db 1d 82 bd
       -0.5854988 -0.07252719 -0.07751027 -0.06353351
000200 72 4e fd bc 1a bb de bd 53 3c 2c bd b4 c6 9a 3c
       -0.030921195 -0.108755305 -0.042049717 0.018893577
000210 16 db 6b bd 00 a3 94 bb 35 95 81 3d a2 ef 37 bd
       -0.057581984 -0.0045360327 0.06327287 -0.044906266
000220 05 27 a4 bc ef 05 fe 3c 10 b4 84 3d 8f 55 39 3d
       -0.020038137 0.031008689 0.06479657 0.04524761
000230 8a 77 9e 3d 2e ea 65 3d b9 dc ab 3d 40 77 d1 bb
       0.07737644 0.056131534 0.08391709 -0.0063923895
000240 01 46 75 bd c9 23 59 bd 05 bb a4 3d 5d 69 3f bc
       -0.059881214 -0.053012643 0.08043484 -0.011682835
000250 33 f3 33 bd 55 e0 a2 bd 46 68 a9 bd 26 9e a8 bd
       -0.043933105 -0.07952944 -0.08271842 -0.082332894
000260 d5 b7 22 bc cc b1 2c 3d d4 07 5e 3d d3 2d 0b be
       -0.009931524 0.042161748 0.054206684 -0.135917
000270 8f 8c 3f 3d 47 58 cb bd ab 92 f2 bc c1 94 2c bd
       0.046764906 -0.09928947 -0.029610952 -0.04213405
000280 ef b6 bf bc c0 be ff 3b 81 af 63 bd 56 0f d8 bd
       -0.02340266 0.0078047216 -0.055587295 -0.105498
000290 0c af 1d bd 17 6e 58 bc e6 26 1d bd d1 ec 47 3c
       -0.038497016 -0.013209841 -0.038367175 0.0122024575
0002a0 ef 07 b2 bd 34 c3 49 bc 21 31 9f 3d 38 b0 2d bd
       -0.086929195 -0.012314606 0.077730425 -0.042404383
0002b0 60 41 8b 3d 35 ff d0 3c ff f8 ba bd 16 72 4a 3d
       0.06799579 0.025512317 -0.091295235 0.049425207
0002c0 33 74 e8 bc 98 10 55 bd e1 90 70 3d 81 d2 9d bd
       -0.02837572 -0.05201778 0.058731917 -0.07706166
0002d0 54 42 5b bc 25 e4 f6 bc b7 97 79 3d 57 3a a5 3c
       -0.013382513 -0.030138085 0.060935702 0.02016942
0002e0 b2 22 28 3d 21 a0 21 3d 4c 1f ae bc 04 47 98 bc
       0.041048713 0.03945935 -0.021255158 -0.01858855
0002f0 b6 3f b1 bd f5 8d 5e 3d 5d 65 bd 3d be 9c 83 3d
       -0.0865473 0.0543346 0.09247849 0.064263806
000300 cc 5f 7f bd 42 c6 1d bb f2 13 b3 bd ce 59 30 bd
       -0.06234722 -0.002407447 -0.08744039 -0.043054394
000310 8d 8b fb bc 5c 84 19 3d b5 bd 31 bd 3b 66 74 bc
       -0.030706191 0.037479743 -0.04339381 -0.014916952
000320 0d ff 91 bd 9d 7a ad 3d cb d6 95 bd cb 9b da bd
       -0.07128725 0.08470652 -0.07316359 -0.106742464
000330 d0 38 52 bd 2a 67 7d 3d e6 23 02 bd 11 b0 98 3d
       -0.051323712 0.061865963 -0.031772517 0.07455457
000340 03 f9 69 3d 77 e1 5c bc 80 7b 2c ba d8 26 c3 bc
       0.05712224 -0.013481489 -0.0006579682 -0.023822233
000350 d8 b1 35 3c b0 5a d9 bc 57 0f 15 bd 41 7d a1 3b
       0.011089765 -0.026532501 -0.036391582 0.0049282615
000360 2d ec cc bd 5f c3 57 bd 9b 5a bd 3d 96 e8 9f bd
       -0.100059845 -0.052676555 0.09245797 -0.07808034
000370 4d 28 34 bd 09 a3 89 3d 22 c8 02 3d c0 01 24 3b
       -0.043983746 0.067205496 0.031929143 0.0025025457
000380 87 df 9c bd 92 58 33 3d c4 ef 80 bd 7f c7 00 bd
       -0.07659822 0.04378564 -0.06295732 -0.031440254
000390 0f 7a 13 bd fb e9 57 bb a3 73 f7 3c 10 71 a9 3d
       -0.036005076 -0.003294586 0.030206507 0.08273518
0003a0 c6 7f cd bd ac ee 10 3e 9d e3 9a 3d b4 67 80 bd
       -0.100341365 0.14153546 0.07562945 -0.0626978
0003b0 b2 41 d0 3b 78 ec 7f bd 6c c1 1d bd 9c 9b b5 3c
       0.0063554877 -0.062481374 -0.03851454 0.022168927
0003c0 a8 15 ef 3c 47 ce 87 3d 8b cc ec bc 4f a1 0e bd
       0.029185131 0.06631141 -0.028906127 -0.034821805
0003d0 e3 b8 22 3d f8 0f af bd 9b df 82 3d 5f b0 95 bd
       0.039727103 -0.08547968 0.063903056 -0.07309031
0003e0 a9 59 f1 bc 03 94 ae bc 02 9d 14 bd 7f e0 ac 3b
       -0.029461699 -0.021310812 -0.036282547 0.0052757855
0003f0 3c c6 90 3d 5b 9f 03 bd f2 5a 42 bd 41 8f 1f bd
       0.0706906 -0.032134395 -0.047450013 -0.038954977

fc1.bias f4 [200]
000000 25 e2 df bb 94 2d f3 bc 34 b0 a2 3b 75 67 56 bd
       -0.0068323785 -0.02968482 0.0049648527 -0.052344758
000010 1c e5 12 be 5b 8a 1a bd 39 1c ac bd 86 3e 5e 3d
       -0.14345211 -0.037729602 -0.084038205 0.054258846
000020 4c 48 93 bd 6f 03 8d 3d 29 49 b2 bd 27 0c 9f 3c
       -0.07191524 0.068854205 -0.087053604 0.019414974
000030 48 a0 09 3d b2 a3 c3 bd 97 04 84 bc a1 78 42 3d
       0.03360012 -0.09552707 -0.01611547 0.047478322
000040 65 a3 94 3d 6d 13 b4 bd 8f f6 31 bc 37 2a 36 3d
       0.072577275 -0.08792768 -0.010862007 0.044473853
000050 21 81 52 bd 4a 33 83 3d a1 a1 67 bd f6 9e 17 3d
       -0.05139268 0.06406267 -0.056550626 0.03701683
000060 31 be c3 3c 0f a1 81 bd 7d bc 86 3d 60 9c 8d 3c
       0.023894401 -0.063295476 0.0657892 0.01728648
000070 ad 13 b1 bc 4b 9d a7 3c 0b 83 fa 3c 97 9c ed bc
       -0.021615827 0.020460745 0.030580064 -0.029005332
000080 bd 80 32 bd e2 89 33 3d d2 c3 7b bd e0 0a ad bd
       -0.043579806 0.043832667 -0.061466046 -0.0844934
000090 ec ae 21 bd e6 b7 93 bd f8 87 d9 3c ce be 04 bd
       -0.03947346 -0.0721281 0.026554093 -0.032408528
0000a0 3e 9f 10 3b 74 ec 30 bd a3 71 54 3c b4 c5 79 3d
       0.0022067572 -0.04319425 0.012966546 0.06097956
0000b0 9d ef d1 bc 54 11 5e 3d e1 82 20 3d b6 c4 b4 bd
       -0.025626952 0.054215744 0.039187316 -0.08826582
0000c0 d8 fd 2f bc 2b 5c 50 bd 6c 88 9c ba 6c 0b e1 3c
       -0.010741673 -0.05086915 -0.0011942512 0.027471267
0000d0 ff 27 c5 bd 73 98 8c 3d d8 c5 88 bd f8 2d bd bd
       -0.09626769 0.06865015 -0.06678361 -0.092372835
0000e0 04 b1 85 bc cf e3 96 3c b9 e6 72 3d f6 72 1d bb
       -0.01631976 0.018419174 0.059302066 -0.002402482
0000f0 20 87 28 3c 2c 50 ca bd 93 2e bc bd ce 09 ec 3c
       0.010286123 -0.09878573 -0.09188571 0.028813269
000100 e6 55 cc bd a1 3c ec bc 31 69 84 bb fc de b9 bd
       -0.09977321 -0.028837504 -0.00404086 -0.09075734
000110 37 64 8e 3c 62 17 4f 3c fc 36 5c 3d 92 52 e4 3c
       0.01738177 0.012639852 0.053763375 0.027871404
000120 04 16 b3 bd c0 42 78 3c a6 25 16 3d 01 f5 d3 3b
       -0.087444335 0.015152633 0.036656998 0.0064684157
000130 f3 f8 3a 3d 61 28 d6 bd b4 8d b6 3c df 77 65 3d
       0.045647573 -0.104569204 0.022284366 0.05602252
000140 c0 5d 11 bd 8a 1f 87 3c 55 f6 1a 3b a9 86 2e bc
       -0.035489798 0.016494531 0.002364536 -0.010652223
000150 cc 28 0c 3d 96 48 a1 bb fa 79 d6 bd ca a5 99 bc
       0.034218594 -0.004921983 -0.10472484 -0.018755812
000160 42 80 8a bd 5f 8c 25 3d 71 1f 53 bd 2b ea 8b bd
       -0.067627445 0.04041707 -0.051543657 -0.06831773
000170 76 cd 30 ba 83 c7 81 bc 88 0f 4e bd ea 7f ad bd
       -0.0006744483 -0.015842205 -0.05030778 -0.08471663
000180 ed 66 7e bc aa 45 9d 3c 86 49 76 bc 9d d7 32 bd
       -0.015527469 0.019198257 -0.015032178 -0.043662656
000190 d6 de de bd 55 b7 89 bd 67 60 8f bd d4 1e 65 3d
       -0.10882346 -0.06724421 -0.07000809 0.055937603
0001a0 21 01 43 bd c9 03 32 bd 1b 88 50 bd 70 a8 46 bd
       -0.0476085 -0.04346064 -0.05091105 -0.04850048
0001b0 db 39 50 3d fb c3 a3 bc 20 38 84 bd 4c 4a 4a bd
       0.050836425 -0.019990912 -0.064560175 -0.04938726
0001c0 8a a9 31 3d 20 0e 93 bc 05 e0 be bd 93 40 8e bd
       0.043374576 -0.017951071 -0.09320072 -0.0694591
0001d0 99 7a 3c bc e0 ea 64 3c 1b 32 06 bc 87 d2 94 3c
       -0.011503839 0.013972014 -0.008190657 0.018166794
0001e0 a5 44 a9 bd 1e 04 97 3c d5 59 1d 39 b3 0c c3 bd
       -0.08265046 0.01843458 0.00015006152 -0.095239066
0001f0 3f 42 59 bc 87 14 41 3d 55 ba 69 bc 06 a1 14 bd
       -0.013260423 0.047138717 -0.014265616 -0.036286376
000200 46 6b f8 3c 3f 17 61 3d 89 e9 c5 bc 3b 73 42 3d
       0.03032459 0.05495381 -0.02415921 0.047473174
000210 60 d4 31 bd 64 5b 5f 3d 2d 18 ae bd 88 3e b6 bd
       -0.043415427 0.054530516 -0.08500705 -0.08898646
000220 d9 65 ce bd e3 00 b6 3c fe 7b 85 ba a6 b9 76 3d
       -0.1007802 0.02221722 -0.0010184047 0.060235642
000230 c0 10 27 3d 18 d3 32 3d 8e 03 73 bd a7 2f 43 bd
       0.04078746 0.043658346 -0.059329562 -0.047652867
000240 10 e4 73 bc 66 a3 62 3d c1 0b 53 bd 40 05 c7 bd
       -0.014885917 0.05533161 -0.05152488 -0.09717798
000250 9a 61 dd 3c 99 7f 7e 3c 11 32 8e 3d 3b 70 b1 3d
       0.02702408 0.015533351 0.06943143 0.086639844
000260 76 72 7b 3b 30 22 c7 bd 42 23 9b bb 4d 0d 58 bd
       0.0038367785 -0.097233176 -0.0047344277 -0.05274706
000270 0d 5b 81 3d 41 75 9d bd 08 3b 95 bd 4b d9 34 bd
       0.06316195 -0.0768838 -0.0728665 -0.04415254
000280 ff 28 f7 bc e8 40 73 bd 6e 7a 43 3d 13 11 9c 3c
       -0.030170916 -0.05938807 0.04772418 0.01905111
000290 dd ce 59 bd 4c 49 9a 3b 8d b9 9d 3d 56 3b 65 bd
       -0.053175796 0.0047084447 0.07701407 -0.05596479
0002a0 58 ff 0a bd 29 d7 b6 3b 41 03 b2 bb 90 3c b1 bd
       -0.03393492 0.0055798483 -0.005432517 -0.086541295
0002b0 8c e7 85 bd f2 0d 74 3d b7 2d 16 bd 04 4e 72 3d
       -0.06538305 0.05958361 -0.03666469 0.059156433
0002c0 6c 46 1c 3d b5 42 80 bd e9 88 c6 bc 68 a3 32 3d
       0.038153097 -0.06262723 -0.024235206 0.043612868
0002d0 bd 77 b9 bd 25 07 e0 3b a0 15 a5 3b 7a 4b da bc
       -0.090560414 0.006836789 0.0050379783 -0.026647318
0002e0 8e 3e ba bd d7 72 95 bd c6 6a 61 3c 43 9f 9a bd
       -0.090939626 -0.072972946 0.013758367 -0.07549908
0002f0 ae ac 8e bd 41 24 90 bd d9 26 4c bc c4 1c cc bb
       -0.0696653 -0.07038165 -0.012460434 -0.006229015
000300 8d 76 38 bd 86 95 29 bb 4e b4 7e 3d 77 86 1a bd
       -0.045034934 -0.0025876476 0.06218367 -0.037725892
000310 19 37 1b bc 3e a9 a6 bd 23 bf 7b bc 66 bd 77 3d
       -0.0094735855 -0.08137749 -0.015365395 0.06048336

fc2.weight f4 [200, 200]
000000 f7 be 9e 3d 45 2b cf bd 6e 42 fc bc 7c 20 d1 ba
       0.077512674 -0.10115675 -0.030793395 -0.0015955116
000010 d9 ab 2b be cf 39 d2 3d 40 9c 4a 3d c4 31 55 bd
       -0.16764773 0.10264932 0.049465418 -0.052049413
000020 ac 87 41 3d 96 ec f1 bb b2 68 f9 bd 2c 30 17 3d
       0.047248527 -0.0073829396 -0.12178172 0.036911175
000030 52 60 92 bd 49 e0 78 bd 94 3c 36 3c 10 10 3c 3d
       -0.07147278 -0.06076077 0.011122841 0.045913756
000040 6b ca 6c 3d 11 f6 cb 3b 8b d9 5e 3d d4 02 a0 3c
       0.05781023 0.0062244018 0.054406684 0.019532599
000050 d2 a9 16 3d 95 f5 1d bd ed 76 b7 3d 09 90 4a 3b
       0.036783047 -0.038564283 0.0895823 0.0030908606
000060 67 2e 98 3d 88 c6 1a bd 84 b1 63 bc 48 c0 13 3c
       0.074307255 -0.03778699 -0.0138973035 0.009018011
000070 b4 70 60 3d 5f f1 8c 3b 9d ca 48 bd 03 48 c2 3b
       0.054794982 0.0043012346 -0.049021352 0.0059289946
000080 14 c7 11 bd 82 1b a2 bc 81 84 bd bd 45 55 3e bc
       -0.035590246 -0.019788507 -0.09253789 -0.0116170095
000090 e8 02 80 bd 20 67 13 3d 30 1b d1 3c 5a 5c 42 bc
       -0.06250554 0.03598702 0.02552566 -0.011862839
0000a0 05 63 48 3d 85 5f 8d b9 98 d1 c7 bc 5d fe a3 bc
       0.048922557 -0.00026964783 -0.024391934 -0.02001875
0000b0 34 87 45 3d 42 2c cc bc f6 f1 89 3c ed e9 38 bd
       0.048224643 -0.024923448 0.016839009 -0.045144964
0000c0 94 52 07 bc a1 bf 7e 3d 33 18 09 bc f4 4d 68 3c
       -0.008259434 0.06219447 -0.008367586 0.014178742
0000d0 3a 20 35 3b 37 93 10 be 34 2f 11 bd 64 8b e4 bd
       0.0027637617 -0.14118658 -0.035445407 -0.11159399
0000e0 d9 14 a8 3c e8 c3 3b bc 4e a1 94 3d dc fc 1f 3d
       0.020517753 -0.011460282 0.07257329 0.039059505
0000f0 38 c7 06 bc 42 66 07 3d 2b 00 83 bd a0 73 69 ba
       -0.008226208 0.033056505 -0.063965164 -0.0008905474
000100 b7 a2 3b 3c ac 7e 7d bd da 60 29 bc b2 40 22 bd
       0.011452368 -0.06188838 -0.010338033 -0.03961248
000110 8a 08 3a 3d ec 6a 37 3e c0 f6 53 bc aa 42 83 bc
       0.0454183 0.17911881 -0.012937248 -0.016022999
000120 26 25 21 be c3 2f 6f 3d 56 c1 da bd 5d 4b e2 bd
       -0.15736827 0.05839516 -0.10681407 -0.11049531
000130 af 14 b1 bc 97 8c 0f bb 0e 0f 69 3d 02 a2 bf bc
       -0.021616308 -0.0021903866 0.056899123 -0.023392681
000140 cb f3 41 bd 83 a6 6c bc af 87 37 3e 8d 79 ba 3d
       -0.04735164 -0.014443996 0.17922853 0.09105215
000150 3f 87 c8 bc df 95 93 bc 57 04 ea 3c cb 01 36 3d
       -0.024478553 -0.0180158 0.028566523 0.044435304
000160 3c dc 52 3d fb 40 47 bd 21 84 8f 3c 55 d5 df 3d
       0.051479563 -0.048645955 0.017519059 0.10929362
000170 c1 28 b0 3c a5 9a 6c bd 93 44 c9 bb 6a 96 d8 3c
       0.021503808 -0.057764668 -0.006142208 0.02643891
000180 ba 7d 1d 3d 20 1c 41 3c ea 90 2a 3d ce b2 a3 bd
       0.03844998 0.011786491 0.041642107 -0.07993089
000190 a1 3a 05 3d 85 ec 18 be 97 bc 30 bb ef 28 31 bd
       0.032526616 -0.14933975 -0.0026967877 -0.043251928
0001a0 94 22 3a bc 30 15 be 3d 60 02 cd bd 69 57 84 3c
       -0.011360783 0.09281385 -0.100102186 0.016154962
0001b0 71 6f 92 3c 6c 62 47 3d 90 f6 b5 3c 03 45 71 bb
       0.017875405 0.048677847 0.022212297 -0.0036814816
0001c0 3f 72 8b 3d bc 0e f0 3c e0 48 48 bd 00 75 be 3c
       0.068089 0.0293039 -0.048897624 0.02324915
0001d0 56 bf 64 bd 24 a3 f3 3c 49 6e 0d 3c 6c f1 86 ba
       -0.055846535 0.029740877 0.008632251 -0.0010295338
0001e0 81 21 f1 3d 8b 5a 30 3c 27 6a 00 3c c5 89 f0 3c
       0.117739685 0.010763775 0.007837809 0.029362569
0001f0 ae 37 32 3c e9 c4 ce bc 50 12 70 3d a7 5d 7d bd
       0.010877533 -0.025240378 0.058611214 -0.061856892
000200 1a 43 dc bd 5c 4d 8b 3c 3d d2 31 3e 7e 3f 49 3d
       -0.10754986 0.017004661 0.17365356 0.049132816
000210 bf 37 5b bd dd 59 2e bd 2e a5 aa 3d 62 05 60 bd
       -0.05351996 -0.04256617 0.08332287 -0.054692633
000220 4b f9 8e bd 38 c0 3e 3d 3a 72 a8 ba 0f ae 17 3d
       -0.069811426 0.046570033 -0.0012851425 0.03703123
000230 ad aa 9c bd 9f 38 c0 bc 4e 66 27 be 11 d3 59 bd
       -0.07649741 -0.023464499 -0.1634762 -0.053179804
000240 50 d6 4a bc e1 02 bc bc 0e 9f 03 bc c1 09 95 bc
       -0.012380198 -0.022950592 -0.008033527 -0.018193128
000250 0f d4 bd bd bd 7a 21 3c 97 a7 4b 3d 45 2f 4b bd
       -0.092689626 0.009855923 0.049720373 -0.049605627
000260 8d b3 4a bd 96 20 15 bd 27 c3 43 3b 6f 39 1d bd
       -0.04948764 -0.03640803 0.0029870959 -0.03838485
000270 2d c5 16 be ec 95 06 bd 8f 6c 56 bd d2 58 0f 3d
       -0.14723654 -0.03285782 -0.052349623 0.034996815
000280 46 9b 49 3d ab 00 28 3c 4a 81 62 bd eb 02 83 3d
       0.049220346 0.0102540655 -0.05529908 0.06397041
000290 ba 82 9c bd 95 97 0c bb f8 60 81 3d dc 79 a0 bc
       -0.076421216 -0.0021452655 0.063173234 -0.019589357
0002a0 00 11 7e bb 6f 88 96 bc f2 35 59 bd 69 a7 75 3d
       -0.0038767457 -0.018375603 -0.053029962 0.059974108
0002b0 c7 13 b5 3c 9d bc 21 3d 33 20 3b bd 5c 39 af 3d
       0.022104157 0.039486516 -0.045685004 0.08555862
0002c0 39 11 2c bd 74 69 e5 3d f6 4b 21 be 0f 52 33 bd
       -0.042008612 0.11201754 -0.15751633 -0.04377943
0002d0 dc 4a 99 3b b1 c0 bc bd e8 11 09 3c f5 98 7b 3c
       0.0046781134 -0.092164405 0.008366086 0.015356292
0002e0 99 75 81 bd 50 83 c2 3c 2d 6d 02 3c 99 98 e6 bc
       -0.06321258 0.023744255 0.0079606 -0.028148936
0002f0 64 a5 53 3d e5 c7 48 3e 2c f9 1d ba 3a 76 b1 3d
       0.0516714 0.19607504 -0.0006026204 0.08665128
000300 e9 b6 b3 bd 78 25 53 3d 1f 48 6c bd f3 a3 c4 bd
       -0.08775122 0.051549405 -0.057685968 -0.09601583
000310 73 21 e4 bc e5 dd 1f 3d 0d 22 93 3d 8d e2 4f bd
       -0.027847981 0.039029974 0.07184229 -0.050753165
000320 76 76 8d bc 78 f3 41 bd 87 c5 a1 bd f8 12 52 3d
       -0.0172684 -0.04735133 -0.078990035 0.05128762
000330 9c fe 7b bd 0a 5f 97 bd 80 a6 f8 ba 40 d0 df 3a
       -0.06152211 -0.07391174 -0.0018970519 0.0017075613
000340 a8 ff 42 bc 13 e8 7b bd 40 32 57 3d aa 2c 2e 3d
       -0.0119017735 -0.06150062 0.052538157 0.042523064
000350 87 72 47 3c 9a 2e bb bc 69 d6 5c bd ac fe 99 bc
       0.012173302 -0.02284937 -0.053915415 -0.018798195
000360 d2 3b 7c 3d 30 c3 7b 3c 56 eb 7c 3d 7e 65 0e 3d
       0.061580487 0.015366361 0.06174787 0.03476476
000370 2d a3 84 3d fc 7f 19 3d c0 62 c5 3c 40 02 2a 3b
       0.06476436 0.03747557 0.02409494 0.0025941283
000380 38 36 3a 3c 0d 36 81 bd 93 54 80 3d ac ef 73 bd
       0.011365466 -0.063091375 0.06266131 -0.05955474
000390 eb 07 8c bd f0 ce 6d 3c ba dc 99 3b fa 20 40 3d
       -0.06837448 0.01451467 0.004695502 0.04690645
0003a0 49 3e 81 3d 1c 96 aa bd 52 2c 5e bd d0 fe 99 bd
       0.06310708 -0.08329412 -0.054241486 -0.07519305
0003b0 76 8d 63 3d af ce 1b bd 60 cd 11 bd 58 10 14 bd
       0.05555483 -0.038038906 -0.03559625 -0.0361484
0003c0 60 4b 75 bb a3 80 db 3b c9 5e 10 bd b0 f9 10 3c
       -0.003742896 0.0066986843 -0.035246644 0.008848593
0003d0 86 86 66 3d 32 83 81 bc 05 f0 73 bc 30 d1 46 3c
       0.056280635 -0.01580963 -0.014888768 0.012134835
0003e0 26 2f ae bc 14 8e bc bc 32 88 88 bd c0 b1 2d 3b
       -0.021262717 -0.023016967 -0.06666602 0.0026503652
0003f0 e6 d1 62 bd 33 2e af bc 98 f3 aa bd 9e 32 7a bd
       -0.055375956 -0.021384334 -0.08347243 -0.06108343

fc2.bias f4 [200]
000000 41 88 80 bd dc 57 90 bd 61 8a de bc 8f dd f3 bc
       -0.06275988 -0.07048008 -0.027165594 -0.029768733
000010 fe 0d 5d bd c4 3e 9f bd 77 1b b1 bd 36 81 a1 bd
       -0.053968422 -0.077756435 -0.08647817 -0.07885973
000020 73 bd 31 bd 86 51 47 bd 0d c7 be bd 55 00 59 3c
       -0.043393563 -0.04866173 -0.0931531 0.013244708
000030 db f1 06 be 7c 18 ba 3e 4d 7b e6 3e e2 39 c6 bc
       -0.13178198 0.36346805 0.45015946 -0.024197523
000040 65 80 1a bc b1 72 a0 bd ca 99 44 bd e6 2c a7 bd
       -0.009430026 -0.07834376 -0.047998227 -0.081628606
000050 08 bc 9d 3e ac 4e 5a bc 02 19 10 bd 8a 88 af bc
       0.3080752 -0.013324421 -0.0351801 -0.021427412
000060 e7 85 00 b9 9c 2b 91 bd ad dd 85 bd 63 7d f1 3d
       -0.00012256914 -0.07088396 -0.06536422 0.11791494
000070 6a 8f 58 bd 83 41 52 bd df 5b a5 bd 4a 69 1d bb
       -0.052871145 -0.051332008 -0.08074164 -0.0024019056
000080 c0 07 6b bd e5 74 43 3c c8 58 0b bd 55 ba 53 bc
       -0.057380438 0.011929725 -0.034020215 -0.012922843
000090 cb 1f 3e 3d 03 d3 a6 bd c4 93 0e bc 1c d4 a7 bd
       0.04641704 -0.08145716 -0.008702222 -0.081947535
0000a0 f0 68 0e 3d 5d a5 02 bd 71 58 a6 3e 40 77 75 bd
       0.034768045 -0.031895984 0.3248935 -0.05992818
0000b0 63 1b 62 3e b7 78 85 bb 1b 5c a1 3b 94 66 7f 3d
       0.2208076 -0.004073228 0.00492431 0.062353685
0000c0 66 29 af bd a6 45 7e bd 8d 4b 17 bd 75 28 9f bc
       -0.08552818 -0.06207814 -0.036937285 -0.019428471
0000d0 18 f4 09 bd 1e ad 81 bd 29 6d c2 bd 1b 1d 30 bd
       -0.03368005 -0.063318476 -0.09493477 -0.042996507
0000e0 53 66 46 3c 94 37 38 bd a8 31 ad bd 74 7e 11 3d
       0.012109357 -0.04497488 -0.08456737 0.035520986
0000f0 bf f9 7f bd 2a 98 17 3c 09 aa 76 3e 60 72 cd bd
       -0.062494036 0.009252587 0.24088301 -0.10031581
000100 c0 30 55 bd 63 e7 c8 3b 84 cf 52 bd 81 aa 88 3d
       -0.052048445 0.006131099 -0.051467434 0.06673146
000110 c9 c3 9f 3b 4e b4 30 bd 83 36 e0 bb 76 4c af bc
       0.0048756343 -0.043140702 -0.006842436 -0.021398764
000120 48 61 b6 bd a3 72 44 3e 90 fd 37 bd 51 89 c2 bc
       -0.08905274 0.19184355 -0.04491955 -0.023747118
000130 49 8b c1 3c 23 2c b4 3b 34 19 92 bd 0d ab 8b bd
       0.023625987 0.0054984256 -0.07133713 -0.06819735
000140 6e b2 7c bd 3a 19 81 bd 52 f8 42 bd 40 40 01 3c
       -0.0616936 -0.0630364 -0.047600098 0.007888854
000150 9b 9c a5 bd b6 ec 73 3b 21 7b 8d bd d4 6e c1 bd
       -0.08086511 0.0037219948 -0.069082506 -0.09444967
000160 86 29 9f 3c fb dd 8a bd b6 02 56 bd 26 bb aa bc
       0.01942898 -0.06780621 -0.05224868 -0.020841192
000170 6c 2d 69 3b 4c 70 94 bd 29 b2 61 bd e4 89 fe bc
       0.0035580052 -0.072479814 -0.055101547 -0.03107161
000180 ef 1b aa 3c 36 bd 95 3e a1 85 4d bd dc f7 7e bc
       0.020765273 0.2924592 -0.050176267 -0.015562024
000190 b7 c4 c9 bc 6e 28 3a bc a9 13 40 3c 5e 31 3d 3d
       -0.024629934 -0.011362178 0.011723437 0.04618966
0001a0 77 a3 5e bd 28 0a 4a 3d 48 15 85 bd 58 46 fd bd
       -0.05435511 0.049326092 -0.064982 -0.12366933
0001b0 15 a2 84 bd 32 de ff bb 63 23 09 bc db 43 a8 bb
       -0.06476227 -0.00780847 -0.008370253 -0.005135042
0001c0 38 05 28 3d 92 26 03 bd 1e f8 bf bd f5 3e 0c bd
       0.041020602 -0.032019205 -0.093734965 -0.034239728
0001d0 ca be aa bd f0 f3 ad bc 0b 08 6d 3d 23 10 79 bd
       -0.083371714 -0.021234483 0.057869 -0.060806405
0001e0 b1 38 8c bd 6d 37 c6 bd 6a 1e 85 bd e7 f8 06 bc
       -0.068467505 -0.096785404 -0.06499942 -0.008238054
0001f0 c3 c4 14 3d b0 52 52 bb 66 a8 34 bd 2e 34 49 bc
       0.03632046 -0.0032092743 -0.04410591 -0.012280507
000200 e0 47 68 bd 2d a5 89 3d 49 e8 b8 bd d7 f6 88 bd
       -0.05670917 0.06720958 -0.0902868 -0.06687706
000210 5e 0d 1c be 36 8d c5 bd 16 2b f0 bd ef 7f c1 bd
       -0.15239474 -0.096460745 -0.11726968 -0.094482295
000220 c7 c6 04 3d b9 81 7c bd 57 23 14 bd d7 a4 32 bd
       0.03241613 -0.06164715 -0.036166515 -0.043614235
000230 ea 7a 9e bd df 97 9b bd a0 cd bf bc 76 46 c7 3c
       -0.07738288 -0.075973265 -0.02341348 0.02432559
000240 55 74 49 bd eb a8 8e bd 2c 48 fd 3c 6c f2 48 bb
       -0.04918321 -0.06965812 0.030918203 -0.0030662073
000250 1b 91 72 bd df b7 01 3d 2b a7 6e bd 56 d2 c5 bd
       -0.059220415 0.031669494 -0.058264893 -0.09659259
000260 2b 6b 51 3c 09 b0 4f bd d5 59 87 bd 2d 79 a4 bd
       0.0127818985 -0.05070499 -0.06608931 -0.08030925
000270 8c 2c 78 bd b3 04 2a bd 72 d5 ae bc 09 95 06 bd
       -0.06058936 -0.041508388 -0.021342013 -0.032856975
000280 64 c2 44 bd 27 51 a1 3c 9e 8c 6f bc dc b0 e8 bc
       -0.048036948 0.019692017 -0.014620928 -0.028404646
000290 5b a5 a8 bd e6 3a 88 bd db 87 cd 3b 69 cf ed bd
       -0.08234664 -0.06651859 0.0062722987 -0.11611826
0002a0 dd 0b d9 3c b4 45 14 3b 70 a9 db bd 9f a5 d6 3c
       0.026494915 0.0022624554 -0.10725677 0.026202021
0002b0 01 4c 46 bd 84 8d a7 bd 44 1e 13 3b bf c2 1b 3c
       -0.048412327 -0.08181289 0.002244846 0.00950688
0002c0 b0 67 c7 bc 7e 8d 70 bd 81 9d 79 3d 4a 3a 9f bb
       -0.024341434 -0.058728687 0.060941223 -0.0048592435
0002d0 4a da 84 bd 14 21 bb bd cc b9 da 3a da 8e 85 bd
       -0.06486948 -0.091371685 0.0016687452 -0.065213874
0002e0 81 61 e6 bd 42 8f 71 bd 92 68 91 3c cc d5 0c bd
       -0.11249066 -0.058974512 0.017750058 -0.03438358
0002f0 b8 aa 3f bd df a2 bd 3d af 77 da 3c e2 d5 07 bd
       -0.04679367 0.09259581 0.026668398 -0.03316296
000300 bf f1 5b bd 07 cc c2 3d c5 b5 e9 3d 21 d3 a2 bd
       -0.053697344 0.095115714 0.11411623 -0.07950426
000310 9d 84 14 3b bb 7a 00 bc 6e 9d 38 3d 19 ed ac bd
       0.0022662051 -0.007841761 0.04507201 -0.0844366

fc3.weight f4 [7, 200]
000000 71 0c 96 bd f8 6a 8f 3c 68 31 62 bd a3 e5 59 bd
       -0.07326592 0.017507061 -0.0552229 -0.053197514
000010 89 d9 0a bc 23 8a 11 bd ac 4b bb bb 69 76 1d bd
       -0.008474716 -0.035532128 -0.005715808 -0.038443003
000020 06 2f 66 bd 6c 0a 9c 3c 20 f8 a5 bd e9 f8 93 3d
       -0.05619719 0.019047938 -0.08103967 0.0722521
000030 15 c9 d6 3b 7b b4 3c 3e 43 c7 68 3e 25 62 13 bd
       0.0065547326 0.18428223 0.22732262 -0.03598227
000040 ab f0 a7 3c 66 57 44 3d 50 1d 4b 3c 25 91 37 3b
       0.020500502 0.047934912 0.012397125 0.0028010097
000050 c3 6d 19 3e a4 7f 1e 3d 37 82 16 bd 15 cd 27 3d
       0.14983277 0.038695946 -0.036745276 0.040967066
000060 77 8f 15 3d ae 8d a7 bd 96 ae f4 bc a3 03 d8 3c
       0.03651377 -0.0818132 -0.029868405 0.026368922
000070 cf a2 09 be 09 b1 7c bd 1a 0e 33 bd a3 52 3f 3e
       -0.13441013 -0.06169227 -0.04371462 0.18683867
000080 59 1a 1d bd 26 bb 07 bd ca 6e e0 3b 8c 8e b7 bc
       -0.038355205 -0.033137463 0.0068491446 -0.022406839
000090 af bf c9 3d dc 3a 7a bd 5a 33 7c bd 39 75 f9 3c
       0.09851014 -0.06109129 -0.06157241 0.030451404
0000a0 64 52 3c 3b 43 6d be bc e4 d8 1b 3e 6d 7e cc 3d
       0.0028735632 -0.02324546 0.15219456 0.09985051
0000b0 92 18 a7 3d 89 e1 01 3b 39 c6 c0 3b 11 bf 26 3c
       0.08158983 0.0019818267 0.005883005 0.01017739
0000c0 c1 59 4f 3d 46 0a 5a 3d 77 86 31 3d ac 77 48 3d
       0.050622705 0.053232454 0.043341126 0.048942253
0000d0 24 42 40 bd 0f da 22 3c 93 cd 14 3d d6 d0 1b bb
       -0.046938077 0.0099396845 0.036328863 -0.00237756
0000e0 0f 98 dd bc ee be 5d b9 21 3b 73 bc 20 4b 43 3d
       -0.027050046 -0.00021147329 -0.01484564 0.047679067
0000f0 98 96 c0 bc 11 b0 05 bd e8 0a aa 3d 5a 45 08 bc
       -0.023509309 -0.032638613 0.083028615 -0.008317316
000100 53 74 78 bd 2e 08 b0 bc 2f 15 bd 3c 12 af 91 bd
       -0.06065781 -0.021488275 0.02308139 -0.0711347
000110 4e 4a 27 3c 08 8e 5e bc a1 84 5c bd 3a ca 8f bd
       0.010210587 -0.013583668 -0.053837422 -0.070209935
000120 04 8d 0b 3d e6 17 0b 3e 3a 38 fa bc fd 6e 97 3b
       0.03407003 0.13583335 -0.030544389 0.004621385
000130 79 1a 44 bd e0 af 90 3d dd 41 88 bd d3 8a 8b 3d
       -0.04787681 0.070647955 -0.066531874 0.06813588
000140 e8 b4 47 bd 7d 0d 82 3a 09 bb 1e bb 30 df 36 3d
       -0.04875651 0.0009922233 -0.0024220368 0.044646442
000150 5b 74 69 bd 77 8a 1f bc 9a 99 94 bd 2b ca 13 3c
       -0.05699573 -0.009737602 -0.0725586 0.009020369
000160 7a 31 54 bd 3a f7 60 bd 81 0c 86 bb 50 1d 28 bc
       -0.051804997 -0.054923274 -0.004090846 -0.010260895
000170 8a 3a 55 3d 1d 66 f5 bd c4 c3 0b bd d3 6c 87 bd
       0.05205778 -0.11982367 -0.034122244 -0.066125534
000180 f5 2f 81 3c e8 7d 25 3e f9 83 1c 3e 73 5b 8f 3d
       0.015769938 0.1616131 0.15284719 0.069998644
000190 df 41 92 3d a0 d8 20 bb cc ec a1 3c dc 85 72 3c
       0.0714147 -0.002454318 0.019766234 0.014802422
0001a0 ad 49 8b 3d ba ba 83 bb d6 ec 68 bc 06 33 74 bd
       0.06801162 -0.0040200623 -0.014216622 -0.059618972
0001b0 f9 9f 62 bc 77 4f 33 3b 41 e9 6b bd be b5 ac 3d
       -0.013832086 0.0027360597 -0.057595495 0.08433102
0001c0 ce 6d 8c bd 27 3c 5a 3d 20 9f db 3d 01 ff 70 bc
       -0.06856881 0.053280022 0.1072371 -0.014709235
0001d0 16 a2 51 3d 21 c3 1e bd ae 93 29 3d 13 35 1f 3b
       0.051179968 -0.03876031 0.041400604 0.002429311
0001e0 e9 b3 08 bd 96 55 10 3b 2c 81 4d bd f8 e9 10 3d
       -0.0333747 0.002202367 -0.050172016 0.03537938
0001f0 34 4d 11 bb 9d 95 80 bd b7 0a 73 bd 24 27 01 3d
       -0.002217126 -0.062785365 -0.05933639 0.031531468
000200 b9 5a e1 bc f0 51 f4 3b 2d 4e c0 bc a8 a6 b2 bc
       -0.02750908 0.007456057 -0.023474777 -0.021807984
000210 09 3c 23 bd 47 7b 0c bd 60 26 d5 bd 97 b8 a7 3b
       -0.039852176 -0.034297254 -0.1040771 0.0051184404
000220 24 86 0a 3e 14 9c 80 bc 4c 9c 25 3d 82 6a d3 3c
       0.13527733 -0.015699424 0.04043226 0.025807623
000230 20 15 3b 3d 78 50 33 3c 26 8c e6 3c f5 00 f0 3d
       0.045674443 0.010944478 0.028143 0.117189325
000240 c4 df ce bc 0c 95 04 3d 4d 7b 97 3d e6 74 a0 3b
       -0.025253184 0.032368705 0.07396565 0.004896748
000250 7d e0 8d 3c 4d 13 15 3d 0a f8 02 bb 04 15 85 bc
       0.017318958 0.03639536 -0.0019984269 -0.016245373
000260 80 e8 34 3d 86 9b 76 3c c5 03 e6 bc 28 9e 82 bd
       0.04416704 0.015051728 -0.02807797 -0.06377822
000270 d4 d5 71 bc ee 5e 29 bd ee 72 ac bd 1c d7 4e bd
       -0.014760453 -0.041350298 -0.084203586 -0.050498113
000280 c0 55 82 3c 86 82 fc 3b 19 57 94 bc 56 af c8 ba
       0.01591003 0.0077059893 -0.018107938 -0.0015311043
000290 9d 9d c3 bc a6 0e 8a 3c 74 2d a1 3c c2 c2 40 bd
       -0.023878867 0.016852688 0.019674994 -0.047060736
0002a0 1c de e3 3c 45 e9 2d bd 20 de 07 bd 77 ba c6 bb
       0.027815871 -0.04245879 -0.03317082 -0.006064709
0002b0 4d e5 1a 3d 46 82 57 bd e1 58 73 bb ae bf e7 bc
       0.037816335 -0.052614473 -0.0037131833 -0.028289642
0002c0 bf 53 02 bd 64 c2 d1 bc bf 57 43 3d de f8 0d 3b
       -0.031818148 -0.025605388 0.047691103 0.002166323
0002d0 c1 3b 60 bc 3d 48 04 bc b6 b5 46 3c 9a c2 d4 bc
       -0.013686121 -0.008073864 0.012128284 -0.0259717
0002e0 47 10 ec 3c 88 1b 5f bd 5d 29 ec 3c 13 9f 5a bd
       0.028816355 -0.054469615 0.028828317 -0.05337436
0002f0 b2 38 02 3e f8 17 43 3c 78 09 39 bc 3d b7 73 bc
       0.1271694 0.01190757 -0.011293761 -0.01487523
000300 a4 f2 2b 3c c8 80 5f 3c 1a 72 70 3d 50 68 94 bc
       0.010494862 0.013641544 0.058702566 -0.018116146
000310 0e 60 0d bd 7e 5f b0 bc 24 d2 29 bc 3a 9b 23 3d
       -0.034515433 -0.02152991 -0.010365043 0.039942957
000320 b9 22 e5 3d 20 0d 33 bb f6 0c 9b bd 11 96 56 bd
       0.111882634 -0.0027321056 -0.075708315 -0.05238921
000330 1a 42 60 3d 93 23 01 3d 5c b6 b8 bc 48 aa f3 3c
       0.05475054 0.031528067 -0.022547893 0.029744282
000340 6a 90 01 3e 00 4c 90 3c 8c cd 53 bd 47 42 49 bd
       0.12652746 0.017614365 -0.051709697 -0.049135473
000350 98 3a d5 bc 90 be 41 3e 3c c3 65 3e fb 9d 10 3d
       -0.026028916 0.1892035 0.22437757 0.035306912
000360 42 ad 93 bd 93 d9 26 bd 11 9e 48 bd 07 c6 59 bc
       -0.07210781 -0.04073484 -0.04897887 -0.013291842
000370 09 f9 18 3e d8 cc 66 bd 54 b4 9a 3d be 95 78 3d
       0.1493875 -0.056347698 0.07553926 0.06068968
000380 b9 9d 0f 3e 6b 2d 03 bd 74 4e 54 3d 1b 2e 37 bd
       0.1402501 -0.032025736 0.05183263 -0.044721704
000390 f4 86 d7 bd c2 68 63 bd 91 88 70 bd ec 70 58 bd
       -0.10523787 -0.055519827 -0.05872399 -0.052842066
0003a0 1f a8 2f 3e 6f 53 14 bd b8 dd c3 3b 12 74 19 3d
       0.17153977 -0.03621238 0.0059773587 0.03746421
0003b0 2a ff 0f bd 6c ac 6b 3d a9 8c 11 bd 75 af 93 bd
       -0.035155453 0.05753748 -0.035534535 -0.072112
0003c0 53 0b ea 3b c9 9a b6 bb 43 35 24 3e ce 9d 3a bc
       0.0071424632 -0.005572651 0.16035943 -0.011390163
0003d0 71 f8 9e 3d c3 70 27 3c 9d b8 9b 3b 60 ec 98 3d
       0.0776223 0.010219756 0.004752232 0.0746696
0003e0 ae f0 b7 bc 19 6a a0 3c 0b c3 75 bd 9f d7 25 bc
       -0.022453632 0.019581841 -0.06000046 -0.010122209
0003f0 94 a1 5c 3c 23 ca 0f bc 08 a4 a5 3b 0e 3a 00 bd
       0.013466258 -0.0087762205 0.0050549544 -0.031305365

fc3.bias f4 [7]
000000 d7 75 e0 3e ef 59 be 3e 59 71 b7 3e bd 09 d9 3e
       0.43839905 0.3717799 0.35828665 0.42390242
000010 8d ac d2 3e a3 5c b3 3e 0a 84 a8 3e
       0.4114727 0.35031614 0.32913238
