assault_ram/assault_ram.pt (torch_old, 270667 bytes, 6 tensors)

fc1.weight f4 [200, 128]
000000 00 79 2d ba 7e 75 0e 3d 5d 0c c5 bd 1d 38 85 bd
       -0.00066174567 0.034780018 -0.09621499 -0.065048434
000010 d6 70 0b bd ac 2a c2 3c 40 8a e5 ba 73 4d 6b 3d
       -0.034043156 0.023701988 -0.0017512515 0.05744691
000020 5f 40 00 bd a3 17 5e 3d d5 24 ea 3b 44 36 12 bd
       -0.03131139 0.05422176 0.007145504 -0.035696283
000030 54 f8 d3 bd 90 c5 6f bd 9f 3d 15 bd 40 94 56 3b
       -0.10350099 -0.05853802 -0.03643572 0.0032742172
000040 9b dd 05 3d fe 37 27 3d 48 1b cc bd bc aa 4f bd
       0.032682043 0.040824883 -0.09966141 -0.050699934
000050 a6 7f 03 3d d1 43 43 3d e8 03 95 bc 20 90 8f 3d
       0.032104157 0.047672097 -0.01819034 0.070099115
000060 ec 5a 4b bc 19 3d 1e bc ae 53 ab 3d bd 8a 8c bd
       -0.012411814 -0.0096581215 0.0836557 -0.068624
000070 09 02 9b bd a9 70 a7 bd 38 25 6c bd 4c c8 6a 3d
       -0.075687476 -0.08175785 -0.057652682 0.057319924
000080 41 63 9c bd df 5d b0 bd 9e 02 ab bd 38 95 d6 bd
       -0.07636119 -0.086116545 -0.083501086 -0.1047768
000090 62 61 8e bd 82 68 66 3d 92 e9 07 3d cb 12 bd 3c
       -0.06952168 0.05625201 0.033181734 0.02308025
0000a0 17 04 69 bc d4 d6 83 bd 70 01 75 3c 45 0d d0 bd
       -0.0142221665 -0.064374596 0.014953956 -0.10158781
0000b0 f8 e2 a2 bd a7 3b 84 bd 66 34 24 3d 58 72 06 3d
       -0.07953447 -0.0645669 0.040089034 0.03282389
0000c0 66 f3 69 bd 8e 4c 43 bc 0e 2c 5b 3d 58 6c 8e 3d
       -0.05711689 -0.0119201075 0.05350881 0.06954259
0000d0 dd d7 cb 3c be 66 8c bb b5 14 2f 3d 02 c0 53 bd
       0.024883205 -0.0042847088 0.042744357 -0.051696785
0000e0 f0 79 5d bc 14 ef c3 bd 8a ec 7a bd f2 05 3b bd
       -0.013517842 -0.09567085 -0.061260737 -0.045659967
0000f0 7b 53 fe 3c 2f 43 3b bc ac 3b a3 bd 58 0b 9c 3c
       0.031045666 -0.011429592 -0.07970366 0.019048378
000100 c6 bf 46 3d 7c 86 f7 bc a0 c6 2d bd 59 fd 50 3c
       0.048522733 -0.030215494 -0.04242575 0.012755715
000110 91 39 0c 3d 86 0c 78 3d 79 47 b8 bd 17 c1 62 bd
       0.034234587 0.06055882 -0.08998007 -0.055359926
000120 56 df 18 3d c3 fb 95 3d 50 fb 6c 3d dc 36 b6 3d
       0.037322365 0.0732341 0.057856858 0.08897182
000130 18 1a 90 3c 49 69 9d bd 28 38 05 3c 4b 7e 62 bd
       0.017590567 -0.07686097 0.0081310645 -0.055296224
000140 30 68 03 be 95 65 79 3d cb a3 89 3d f6 9a db bd
       -0.12832713 0.06088789 0.06720694 -0.10722916
000150 ec 86 87 3c 63 0e 0b bd f7 b6 de bc f6 ca 73 bd
       0.016543828 -0.033949267 -0.027186854 -0.05951973
000160 5b 2d 3e 3c 7e 40 92 bd 3d 4f 16 bc a5 09 d2 3c
       0.011607493 -0.07141207 -0.009174165 0.025639364
000170 17 a5 fb 3c 9a 74 15 3c 45 29 b3 bd 76 da 6a bd
       0.03071837 0.009122038 -0.08748106 -0.057337247
000180 76 c5 34 3d e4 8c 97 3c d6 35 8d bd b3 44 8f bd
       0.044133626 0.0184998 -0.06895034 -0.06995525
000190 a6 42 83 3d 2f 53 30 3d 80 e8 48 bd b5 e9 3f bd
       0.064091966 0.04304808 -0.049049854 -0.04685374
0001a0 b3 a0 4b bd c1 df 44 bc bd 3d 0a bd 67 20 a0 bd
       -0.0497138 -0.012016238 -0.033750284 -0.0781868
0001b0 e0 95 9f bb e8 6e 59 3c b2 5e 60 bd 80 fe 06 3d
       -0.0048701614 0.013271071 -0.05477781 0.032957554
0001c0 8f 50 5c bd 65 40 a4 3d 55 bd 46 3d 88 a6 98 bd
       -0.053787764 0.08020095 0.048520405 -0.07453638
0001d0 77 e4 34 bd 60 b0 82 3b 90 49 53 3c 88 bb ab 3c
       -0.044163194 0.0039883107 0.012895957 0.020963445
0001e0 c7 9b a6 3c 2a a5 61 bc 57 d0 94 bd 86 33 bb 3c
       0.020337952 -0.013772288 -0.072663 0.022851717
0001f0 87 18 fa bd 01 37 92 bd 6e c9 e6 bc de 5c 7e bd
       -0.122117095 -0.071393974 -0.028172221 -0.062100284
000200 72 4e fd bc 0c 5e 94 bd 29 85 e7 bc b4 c6 9a 3c
       -0.030921195 -0.072445005 -0.028261738 0.018893577
000210 16 db 6b bd 00 a3 94 bb 35 95 81 3d e0 de 14 bc
       -0.057581984 -0.0045360327 0.06327287 -0.009086341
000220 53 7f e5 bb 80 dc f9 bb 2c 8a 92 3c d5 72 3f 3d
       -0.0070037036 -0.0076251626 0.017888151 0.04674037
000230 48 18 98 3d 2e ea 65 3d b9 dc ab 3d 40 77 d1 bb
       0.07426506 0.056131534 0.08391709 -0.0063923895
000240 f4 fc b5 bd 56 62 52 bd 8b c3 4f 3d 13 63 24 bc
       -0.088861376 -0.05136331 0.050723594 -0.010033387
000250 33 f3 33 bd 87 17 9e bd 46 68 a9 bd 24 c8 98 bd
       -0.043933105 -0.07719331 -0.08271842 -0.07460049
000260 85 5e e0 bc 43 cb 1f 3d ba fb 1c 3d 2d ef c1 bd
       -0.02738882 0.039012205 0.038326003 -0.09469447
000270 43 15 3b 3d 3b a6 8d bd d0 93 e6 bc 04 8c 39 bd
       0.045674574 -0.069164716 -0.028146654 -0.045299545
000280 f6 ec d8 bc e7 aa db bc 4b cd b5 bd 48 ac af bd
       -0.02648018 -0.026814891 -0.08877047 -0.08577782
000290 8c cd be bc b0 45 08 bc 19 37 4b bd 78 42 c3 3c
       -0.023291372 -0.008317396 -0.049613092 0.023835406
0002a0 8a 4d b6 bd 89 bb 7c bc 21 31 9f 3d db 6b 3a bd
       -0.08901508 -0.015425571 0.077730425 -0.045513015
0002b0 0b 16 90 3d 1d ba b8 3c e0 bc b6 bd 8b 4f 3e 3d
       0.07035454 0.022549683 -0.08922744 0.046462577
0002c0 cb 0d a1 bc c1 5d 48 bd 65 c1 7a 3d d4 a7 a5 bd
       -0.019659897 -0.048917536 0.06121959 -0.08088651
0002d0 b1 7a ca 37 37 19 e5 bc 47 c9 5b 3d 7b 3e 79 3c
       2.413741e-05 -0.027966125 0.05365875 0.01521265
0002e0 1b 36 07 3d d5 36 b2 3c 4c 1f ae bc 04 47 98 bc
       0.033010583 0.021754662 -0.021255158 -0.01858855
0002f0 34 87 a8 bd 26 2b 44 3d 27 b4 78 3d d9 f7 50 3d
       -0.08228913 0.047892712 0.06071868 0.051017616
000300 cc 5f 7f bd 8a d3 b4 bb a2 36 7f bd f0 0b 6e bd
       -0.06234722 -0.0055183815 -0.06230796 -0.058116853
000310 3b b6 79 bd 3d f3 a9 3c 62 7e 7e bd af 97 3a bc
       -0.060964804 0.020745868 -0.062132247 -0.011388703
000320 63 25 bc bb e2 60 69 3d 0f 36 9c bd 42 8b 78 bd
       -0.0057417615 0.05697716 -0.07627498 -0.06067968
000330 d0 38 52 bd 2a 67 7d 3d e6 23 02 bd 11 b0 98 3d
       -0.051323712 0.061865963 -0.031772517 0.07455457
000340 e1 54 b8 3c 43 ff e2 3a 80 7b 2c ba 17 a3 dc bc
       0.02250141 0.0017318506 -0.0006579682 -0.026933236
000350 d8 b1 35 3c ef d6 f2 bc 80 ce 22 ba 7b 30 ee 3a
       0.011089765 -0.029643504 -0.00062105805 0.0018172407
000360 ca f7 a0 bd 8a 81 64 bd 41 99 7d 3d d9 47 a6 bd
       -0.07859762 -0.0557876 0.061913732 -0.081191726
000370 56 7e 81 bc 56 b2 9f 3d 22 c8 02 3d c0 01 24 3b
       -0.015807312 0.07797687 0.031929143 0.0025025457
000380 87 df 9c bd 92 58 33 3d c4 ef 80 bd 06 85 0d bd
       -0.07659822 0.04378564 -0.06295732 -0.03455069
000390 55 38 20 bd aa b4 b8 bc bc 28 0b bc 5c ee 81 3d
       -0.039116222 -0.022547085 -0.008493599 0.063442916
0003a0 30 c9 34 3c 26 c4 8e 3d aa 76 5d 3d e2 cb 85 bd
       0.011034295 0.06971006 0.054068245 -0.06533028
0003b0 36 60 22 3d 78 ec 7f bd f6 30 40 bd 9e 77 87 3c
       0.039642535 -0.062481374 -0.046921693 0.01653653
0003c0 a8 15 ef 3c 47 ce 87 3d cc 4b 1b bd 00 5e 14 39
       0.029185131 0.06631141 -0.037914082 0.00014149398
0003d0 c8 a2 13 3d f8 0f af bd 9b df 82 3d 5f b0 95 bd
       0.036043912 -0.08547968 0.063903056 -0.07309031
0003e0 d0 07 07 bc 0b 9b c8 bc 17 6d 65 bd ff 9c 11 3b
       -0.008241609 -0.024487993 -0.05601224 0.002221882
0003f0 45 50 82 3d c7 94 10 bd bc b0 7d bd 68 a5 2c bd
       0.063629664 -0.035298135 -0.061936125 -0.04214993

fc1.bias f4 [200]
000000 56 ff 8b bb d0 0e 06 bd ff 9c 76 3a 0b d1 4d bd
       -0.004272382 -0.03272897 0.00094075495 -0.050248187
000010 ea f5 b8 bd 17 c2 e0 bc b8 38 b1 bd 86 3e 5e 3d
       -0.090312794 -0.0274363 -0.08653396 0.054258846
000020 4c 48 93 bd b7 01 6d 3d b1 0c ad bd ae 46 10 3d
       -0.07191524 0.057862964 -0.08449686 0.035223655
000030 91 02 11 3d 1d d5 ac bd 23 52 e9 bb 97 0e 56 3d
       0.03540284 -0.08439086 -0.007120387 0.052260008
000040 5b b2 9d 3d a7 71 c2 bd d9 98 a7 bb 96 c7 35 3d
       0.07700034 -0.09494334 -0.0051146564 0.044379793
000050 f3 d7 57 bd ac 82 ba 3c 9a e1 53 bd 4a 6d 33 3d
       -0.05269618 0.022767387 -0.051728822 0.043805398
000060 3e a8 d9 3c 5a 76 6d bd 58 94 77 3d 60 9c 8d 3c
       0.026569482 -0.057974197 0.060444206 0.01728648
000070 01 2d e6 bc 7a 15 f1 3c f9 81 0f 3d 96 c7 2e bd
       -0.028097631 0.029429186 0.03503606 -0.04267081
000080 89 e6 33 bd 1c f8 54 3d dc 9e 6e bd 70 c7 9d bd
       -0.043921027 0.051994428 -0.05825697 -0.07704055
000090 92 4d f2 bc 7d e8 86 bd f8 87 d9 3c 38 0f f9 bc
       -0.029578004 -0.06587312 0.026554093 -0.030402765
0000a0 8b f1 f6 bb 8c 68 80 3c 21 b3 c8 3c c8 9c 46 3d
       -0.0075361184 0.015674852 0.024499478 0.048489362
0000b0 64 6d 01 bd d8 bd 68 3d 46 ce cf 3c e6 80 b7 bd
       -0.031598464 0.056821674 0.025366914 -0.08960132
0000c0 d8 fd 2f bc ca 62 93 bd e7 10 9f ba 77 d1 00 3d
       -0.010741673 -0.07196577 -0.0012135775 0.03144976
0000d0 54 80 c3 bd 76 8c d4 3d 4d a4 a1 bd 8f f0 c4 bd
       -0.09545961 0.10378353 -0.07892666 -0.096161954
0000e0 9c fe 0c bc 05 02 31 3c b5 19 73 3d 1a 59 b3 3b
       -0.0086056255 0.010803704 0.059350688 0.005473268
0000f0 9e e1 3b 3c 93 9f c2 bd 98 97 05 bd db 29 dd 3c
       0.011467366 -0.095030926 -0.032615274 0.026997497
000100 cd 1c a9 bd 3b 86 52 bd 2e be 04 3c b0 81 7b bc
       -0.082574464 -0.051397543 0.008101983 -0.015350744
000110 8a 42 92 3c 09 81 8f 3c 2b af 53 3d f0 aa cc 3c
       0.017853994 0.017517583 0.051680725 0.024983853
000120 0a 14 b6 bd f3 cf 5e 3c 03 ea 68 3d 61 ea 41 3c
       -0.08890541 0.013599384 0.056863796 0.011835665
000130 a0 bf 29 3d 9d db a7 bd b4 8d b6 3c 7e 56 8e 3d
       0.041442513 -0.08196185 0.022284366 0.06950091
000140 01 22 27 bd b0 e1 62 3c fc 68 b1 3c d9 a5 7f 3b
       -0.040803913 0.013847753 0.021656506 0.0039008765
000150 0b fb 21 3d 28 ff 12 bc 38 84 d3 bd ec 1c 61 39
       0.039546054 -0.008971967 -0.10327953 0.00021468446
000160 a6 e2 8c bd 58 0a 18 3d 26 f3 90 bd 4f e6 90 bd
       -0.06879167 0.03711924 -0.07077627 -0.07075178
000170 0c f1 8f 3c 2d a4 06 bd 58 3d 70 bd 8c ce a7 bd
       0.017570995 -0.032871414 -0.058652252 -0.081936926
000180 49 42 79 bc f1 77 f0 3c 05 d8 75 bc 24 ee 30 bd
       -0.0152135575 0.029354068 -0.015005116 -0.04319586
000190 9b 11 f2 bd a0 e9 5c bd 20 f1 8e bd de ad 87 3d
       -0.11819764 -0.05393374 -0.06979585 0.066249594
0001a0 21 01 43 bd 6b dd ed bc b3 3d 0f bd 50 09 65 bd
       -0.0476085 -0.029036244 -0.03497095 -0.055917084
0001b0 55 33 75 3d 2f 9c 07 bd d7 73 9c bd 58 21 3d bd
       0.059863407 -0.033107933 -0.07639282 -0.046174377
0001c0 4a a9 85 3d 20 0e 93 bc 22 6c ab bd 97 b5 89 bd
       0.0652643 -0.017951071 -0.08370234 -0.06724089
0001d0 df 19 c3 bc 1e 79 6e 3c 3d 8a d6 bb 3c 17 4c 3c
       -0.023816047 0.014555244 -0.006547241 0.012456711
0001e0 26 d6 9b bd 4c b7 7a 3c b4 d8 d4 ba 9c 0e a7 bd
       -0.07609205 0.01530249 -0.0016238899 -0.081570834
0001f0 6a c3 7f bb 71 21 e1 3c ba 92 ef 3a fc e1 ea bc
       -0.0039026388 0.027481766 0.0018277981 -0.02867221
000200 f8 75 b2 3c 67 31 3d 3d 88 21 9c bc 0b c4 74 3d
       0.021784768 0.046189692 -0.019058958 0.059757274
000210 6d 8b 40 bd 35 68 5f 3d 83 44 dc bd a2 f2 cb bd
       -0.047007967 0.05454274 -0.10755255 -0.09958388
000220 93 19 6f bd d8 58 09 3d 21 77 90 ba d7 01 50 3d
       -0.058374 0.033531994 -0.0011021831 0.050783005
000230 be b5 69 3d 29 63 6b 3d 44 d8 af bd 5b 78 26 bd
       0.05705809 0.057467613 -0.08586171 -0.040642124
000240 10 e4 73 bc 84 c2 32 3d 76 59 59 bd 63 6b cd bd
       -0.014885917 0.043642536 -0.053063832 -0.10030248
000250 ff 34 28 3c b0 12 fe 3c f4 0c 84 3d 1c 3c 31 bd
       0.0102665415 0.03101477 0.06447783 -0.043270215
000260 a5 7f 4b bb f9 41 d6 bd 04 b6 54 3b 6e e5 5c bd
       -0.0031051424 -0.10461802 0.0032457123 -0.05392974
000270 4f f2 4f bb 41 f7 ba bd 41 20 a7 bd 77 bc 4c bd
       -0.003173012 -0.09129191 -0.08160449 -0.04998442
000280 3f 62 ae bc 15 dc 39 bd a7 7d 2d 3d 62 11 91 bb
       -0.021287082 -0.045375902 0.04235616 -0.004427121
000290 d0 b4 85 bd b9 22 37 3c f7 21 9a 3d e1 5b 37 bd
       -0.06528628 0.011177712 0.075260095 -0.044765357
0002a0 fe 6f e4 bc a9 83 ab 3d 89 8b c3 bc 85 6d c9 bd
       -0.027885433 0.083747216 -0.023870246 -0.09835342
0002b0 21 e7 62 bd 72 b6 7e 3d 53 99 fe bc 4f a3 57 3d
       -0.055396203 0.062185712 -0.03107897 0.052645978
0002c0 c2 30 23 3d 02 74 66 bd f7 00 d1 3b fd 54 aa 3c
       0.03984142 -0.056262977 0.006378289 0.020792479
0002d0 25 98 c1 bd fc bd 87 3c a0 15 a5 3b 49 0e 0b bd
       -0.094528474 0.016570084 0.0050379783 -0.03394917
0002e0 9b 28 c6 bd d3 c9 91 bd d5 0e df bb 57 49 c9 bd
       -0.09675714 -0.07118573 -0.006807188 -0.098284416
0002f0 6c bd 77 bd 64 49 40 bd d1 b8 d0 bc 46 d8 de bc
       -0.06048338 -0.04694499 -0.025478752 -0.027202737
000300 7f 55 5b bd 57 e2 5a bc c7 e8 9e 3d b5 1a 0b bd
       -0.053548332 -0.013359628 0.077592425 -0.033961017
000310 cf 2f 37 bc fd 89 95 bd 42 5a 35 bc 85 c3 3b 3d
       -0.011180832 -0.0730171 -0.011068882 0.04584076

fc2.weight f4 [200, 200]
000000 74 d7 51 3c 1c 4c 89 bd 95 46 c0 3c cb 8d 66 3b
       0.012807716 -0.0670397 0.023471156 0.003517973
000010 45 b8 06 bd 87 00 71 3d 09 55 42 3d c4 31 55 bd
       -0.032890577 0.058838394 0.047444377 -0.052049413
000020 ac 87 41 3d 9b dd 07 3b c4 ea 79 bd 2c 30 17 3d
       0.047248527 0.0020731452 -0.061014906 0.036911175
000030 3f ad 3f bd 0b 75 4c bd 70 66 e0 bc 5c 47 a6 bd
       -0.04679608 -0.04991631 -0.027392596 -0.081190795
000040 93 0c db bc 40 f0 3b bb d9 42 81 3d d4 02 a0 3c
       -0.026739394 -0.0028677136 0.06311578 0.019532599
000050 e3 ca a5 3c 02 59 76 bd dc 7b 03 3d 0c a5 a7 bc
       0.020238345 -0.06014348 0.032100543 -0.020464443
000060 26 1d b2 bc 54 38 af bd 31 b7 3e 3d 48 c0 13 3c
       -0.021742415 -0.085556656 0.046561424 0.009018011
000070 61 c0 6f bc 5c 49 b7 3d db 6d ea 3c ff 82 26 bc
       -0.014633269 0.08949539 0.028616836 -0.010163068
000080 70 88 4d 3c fc e0 2c 3b ff b0 3e bd 8f 8b 10 bd
       0.012544736 0.0026379218 -0.046555515 -0.035289343
000090 3b d3 89 bd 95 11 78 3d 30 1b d1 3c 5e 28 1a bd
       -0.06729742 0.060563643 0.02552566 -0.037636153
0000a0 9c 3e af bc 32 45 66 3a f5 4d 50 bd a9 c7 25 bd
       -0.02139216 0.00087841146 -0.050855596 -0.040473614
0000b0 f8 a9 58 3e 87 1a 27 bd 5f b1 1d 3d 4f b3 c2 bc
       0.21158588 -0.040796783 0.038499232 -0.023767142
0000c0 94 52 07 bc d9 33 a1 3d dc 15 af 3c bc 9f be 3d
       -0.008259434 0.07871217 0.021372728 0.09307811
0000d0 f2 a6 22 bd d2 88 e4 bd 1a 58 6d bd 94 86 4e bd
       -0.039709993 -0.11158909 -0.05794535 -0.050421312
0000e0 9f 88 3e 3d 98 5a 0b 3d 92 54 f1 bd 94 54 84 3d
       0.04651701 0.034021944 -0.11783709 0.064614445
0000f0 3c 85 19 bd 42 d8 0c 3d 2e 80 14 be 40 a1 d0 3d
       -0.037480578 0.034385927 -0.14502022 0.10187006
000100 40 05 94 bc fe cb 6b bd 22 30 07 bd 52 90 8a bd
       -0.01806891 -0.05756759 -0.033004887 -0.06765808
000110 da a9 fa 3c 59 c7 4e 3c 52 18 b2 bc c0 e1 3c bd
       0.03059857 0.01262077 -0.021740112 -0.04611373
000120 6b b8 ad bd 66 b2 36 3d c0 92 f0 3d 9e 34 21 bd
       -0.084824406 0.044603728 0.1174674 -0.03935682
000130 20 e7 4f 3c 28 3d 30 3d 0e 0f 69 3d d3 49 28 3d
       0.012689382 0.043027073 0.056899123 0.04108603
000140 40 c6 93 bd d7 9a 3d bd d6 af a5 3c 05 da 1e 3d
       -0.072155476 -0.046290245 0.020225447 0.03878214
000150 30 20 85 bc cf 99 33 bc 01 6a 02 3d f2 75 98 3d
       -0.0162507 -0.010961964 0.031839374 0.07444371
000160 3e 2f 13 3d 75 6f 1c bd 41 1d a0 3d 37 39 ba 3c
       0.035933726 -0.03819223 0.0781808 0.02273236
000170 2e 7f 1c 3d 62 af 31 bd ee 3e 57 bb e4 aa 2c bd
       0.038207226 -0.04338015 -0.0032843906 -0.04215516
000180 9c 9f 25 3d 62 2a dc 3c ea 90 2a 3d 38 89 84 bd
       0.04043542 0.026875678 0.041642107 -0.06471485
000190 79 e4 69 3d 19 0a 7d bd b4 20 a2 ba e1 e2 23 bd
       0.057102654 -0.061777208 -0.0012369365 -0.04001129
0001a0 94 22 3a bc a5 c3 81 3d 46 c4 93 bd f4 5b 97 bd
       -0.011360783 0.06336144 -0.072151706 -0.073905855
0001b0 78 3b ae 3c 4a ff d3 3c f3 f6 87 3c c1 96 31 3c
       0.021268591 0.025878567 0.016597247 0.010839165
0001c0 c3 ed 26 3d bc 0e f0 3c 22 0f 32 bd 3e 66 14 bc
       0.04075409 0.0293039 -0.043471463 -0.00905758
0001d0 56 bf 64 bd 23 75 22 3c 4e c4 b1 3c 2e a2 e4 3c
       -0.055846535 0.009915623 0.02170005 0.027909365
0001e0 32 68 85 3b 05 a1 be 3b df b3 5e bd 35 fa 05 3d
       0.004071259 0.005817535 -0.054370757 0.03270932
0001f0 40 e1 31 3d 00 45 0c be e2 65 30 bd 2a 62 7b bd
       0.043427706 -0.13698196 -0.043065913 -0.061372913
000200 aa 33 4e 3d 3b 39 93 3d 06 a1 fa bc bf 0d 81 3b
       0.05034224 0.0718865 -0.03059436 0.0039384062
000210 c9 cf 9b bd dd 59 2e bd 63 d7 48 3d b1 72 21 be
       -0.07607991 -0.04256617 0.049033534 -0.15766408
000220 47 7b f6 bd bc 0a 45 3d 74 17 2a 3d fa e7 a1 3d
       -0.12035232 0.04810594 0.041526273 0.07905574
000230 62 c5 07 bc 32 e3 ee 3c ed 00 98 bd 51 1a 5b 3c
       -0.008286806 0.02916107 -0.074220516 0.013372974
000240 50 d6 4a bc 07 cb 51 b9 2e 6a a8 3b e8 5c 05 3b
       -0.012380198 -0.00020007427 0.0051396107 0.0020349566
000250 65 37 f8 bd 18 c1 91 3c 3a 0d d5 bc 02 e6 c3 bd
       -0.12119941 0.01779227 -0.026007283 -0.09565355
000260 3b fa ab 3c eb 21 4e bd 53 02 de bc 93 04 e4 bc
       0.020993343 -0.050325315 -0.027100718 -0.027834212
000270 b3 51 96 bc cf 45 32 bd 42 25 5d bd 82 58 b3 3c
       -0.018349504 -0.043523606 -0.05399061 0.02189279
000280 af dc 02 3d b0 11 89 bc 06 24 d4 bd b4 a1 b9 bc
       0.03194874 -0.016732067 -0.103584334 -0.022660114
000290 6c 78 f8 bd 25 0a 4a 3b 28 88 9d 3d dc 79 a0 bc
       -0.12132344 0.00308288 0.07691985 -0.019589357
0002a0 00 11 7e bb 5f 2c 13 bd 46 f7 c7 bb d0 98 8a 3d
       -0.0038767457 -0.035930987 -0.0061024753 0.06767428
0002b0 7b 8e b5 3c 78 38 a6 bc 66 fb ce bc 4e 7c be 3b
       0.022162667 -0.020290598 -0.02526636 0.005813158
0002c0 e8 4b d6 bc 97 5e ae 3b 17 e0 71 bd 71 bf 46 bd
       -0.026159242 0.0053213346 -0.0590516 -0.048522417
0002d0 c1 83 1a 3c da 2f a3 ba e8 11 09 3c 1b 71 44 3d
       0.009430827 -0.0012450174 0.008366086 0.04795943
0002e0 34 ff 8f bd 70 94 78 3b d8 be 05 bd cf 9c 40 bd
       -0.07031098 0.0037930273 -0.032652706 -0.047024544
0002f0 fb 75 52 3d e1 71 56 3d ed 33 a9 3d ba 21 17 be
       0.051382046 0.052354697 0.08261857 -0.1475896
000300 f6 cc 32 3d 62 09 d9 bb 73 96 50 bd 56 67 c2 3c
       0.043652497 -0.006623433 -0.05092473 0.023730915
000310 49 53 8d bb 42 89 47 bc d7 be 8f 3d d2 5a 93 3c
       -0.004312907 -0.012178721 0.07018822 0.017987642
000320 9c 21 27 3c 78 f3 41 bd 0f 52 75 bc ab 66 a8 3d
       0.010200884 -0.04735133 -0.014973178 0.08222707
000330 ff ea 98 bd 3e a1 34 bd 80 a6 f8 ba 40 d0 df 3a
       -0.07466697 -0.044099085 -0.0018970519 0.0017075613
000340 a8 ff 42 bc ee 5a 38 bd 24 29 0d 3e aa 2c 2e 3d
       -0.0119017735 -0.045008592 0.13785225 0.042523064
000350 a4 1f f2 3c f9 07 af 3d e8 98 24 bd 5b 22 09 3e
       0.029556103 0.085464425 -0.040184885 0.13392012
000360 31 d0 e9 3d 30 c3 7b 3c 81 e9 02 3d 7e 65 0e 3d
       0.114166625 0.015366361 0.031960968 0.03476476
000370 38 92 c3 3d 3f 76 be 3d a8 f5 79 3d 5e cf 41 bb
       0.095493734 0.092998974 0.06102529 -0.0029573063
000380 36 cf 0e 3e 9e 4a 45 bd 38 e7 a9 3d ac ef 73 bd
       0.13946232 -0.048166864 0.082960546 -0.05955474
000390 0e af a0 3d 15 b5 03 3d d9 c0 f5 3e fa a9 a2 3d
       0.07845889 0.032155115 0.47998694 0.07942577
0003a0 c5 85 e4 3d b4 5a 0c be a6 1d 08 bc 1f 13 c0 bd
       0.11158327 -0.13706475 -0.00830785 -0.09378647
0003b0 6d 57 68 3d d3 e5 6e bc 60 cd 11 bd 92 d4 8f ba
       0.056724 -0.014581162 -0.03559625 -0.0010973385
0003c0 87 88 02 3e 59 3a 35 bb 3f f5 02 3e 73 69 c2 3c
       0.12747394 -0.0027653186 0.12788866 0.023731923
0003d0 ad ef 6a 3d 36 2b ab 3d 1d 09 91 3c 86 69 ab 3d
       0.05735748 0.08357851 0.01770454 0.083697364
0003e0 26 2f ae bc e3 07 8f bc 61 fa 5c bd 2e c3 ae bd
       -0.021262717 -0.017459815 -0.053949717 -0.08533321
0003f0 f3 7c 03 be 1c 56 21 3c ad 5a 98 3c 6f 66 69 bd
       -0.12840633 0.00984719 0.018597925 -0.056982454

fc2.bias f4 [200]
000000 f6 b4 a5 bd c3 01 74 be f0 17 1e bd 11 ce a7 3c
       -0.08091156 -0.23828797 -0.038597047 0.020484002
000010 2c 18 1c bd f8 6c 2d bd af 7b af bd ef 0e 9d bd
       -0.03810899 -0.04234025 -0.08568513 -0.07668864
000020 61 24 84 bd a8 6e 71 bd b6 38 c5 bd 1a bf 76 bd
       -0.06452251 -0.05894342 -0.096299574 -0.060240842
000030 e7 23 7e bd 5e be 86 3e 04 f2 b2 3e fe 28 23 bc
       -0.062045958 0.26317114 0.34950268 -0.009958504
000040 c8 62 3b 3d 18 f9 a0 3c 28 1e 5f bc 56 3e ab bd
       0.045748502 0.019650027 -0.01361803 -0.08361499
000050 3d 71 16 3e 82 88 be bb 09 95 d5 bc e2 5b 81 bc
       0.14691634 -0.005814613 -0.026072042 -0.015790883
000060 a4 51 ca 3a ea 66 44 bd 38 dd 8a bd 6b 53 b5 bc
       0.0015435708 -0.04794971 -0.067804754 -0.022134503
000070 75 ce b5 3c 51 e5 2b 3c 30 c8 aa bd 59 03 0d bb
       0.022193173 0.010491685 -0.08338964 -0.0021516888
000080 51 96 da bd de 54 84 3d 7e bc 00 bc 5f ba ed ba
       -0.10673202 0.064615 -0.00785744 -0.0018137208
000090 25 c8 8b 3c 8f d5 e4 bd 5a 0a 78 bc be d2 37 bd
       0.01706321 -0.111735456 -0.015139187 -0.044878714
0000a0 1e d6 17 3d e9 08 81 3d 75 1b 75 3e ae 6f 37 bd
       0.037069432 0.063005276 0.23936255 -0.04478424
0000b0 19 41 59 3e 37 c1 aa 3c ea 74 0f 3d 7e cb 63 3d
       0.21216239 0.020844085 0.035023607 0.055613987
0000c0 44 fc 06 be b2 b1 88 bd 70 e3 cf bc 74 b4 82 3c
       -0.13182169 -0.06674518 -0.025377005 0.015955187
0000d0 e0 27 b5 b9 94 32 2d bd cd a7 0a bd 16 57 d3 3b
       -0.0003455272 -0.042284563 -0.033851434 0.0064495904
0000e0 c1 8f dd 3c 98 fc 97 bc 3c 94 c0 bd 46 6d a6 bc
       0.027046086 -0.018553063 -0.094032735 -0.020315778
0000f0 1a 12 ee bc 3e cb a4 bd 70 d1 b5 3c b6 e6 c9 bd
       -0.029061366 -0.08046578 0.022194594 -0.09858458
000100 b4 92 ca bc ec a0 d5 bc 91 cc 26 bc c2 5b 8c 3d
       -0.024728157 -0.02607771 -0.010180608 0.06853439
000110 b5 53 00 bc 8a 24 72 bd 75 9c c8 3c 76 4c af bc
       -0.007832457 -0.059116878 0.024488667 -0.021398764
000120 7e d0 ea bd 14 c1 f5 3d e2 92 99 bd 52 32 cc 3c
       -0.11465548 0.11999717 -0.07498719 0.024926338
000130 83 83 13 3d 61 59 45 3c af 80 53 bd fe 19 4c bd
       0.03601409 0.012045235 -0.051636394 -0.049829476
000140 ab 08 53 3c 48 27 e2 bd 0e 8e 71 bd 55 58 fb 3c
       0.012880485 -0.110426486 -0.058973365 0.030681768
000150 e4 96 aa bd 5c 5d 0d bc 9d e9 e0 bd fc 32 8d bd
       -0.08329561 -0.008628216 -0.10982058 -0.0689449
000160 ec 58 34 3d 47 95 33 3d 27 87 d9 b9 c6 2f 4d 3d
       0.044030115 0.043843534 -0.00041490162 0.05009439
000170 bd 8a 84 3c 16 15 2c bd 0d d2 80 bd 23 c9 bd bc
       0.016179437 -0.042012297 -0.06290064 -0.023167199
000180 92 40 00 3d e1 05 60 3e 89 80 af bd 0f a3 05 bd
       0.03131158 0.21877243 -0.08569438 -0.032626208
000190 d7 8b be bc 69 1c cd bc 67 d7 f3 bb da 80 92 bc
       -0.02326004 -0.025037961 -0.0074414494 -0.017883707
0001a0 af ba 14 bd 03 75 aa 39 c1 25 7b bd 5d 7c 65 bd
       -0.036310848 0.00032512107 -0.0613153 -0.056026805
0001b0 d5 5f fc bc 21 40 da 3d 14 e7 5b bd 5c b5 52 3c
       -0.030807415 0.10656763 -0.05368717 0.012860622
0001c0 27 f4 be 3c ba 69 fe 3c 30 fc 95 bd 35 1d cb 3c
       0.02330978 0.031056274 -0.073234916 0.0247942
0001d0 2d 8c 5c bd 1d 92 ed 38 c6 f0 6a 3d d1 5c 09 bd
       -0.05384462 0.000113282564 0.057358526 -0.033535782
0001e0 f2 d3 aa bd 10 3a 7e bd 58 8b 94 bd 75 c0 33 3b
       -0.083412066 -0.06206709 -0.0725314 0.0027427946
0001f0 66 54 c1 3d 6b 2f 94 3b a0 f1 07 bd 16 53 0d 3d
       0.09439926 0.004522254 -0.033189416 0.034503065
000200 c1 c6 bd bc 92 f9 10 3d 74 7e 98 bd 82 a5 cf bd
       -0.023166062 0.03539426 -0.07445994 -0.1013899
000210 d5 aa 02 be d0 64 aa bd b4 be fe bd ac b9 13 bc
       -0.1276048 -0.0832001 -0.124387175 -0.009016436
000220 ee 00 43 3c ec 4a 69 bd 4a 63 52 bd ef b1 60 3b
       0.011902077 -0.056956217 -0.05136422 0.0034285744
000230 2f 5a e0 bd 66 61 c6 bd 10 9d f7 bc 8e 69 9e 3b
       -0.10954701 -0.09686546 -0.03022626 0.0048343604
000240 9c 15 dc bb 3d 82 20 bd 0d 5c 3e 3d 90 aa 87 3c
       -0.006716443 -0.039186705 0.046474505 0.016560823
000250 38 ce 17 bd 2c 8f 56 bd 67 9c 06 bd 76 56 56 bd
       -0.0370619 -0.052382633 -0.032864 -0.05232855
000260 4b aa dc bb 16 95 aa 3c 10 15 91 bd 76 01 83 bd
       -0.0067341677 0.020823043 -0.070840955 -0.06396763
000270 82 53 1b bd 26 4c 68 bd 63 5a 01 3c fc a2 18 bd
       -0.037921436 -0.056713246 0.007895085 -0.03726481
000280 64 c2 44 bd 11 0a b4 3c 3b b6 1c bd 05 7b 68 bd
       -0.048036948 0.021977456 -0.038259726 -0.056757946
000290 b0 9d b3 bd 0b 1b a0 bd 25 78 ab 3b 82 a8 a3 bd
       -0.08770311 -0.07817658 0.005232828 -0.07991125
0002a0 a5 9d 2d 3c 55 26 00 bd 5a 6e ac bd 97 31 d7 3d
       0.010596667 -0.031286556 -0.084194854 0.105075054
0002b0 0a 8f b6 bc 3b 46 c7 bd 08 2b 54 3c 99 e2 2e bb
       -0.022285003 -0.09730192 0.012949713 -0.0026685356
0002c0 f0 ad 8e bc 87 82 65 bd b2 40 ad bd 31 09 8d bc
       -0.017416924 -0.056032684 -0.08459605 -0.017216297
0002d0 3d f9 35 3c dc de b6 bd ff 86 18 3d da 8e 85 bd
       0.011106786 -0.08929226 0.037238117 -0.065213874
0002e0 78 57 0e be 07 09 86 bd 9e a4 ce 3c e0 47 8a bd
       -0.13900554 -0.065446906 0.02522498 -0.0675199
0002f0 c4 87 ed bc e2 64 a9 3d 8e f1 83 bc d6 42 2a bd
       -0.028995402 0.08271195 -0.016106393 -0.041567646
000300 d0 20 90 bd 1f 55 4b 3e 78 8e b1 3e 01 09 84 bd
       -0.070375085 0.1985669 0.34679008 -0.0644703
000310 26 8c b7 bb a2 29 4e bc 0b 3b e7 3c f4 4d 5c bd
       -0.005601424 -0.012583168 0.028226396 -0.05378528

fc3.weight f4 [7, 200]
000000 67 a5 cd bc 14 a6 93 bd 13 b8 fe bb 9d 1e 5a 3c
       -0.025103284 -0.07209411 -0.007773408 0.013312963
000010 80 9e f2 3b 49 d2 b9 bd 66 80 3e 3d 69 76 1d bd
       0.0074041486 -0.09073312 0.04650917 -0.038443003
000020 31 f9 98 3c d3 ab 1b bc 88 3b 2c 3c fc ec e5 bd
       0.018673511 -0.009501415 0.01051224 -0.11226842
000030 b0 fd 07 bd 75 a6 0e 3e 8f a9 2a 3e b7 6d 13 bc
       -0.03320092 0.13930686 0.16666244 -0.008998326
000040 41 0c d0 bd a0 f3 09 3d bf c0 90 bb e3 a9 ba bc
       -0.10158587 0.033679605 -0.0044175084 -0.022786086
000050 e5 cf f0 bb 6b e0 65 3d 26 ee 23 bc d1 51 10 bc
       -0.0073490017 0.056122225 -0.0100055095 -0.008808569
000060 3c 42 8c 3c 28 7e 16 bd c1 46 c8 bc 44 e7 9e bb
       0.017121427 -0.036741406 -0.0244478 -0.0048493464
000070 89 26 a9 3a 15 01 6a 3c ff cd b1 bc 85 a6 12 3e
       0.0012905161 0.014282485 -0.021704672 0.14321335
000080 6b 0b b9 3d c9 4c 08 bd b1 4d a9 bd 6c a7 7c bc
       0.09035381 -0.033276353 -0.082667716 -0.015420776
000090 4f 73 d3 3c 28 69 ac bd 7c bb 58 bd 06 27 5f 3d
       0.02581182 -0.084184945 -0.052913174 0.054480575
0000a0 05 06 03 3c 14 a7 6e 3d 36 14 ce 3d 04 37 a5 3c
       0.007997041 0.058264807 0.10062449 0.020167835
0000b0 25 93 c2 3d 02 72 2e 3d 6c ef 65 3d eb 5b 7e bd
       0.09500722 0.042589195 0.056136534 -0.06209938
0000c0 4d c5 7b bd f9 1e 82 3d 88 9a 38 3d e7 53 39 3d
       -0.061467458 0.06353564 0.045069247 0.04524603
0000d0 ed 24 30 bd 13 40 e6 3b fc 7e f5 bc cb e3 d7 3c
       -0.043003965 0.007026681 -0.029967777 0.026353737
0000e0 d3 fe 5b 3d 26 b3 8a bb 0b 57 84 bc d0 2d f8 3d
       0.053709816 -0.004232782 -0.016154787 0.12118113
0000f0 05 b4 18 bd 0d 98 1a bd 5d 1b 44 3c bc a0 d0 3c
       -0.037281055 -0.037742663 0.011969415 0.02546727
000100 9f da 20 bd 85 da a4 bc d1 43 48 3d 72 be f4 bc
       -0.039270993 -0.02012373 0.0488928 -0.029875968
000110 12 3b cb bb be 38 8d 3b 65 85 1e bd 3a ca 8f bd
       -0.00620211 0.0043097427 -0.038701434 -0.070209935
000120 a7 4f 89 3d 2e d8 b1 3d 58 3d ae bc bc 5e b8 3c
       0.067046456 0.08683811 -0.021269485 0.02250611
000130 b1 44 82 bb f8 a1 1f 3d 94 1d ac 3c df a5 3f 3d
       -0.003975474 0.038972825 0.021010198 0.046789046
000140 6b 36 ce bc 3b b2 77 3c 16 44 98 3c 5d 40 72 3d
       -0.025172433 0.015118177 0.018587153 0.059143413
000150 27 9e f6 bb 77 a4 cf bc 04 ab f3 bb b4 8e 15 3e
       -0.0075261774 -0.025346978 -0.007436158 0.14605218
000160 39 3a ef bc c5 a5 10 3d 05 49 a2 bd c7 21 1a bd
       -0.029202567 0.03531434 -0.079240836 -0.03762987
000170 8a 3a 55 3d d0 a5 0a 3c 4e 27 45 bd 3c fe 2e bd
       0.05205778 0.008462384 -0.048133187 -0.042722926
000180 64 00 15 3d 32 23 de 3d 8a b5 5a bd 73 5b 8f 3d
       0.036377326 0.10846557 -0.053395785 0.069998644
000190 c3 c1 1d 3e c9 c9 4f bc fe 6b ce bc 6f ab 13 3d
       0.15405945 -0.012682387 -0.025197979 0.036052164
0001a0 47 34 ff 3a 77 1e 33 3d 56 41 1f bd d9 2f 00 bd
       0.0019470536 0.043730225 -0.03888067 -0.03129563
0001b0 60 f1 2d bd 96 79 fd 3b 74 d7 be bc ff b4 cf 3d
       -0.04246652 0.0077354414 -0.023296095 0.10141944
0001c0 95 f2 ac bd be a0 4a bd 88 2d 89 3d 42 cb 65 bd
       -0.08444706 -0.049469702 0.066981375 -0.056102045
0001d0 1d a3 e1 3c b8 81 09 bd d8 d3 5a 3d 06 de 49 3c
       0.027543599 -0.033570975 0.053424686 0.012321001
0001e0 3a 7d 15 bd bf b6 74 3d 2f ce 2d bd 28 6f a1 3a
       -0.03649638 0.059744593 -0.04243296 0.0012316452
0001f0 85 24 00 3d 0b e3 ca ba 3d 23 2f 3d 72 01 d6 3b
       0.031284828 -0.0015479041 0.042758215 0.006530934
000200 47 d8 22 bd b0 97 e6 3b 58 81 28 bd c2 d3 e0 bc
       -0.03975704 0.0070371255 -0.041138977 -0.027444724
000210 2b 96 51 3c bc a9 05 bd 59 81 9b bd 0e a2 ad bc
       0.0127921505 -0.032632574 -0.075930305 -0.021195438
000220 e8 9d 72 3c 2e ee 97 bc 82 df 05 3d 60 70 ef 3d
       0.014808156 -0.01854619 0.032683857 0.11691356
000230 2b 71 da 3c 05 44 19 3c 9b 22 ec ba 79 06 ab ba
       0.02666529 0.009354596 -0.0018015684 -0.0013048194
000240 a5 3a 83 bd d5 90 5d bc 1e ee 29 bd 44 b8 b6 bb
       -0.0640767 -0.0135233 -0.041486852 -0.0055761654
000250 f7 b9 cb bc 4e a6 7b 3c 07 23 15 3d 1f 57 de 3b
       -0.024868948 0.015359474 0.036410358 0.006785288
000260 e4 55 ca 3c b7 7c 0c bd 84 d5 c1 bc 4d b1 09 bd
       0.024699159 -0.034298625 -0.023661382 -0.033616353
000270 67 31 07 3d 6f a3 2d 3c 54 79 04 bd a8 e2 88 bd
       0.033006098 0.010598048 -0.03234227 -0.06683856
000280 c0 55 82 3c 6d a2 65 bc 9b 24 88 bc 5b 25 0b bc
       0.01591003 -0.014015776 -0.016619017 -0.008492793
000290 c1 65 4b 3d 2d 93 44 bd 70 3b 28 3d 59 ac 2e 3b
       0.049657587 -0.04799192 0.04107231 0.002665302
0002a0 3a d4 be bd 83 03 60 bc 71 25 5c bc d5 a6 a4 3c
       -0.09317823 -0.013672712 -0.013436661 0.020099083
0002b0 45 59 88 3d 92 20 8a bd c1 05 1e 3d 36 5b 73 bd
       0.06657652 -0.067444935 0.038579706 -0.059413157
0002c0 70 97 8e 3c 99 f0 a0 bc cc 0a 22 bd ea 80 08 bd
       0.017406195 -0.019645976 -0.039561078 -0.033326067
0002d0 78 da 4e bd ad 4e cf 3c 4a db 3d 3c 9a c2 d4 bc
       -0.050501317 0.02530607 0.011587927 -0.0259717
0002e0 c1 0d 82 3d 74 1b 01 bd e0 37 36 3d f7 01 19 bd
       0.063502796 -0.031520322 0.04448688 -0.03735539
0002f0 b5 d7 12 bc dd 01 b3 39 a0 bf b4 bd f8 16 1d 3d
       -0.008962561 0.0003414293 -0.08825612 0.038351983
000300 8f 82 1b 3c 03 2d db 3d 0d c1 37 3e 98 33 5d 3c
       0.009491577 0.10701945 0.17944737 0.01350107
000310 21 9d 45 bd c0 1f f4 3a 2a 04 79 3c ac 5d fa 3c
       -0.048245553 0.0018625185 0.015198747 0.030562244
000320 b8 cc 4f 3d 60 d9 b6 bd cf 1d 3c 3b a1 c1 af 3d
       0.050732344 -0.0892818 0.002870429 0.08581854
000330 1a 42 60 3d 35 7b 6b bd 03 ba 3d bb 48 aa f3 3c
       0.05475054 -0.057490546 -0.0028949983 0.029744282
000340 91 a0 1e 3e 1d d4 cd bd ed b2 1a bd cb b7 db bd
       0.15490939 -0.10050223 -0.037768293 -0.10728415
000350 f4 ec 8f bd da ac 04 3e 2d 3a 2a 3e d2 52 f0 bb
       -0.07027617 0.12956563 0.16623755 -0.0073340917
000360 b8 61 b2 bd 81 37 cc bc cd c9 4b bd 5b b8 27 bc
       -0.087100446 -0.02492881 -0.049753 -0.010236825
000370 65 8f 3b bb 94 77 58 bd bc 03 e6 3c 95 9a b7 3c
       -0.0028619405 -0.052848414 0.028077953 0.022412578
000380 6c 60 4b 3e 7e 66 49 3c b7 b3 8f 3d d7 9d ae 3c
       0.19861001 0.012292502 0.070167 0.021315498
000390 78 2e 9b ba 1e 7a a2 3c 35 61 30 bd 90 99 0d bd
       -0.001183941 0.01983362 -0.043061454 -0.034570277
0003a0 7d 57 83 3d 5a 0d 29 3d c0 06 9d 3d 5b 54 e4 3c
       0.064131714 0.0412725 0.07667303 0.027872255
0003b0 ca ba 3e bd 0c 66 6a 3d 7b ab ca bc 84 28 85 bd
       -0.046564855 0.057226226 -0.024739971 -0.06501868
0003c0 23 30 28 3c 21 ce 82 3d e3 47 d4 3d 9a 34 46 3c
       0.010265383 0.06386972 0.10365274 0.012097502
0003d0 f1 cb 82 3d 78 83 1f 3d 38 28 8f 3d 00 df ec 3c
       0.06386555 0.038943738 0.06990093 0.028914928
0003e0 6b b3 0d 3b b9 da b0 3c 84 25 77 bd bf c0 89 3d
       0.0021621834 0.02158867 -0.060338512 0.067262165
0003f0 7b af 70 3d 22 04 d9 bc a0 ca 54 3d 2c 12 5f bc
       0.0587611 -0.026491228 0.05195105 -0.013615172

fc3.bias f4 [7]
000000 48 b2 a8 3e 8e 03 b6 3e 5d ac 41 3e 06 3f b8 3e
       0.32948518 0.35549587 0.18913408 0.35985583
000010 4f 09 b8 3e 79 02 88 3e 9f 3b 87 3e
       0.35944602 0.26564386 0.26412675
