mountain_car_v1/mountain_car_v0_chk.pt (torch_old, 166651 bytes, 6 tensors)

fc1.weight f4 [200, 2]
00000000: d2b6 fe3c c473 2fc0 bb5d ddbe 7fe7 a8c0
00000010: d670 8bbe ac2a 423e fae4 7dbd 0752 2abf
00000020: 8327 6e3b 0d81 5dc0 5cd3 5abe 1c54 0ebe
00000030: e3b3 2cbf 6714 65c0 c38f 67be 720a 4dc0
00000040: 6a20 8f3e 423b d93e f99f e0be b09d 76c0
00000050: a67f 833e f750 163f 7474 203f 92c4 91c0
00000060: e871 53bd 4805 3fc0 358d be3f a847 0640
00000070: 19bc d3be b90a 29be 689a f0bd 7ac6 ebc0
00000080: bd48 86be c33c eec0 7f1d cfbe d25c acc0
00000090: 5243 90be f639 56c0 50ce af3e 18c2 0dc0
000000a0: f6b6 a43d 4021 83c0 7001 f53d 4d04 29bf
000000b0: 55ca c3be 9a39 9ec0 0a26 313e 8356 8740
000000c0: 389f 81be 17bc 6dc0 b28b e73e 13f5 333f
000000d0: 4797 873e 4cb3 a93d f2bd f23e 522b d5be
000000e0: 70ed 063e 6558 0cbf fb80 cebe 4577 8cc0
000000f0: 0ed0 a33e fe98 913e 199c b7be db03 52c0
00000100: a6a1 d63e e762 17c0 644d 053e 552e 5dc0
00000110: ae99 e03e 4fd0 2d3f 160c 13bf 76c7 c8c0
00000120: a50d 4abd 57d7 7f40 3b86 1d3f 3fb9 1f3f
00000130: 3f44 643e 6134 84c0 2838 853d 4b7e e2be
00000140: bd0c 1bbf 629f 1e3f cba3 093f 6492 34bf
00000150: ec86 073e c8f4 f3bd adb5 3bbd 492f 78c0
00000160: 6639 8b3e d06f d6be e3d9 953e 5e40 03c0
00000170: 2b96 013f cc5e 873e 6d03 0ebf 066d 90c0
00000180: 91ba 223d ecc8 c540 610c 2bbf 1cab dbbf
00000190: 0e44 c93e cc33 8840 8c6e 73be 16d3 62c0
000001a0: 668b 2fbf b02b 22c0 ec3e eebe 8070 8bc0
000001b0: e095 1fbd e86e d93d 3803 89be 4191 00c0
000001c0: b946 99be 6c03 51c0 7514 003f e078 54c0
000001d0: 2436 34be 60b0 023d 9049 d33d 88bb 2b3e
000001e0: 0013 8e3e 507d 2d3d c7f3 2abe 3d2c fdc0
000001f0: e04e febe 54d5 92c0 1842 35be 975a b0be
00000200: 1175 34be 90ad 89c0 83ca b6bd b1c2 59c0
00000210: d0c0 afbe c00d 7bc0 3595 013f e0de 94bd
00000220: 60fd a03c 80dc 79bd 2c8a 123e ce32 e63e
00000230: 8be0 0c3f b25d 4bc0 7c70 ca3e ee83 5040
00000240: 5ed2 18bf bcb4 7cc0 88b0 cf3f 0ee2 2f40
00000250: d52d 96be 9e9e 87c0 58fe 13bf 3a48 a3bf
00000260: 98de 12be 4e8b c63e 6451 ea3e fb34 67c0
00000270: 4ed5 e13e 3ba6 0dbf c5d5 99bd c318 7ac0
00000280: e477 0bbe d42a 0ebe 7344 40bf 99f8 cac0
00000290: 409b e2bd 80d2 153c 3f0d 85be 7370 42c0
000002a0: 7d85 0ebf 8be4 99c0 cf21 5d3e 8ca9 4e40
000002b0: 057f e73e a959 8340 574b 21bf 98bd 38c0
000002c0: c59d f0ba 5be8 89c0 6cc8 913f 39db 8c40
000002d0: e864 9b3d 6099 17be 668c 523f ca4e bb40
000002e0: b30e dd3e 0405 28c0 4c1f 2ebe 0447 18be
000002f0: d6b7 12bf 0a7a 1dc0 c711 783f 0065 b840
00000300: 2b85 f7be 93c1 f73c 2780 6e3e ce15 dcc0
00000310: ef23 b2be 3b19 41c0 441d d0be 937c 37c0
00000320: 40af f33c e260 e93e 72e3 f8be 7b5e 7ac0
00000330: 017b ccbe c4bf 32c0 6aa8 4fbe 5ae5 23c0
00000340: 33a6 913e bbfa 2cc0 807b acbb 0023 0fbe
00000350: 3a6d 8c3e 8638 7dc0 7ec5 9e3d 37c7 68c0
00000360: 1254 f7be 6d19 e2c0 0ada 013f 205f 79c0
00000370: 10f9 4fbd 4312 333f b901 9f3e 485e 32c0
00000380: e827 1cbf fea2 8ac0 8a10 06bf be0c c9c0
00000390: dde6 03be ccc2 78c0 72c1 af3d dbe8 34c0
000003a0: 30c9 b43d 4123 223f a6e7 8d3f c6dc 7c40
000003b0: 787f f73e 1d9d 82c0 69ca febd e0c1 86c0
000003c0: 1641 91bd beab 7540 35d7 e13d 3289 e7c0
000003d0: d306 cf3e 7bd7 75c0 9bdf 023f 5fb0 15bf
000003e0: 80ac 1f3c e835 f6bd 2831 60be 2259 75c0
000003f0: d0d7 2f3f 0251 63c0 47b7 49be ca9b f7c0
0.031093035 -2.7414408 -0.43235573 -5.278259 -0.27234524 0.1896159 -0.061985947 -0.66531414
0.0036339469 -3.4610016 -0.2136969 -0.13899273 -0.67461985 -3.5793703 -0.22613434 -3.2037625
0.27954417 0.42428023 -0.4387205 -3.8533745 0.25683326 0.5871729 0.62677693 -4.5552454
-0.0516223 -2.9846973 1.4886843 2.0981236 -0.41354445 -0.16507997 -0.11748201 -7.367978
-0.2622737 -7.444917 -0.4045219 -5.3863306 -0.2817636 -3.3472877 0.3433709 -2.2149715
0.080427095 -4.097809 0.11963165 -0.6602219 -0.38240305 -4.9445314 0.17299667 4.2293105
-0.25316787 -3.714605 0.45223767 0.7029583 0.26482603 0.08286151 0.47410542 -0.41634613
0.13176513 -0.5482238 -0.4033278 -4.3895593 0.3199467 0.28437036 -0.3586128 -3.2814853
0.41920203 -2.3654115 0.13017803 -3.455953 0.43867248 0.6789598 -0.57440317 -6.2743483
-0.04932942 3.9975183 0.61532944 0.6239204 0.22291659 -4.131394 0.065048516 -0.4423698
-0.6056631 0.6196195 0.53765553 -0.70535874 0.13235062 -0.11911923 -0.045827556 -3.877886
0.2719223 -0.4188218 0.29267797 -2.0508037 0.50619763 0.26439512 -0.5547398 -4.5133085
0.039728705 6.1807766 -0.66815764 -1.7161593 0.39309734 4.256323 -0.23772639 -3.5441337
-0.6857208 -2.5339165 -0.4653238 -4.357483 -0.03896129 0.10616857 -0.26760268 -2.0088656
-0.2993677 -3.2658339 0.50031215 -3.3198776 -0.17598778 0.031906486 0.10316765 0.16770756
0.2774887 0.042355835 -0.16694556 -7.91165 -0.49669552 -4.588541 -0.17700994 -0.34444115
-0.17622782 -4.302437 -0.08925345 -3.402508 -0.34326792 -3.9227142 0.50618297 -0.072690725
0.019652069 -0.0610013 0.14310521 0.44960636 0.55030125 -3.1775937 0.39538944 3.2580523
-0.59695995 -3.9485312 1.6225748 2.7481723 -0.29331842 -4.2381124 -0.5780997 -1.2756417
-0.14342725 0.38778156 0.4576522 -3.6126087 0.4410805 -0.5533177 -0.075114764 -3.9077613
-0.13619953 -0.13883525 -0.75104445 -6.3428464 -0.11064768 0.009144425 -0.25986668 -3.0381134
-0.55672437 -4.8091483 0.21594928 3.2290983 0.45214096 4.104695 -0.63005584 -2.886572
-0.0018357566 -4.3096137 1.1389289 4.4017606 0.07587606 -0.14804602 0.8224548 5.853368
0.43175277 -2.6253061 -0.17004126 -0.1487084 -0.5731176 -2.4605737 0.96902126 5.762329
-0.48343787 0.03024367 0.23291074 -6.8776617 -0.3479304 -3.017165 -0.40647328 -2.8669784
0.029746652 0.45581728 -0.48611027 -3.9120166 -0.39937595 -2.7929544 -0.20279089 -2.5608735
0.28447112 -2.7028034 -0.005263746 -0.13978195 0.27427083 -3.956575 0.077525124 -3.637159
-0.48306328 -7.0656037 0.50723326 -3.896431 -0.050774634 0.6994974 0.31056002 -2.7870045
-0.6099839 -4.3323965 -0.52368987 -6.2828054 -0.12881036 -3.8868895 0.08581819 -2.8267124
0.08827436 0.63335043 1.1086318 3.950975 0.48339438 -4.081679 -0.124409504 -4.2111664
-0.07092492 3.8386073 0.110273756 -7.2354975 0.40434894 -3.841277 0.51122445 -0.58472246
0.009745717 -0.120220006 -0.21893752 -3.8335652 0.6868868 -3.5518193 -0.19698821 -7.737767

fc1.bias f4 [200]
00000000: 1151 e43e 3528 0ebd 65ee aabe df5a 2e3f
00000010: 6a40 873e 846b 09bf 64eb 283f a919 013f
00000020: b5f5 83be a62f be3e d6b4 cdbe 73b8 8d3e
00000030: 5b21 0e3f cf68 a23e e01a 08bf ea82 083d
00000040: bb11 21bd 1987 00bd 18af 013e 648d 2b3f
00000050: f980 3c3e 8389 dfbe 8cba ebbc d033 f43e
00000060: eade a43e c770 25bf 22cc 11be 0686 06bf
00000070: 077a 9abe 87db 663e 1c8c 00bf b475 6b3e
00000080: f3ce 203f 3dfa 253e 584b f1be d9e6 dfbd
00000090: 9b4b 983e 8afe 09bf a6f6 ac3e 8a57 24bf
000000a0: 88c1 3bbf ade3 2fbf 84e3 12be 7cc7 ea3e
000000b0: bc54 2bbf 2e1e 183f e1d2 90be 3ede 643e
000000c0: 1b20 30bd 38d7 13bf f621 363f 08af ab3e
000000d0: 4c25 323f fa51 aa3e 72f8 eebe f611 103f
000000e0: 138f 063e d581 db3e 8625 11bf 8c43 50be
000000f0: 23bd 31bf 1e7b 953c b27b 523e 2421 0ebf
00000100: 9e92 5c3e 8833 b63e 64c2 1c3e ea3b f2be
00000110: 0d59 0cbf d063 5fbe 8235 043f 4382 4c3f
00000120: c93c c33e eaad 973e 7c6a 6a3e 7bd4 46bf
00000130: dd9b 1abf 4532 c33e 6f10 cdbe fcc2 9e3e
00000140: 2293 ffbe d1e7 20be 881a 15bf 103d a23e
00000150: 8301 8dbd 3e5e 2c3f a665 0b3f 4619 b73e
00000160: 1de8 2b3e 7a28 d4bd f46f 1dbe 26c9 2b3e
00000170: 99af bc3e 00a4 fdbe 544a 143f 684f 153e
00000180: e795 1bbf a04b e5b8 7695 143f be05 233f
00000190: aeac 27bf ed30 f53e ba65 a53e 5338 c23e
000001a0: 7c13 193f f01e c3be 300d 713e 9f70 8a3e
000001b0: 932c b3bd 5d89 dc3e a853 50be 36f2 df3e
000001c0: 8d7c afbd bceb c7bd c1cd 2f3e 1dfe 733e
000001d0: bfe1 b0be 5a14 6e3e 0469 cd3e 9f44 213e
000001e0: a860 ac3e 2fbc 033e 690b aa3e 1e21 03bf
000001f0: a0e3 d4be 51f1 fbbd 582f 253f 9081 10bc
00000200: 3bc4 9ebd d302 a6be e9c4 2f3f 63a1 4c3f
00000210: ba85 08bf 36bf 12bf 1d36 09bf 3a84 313e
00000220: e2a8 bbbd 1f42 01bf d855 30be cae0 303e
00000230: 6f29 bdbe eec6 253e dc0a 26be 406e afbe
00000240: be82 2d3e 4247 0d3f 50c4 f4be 4b03 2d3e
00000250: 1882 85be 0349 323f 97be 2bbf 4589 2dbf
00000260: f5a4 323f e80e e5be 0e6f 883e e86a 56bd
00000270: 3088 18be 98b8 21be 5de5 c93e 2916 a2be
00000280: 393e 30bf 9bf1 1abe e659 99bd cfca ef3e
00000290: 9449 eabe 77c9 273f 50ea 4b3e 1776 28bd
000002a0: 64c9 2c3f 10bd 013f e2af 153f e6a8 043f
000002b0: 45f9 cdbe e233 f0be 7a75 fabc 5fa5 193f
000002c0: c403 73be 34df 27bf 95ff 873e 1a53 2a3f
000002d0: 6fde 5cbd 3a45 4fbe 0232 24bf b2fd c33e
000002e0: 6ff6 02bd e9eb aebd b231 333e 02af 773e
000002f0: f9f8 313f 605f 2b3f 1835 563e ed9d 1fbf
00000300: c192 23bf b6db 423f c067 943e d304 993e
00000310: 2a9f 1cbf 005a 203f 2f6c 3f3f e01e 223f
0.445931 -0.034706313 -0.33385006 0.6810741 0.26416332 -0.5367968 0.6598418 0.5042978
-0.25773397 0.37145728 -0.4017703 0.27679786 0.55519646 0.31720588 -0.5316601 0.033327974
-0.03932355 -0.03137884 0.12664449 0.6701262 0.18408574 -0.436596 -0.028775476 0.4769578
0.3220132 -0.6462521 -0.14238027 -0.52548254 -0.30171224 0.2254468 -0.5021379 0.22994119
0.6281578 0.1620874 -0.47127795 -0.109327026 0.29745182 -0.5390402 0.33781928 -0.64196074
-0.7334218 -0.6870678 -0.14344603 0.4585532 -0.6692617 0.5942105 -0.28285888 0.22350404
-0.04299937 -0.5775027 0.7114557 0.33531976 0.6958816 0.33265668 -0.46673924 0.56277406
0.13140516 0.4287249 -0.5669788 -0.20338267 -0.69429225 0.018247183 0.20554999 -0.5551932
0.21540305 0.3558619 0.15308529 -0.47311336 -0.5482338 -0.21815419 0.51644146 0.79886264
0.38132313 0.29624873 0.22892183 -0.7766797 -0.6039408 0.3812429 -0.400516 0.31008136
-0.4991694 -0.15713431 -0.5824361 0.31687212 -0.06885054 0.673313 0.5445198 0.3576147
0.16787763 -0.10359283 -0.15374738 0.16775951 0.3685272 -0.49539185 0.57925916 0.14581072
-0.6077561 -0.00010933657 0.5804056 0.63680637 -0.65497863 0.4788889 0.32304174 0.37933597
0.59795356 -0.3810954 0.23540187 0.27039048 -0.08748736 0.4307355 -0.20344412 0.4373948
-0.08568678 -0.0976176 0.17168333 0.23827405 -0.3454723 0.23249951 0.40119183 0.15748833
0.33667493 0.12864755 0.3321183 -0.5122241 -0.41579914 -0.12301887 0.64525366 -0.008819953
-0.07752272 -0.3242403 0.68659836 0.79933757 -0.5332905 -0.57323015 -0.53598195 0.17335597
-0.09163071 -0.5049152 -0.17220247 0.1727325 -0.36945674 0.16189167 -0.1621508 -0.34263802
0.16944405 0.55186856 -0.47806025 0.16895787 -0.26075816 0.6964266 -0.6708769 -0.6778758
0.69782954 -0.44737935 0.26647228 -0.052348047 -0.14895701 -0.15793073 0.39432803 -0.31657532
-0.68844944 -0.15131228 -0.0748785 0.46834418 -0.4575926 0.65541786 0.19913602 -0.041128244
0.674948 0.5067911 0.584715 0.5182022 -0.4022924 -0.46914583 -0.030573595 0.6001796
-0.23731905 -0.65574956 0.2656218 0.6653305 -0.053923067 -0.20241252 -0.64138806 0.38279492
-0.0319733 -0.0854109 0.17499426 0.24187854 0.6952053 0.66942406 0.20918691 -0.6235035
-0.63895804 0.761165 0.28985405 0.29886493 -0.61180365 0.6263733 0.7477445 0.6332836

fc2.weight f4 [200, 200]
00000000: 30d3 82bd 9235 fdbc 9c32 47bd 8179 803d
00000010: 49c5 0dbd 7a3b 04bd 836b 063d 204d 17bd
00000020: 4fa6 0ebd 06a0 2abc b0b6 debb c49d 61bd
00000030: d222 603d 6686 ffbc 0c79 cd3c 92ea 7b3d
00000040: 1dbc 003d c871 bd3b 6a1d 653d 95e6 ac3b
00000050: 3456 17bd d1fe 883d 9ae8 4c3c 7af4 95bd
00000060: 038e c7bc 8549 45bd 4eef 7d3d 5053 3fbc
00000070: bf00 84bd f11d 0ebc 58e4 353d 47b4 673c
00000080: b685 943c a614 193b acf5 d73c 09cf afbc
00000090: 7e8f 04bd 3a5c 87bd f482 6bbd b80d fb3c
000000a0: 8e7e 2bbd 9835 263c 3ce5 b83c c2db 4b3a
000000b0: 3cc8 3bbd dfd4 813d 956b 28bd bae6 5c3d
000000c0: 6067 66bd 3057 8bbc ad3b 0c3d 5ba8 07bd
000000d0: 5cfb 613d 14a2 58bd 4c39 73bd a0eb 13bd
000000e0: 7cfe eb3b 565b 793d 2445 0abd 1029 cf3c
000000f0: 9c39 91bc 7c3d 7bbc 74a5 433d bc75 60bd
00000100: fb0b 573b 470d 7f3d 577c 64bc 6ae1 603d
00000110: 3e63 b2bc 5624 693d 9b15 8cbd 843e 6cbc
00000120: ea62 88bc e8ba bb3c cd9e c03c 2e62 5e3d
00000130: 949a 2cbc 0267 e6bb b057 463d 4b5f bfbc
00000140: 76e6 7d3d 0b03 52bd 30ba fabb 8e81 03bc
00000150: 60d3 df3c 4ab1 343d fbea 7cbc 3ba3 80bd
00000160: c85d fc3c 9046 ad3c 68b0 e83c faa9 32bd
00000170: 4615 293d a729 893d eceb f93a c143 87bd
00000180: 6851 4b3d 4bbf 56bd c207 453c c322 c63b
00000190: d08e 07bd 970d a73c 4330 8abd 8995 423c
000001a0: e2ee 48bd 008d fabb eb74 9f3b 6c6d 653d
000001b0: 3584 1bbd 4c8c 393d f42b 13bc 16e0 1abd
000001c0: a4c4 86bd 128c 8dbd c7c4 843d d01c b3bc
000001d0: c077 673b 880b 9d3c ba8d 333d 51e0 653d
000001e0: 0795 593d 2a95 56bd afe9 7ebc b262 2bbd
000001f0: 2d7b 25bd b067 893c 088b 7e3d ae55 79bd
00000200: 39f7 1d3d fc29 16bd e577 93bc 5094 543d
00000210: 0803 83bc 00fb d23b 2276 4abd 243a 653d
00000220: 690a 5bbc 54d5 53bd 289d a93c 2540 5fbd
00000230: 04d3 65bd 2cc0 a538 cea1 653d 00ec a3bc
00000240: 26fe ed3c cd90 673d d419 403d ed3e 29bd
00000250: 90fe fdbb 9bec d8bc 1ee6 68bd 0010 f537
00000260: d49b 483d c204 743d a02e d83b 2bd9 413c
00000270: 68c6 fabc 30a0 5a3d 8fd6 09bd 6531 49bd
00000280: b867 323c be99 2d3d 7d90 82bd 7680 743d
00000290: e460 d03c 963d 5cbd 008e 79bc a0f5 693d
000002a0: 4689 6fbd 85f4 cbbc 9b58 9b3c 1f88 87bd
000002b0: 776c 0d3d 46c4 163d 8b4e 223d 3df9 49bd
000002c0: 833c 903d 9dae 2bbd 05ea 873d 82a3 93bd
000002d0: fbae 89bd e8e3 313d 5029 f23b 40ab 853b
000002e0: 70b4 31bd 74fc f2bc 7903 ccbc a2bb 95bd
000002f0: e305 11ba fb9b 073c 0018 7bb8 ac0f bb3c
00000300: 8768 893d 62c1 6e3c 16b1 f6bc e883 08bd
00000310: b84e 39bd 5b19 5abd 20db 7fbc 3718 89bc
00000320: d4d9 b73d 478b 3c3e 16e5 663d 7d25 f0bc
00000330: 4c2d cd3d 712d 823d bf64 c53d 8626 bc38
00000340: d85d 4e3c edcb 673d 41cb 07bd 8ceb a1bf
00000350: 37ce 863d 782c dcbf a014 353c fe80 41bf
00000360: f5e3 fcbe 0d91 a13e 9e63 743d a097 b93d
00000370: 7bca eb3e e20f b1bc 508e 793e 7dfb 31be
00000380: f5e4 473d 1c56 44bc 0051 e6b9 acd3 dabc
00000390: 7cc5 873c 9f01 953d 1898 373d a570 ff3c
000003a0: fea2 af3d 346a a43e 728d 72bd 18cd 7cbe
000003b0: f6f0 35be 26fc e7bc 8ae8 163e 447d 973c
000003c0: 475f e6bc 5044 3d3d b03e 833b fbc8 d03d
000003d0: dc61 fc3c 7318 2b3d 54a0 fa3c 3110 da3d
000003e0: ec7b 48c0 d68a 963e 5756 c5bd 615a dd3d
000003f0: 0373 66bc 9cdc a33c 5c6a fc3c f198 23bd
-0.06387937 -0.030909333 -0.04863225 0.06273175 -0.034611974 -0.032283284 0.032817375 -0.036938787
-0.034826573 -0.010414129 -0.0067966804 -0.055082098 0.054720707 -0.031192016 0.025082134 0.061503
0.0314294 0.005781386 0.055936255 0.005276511 -0.036947444 0.06689227 0.012506628 -0.07322021
-0.024359709 -0.048165817 0.061995797 -0.011677578 -0.06445455 -0.008674131 0.04440722 0.014142103
0.018130165 0.0023358255 0.026362263 -0.021461027 -0.032363407 -0.06609388 -0.057497934 0.03064619
-0.04186874 0.010144614 0.022570245 0.0007776582 -0.045845255 0.0633943 -0.041118223 0.053930975
-0.05625093 -0.017009348 0.0342366 -0.03311954 0.055171356 -0.052888945 -0.059380814 -0.03611338
0.0072019678 0.06087812 -0.033757344 0.025288135 -0.017727666 -0.015334483 0.04776521 -0.05479978
0.0032813537 0.06226852 -0.013945661 0.05490247 -0.021775838 0.05691942 -0.068400584 -0.014419202
-0.016648728 0.022916272 0.023513222 0.05429285 -0.010534901 -0.0070313225 0.04842347 -0.023360869
0.061987363 -0.051272433 -0.00765159 -0.008026494 0.027322471 0.04411439 -0.015436883 -0.06281134
0.030806437 0.02115181 0.02840443 -0.043619134 0.041280054 0.06697398 0.0019067503 -0.0660472
0.049638182 -0.052428525 0.012025775 0.0060466244 -0.03309518 0.020392222 -0.067474864 0.011876472
-0.04905594 -0.007646203 0.0048662326 0.056012556 -0.03796788 0.045299813 -0.008982647 -0.03781136
-0.06580475 -0.06911482 0.06482845 -0.021864325 0.003531918 0.019170538 0.043836333 0.056122128
0.05312064 -0.052388348 -0.015558644 -0.04184217 -0.040400673 0.016773075 0.06214431 -0.060872726
0.038565848 -0.036661133 -0.018001506 0.051899254 -0.015992656 0.006438613 -0.049429066 0.05596365
-0.013369181 -0.051717117 0.02070482 -0.054504532 -0.056109443 7.903608e-05 0.056062512 -0.020009995
0.029051851 0.056534577 0.04689963 -0.041319776 -0.0077512935 -0.02648001 -0.05686008 2.9213727e-05
0.048976734 0.05957485 0.006597355 0.011831562 -0.030612186 0.053375423 -0.033651885 -0.049119372
0.010888986 0.042382948 -0.06375215 0.059692822 0.025436826 -0.05376967 -0.015231609 0.057119012
-0.058480524 -0.02489687 0.018963149 -0.0661776 0.03452727 0.036808275 0.039625686 -0.049309958
0.07042792 -0.04191457 0.066364326 -0.07208921 -0.06722828 0.04343024 0.0073901787 0.0040792525
-0.04338497 -0.029661395 -0.024904 -0.07311179 -0.0005532188 0.008276935 -5.9865415e-05 0.022834621
0.0670939 0.014572473 -0.030113738 -0.03332892 -0.045241088 -0.053246837 -0.015616208 -0.01673518
0.08977094 0.18412505 0.056370817 -0.02931475 0.10018405 0.063563235 0.096383564 8.971714e-05
0.012595616 0.056590963 -0.033152822 -1.2650008 0.06582301 -1.7201071 0.011052281 -0.7558745
-0.49392667 0.31555977 0.059665315 0.09062123 0.46052918 -0.021614019 0.24370694 -0.17381091
0.048802335 -0.011983421 -0.00043929368 -0.026712261 0.01657366 0.072757 0.044822782 0.031181643
0.0857601 0.32112277 -0.059216924 -0.24687612 -0.177677 -0.028318476 0.14737144 0.018492348
-0.028121604 0.046207726 0.0040052757 0.10194584 0.030808382 0.041771363 0.030594029 0.106476195
-3.1325636 0.29402798 -0.09635609 0.10808254 -0.014065507 0.020002656 0.030812435 -0.03994078

fc2.bias f4 [200]
00000000: 8d54 78bd 4d7f 8dbc 202f 893b 4d51 573c
00000010: 04eb f23d 9986 adbd da48 6a3d e609 093d
00000020: 7cc9 a53d 7b5d ba3c 5bfd 0b3d 0f2b 623d
00000030: 5ded 94bd 7960 623d 62c3 debc 9106 243d
00000040: 8660 80bd 60a4 03bd b97e 5f3d 4657 80bd
00000050: e21f 37bd e5a4 1bbd f832 5c3c c383 c53b
00000060: a363 9abd 8657 49bd e9ae 5e3d 9b71 6fbd
00000070: 8800 ce3c c898 2c3d cbf2 69bd c15b 32bc
00000080: 9951 99bc 8140 80bc c0ec 9ebd 1295 0abd
00000090: 9866 083d 038e 5b3d c8c1 49bc 8b50 aabd
000000a0: 0a3e 2d3d 5283 d23c 1237 cc3c 646e 05bc
000000b0: 40f7 f2bc c00a 9d3e 80fa 873b 6831 0bbd
000000c0: 282d bb3c a985 a5bc 5a7a 9d3c 906d a23c
000000d0: 04a0 f1bb 4120 363d 4f1d 5cbd 7ead ca3c
000000e0: f78e 4a3d 88b6 963c cd88 86bd 60a1 193b
000000f0: e5cc 16bd 5f04 0a3c 587d 6ebc 4752 8cbc
00000100: b53c b4bc f4a8 2c3d 95b2 4d3d 9bb1 403d
00000110: d654 fa3d 643c 1f3d 014a 353d 785b 09bb
00000120: 0fd7 1a3e 09af 003d 3e36 4bbd 2ff6 2fbc
00000130: 7b2e a1bd bf69 76bd 4833 40bd 00f4 e33c
00000140: 6be2 603c 9e33 86bd 2383 5d3e 52ee 653d
00000150: 00c8 94b9 e8b9 4dbd eac1 7e3d 1878 37bd
00000160: d573 a2bd 1124 543d a903 733d f8be 6c3d
00000170: d51b 5a3d a074 3dbd df02 34bd b992 3abd
00000180: 2100 01bd 74c0 79bd 0a7d a5bd c9f8 803c
00000190: c2a4 78bd ddd3 b73c b231 4abd fde6 2f3c
000001a0: 5eef 8abc 5c33 8cbc 1d0c ba3c 98d7 743c
000001b0: 2f8e 98bc f7e0 f83b 62fd afbc 82f1 7fbd
000001c0: 7c61 bcbc ea76 6abd 834c 6fbd fecf 21bd
000001d0: b974 04bc 7a3f 4b3d 7bd5 253c 9636 84bd
000001e0: 00a2 3d3b bb83 c4bc 14fe 993c 841d bbbd
000001f0: 61a9 60bd 6b8d 7fbb 4b97 133b b299 06bd
00000200: 5c5a 153e c8df 5cbd 75c3 a0bd 84f4 2c3d
00000210: b58e f13c 45ee cbbc 008f 523b 5812 b23c
00000220: b59a 7ebd 88ff b8bc 3ce4 73bd b9d6 333d
00000230: a02b 033e b82b 1b3d 3718 c73c 6e63 70bb
00000240: 4952 a43c c4d1 92bc d363 2fbd 8e22 563d
00000250: a7ce bfbc c54f 99bd 3462 6b3c dea7 b6bd
00000260: 28af 173d ae4c d6bb af35 78bd cbe4 ae3d
00000270: b03b 433c 0e66 34bc 5070 12bd 2f0e 5fbd
00000280: 5da8 3bbd 72ee 0cbc b65c 1fbd 8a68 e93d
00000290: 7688 a03b 100b dabb 8bd7 dfbc eb2b 773d
000002a0: 0fd2 923c 5cef 81bd 232c 87bd 56b5 8fbd
000002b0: 909a 4d3d cef0 7bbd 48b7 203d 9f8b 793c
000002c0: 90be 713c fe3b 773d 7cb1 353d 8a5d 5a3d
000002d0: 5e0f 0d3d 3f50 f5bc d064 24bd 4088 003b
000002e0: 7e89 313d ce48 9dbd d0c4 633d dae9 e83b
000002f0: 5e59 83bc 6579 beba 880f 1dbd 74b0 84bc
00000300: 2c23 51bc 4e40 79bd 1691 3fbd 6cba 2bb9
00000310: 06f7 063c 284e 10bd 16b4 85bd 8e08 303d
-0.06062751 -0.017272616 0.004186526 0.013141942 0.11861232 -0.08472938 0.057198383 0.033456706
0.08095071 0.022749653 0.034177165 0.055216845 -0.07271836 0.055267785 -0.027192775 0.040045325
-0.062684104 -0.032139182 0.05456421 -0.06266646 -0.04470814 -0.037999053 0.013439886 0.00602767
-0.075385354 -0.049155734 0.054366026 -0.058457952 0.025146738 0.04213789 -0.05711631 -0.010886134
-0.018715667 -0.015655758 -0.0776 -0.03383357 0.033300966 0.05360223 -0.012314267 -0.083161436
0.042295493 0.025697384 0.024928603 -0.008143995 -0.029658914 0.30672264 0.004149735 -0.033982664
0.02284868 -0.020205336 0.01922338 0.019827634 -0.0073738117 0.044464353 -0.05373889 0.02474093
0.04945275 0.018397585 -0.065690614 0.0023442134 -0.036816496 0.008423894 -0.0145562515 -0.017129077
-0.022001604 0.042153314 0.050219137 0.047044378 0.122232124 0.038875952 0.04426003 -0.002095906
0.15121101 0.031416927 -0.049612276 -0.010739847 -0.078701936 -0.06015944 -0.046923906 0.02782631
0.013725857 -0.06552814 0.21632056 0.056135483 -0.0002837777 -0.050226122 0.06219665 -0.044792265
-0.079322495 0.051792208 0.059329662 0.05779931 0.0532492 -0.0462538 -0.04394805 -0.045550082
-0.031494264 -0.060974553 -0.0808049 0.01574363 -0.060704 0.022439891 -0.0493638 0.010736224
-0.016959842 -0.017114334 0.022710854 0.01494398 -0.018622486 0.0075951773 -0.021483127 -0.06248618
-0.022995703 -0.05724231 -0.058422577 -0.039504997 -0.0080844695 0.049621083 0.0101216985 -0.06455724
0.002893567 -0.023988595 0.018797912 -0.09136489 -0.054849032 -0.0038994204 0.0022520598 -0.03286142
0.1458525 -0.053924352 -0.078497805 0.042225376 0.029486993 -0.02489389 0.0032128692 0.021737263
-0.06215926 -0.022582784 -0.059543833 0.043905947 0.1280961 0.03788349 0.024303539 -0.0036680358
0.020058768 -0.01792229 -0.04281981 0.052279048 -0.02341397 -0.07485918 0.014366675 -0.08918737
0.037032276 -0.0065399026 -0.06059807 0.085397325 0.011916086 -0.01101066 -0.03575164 -0.054456886
-0.04581486 -0.008601772 -0.038906775 0.11396892 0.00489908 -0.006654151 -0.027324459 0.060344618
0.01792243 -0.06344482 -0.06600215 -0.07017009 0.05019623 -0.061508946 0.03923729 0.015231042
0.014754906 0.060359947 0.044358715 0.053311862 0.034438483 -0.02994549 -0.040135205 0.0019612461
0.043344013 -0.07679902 0.055607617 0.0071079554 -0.016033825 -0.0014532028 -0.03834489 -0.01619742
-0.012764733 -0.06085234 -0.046769224 -0.00016377278 0.008237606 -0.035230786 -0.06528489 0.04297691

fc3.weight f4 [3, 200]
00000000: 2d8b f43c 58d7 26bf c6d1 4ebd ffc2 533d
00000010: 3d7c 9dbe 0799 49bd 86b0 6cbd 239f 073d
00000020: 1198 6dbe 467c 94bc d0b0 abbb c3e1 66bf
00000030: ae27 3b3d 37f5 3abf a23d 9ebc ea02 edbe
00000040: d041 44bc c065 b33c 18af 53bd 00e6 193b
00000050: 99c2 8abd d08d 0e3c 609e 71bc ac16 0a3b
00000060: 4faf 5c38 c749 34bf 7291 1b3d a415 69bd
00000070: c7cd 24bf 90f7 33bf 9036 7c3d df98 4ebf
00000080: 9400 05bd 8b9d 1fbf 4c5a 65bd 5499 f03c
00000090: a2d9 1fbf 9cb0 143d 65bb f93c cac1 183d
000000a0: 28f5 1c3c 2437 7cbf d63c 8fbd bc1f c13c
000000b0: 172c 5cbf 8b16 4e3f f851 193d d66c 103c
000000c0: c8c1 4c3c 23f2 38bd c73d 63bf 2d46 8e3d
000000d0: f8a7 853c da4c 13bf e05d 4a3d b124 37bf
000000e0: 242e 543d 13c6 f4be 252c 013e 66ad 58bd
000000f0: 8039 1cbd 5981 2dbd d486 48bc 0840 723b
00000100: 80d9 2dbb cd3a 0ebf 1a64 45bd 1624 7fbd
00000110: fad6 c1be 2dca 793d 81a7 4f3d 8ee1 72be
00000120: 5d4a a03f b908 903c 2d6e 8b3d 7024 d03b
00000130: 80b2 0f3d 88d4 1f3d 61d2 f53c 0e6c 90bd
00000140: 39a9 48bf 7905 813d 2097 0640 60f6 293b
00000150: e82f 9b3c 9972 12bf d8fe 343c 4a07 7bbd
00000160: 172a 22bf 5659 643d 3234 81bf 8eb8 0b3c
00000170: 682e 4fbf a80d ec3c 5bf5 14bf 08ab 0f3c
00000180: 5579 b03b 58f5 4cbd cc3f 493d f1a8 28bd
00000190: be16 733d c458 2bbb 4686 29bf 0fea 1f3d
000001a0: ec8d 903c ab10 853d af9f 47bf 958c 65bf
000001b0: c83d 8e3c a973 883d d448 3abf f227 0b3c
000001c0: a93d 37bf 0e9a 28bd cba7 5bbf ded3 003c
000001d0: 3f81 30bf 8a30 7bbd 0e97 4d3d a7bc 4cbf
000001e0: 8093 92bb 07b4 003d f4a3 c33c 272d 473d
000001f0: 7272 53bf be3d 38ba ddaf 3ebf 525b 2ebd
00000200: 3dc0 393f b509 2fbf ce0f 8cbd eb52 3dbf
00000210: 21f6 31bf b291 20bf 5b61 90bd d1bd a13f
00000220: 4f3f 4cbf 4755 23bd 1c42 f83c b770 6cbc
00000230: 9f32 bbbe a910 29bf 7182 3ebf 1078 3fbf
00000240: f1b5 5fbf f89e 8d3c 4848 5e3d 3429 523d
00000250: f746 50bf e001 5dbb d649 47bf 38e9 db3c
00000260: bddc 633d 5f7e 5abc 4caf 29bd 6ec0 d0be
00000270: 5037 013c e8f5 c03c 84aa 28bd 0337 79bd
00000280: ccfd 64bf 7a59 45bf a2b5 75bd b6e7 efbe
00000290: aecb f0bc 3c84 4b3d e8fc 31bf 1b3e 15bf
000002a0: 50ad 8ebc a058 4fbd ce7d e9bc 602c a1bb
000002b0: cdd2 613d dd9f 05bd 2f42 7cbc cfc7 f63c
000002c0: 40ce 9b3d e08b bd3b 945e cb3c ff42 e93c
000002d0: 54c8 143d d070 06bc 6989 763d 6880 c43c
000002e0: 022b 3c3d 92c2 03bd d010 503b 9d6b aa3c
000002f0: ec7d be3c f4af 963c 0585 73bc faa0 96bc
00000300: 105b 12bf de7c 7c3d 8345 1bbf 0f5a 0fbf
00000310: 28a0 08bc 4a66 bdbe 3375 1c3d c0bc ac3b
00000320: 8010 83bc 08cc 04bf 6e72 0e3d 59f3 683d
00000330: 2a44 b1be 5150 143d a4df 503d 14b7 2b3d
00000340: 95bb 0bbd 6817 373d d4ee 173d 51b8 56bf
00000350: a36b 933c 3553 10bf 66d5 1d3d acd9 5bbf
00000360: 20b0 053d aa74 6d3d 3531 e53b e807 313d
00000370: 0e61 7fbd 68c7 37bd e2c5 793d ccba 61bc
00000380: 38ed 2ebd 6eac 2ebf 81da 1a3c db7b f7bc
00000390: 89ab 1abf 380d 65bf 86b9 193c 298c 47bf
000003a0: 8db0 68bb b98f 09bf a3bf 803d 086d b6bc
000003b0: 0197 43bf 24a6 6a3d 10b8 6b3c ad2a 3cbd
000003c0: 7376 583c fa24 83bf ae6e 663d ed31 25bd
000003d0: 5458 6ebf c45b f23f 0055 ce39 f03b ca39
000003e0: 004e 21ba 4e2c 5bbd 952c 77bf 9072 8d3c
000003f0: f813 85bd 53ef 0bbf 1d8d c8bc ebf5 14bf
0.02985152 -0.6517234 -0.050493024 0.051699635 -0.3075885 -0.049218204 -0.057785533 0.03311075
-0.2320254 -0.018125664 -0.0052395836 -0.90188235 0.04569214 -0.7303042 -0.019316498 -0.46291286
-0.011978582 0.021899104 -0.051680654 0.0023483038 -0.06775398 0.008700803 -0.014747232 0.0021070642
5.2615356e-05 -0.70425075 0.037980504 -0.056905404 -0.6437649 -0.70299625 0.061575472 -0.8070201
-0.032471254 -0.62349766 -0.055994317 0.029369988 -0.62441456 0.03630124 0.030484864 0.037294187
0.009579934 -0.9852164 -0.069940254 0.023574702 -0.86004776 0.8050315 0.037431687 0.008815011
0.012497373 -0.045152795 -0.8876614 0.06946979 0.016315445 -0.5753914 0.049405932 -0.7154036
0.051801816 -0.4780737 0.12614496 -0.05289974 -0.038140774 -0.042359684 -0.012239177 0.0036964435
-0.0026527345 -0.5555847 -0.048191167 -0.062290274 -0.37859327 0.060983825 0.050696854 -0.23718855
1.2522694 0.017582284 0.06808124 0.006352 0.03508234 0.039021045 0.030007543 -0.0705186
-0.78383213 0.06299872 2.102974 0.0025934204 0.018943742 -0.5720611 0.011047088 -0.06128625
-0.63345474 0.05574926 -1.0094054 0.008527888 -0.80930185 0.028815106 -0.5818688 0.008768804
0.0053855577 -0.050038666 0.049133107 -0.04117674 0.05934786 -0.0026145438 -0.6622051 0.039041575
0.017645799 0.0649732 -0.7797803 -0.89667636 0.017363444 0.066626854 -0.72767377 0.00849341
-0.7157846 -0.041162543 -0.85802907 0.007863013 -0.68947214 -0.061325587 0.050192885 -0.7997536
-0.00447315 0.031421687 0.02388189 0.048627045 -0.82596505 -0.0007028243 -0.74487096 -0.04256756
0.7255896 -0.68374187 -0.06838952 -0.7395465 -0.6951619 -0.62722313 -0.07049819 1.2636052
-0.797841 -0.03987625 0.03030496 -0.01443117 -0.36562058 -0.66041046 -0.7441779 -0.74792576
-0.87386996 0.017287716 0.05426815 0.051308826 -0.81358284 -0.0033723041 -0.7784704 0.026844606
0.055630434 -0.013335793 -0.04142694 -0.40771812 0.007886723 0.023554757 -0.04117824 -0.06084348
-0.89449763 -0.77089655 -0.05998767 -0.4685647 -0.029393997 0.049686655 -0.6952653 -0.5829789
-0.017416626 -0.05062163 -0.028502371 -0.00491862 0.055132676 -0.03262316 -0.015396639 0.030124573
0.076076984 0.0057844967 0.024825372 0.028474329 0.03632386 -0.0082056075 0.06018964 0.02398701
0.045939453 -0.03216798 0.0031748302 0.020803267 0.023253404 0.018394448 -0.014863257 -0.018387306
-0.571702 0.06164252 -0.6065294 -0.55996794 -0.0083389655 -0.36992103 0.038197707 0.005271524
-0.015999079 -0.51873827 0.034777097 0.0568727 -0.34622318 0.03620941 0.05099453 0.041922644
-0.03411444 0.044700056 0.037093 -0.83874995 0.017995661 -0.56376964 0.03853359 -0.85879016
0.03263867 0.057972588 0.0069943913 0.04322043 -0.062348418 -0.044867903 0.06097973 -0.013777446
-0.0427067 -0.68231857 0.009451509 -0.030210426 -0.6041799 -0.89473295 0.009382611 -0.7794824
-0.0035505623 -0.5373493 0.06286552 -0.022268787 -0.7640229 0.05728735 0.014387146 -0.045939136
0.013211834 -1.0245659 0.056257896 -0.040330816 -0.9310353 1.8934255 0.00039354712 0.000385731
-0.00061532855 -0.05350905 -0.965524 0.017266542 -0.06497949 -0.54662055 -0.02448135 -0.5818774

fc3.bias f4 [3]
00000000: 8b45 4a3e 3dfa 823d 4231 8f3d
0.19753091 0.063953854 0.06991817
