mountain_car_v1/mountain_car_v0.pt (torch_old, 166651 bytes, 6 tensors)

fc1.weight f4 [200, 2]
00000000: 6bcc 003d 4143 2fc0 8aa5 dcbe 7e41 a9c0
00000010: d670 8bbe ac2a 423e cb1d 7fbd a4b4 27bf
00000020: baf3 863b b386 5dc0 5cd3 5abe 1c54 0ebe
00000030: 99a3 2cbf 12bb 64c0 12e3 66be c4d8 4cc0
00000040: 6a20 8f3e 423b d93e ec5f e0be 4e89 76c0
00000050: a67f 833e f750 163f 0f5a 213f de06 91c0
00000060: 888d 51bd 34d3 3ec0 e38c be3f c673 0640
00000070: 19bc d3be b90a 29be b8ea edbd 6905 ecc0
00000080: 1baa 85be e87c eec0 ea81 cebe c8ac acc0
00000090: b583 8fbe 7b83 56c0 63f1 af3e e66b 0dc0
000000a0: 96f4 a53d ea02 83c0 7001 f53d 4d04 29bf
000000b0: 4bf9 c2be ab9b 9ec0 edea 303e 1760 8740
000000c0: 6f5f 81be 95bb 6dc0 b28b e73e 13f5 333f
000000d0: 4797 873e 4cb3 a93d f2bd f23e 522b d5be
000000e0: 70ed 063e 6558 0cbf 61ed cdbe 8e87 8cc0
000000f0: 0ed0 a33e fe98 913e 4d46 b7be 73fa 51c0
00000100: c9b6 d63e 711a 17c0 bc40 063e 41f2 5cc0
00000110: ae99 e03e 4fd0 2d3f db1a 13bf 3def c8c0
00000120: f219 4bbd f2ec 7f40 3b86 1d3f 3fb9 1f3f
00000130: 3b13 653e f137 84c0 2838 853d 4b7e e2be
00000140: bd0c 1bbf 629f 1e3f cba3 093f 6492 34bf
00000150: ec86 073e c8f4 f3bd a7a4 3abd 3320 78c0
00000160: 6639 8b3e d06f d6be 01f4 953e 4deb 02c0
00000170: 2b96 013f cc5e 873e 908c 0dbf 3c88 90c0
00000180: e672 173d adf7 c540 f9ad 2cbf 3257 d8bf
00000190: cd1a c93e 0044 8840 a3d5 72be a1c5 62c0
000001a0: 3285 2fbf c39c 21c0 100e eebe 8e6e 8bc0
000001b0: e095 1fbd e86e d93d cff1 88be 2800 00c0
000001c0: a477 98be 784f 51c0 703a 003f e962 54c0
000001d0: 2436 34be 60b0 023d 9049 d33d 88bb 2b3e
000001e0: 0013 8e3e 507d 2d3d 2d32 29be e870 fdc0
000001f0: 523f fdbe 5102 93c0 1842 35be 975a b0be
00000200: 2a11 34be a1af 89c0 8b0b b6bd 8ab3 59c0
00000210: 191d afbe f045 7bc0 3595 013f e0de 94bd
00000220: 60fd a03c 80dc 79bd 2c8a 123e ce32 e63e
00000230: 6fed 0c3f 7844 4bc0 1f51 ca3e f9c3 5040
00000240: 13b1 18bf dc9a 7cc0 3391 cf3f 6943 3040
00000250: 2fe5 95be cda4 87c0 58fe 13bf 3a48 a3bf
00000260: 98de 12be 4e8b c63e fd6b ea3e 331f 67c0
00000270: 4ed5 e13e 3ba6 0dbf 6b0d 99bd e619 7ac0
00000280: e477 0bbe d42a 0ebe 0734 40bf ee4f cbc0
00000290: 409b e2bd 80d2 153c 48d8 84be de62 42c0
000002a0: 040b 0ebf 0e67 9ac0 f8a9 5c3e 6b05 4f40
000002b0: c2dc e73e 0573 8340 e224 21bf a38c 38c0
000002c0: fa2a 86ba 96d0 89c0 a128 913f 46c1 8e40
000002d0: e864 9b3d 6099 17be ee5d 523f 4074 bb40
000002e0: 3161 dd3e caf3 27c0 4c1f 2ebe 0447 18be
000002f0: e1af 12bf 42fe 1cc0 f82b 783f 64f8 b840
00000300: 2b85 f7be 93c1 f73c 774a 753e ba69 dcc0
00000310: 66ce b1be 35cb 40c0 13f9 cfbe 4e15 37c0
00000320: 40af f33c e260 e93e 5ebc f8be 643f 7ac0
00000330: ee4f ccbe a78b 32c0 e8ff 4ebe 49a8 23c0
00000340: 05b6 913e bebd 2cc0 807b acbb 0023 0fbe
00000350: 0754 8d3e 782e 7dc0 87ad 9f3d cfd0 68c0
00000360: ef74 f7be 1743 e2c0 fae8 013f 6d45 79c0
00000370: 10f9 4fbd 4312 333f 5024 9f3e 4445 32c0
00000380: 43a3 1bbf 452d 8bc0 211f 06bf 8b3a c9c0
00000390: 6db5 03be 58bd 78c0 7f9a b03d f5ef 34c0
000003a0: 30c9 b43d 4123 223f 1fc9 8d3f 6ec9 7c40
000003b0: 50a8 f73e 9b95 82c0 de1b 00be 38a0 86c0
000003c0: 53b6 91bd 8fc3 7540 2b83 e63d dbc6 e7c0
000003d0: a217 cf3e 3cde 75c0 9bdf 023f 5fb0 15bf
000003e0: 80ac 1f3c e835 f6bd 958c 5cbe 2172 76c0
000003f0: e51a 303f ae45 63c0 4225 47be 02e7 f7c0
0.03144495 -2.7384799 -0.43095046 -5.2892447 -0.27234524 0.1896159 -0.062284272 -0.6551001
0.00411841 -3.4613464 -0.2136969 -0.13899273 -0.6743713 -3.5739179 -0.22547558 -3.2007303
0.27954417 0.42428023 -0.43823183 -3.8521304 0.25683326 0.5871729 0.63028044 -4.5320883
-0.051160365 -2.9816408 1.4886745 2.1008162 -0.41354445 -0.16507997 -0.11617035 -7.3756604
-0.26106343 -7.4527473 -0.40333492 -5.3960915 -0.28030172 -3.351775 0.3436385 -2.2097106
0.08103292 -4.0941057 0.11963165 -0.6602219 -0.3808082 -4.9565024 0.17277117 4.2304797
-0.25268123 -3.714574 0.45223767 0.7029583 0.26482603 0.08286151 0.47410542 -0.41634613
0.13176513 -0.5482238 -0.40220168 -4.391547 0.3199467 0.28437036 -0.35795823 -3.2809112
0.4193633 -2.3609889 0.13110632 -3.452286 0.43867248 0.6789598 -0.57462853 -6.279204
-0.04958529 3.998837 0.61532944 0.6239204 0.22370617 -4.131829 0.065048516 -0.4423698
-0.6056631 0.6196195 0.53765553 -0.70535874 0.13235062 -0.11911923 -0.04556718 -3.8769653
0.2719223 -0.4188218 0.29287723 -2.0456116 0.50619763 0.26439512 -0.55292606 -4.51663
0.03697481 6.186484 -0.6745296 -1.690161 0.3927826 4.258301 -0.23714308 -3.5433123
-0.68562615 -2.525193 -0.46495104 -4.3572454 -0.03896129 0.10616857 -0.26746985 -2.0000095
-0.2977878 -3.2704754 0.5008917 -3.318537 -0.17598778 0.031906486 0.10316765 0.16770756
0.2774887 0.042355835 -0.16523047 -7.9200325 -0.49462372 -4.594033 -0.17700994 -0.34444115
-0.17584673 -4.302689 -0.088889204 -3.4015832 -0.34201887 -3.9261436 0.50618297 -0.072690725
0.019652069 -0.0610013 0.14310521 0.44960636 0.55049795 -3.176054 0.39515015 3.2619612
-0.59645194 -3.9469519 1.6216186 2.7541144 -0.29276416 -4.2388673 -0.5780997 -1.2756417
-0.14342725 0.38778156 0.45785514 -3.6112792 0.4410805 -0.5533177 -0.074732624 -3.9078307
-0.13619953 -0.13883525 -0.7507939 -6.353507 -0.11064768 0.009144425 -0.2594626 -3.0372844
-0.5548556 -4.82508 0.21549213 3.2347057 0.45285612 4.1077905 -0.62946904 -2.8835838
-0.0010236197 -4.306712 1.1340524 4.461093 0.07587606 -0.14804602 0.82174575 5.8579407
0.43238214 -2.6242547 -0.17004126 -0.1487084 -0.5729962 -2.4530187 0.9694209 5.780321
-0.48343787 0.03024367 0.23954187 -6.887906 -0.34727782 -3.0124028 -0.40619716 -2.8606753
0.029746652 0.45581728 -0.48581213 -3.910119 -0.39904732 -2.7897737 -0.20214808 -2.5571463
0.28459182 -2.699081 -0.005263746 -0.13978195 0.2760317 -3.9559612 0.077967696 -3.6377447
-0.483314 -7.0706897 0.5074612 -3.8948624 -0.050774634 0.6994974 0.31082392 -2.7854776
-0.6079599 -4.349276 -0.5239125 -6.2883964 -0.12862177 -3.8865566 0.08623218 -2.8271458
0.08827436 0.63335043 1.1077002 3.9497943 0.483706 -4.0807624 -0.1251063 -4.207058
-0.07114854 3.840061 0.11255487 -7.2430243 0.40447718 -3.841689 0.51122445 -0.58472246
0.009745717 -0.120220006 -0.21538003 -3.8507159 0.6879104 -3.551128 -0.19447806 -7.746949

fc1.bias f4 [200]
00000000: b24a e43e 8a38 0ebd 65ee aabe 286d 2e3f
00000010: 3e2c 873e 846b 09bf a7e4 283f 8c13 013f
00000020: b5f5 83be a01e be3e d6b4 cdbe 6f89 8e3e
00000030: fa1a 0e3f a6b4 a23e e01a 08bf 7c7c 0b3d
00000040: 2481 1fbd 8dd4 f7bc 6db3 013e 1491 2b3f
00000050: 1440 3d3e 8389 dfbe ee32 ebbc 1746 f43e
00000060: 63cd a43e c770 25bf 22cc 11be 0686 06bf
00000070: 077a 9abe fae0 663e 1c8c 00bf 3665 6b3e
00000080: 4bdc 203f 3bb1 263e 584b f1be bd97 dfbd
00000090: f159 983e 8afe 09bf 78d5 ac3e 8a57 24bf
000000a0: 88c1 3bbf ade3 2fbf 84e3 12be 25c2 ea3e
000000b0: bc54 2bbf 9226 183f e1d2 90be 1c52 653e
000000c0: c4fc 33bd 02dc 12bf 742b 363f 43a0 ab3e
000000d0: 8f18 323f 8846 aa3e 72f8 eebe fe1f 103f
000000e0: 0b93 063e 847a db3e 8625 11bf 8c43 50be
000000f0: 23bd 31bf 8d5d 923c af9d 523e 2421 0ebf
00000100: 118a 5c3e cb1d b63e e1c8 1c3e ea3b f2be
00000110: 0d59 0cbf d063 5fbe 4d39 043f 4395 4c3f
00000120: ab1d c33e 31d8 973e 2b49 6a3e 7bd4 46bf
00000130: dd9b 1abf 0a47 c33e 6f10 cdbe 3fb0 9e3e
00000140: 2293 ffbe fc15 20be 881a 15bf 152c a23e
00000150: 37c4 8abd 3877 2c3f 755f 0b3f 47fd b63e
00000160: 8995 2c3e 3586 d0bd f46f 1dbe cf93 2a3e
00000170: aeab bc3e 00a4 fdbe 7f51 143f 6e10 143e
00000180: e795 1bbf b2ab 8f3b 5582 143f 7008 233f
00000190: aeac 27bf 1a33 f53e 524a a53e 571f c23e
000001a0: 0017 193f f01e c3be 1ceb 703e e762 8a3e
000001b0: c7fb b0bd 3192 dc3e a853 50be 2ef9 df3e
000001c0: fd78 aebd cf38 c6bd e408 303e dbf2 733e
000001d0: bfe1 b0be 2810 703e 7378 cd3e 8b66 223e
000001e0: 756d ac3e 5fc1 033e 3013 aa3e 1e21 03bf
000001f0: a0e3 d4be cffa f3bd 601c 253f 9fe2 18bc
00000200: 0a66 9dbd c845 a5be cead 2f3f 80b0 4c3f
00000210: ba85 08bf 36bf 12bf 1d36 09bf 4616 323e
00000220: 75e0 babd 1f42 01bf 37d0 31be 687b 313e
00000230: 6f29 bdbe 0fc3 253e dc0a 26be 406e afbe
00000240: 04f5 2d3e 7c3e 0d3f 50c4 f4be 6ad1 2d3e
00000250: 1882 85be 584d 323f 97be 2bbf 4589 2dbf
00000260: 67a7 323f e80e e5be bb43 883e ff31 52bd
00000270: 3088 18be 98b8 21be 08cd c93e fa4d a3be
00000280: 393e 30bf 9051 1abe 1d95 99bd 76da ef3e
00000290: 9449 eabe 1ec4 273f 3c4e 4a3e 2481 24bd
000002a0: ead4 2c3f 71b7 013f fbad 153f 329e 043f
000002b0: 949f cebe e233 f0be 2fdf f9bc 81ac 193f
000002c0: c403 73be 34df 27bf 66f1 873e 5e49 2a3f
000002d0: 7fba 5abd e8bd 4fbe 0232 24bf ca1c c43e
000002e0: 2b5b 02bd 6eb6 abbd bc49 333e 451d 783e
000002f0: 6b03 323f f96a 2b3f b449 563e ed9d 1fbf
00000300: c192 23bf 83e9 423f e75a 943e b1fa 983e
00000310: 2a9f 1cbf 0f58 203f 7f97 3f3f 2a2f 223f
0.44588238 -0.03472189 -0.33385006 0.6813531 0.26400942 -0.5367968 0.65973896 0.5042045
-0.25773397 0.3713274 -0.4017703 0.2783923 0.5550991 0.3177845 -0.5316601 0.034054264
-0.038941517 -0.03025272 0.12666102 0.67018247 0.18481475 -0.436596 -0.028710809 0.47709724
0.32187948 -0.6462521 -0.14238027 -0.52548254 -0.30171224 0.22546759 -0.5021379 0.22987828
0.6283614 0.16278546 -0.47127795 -0.10917614 0.2975612 -0.5390402 0.33756614 -0.64196074
-0.7334218 -0.6870678 -0.14344603 0.45851246 -0.6692617 0.59433854 -0.28285888 0.22394603
-0.043942228 -0.57366955 0.71160054 0.33520707 0.69568723 0.33256936 -0.46673924 0.56298816
0.1314203 0.4286691 -0.5669788 -0.20338267 -0.69429225 0.017866874 0.20567964 -0.5551932
0.21537043 0.35569605 0.15311004 -0.47311336 -0.5482338 -0.21815419 0.51649934 0.79915255
0.38108572 0.29657128 0.22879474 -0.7766797 -0.6039408 0.38140136 -0.400516 0.3099384
-0.4991694 -0.15633386 -0.5824361 0.31674257 -0.06775706 0.67369413 0.5444253 0.3574011
0.16853918 -0.10181848 -0.15374738 0.16657947 0.3684973 -0.49539185 0.57936853 0.14459392
-0.6077561 0.0043844813 0.5801137 0.6368475 -0.65497863 0.4789055 0.32283264 0.37914535
0.5980072 -0.3810954 0.23527187 0.27028582 -0.08641773 0.43080285 -0.20344412 0.43744797
-0.085191704 -0.09678804 0.17190892 0.23823111 -0.3454723 0.23443663 0.40130958 0.1585943
0.3367726 0.12866734 0.33217764 -0.5122241 -0.41579914 -0.11913072 0.6449642 -0.009331374
-0.07685478 -0.322798 0.6862458 0.7995682 -0.5332905 -0.57323015 -0.53598195 0.17391309
-0.09124843 -0.5049152 -0.17364584 0.17332232 -0.36945674 0.1618769 -0.1621508 -0.34263802
0.16987997 0.5517347 -0.47806025 0.16974416 -0.26075816 0.6964927 -0.6708769 -0.6778758
0.69786686 -0.44737935 0.26614174 -0.05131721 -0.14895701 -0.15793073 0.3941424 -0.3189543
-0.68844944 -0.15070176 -0.07499144 0.4684636 -0.4575926 0.65533626 0.19756407 -0.04016222
0.6751238 0.50670534 0.584686 0.51803887 -0.40356123 -0.46914583 -0.03050193 0.60028845
-0.23731905 -0.65574956 0.2655136 0.665182 -0.053400513 -0.20287287 -0.64138806 0.38303214
-0.031825226 -0.08384405 0.17508596 0.24229915 0.69536465 0.669601 0.20926553 -0.6235035
-0.63895804 0.7613756 0.28975603 0.29878762 -0.61180365 0.62634367 0.7484054 0.63353217

fc2.weight f4 [200, 200]
00000000: 30d3 82bd 9235 fdbc 9c32 47bd 8179 803d
00000010: 49c5 0dbd 7a3b 04bd 836b 063d 204d 17bd
00000020: 4fa6 0ebd 06a0 2abc b0b6 debb c49d 61bd
00000030: d222 603d 6686 ffbc 0c79 cd3c 92ea 7b3d
00000040: 1dbc 003d c871 bd3b 6a1d 653d 95e6 ac3b
00000050: 3456 17bd d1fe 883d 9ae8 4c3c 7af4 95bd
00000060: 038e c7bc 8549 45bd 4eef 7d3d 5053 3fbc
00000070: bf00 84bd f11d 0ebc 58e4 353d 47b4 673c
00000080: b685 943c a614 193b acf5 d73c 09cf afbc
00000090: 7e8f 04bd 3a5c 87bd f482 6bbd b80d fb3c
000000a0: 8e7e 2bbd 9835 263c 3ce5 b83c c2db 4b3a
000000b0: 3cc8 3bbd dfd4 813d 956b 28bd bae6 5c3d
000000c0: 6067 66bd 3057 8bbc ad3b 0c3d 5ba8 07bd
000000d0: 5cfb 613d 14a2 58bd 4c39 73bd a0eb 13bd
000000e0: 7cfe eb3b 565b 793d 2445 0abd 1029 cf3c
000000f0: 9c39 91bc 7c3d 7bbc 74a5 433d bc75 60bd
00000100: fb0b 573b 470d 7f3d 577c 64bc 6ae1 603d
00000110: 3e63 b2bc 5624 693d 9b15 8cbd 843e 6cbc
00000120: ea62 88bc e8ba bb3c cd9e c03c 2e62 5e3d
00000130: 949a 2cbc 0267 e6bb b057 463d 4b5f bfbc
00000140: 76e6 7d3d 0b03 52bd 30ba fabb 8e81 03bc
00000150: 60d3 df3c 4ab1 343d fbea 7cbc 3ba3 80bd
00000160: c85d fc3c 9046 ad3c 68b0 e83c faa9 32bd
00000170: 4615 293d a729 893d eceb f93a c143 87bd
00000180: 6851 4b3d 4bbf 56bd c207 453c c322 c63b
00000190: d08e 07bd 970d a73c 4330 8abd 8995 423c
000001a0: e2ee 48bd 008d fabb eb74 9f3b 6c6d 653d
000001b0: 3584 1bbd 4c8c 393d f42b 13bc 16e0 1abd
000001c0: a4c4 86bd 128c 8dbd c7c4 843d d01c b3bc
000001d0: c077 673b 880b 9d3c ba8d 333d 51e0 653d
000001e0: 0795 593d 2a95 56bd afe9 7ebc b262 2bbd
000001f0: 2d7b 25bd b067 893c 088b 7e3d ae55 79bd
00000200: 39f7 1d3d fc29 16bd e577 93bc 5094 543d
00000210: 0803 83bc 00fb d23b 2276 4abd 243a 653d
00000220: 690a 5bbc 54d5 53bd 289d a93c 2540 5fbd
00000230: 04d3 65bd 2cc0 a538 cea1 653d 00ec a3bc
00000240: 26fe ed3c cd90 673d d419 403d ed3e 29bd
00000250: 90fe fdbb 9bec d8bc 1ee6 68bd 0010 f537
00000260: d49b 483d c204 743d a02e d83b 2bd9 413c
00000270: 68c6 fabc 30a0 5a3d 8fd6 09bd 6531 49bd
00000280: b867 323c be99 2d3d 7d90 82bd 7680 743d
00000290: e460 d03c 963d 5cbd 008e 79bc a0f5 693d
000002a0: 4689 6fbd 85f4 cbbc 9b58 9b3c 1f88 87bd
000002b0: 776c 0d3d 46c4 163d 8b4e 223d 3df9 49bd
000002c0: 833c 903d 9dae 2bbd 05ea 873d 82a3 93bd
000002d0: fbae 89bd e8e3 313d 5029 f23b 40ab 853b
000002e0: 70b4 31bd 74fc f2bc 7903 ccbc a2bb 95bd
000002f0: e305 11ba fb9b 073c 0018 7bb8 ac0f bb3c
00000300: 8768 893d 62c1 6e3c 16b1 f6bc e883 08bd
00000310: b84e 39bd 5b19 5abd 20db 7fbc 3718 89bc
00000320: 8098 b73d 104b 3d3e 16e5 663d 6537 efbc
00000330: 6856 cc3d 712d 823d 746a c53d 0465 ab37
00000340: d85d 4e3c a745 673d 41cb 07bd 76ea a1bf
00000350: c9a9 863d 1530 dcbf a014 353c e072 42bf
00000360: 187e febe a6de a13e 1d95 723d e27d b93d
00000370: fc4a eb3e e20f b1bc fe3b 7a3e 2262 31be
00000380: 1309 473d 1c56 44bc 0051 e6b9 acd3 dabc
00000390: 7cc5 873c ef60 943d 1898 373d 13c9 fd3c
000003a0: 3a70 af3d 00d6 a33e 728d 72bd d807 7ebe
000003b0: ef31 35be 26fc e7bc ff58 163e 447d 973c
000003c0: 475f e6bc 5044 3d3d b03e 833b 4163 d03d
000003d0: dc61 fc3c cade 2a3d 54a0 fa3c 4d70 d93d
000003e0: 08d8 48c0 59b6 933e 576a c4bd c1f7 dc3d
000003f0: 8061 65bc 005c a23c 5c6a fc3c 9d74 23bd
-0.06387937 -0.030909333 -0.04863225 0.06273175 -0.034611974 -0.032283284 0.032817375 -0.036938787
-0.034826573 -0.010414129 -0.0067966804 -0.055082098 0.054720707 -0.031192016 0.025082134 0.061503
0.0314294 0.005781386 0.055936255 0.005276511 -0.036947444 0.06689227 0.012506628 -0.07322021
-0.024359709 -0.048165817 0.061995797 -0.011677578 -0.06445455 -0.008674131 0.04440722 0.014142103
0.018130165 0.0023358255 0.026362263 -0.021461027 -0.032363407 -0.06609388 -0.057497934 0.03064619
-0.04186874 0.010144614 0.022570245 0.0007776582 -0.045845255 0.0633943 -0.041118223 0.053930975
-0.05625093 -0.017009348 0.0342366 -0.03311954 0.055171356 -0.052888945 -0.059380814 -0.03611338
0.0072019678 0.06087812 -0.033757344 0.025288135 -0.017727666 -0.015334483 0.04776521 -0.05479978
0.0032813537 0.06226852 -0.013945661 0.05490247 -0.021775838 0.05691942 -0.068400584 -0.014419202
-0.016648728 0.022916272 0.023513222 0.05429285 -0.010534901 -0.0070313225 0.04842347 -0.023360869
0.061987363 -0.051272433 -0.00765159 -0.008026494 0.027322471 0.04411439 -0.015436883 -0.06281134
0.030806437 0.02115181 0.02840443 -0.043619134 0.041280054 0.06697398 0.0019067503 -0.0660472
0.049638182 -0.052428525 0.012025775 0.0060466244 -0.03309518 0.020392222 -0.067474864 0.011876472
-0.04905594 -0.007646203 0.0048662326 0.056012556 -0.03796788 0.045299813 -0.008982647 -0.03781136
-0.06580475 -0.06911482 0.06482845 -0.021864325 0.003531918 0.019170538 0.043836333 0.056122128
0.05312064 -0.052388348 -0.015558644 -0.04184217 -0.040400673 0.016773075 0.06214431 -0.060872726
0.038565848 -0.036661133 -0.018001506 0.051899254 -0.015992656 0.006438613 -0.049429066 0.05596365
-0.013369181 -0.051717117 0.02070482 -0.054504532 -0.056109443 7.903608e-05 0.056062512 -0.020009995
0.029051851 0.056534577 0.04689963 -0.041319776 -0.0077512935 -0.02648001 -0.05686008 2.9213727e-05
0.048976734 0.05957485 0.006597355 0.011831562 -0.030612186 0.053375423 -0.033651885 -0.049119372
0.010888986 0.042382948 -0.06375215 0.059692822 0.025436826 -0.05376967 -0.015231609 0.057119012
-0.058480524 -0.02489687 0.018963149 -0.0661776 0.03452727 0.036808275 0.039625686 -0.049309958
0.07042792 -0.04191457 0.066364326 -0.07208921 -0.06722828 0.04343024 0.0073901787 0.0040792525
-0.04338497 -0.029661395 -0.024904 -0.07311179 -0.0005532188 0.008276935 -5.9865415e-05 0.022834621
0.0670939 0.014572473 -0.030113738 -0.03332892 -0.045241088 -0.053246837 -0.015616208 -0.01673518
0.08964634 0.18485665 0.056370817 -0.029201219 0.09977418 0.063563235 0.09639445 2.0431828e-05
0.012595616 0.05646291 -0.033152822 -1.2649677 0.06575353 -1.7202173 0.011052281 -0.75956535
-0.49705577 0.3161518 0.059224237 0.09057213 0.45955646 -0.021614019 0.24436948 -0.17322591
0.04859264 -0.011983421 -0.00043929368 -0.026712261 0.01657366 0.07245051 0.044822782 0.030979669
0.085663274 0.31999207 -0.059216924 -0.2480768 -0.1769483 -0.028318476 0.14682387 0.018492348
-0.028121604 0.046207726 0.0040052757 0.10175181 0.030808382 0.041716374 0.030594029 0.10617123
-3.1381855 0.28850058 -0.09590595 0.10789443 -0.014000297 0.01981926 0.030812435 -0.039906133

fc2.bias f4 [200]
00000000: 8d54 78bd c239 8cbc 202f 893b 4d51 573c
00000010: a700 f23d 9986 adbd da48 6a3d e609 093d
00000020: a087 a13d 7b5d ba3c 5bfd 0b3d 8131 623d
00000030: 5ded 94bd 8358 623d 62c3 debc c9ad 223d
00000040: 8660 80bd 60a4 03bd b97e 5f3d 4657 80bd
00000050: e21f 37bd e5a4 1bbd f832 5c3c c383 c53b
00000060: a363 9abd da25 48bd e9ae 5e3d 9b71 6fbd
00000070: b70d d03c a3ba 2c3d cbf2 69bd 37c8 32bc
00000080: 9951 99bc 393b 7cbc c0ec 9ebd 1295 0abd
00000090: 0efb 083d 038e 5b3d c8c1 49bc 8b50 aabd
000000a0: 0a3e 2d3d ea5e d43c 1237 cc3c 646e 05bc
000000b0: eb42 f2bc 3fee 9c3e 80fa 873b 6831 0bbd
000000c0: 282d bb3c a985 a5bc 84ef 9f3c 906d a23c
000000d0: 04a0 f1bb e977 373d 4f1d 5cbd 0316 cc3c
000000e0: f78e 4a3d 1da7 943c 0907 85bd 60a1 193b
000000f0: e5cc 16bd 5f04 0a3c 587d 6ebc 4752 8cbc
00000100: b53c b4bc 221f 2a3d 95b2 4d3d 9bb1 403d
00000110: 3e62 f93d 643c 1f3d 014a 353d 1075 36bb
00000120: 97af 1b3e 09af 003d 3e36 4bbd 2ff6 2fbc
00000130: 7b2e a1bd bf69 76bd 4833 40bd 00f4 e33c
00000140: eeb0 613c 9e33 86bd 6f5f 5f3e 52ee 653d
00000150: 00c8 94b9 0fdc 4dbd eac1 7e3d 1878 37bd
00000160: a33c a1bd 1124 543d 5f25 753d f8be 6c3d
00000170: 0f23 5c3d a074 3dbd d487 33bd b992 3abd
00000180: 2100 01bd 74c0 79bd 0a7d a5bd c9f8 803c
00000190: c2a4 78bd ddd3 b73c e5df 49bd fde6 2f3c
000001a0: 5eef 8abc 5c33 8cbc 1ec8 ba3c 46bd 7e3c
000001b0: 2f8e 98bc f7e0 f83b 8ea9 aebc 82f1 7fbd
000001c0: d7b1 babc ea76 6abd bddf 6abd fecf 21bd
000001d0: d7ed 00bc 7a3f 4b3d 7bd5 253c 4adc 82bd
000001e0: 00a2 3d3b bb83 c4bc 14fe 993c 7aa1 bcbd
000001f0: d65a 60bd 6b8d 7fbb 421b 223b b299 06bd
00000200: 5be3 133e c473 5bbd 75c3 a0bd 08c1 2a3d
00000210: 4dda f23c 4834 cbbc 008f 523b 0068 ac3c
00000220: b91e 7fbd 88ff b8bc 3ce4 73bd b9d6 333d
00000230: 84a4 023e 9320 1d3d 7c69 c83c 49ac 69bb
00000240: f7f8 a63c c4d1 92bc d363 2fbd 8e22 563d
00000250: 548c bfbc c54f 99bd 6dd9 6e3c dea7 b6bd
00000260: 28af 173d ae4c d6bb af35 78bd 92f6 ad3d
00000270: b03b 433c 0e66 34bc 5070 12bd 2f0e 5fbd
00000280: 6751 3abd 8381 04bc b65c 1fbd f7a7 e83d
00000290: 7688 a03b 100b dabb 243a debc 443e 783d
000002a0: 0fd2 923c 5cef 81bd 232c 87bd 56b5 8fbd
000002b0: 909a 4d3d cef0 7bbd 48b7 203d 9f8b 793c
000002c0: 90be 713c fe3b 773d 7cb1 353d 8a5d 5a3d
000002d0: 5e0f 0d3d 3f50 f5bc d064 24bd 4088 003b
000002e0: 7e89 313d ce48 9dbd d0c4 633d dae9 e83b
000002f0: 5e59 83bc 6579 beba 880f 1dbd 74b0 84bc
00000300: 5092 4cbc 4e40 79bd e486 3ebd 3a25 28ba
00000310: 06f7 063c c0d3 13bd 16b4 85bd 8e08 303d
-0.06062751 -0.017117385 0.004186526 0.013141942 0.11816531 -0.08472938 0.057198383 0.033456706
0.078871965 0.022749653 0.034177165 0.05522299 -0.07271836 0.055260193 -0.027192775 0.039716516
-0.062684104 -0.032139182 0.05456421 -0.06266646 -0.04470814 -0.037999053 0.013439886 0.00602767
-0.075385354 -0.048864223 0.054366026 -0.058457952 0.025397165 0.04217018 -0.05711631 -0.010911993
-0.018715667 -0.015394979 -0.0776 -0.03383357 0.03344255 0.05360223 -0.012314267 -0.083161436
0.042295493 0.025924165 0.024928603 -0.008143995 -0.029572925 0.30650517 0.004149735 -0.033982664
0.02284868 -0.020205336 0.01952339 0.019827634 -0.0073738117 0.04479209 -0.05373889 0.02491284
0.04945275 0.018146092 -0.064954825 0.0023442134 -0.036816496 0.008423894 -0.0145562515 -0.017129077
-0.022001604 0.041533597 0.050219137 0.047044378 0.12176941 0.038875952 0.04426003 -0.002784077
0.15203701 0.031416927 -0.049612276 -0.010739847 -0.078701936 -0.06015944 -0.046923906 0.02782631
0.0137750935 -0.06552814 0.21813749 0.056135483 -0.0002837777 -0.050258692 0.06219665 -0.044792265
-0.07872894 0.051792208 0.059850093 0.05779931 0.053744372 -0.0462538 -0.043830708 -0.045550082
-0.031494264 -0.060974553 -0.0808049 0.01574363 -0.060704 0.022439891 -0.049285788 0.010736224
-0.016959842 -0.017114334 0.022800501 0.015548056 -0.018622486 0.0075951773 -0.021321084 -0.06248618
-0.022789879 -0.05724231 -0.05734228 -0.039504997 -0.007869205 0.049621083 0.0101216985 -0.06389673
0.002893567 -0.023988595 0.018797912 -0.09210487 -0.054774128 -0.0038994204 0.0024735485 -0.03286142
0.14442198 -0.0535772 -0.078497805 0.041687995 0.02964511 -0.024805203 0.0032128692 0.021045685
-0.06228516 -0.022582784 -0.059543833 0.043905947 0.1275807 0.038361143 0.024464361 -0.0035655668
0.020382388 -0.01792229 -0.04281981 0.052279048 -0.023382343 -0.07485918 0.0145782055 -0.08918737
0.037032276 -0.0065399026 -0.06059807 0.08494295 0.011916086 -0.01101066 -0.03575164 -0.054456886
-0.045487788 -0.008087519 -0.038906775 0.11360162 0.00489908 -0.006654151 -0.027127333 0.060606256
0.01792243 -0.06344482 -0.06600215 -0.07017009 0.05019623 -0.061508946 0.03923729 0.015231042
0.014754906 0.060359947 0.044358715 0.053311862 0.034438483 -0.02994549 -0.040135205 0.0019612461
0.043344013 -0.07679902 0.055607617 0.0071079554 -0.016033825 -0.0014532028 -0.03834489 -0.01619742
-0.0124860555 -0.06085234 -0.04651536 -0.00064142386 0.008237606 -0.036090612 -0.06528489 0.04297691

fc3.weight f4 [3, 200]
00000000: 2d8b f43c fb36 28bf c6d1 4ebd ffc2 533d
00000010: 894c 9abe 0799 49bd 86b0 6cbd 239f 073d
00000020: 7e30 74be 467c 94bc d0b0 abbb d791 68bf
00000030: ae27 3b3d f49f 3cbf a23d 9ebc 812b efbe
00000040: d041 44bc c065 b33c 18af 53bd 00e6 193b
00000050: 99c2 8abd d08d 0e3c 609e 71bc ac16 0a3b
00000060: 4faf 5c38 c7ab 35bf 7291 1b3d a415 69bd
00000070: e3f6 25bf 7140 35bf 9036 7c3d 13fd 4fbf
00000080: 9400 05bd 4abd 20bf 4c5a 65bd 5499 f03c
00000090: 6b31 21bf 9cb0 143d 65bb f93c cac1 183d
000000a0: 28f5 1c3c f9e0 7dbf d63c 8fbd bc1f c13c
000000b0: 2dab 5dbf 63e8 4d3f f851 193d d66c 103c
000000c0: c8c1 4c3c 23f2 38bd 5606 65bf 2d46 8e3d
000000d0: f8a7 853c 4a65 14bf e05d 4a3d ade7 38bf
000000e0: 242e 543d 3ab5 f2be f174 0a3e 66ad 58bd
000000f0: 8039 1cbd 5981 2dbd d486 48bc 0840 723b
00000100: 80d9 2dbb 51fa 0dbf 1a64 45bd 1624 7fbd
00000110: 1f25 bfbe 2dca 793d 81a7 4f3d a90e 67be
00000120: ef75 a03f b908 903c 2d6e 8b3d 7024 d03b
00000130: 80b2 0f3d 88d4 1f3d 61d2 f53c 0e6c 90bd
00000140: ff06 4abf 7905 813d 67a4 0640 60f6 293b
00000150: e82f 9b3c 84c2 13bf d8fe 343c 4a07 7bbd
00000160: c6cd 23bf 5659 643d 1622 82bf 8eb8 0b3c
00000170: ceed 50bf a80d ec3c b209 16bf 08ab 0f3c
00000180: 5579 b03b 58f5 4cbd cc3f 493d f1a8 28bd
00000190: be16 733d c458 2bbb 50ef 2abf 0fea 1f3d
000001a0: ec8d 903c ab10 853d be0a 49bf f4c9 67bf
000001b0: c83d 8e3c a973 883d d990 3bbf f227 0b3c
000001c0: d096 38bf 0e9a 28bd 71da 5dbf ded3 003c
000001d0: b537 32bf 8a30 7bbd 0e97 4d3d 13a6 4ebf
000001e0: 8093 92bb 07b4 003d f4a3 c33c 3d7a 773d
000001f0: 3610 55bf be3d 38ba f762 40bf 525b 2ebd
00000200: 6642 393f 5f6c 30bf ce0f 8cbd bdb1 3dbf
00000210: 5688 33bf daf7 21bf 5b61 90bd e07f a43f
00000220: bfaf 4dbf 4755 23bd 1c42 f83c b770 6cbc
00000230: 4ecd b7be 1d32 2bbf bb29 40bf ffde 40bf
00000240: af80 61bf f89e 8d3c 4848 5e3d 3429 523d
00000250: 66d4 51bf e001 5dbb 0cad 48bf 38e9 db3c
00000260: bddc 633d 5f7e 5abc 4caf 29bd d431 cebe
00000270: 5037 013c e8f5 c03c 84aa 28bd 0337 79bd
00000280: de9e 66bf 31e1 46bf a2b5 75bd 12f8 edbe
00000290: aecb f0bc 3c84 4b3d 577a 33bf 4966 16bf
000002a0: 50ad 8ebc a058 4fbd ce7d e9bc 602c a1bb
000002b0: cdd2 613d dd9f 05bd 2f42 7cbc cfc7 f63c
000002c0: 40ce 9b3d e08b bd3b 945e cb3c ff42 e93c
000002d0: 54c8 143d d070 06bc 6989 763d 6880 c43c
000002e0: 022b 3c3d 92c2 03bd d010 503b 9d6b aa3c
000002f0: ec7d be3c f4af 963c 0585 73bc faa0 96bc
00000300: 4478 13bf de7c 7c3d 8d67 1cbf 8331 0fbf
00000310: 28a0 08bc 3b01 b9be 3375 1c3d c0bc ac3b
00000320: 8010 83bc 6de5 04bf 6e72 0e3d 59f3 683d
00000330: 07d1 b2be 5150 143d a4df 503d 14b7 2b3d
00000340: 0928 f4bc 6817 373d d4ee 173d 13df 56bf
00000350: a36b 933c b54f 10bf 66d5 1d3d 4045 5cbf
00000360: 20b0 053d aa74 6d3d 3531 e53b e807 313d
00000370: 0e61 7fbd 68c7 37bd e2c5 793d ccba 61bc
00000380: 38ed 2ebd 42ea 2ebf 81da 1a3c db7b f7bc
00000390: 36fd 1abf 175e 65bf 86b9 193c 9aef 47bf
000003a0: 8db0 68bb dacd 09bf a3bf 803d 086d b6bc
000003b0: cae7 43bf 24a6 6a3d 10b8 6b3c ad2a 3cbd
000003c0: 7376 583c c843 83bf ae6e 663d ed31 25bd
000003d0: b0d4 6ebf 9aab f33f 0055 ce39 f03b ca39
000003e0: 004e 21ba 4e2c 5bbd 9e59 77bf 9072 8d3c
000003f0: f813 85bd 3a22 0cbf 1d8d c8bc 8bde 14bf
0.02985152 -0.65708894 -0.050493024 0.051699635 -0.30136517 -0.049218204 -0.057785533 0.03311075
-0.23846623 -0.018125664 -0.0052395836 -0.90847534 0.04569214 -0.7368157 -0.019316498 -0.46712878
-0.011978582 0.021899104 -0.051680654 0.0023483038 -0.06775398 0.008700803 -0.014747232 0.0021070642
5.2615356e-05 -0.70965236 0.037980504 -0.056905404 -0.64829844 -0.70801455 0.061575472 -0.81245536
-0.032471254 -0.6278883 -0.055994317 0.029369988 -0.6296603 0.03630124 0.030484864 0.037294187
0.009579934 -0.99171406 -0.069940254 0.023574702 -0.8658932 0.8043272 0.037431687 0.008815011
0.012497373 -0.045152795 -0.8946279 0.06946979 0.016315445 -0.57967055 0.049405932 -0.7222851
0.051801816 -0.4740389 0.13521172 -0.05289974 -0.038140774 -0.042359684 -0.012239177 0.0036964435
-0.0026527345 -0.5546008 -0.048191167 -0.062290274 -0.3733301 0.060983825 0.050696854 -0.22564186
1.253599 0.017582284 0.06808124 0.006352 0.03508234 0.039021045 0.030007543 -0.0705186
-0.78916925 0.06299872 2.1037843 0.0025934204 0.018943742 -0.5771868 0.011047088 -0.06128625
-0.6398586 0.05574926 -1.0166652 0.008527888 -0.8161286 0.028815106 -0.58608544 0.008768804
0.0053855577 -0.050038666 0.049133107 -0.04117674 0.05934786 -0.0026145438 -0.6677141 0.039041575
0.017645799 0.0649732 -0.78532016 -0.9054253 0.017363444 0.066626854 -0.73267895 0.00849341
-0.7210512 -0.041162543 -0.8666144 0.007863013 -0.6961625 -0.061325587 0.050192885 -0.8072216
-0.00447315 0.031421687 0.02388189 0.06041931 -0.8322786 -0.0007028243 -0.7515101 -0.04256756
0.7236694 -0.6891536 -0.06838952 -0.7409933 -0.7012991 -0.63268816 -0.07049819 1.2851524
-0.8034629 -0.03987625 0.03030496 -0.01443117 -0.35898823 -0.6687334 -0.75063676 -0.75340265
-0.8808698 0.017287716 0.05426815 0.051308826 -0.8196472 -0.0033723041 -0.7838905 0.026844606
0.055630434 -0.013335793 -0.04142694 -0.4027239 0.007886723 0.023554757 -0.04117824 -0.06084348
-0.9008616 -0.77687365 -0.05998767 -0.46478325 -0.029393997 0.049686655 -0.7010855 -0.58749825
-0.017416626 -0.05062163 -0.028502371 -0.00491862 0.055132676 -0.03262316 -0.015396639 0.030124573
0.076076984 0.0057844967 0.024825372 0.028474329 0.03632386 -0.0082056075 0.06018964 0.02398701
0.045939453 -0.03216798 0.0031748302 0.020803267 0.023253404 0.018394448 -0.014863257 -0.018387306
-0.57605386 0.06164252 -0.61095506 -0.55934924 -0.0083389655 -0.3613375 0.038197707 0.005271524
-0.015999079 -0.51912576 0.034777097 0.0568727 -0.349251 0.03620941 0.05099453 0.041922644
-0.029804247 0.044700056 0.037093 -0.83934134 0.017995661 -0.56371623 0.03853359 -0.8604317
0.03263867 0.057972588 0.0069943913 0.04322043 -0.062348418 -0.044867903 0.06097973 -0.013777446
-0.0427067 -0.683262 0.009451509 -0.030210426 -0.6054262 -0.89596695 0.009382611 -0.7809998
-0.0035505623 -0.5382973 0.06286552 -0.022268787 -0.7652556 0.05728735 0.014387146 -0.045939136
0.013211834 -1.025506 0.056257896 -0.040330816 -0.93293285 1.9036744 0.00039354712 0.000385731
-0.00061532855 -0.05350905 -0.9662112 0.017266542 -0.06497949 -0.54739726 -0.02448135 -0.58152074

fc3.bias f4 [3]
00000000: 471a 4f3e 7baa 803d acce 8f3d
0.20224868 0.062825166 0.070218414
