cartpole/cart_pole_chk.pt (torch_old, 4117 bytes, 6 tensors)

fc1.weight f4 [24, 4]
-0.13133813 -0.0758943 -0.15951394 -0.22658882 -0.39628488 0.27996418 0.5370391 0.3167829
0.4993953 -0.2843493 -1.0614262 -0.2387432 -0.17200652 -0.45062837 -0.7782476 -0.117859125
0.04224112 -0.07485424 -0.3698379 -0.25235698 -0.32420173 0.42518392 0.51920044 0.50985825
-0.035500366 -0.2332945 0.17779663 -0.6102374 -0.62648284 0.389951 0.055113945 0.75090206
0.19372551 -0.62076604 -1.3382202 -0.71957654 -0.84726965 0.6608385 1.2000996 0.46585703
0.5851015 -0.5887822 -0.22086148 -0.70046484 -0.18178298 0.18620706 0.9231676 0.5101736
-0.38922837 0.6945083 1.0146743 0.807293 0.10039546 -0.011680127 0.22192842 -0.36535203
0.6012899 -0.39889896 -0.69641894 -0.3762972 0.09932344 -0.010197121 -0.097421736 0.104371116
-0.09021364 0.44738778 0.8358345 0.3507341 0.16490975 0.10914578 -0.51207054 -0.36944184
-0.2058881 0.35396862 0.8208744 0.4820976 0.28336024 -0.35750014 -0.12234546 -0.39939207
-0.5535115 0.31106412 0.4029997 -0.37843934 0.117917016 -0.2627217 -0.11970214 -0.30032498
-0.02263103 0.020110343 0.6078423 0.15739779 0.46997055 -0.2310182 -0.6401573 -0.3097035
00000000: 817d 06be 796e 9bbd 9f57 23be e606 68be
00000010: dae5 cabe 7757 8f3e 657b 093f 5e31 a23e
00000020: beb0 ff3e 3b96 91be d0dc 87bf 1979 74be
00000030: 7a22 30be c3b8 e6be 3c3b 47bf 2060 f1bd
00000040: 0605 2d3d 2e4d 99bd 655b bdbe ef34 81be
00000050: c5fd a5be b5b1 d93e 52ea 043f 1286 023f
00000060: d568 11bd c1e4 6ebe 5210 363e 8538 1cbf
00000070: 2e61 20bf a8a7 c73e 29bf 613d 1e3b 403f
00000080: fb5f 463e 86ea 1ebf cd4a abbf 2b36 38bf
00000090: aae6 58bf b62c 293f dd9c 993f d084 ee3e
000000a0: 36c9 153f 6eba 16bf 8329 62be aa51 33bf
000000b0: 5125 3abe 10ad 3e3e b654 6c3f bd9a 023f
000000c0: f148 c7be 4ccb 313f d9e0 813f c1aa 4e3f
000000d0: 239c cd3d 015e 3fbc 3441 633e 6c0f bbbe
000000e0: 23ee 193f 7c3c ccbe 8348 32bf 07aa c0be
000000f0: 166a cb3d d311 27bc 0c85 c7bd 86c0 d53d
00000100: eec1 b8bd 0310 e53e 40f9 553f 6c93 b33e
00000110: 1ade 283e d387 df3d 0e17 03bf 7b27 bdbe
00000120: 55d4 52be 603b b53e d324 523f 7fd5 f63e
00000130: 9814 913e 420a b7be 4290 fabd 1e7d ccbe
00000140: eeb2 0dbf cc43 9f3e fa55 ce3e cdc2 c1be
00000150: 7a7e f13d 7583 86be 6526 f5bd 32c4 99be
00000160: b664 b9bc 72be a43c 8e9b 1b3f e32c 213e
00000170: fb9f f03e 0990 6cbe 59e1 23bf 7591 9ebe

fc1.bias f4 [24]
0.7435095 0.4846693 -0.14946477 -0.33996743 0.8421092 0.55272686 -0.32892415 -0.07522944
-0.26365086 -0.107430965 -0.28979993 -0.22202057 -0.30522084 0.40473628 -0.18655299 0.93055737
-0.031726927 0.4346794 0.8022713 -0.37711525 0.2647465 0.5199125 0.5077975 0.13800803
00000000: a356 3e3f 9326 f83e 4b0d 19be 3610 aebe
00000010: 7894 573f 827f 0d3f bf68 a8be e511 9abd
00000020: 3ffd 86be c404 dcbd a860 94be 5c59 63be
00000030: e845 9cbe 9839 cf3e bf07 3fbe 0239 6e3f
00000040: 18f4 01bd 4c8e de3e a761 4d3f 4015 c1be
00000050: da8c 873e fc18 053f 04ff 013f fa51 0d3e

fc2.weight f4 [24, 24]
0.26174393 0.38481936 -1.1517601 -0.33931863 0.04006608 0.13374351 -0.44150627 -0.55727965
-0.8283043 -1.2381808 -0.86881834 -0.6215038 -0.97888416 0.07322486 -0.78235 0.25311664
-0.66946685 0.040077645 0.39262196 0.06421304 0.14631619 0.3903403 0.550756 -0.24607654
-0.19436532 -0.096770614 0.12791656 -0.0120157115 -0.11255399 -0.15642273 -0.19103001 -0.17228246
-0.05233697 0.11194292 0.099376366 -0.19686384 0.12732899 -0.17540728 -0.05418761 -0.09407737
-0.03931743 -0.05126033 -0.1831708 -0.18715589 -0.031941235 -0.008362298 -0.09272848 0.06574368
-0.053754102 0.15441185 0.11098212 -0.09577754 0.3288463 0.17115039 -0.12224413 -0.11792194
-0.08906916 -1.0957873 -0.047188472 -0.6198879 -0.5275056 -0.04509377 0.13599943 0.21000665
-0.23168041 0.103415586 0.17330593 0.08403135 -0.25086543 0.33036405 0.32730836 0.0789398
-0.23606509 0.08372824 -0.065676935 -0.11602703 -0.2963991 0.1672862 0.07203566 -0.06013418
-0.08825812 0.13195942 0.016772771 -0.13742612 -0.11008257 0.20736693 -0.15582341 0.18366903
0.11673665 -0.082924366 0.07728055 -0.0379043 0.104291104 -0.64562947 0.057402056 -0.06978849
-0.1609034 -0.01840907 0.23020758 -0.14168234 -0.038832374 0.3207825 0.026204007 -0.034541495
-0.04838801 0.08827142 -0.33707678 -0.025462205 -0.01603535 -0.06910958 -0.019402133 0.25861478
0.051036652 0.13729697 0.20881118 -0.28864962 -0.060828425 -0.4267178 0.025714595 -0.05698866
0.14565255 0.070972234 -0.091699086 0.08193 0.16565834 -0.4345648 0.034684133 -0.10870663
-0.003056128 0.13856792 0.001050195 0.24028654 0.21282318 0.20264755 -0.14882648 -0.024943054
-0.4828314 0.16761583 -0.18379743 -0.24502231 -0.04161428 0.29838887 0.17358541 0.2211773
0.06282256 -0.059262473 -0.06849245 0.052541275 0.15651688 0.043070145 -0.09658039 -0.100864716
-0.20401683 0.044100612 -0.11572798 -0.18199216 0.17899168 -0.13611253 -0.034715768 0.046516325
-0.0012553146 -0.14867939 -0.1842747 0.16725428 0.036318775 0.15893453 -0.06843071 0.048811454
-0.02157869 -0.62034637 -0.07422263 -0.06578406 0.1509668 -0.94304585 -0.07035583 -0.21437335
0.16950893 0.2360919 0.19546598 0.1874024 0.014079815 0.1659557 -0.15531766 0.11834476
-0.024812043 -0.07056564 -0.4401801 -0.093225345 0.021536287 0.111251555 -0.10841285 0.08274518
-0.050416097 -0.0962902 0.1600283 0.121044196 -0.14399564 0.09700905 0.20553729 0.19560565
0.14102075 0.15021293 0.06465039 0.10994339 0.24300367 0.10960172 0.25620043 0.05490896
0.19903086 -0.06951408 -0.14139266 0.0044898232 0.02582028 0.12705062 -0.12559442 0.14406253
0.13119203 0.26636288 0.19954625 0.12448396 -0.061558105 0.02197991 0.28529695 0.11791673
-0.103589766 0.11198888 0.029642655 0.048600815 -0.1871914 -0.1073717 -0.051221978 0.14964965
0.022650672 0.028880848 0.07135147 0.16224673 -0.120404825 -0.0012127904 -0.1280297 0.0028137676
-0.23671864 -0.2655505 -0.16799116 -0.08896615 0.104966074 0.16271593 0.24963973 -0.34111837
-0.34510645 -0.11192856 -0.002189007 0.09007032 -0.1967308 -0.08818977 -0.20933491 -0.1656555
00000000: 4d03 863e 0b07 c53e e06c 93bf 2cbb adbe
00000010: 541c 243d 0ff4 083e 1c0d e2be e1a9 0ebf
00000020: c00b 54bf b57c 9ebf e16a 5ebf df1a 1fbf
00000030: 2798 7abf eaf6 953d 1748 48bf 8198 813e
00000040: 2e62 2bbf 7528 243d bf05 c93e 2082 833d
00000050: e9d3 153e afda c73e 58fe 0c3f 7dfb 7bbe
00000060: b407 47be ac2f c6bd 8ffc 023e 8cdd 44bc
00000070: b582 e6bd 482d 20be 5f9d 43be d06a 30be
00000080: 4a5f 56bd 5442 e53d d685 cb3d ad96 49be
00000090: 8862 023e f79d 33be d4f3 5dbd a3ab c0bd
000000a0: 500b 21bd 5af6 51bd 2091 3bbe cba5 3fbe
000000b0: d0d4 02bd 0502 09bc 6ee8 bdbd 9fa4 863d
000000c0: 432d 5cbd 241e 1e3e 984a e33d 0427 c4bd
000000d0: 8b5e a83e 0c42 2f3e 215b fabd 0f81 f1bd
000000e0: e469 b6bd c242 8cbf b348 41bd f9b0 1ebf
000000f0: 9b0a 07bf 3fb4 38bd 6f43 0b3e fc0b 573e
00000100: a13d 6dbe 8dcb d33d 1c77 313e a118 ac3d
00000110: 6f71 80be 7a25 a93e f694 a73e 31ab a13d
00000120: 0cbb 71be b679 ab3d a181 86bd 949f edbd
00000130: 9fc1 97be 134d 2b3e 6f87 933d 424f 76bd
00000140: acc0 b4bd 5f20 073e 0d67 893c 6fb9 0cbe
00000150: f872 e1bd ff57 543e 2c90 1fbe bc13 3c3e
00000160: a013 ef3d 40d4 a9bd 4445 9e3d 8a41 1bbd
00000170: 9396 d53d f947 25bf 6b1e 6b3d 45ed 8ebd
00000180: dcc3 24be 9ece 96bc 89bb 6b3e 2d15 11be
00000190: b20e 1fbd 9b3d a43e c9a9 d63c 627b 0dbd
000001a0: 8232 46bd a5c7 b43d 5495 acbe 1d96 d0bc
000001b0: 915c 83bc 5389 8dbd 39f1 9ebc 2869 843e
000001c0: cf0b 513d 9497 0c3e 99d2 553e e2c9 93be
000001d0: 3a27 79bd c17a dabe 6aa7 d23c f16c 69bd
000001e0: f125 153e e459 913d bbcc bbbd eaca a73d
000001f0: 57a2 293e 477f debe f310 0e3d 95a1 debd
00000200: 5249 48bb c0e4 0d3e b2a6 893a ad0d 763e
00000210: 52ee 593e d782 4f3e f865 18be 6055 ccbc
00000220: ad35 f7be 7ca3 2b3e 6535 3cbe 21e7 7abe
00000230: bc73 2abd 6dc6 983e 60c0 313e 4d7c 623e
00000240: 1da9 803d 35bd 72bd c545 8cbd 8535 573d
00000250: f645 203e 526a 303d f1cb c5bd 2992 cebd
00000260: cae9 50be d8a2 343d cb02 edbd 275c 3abe
00000270: 9849 373e 1561 0bbe 1f32 0ebd e787 3e3d
00000280: 5e89 a4ba 693f 18be 82b2 3cbe b544 2b3e
00000290: ffc2 143d bcbf 223e 6625 8cbd 85ee 473d
000002a0: cbc5 b0bc 05cf 1ebf 0902 98bd cbb9 86bd
000002b0: 0a97 1a3e 746b 71bf b816 90bd b084 5bbe
000002c0: c093 2d3e 13c2 713e 3c28 483e 6ae6 3f3e
000002d0: 06af 663c 4bf0 293e 980b 1fbe bd5e f23d
000002e0: a042 cbbc b884 90bd 495f e1be eeec bebd
000002f0: de6c b03c dbd7 e33d 8e07 debd 4e76 a93d
00000300: 1c81 4ebd cc33 c5bd 75de 233e 05e6 f73d
00000310: 9873 13be aeac c63d 5e78 523e d94c 483e
00000320: be67 103e 6bd1 193e 6c67 843d 002a e13d
00000330: f4d5 783e de76 e03d b42c 833e 38e8 603d
00000340: bfce 4b3e 665d 8ebd 3dc9 10be 5e1f 933b
00000350: 0d85 d33c 8f19 023e d39b 00be 2185 133e
00000360: 3457 063e b760 883e da55 4c3e 72f1 fe3d
00000370: 5a24 7cbd 360f b43c 7112 923e 547e f13d
00000380: df26 d4bd 6d5a e53d 27d5 f23c a611 473d
00000390: 1aaf 3fbe b2e5 dbbd 23ce 51bd c23d 193e
000003a0: e78d b93c 8797 ec3c b820 923d 0224 263e
000003b0: ce96 f6bd 7ef6 9eba 381a 03be 3067 383b
000003c0: 5f66 72be 3cf6 87be e005 2cbe e333 b6bd
000003d0: 74f8 d63d 019f 263e 8fa1 7f3e 11a7 aebe
000003e0: cbb1 b0be cd3a e5bd 7175 0fbb ca76 b83d
000003f0: cd73 49be d79c b4bd e45b 56be 98a1 29be

fc2.bias f4 [24]
0.5455125 -0.16338134 0.29762107 0.066429175 0.018601105 0.11455705 -0.19219449 0.2078208
-0.39013997 -0.06807701 0.043473624 0.381293 -0.105432995 0.62479717 0.060947917 -0.20354058
-0.071237326 -0.07393188 0.17896861 -0.12026498 0.119120315 0.25214377 0.42505217 0.22896738
00000000: b5a6 0b3f 704d 27be ca61 983e 050c 883d
00000010: 5861 983c e39c ea3d a2ce 44be face 543e
00000020: 6dc0 c7be f66b 8bbd 6611 323d d638 c33e
00000030: 41ed d7bd b5f2 1f3f 86a4 793d f16c 50be
00000040: e0e4 91bd 9969 97bd 8c43 373e 7c4d f6bd
00000050: 5af5 f33d fd18 813e 70a0 d93e 6d76 6a3e

fc3.weight f4 [2, 24]
1.4161472 -0.16634476 0.27785566 -0.19278365 -0.19209377 0.117162675 0.17521818 -0.5452763
0.24745293 -0.134451 -0.17669173 0.39588696 -0.27150732 1.2807722 -0.49306312 0.24739642
-0.19823387 -0.030609127 0.1680957 -0.23408397 -0.30805492 -0.081121035 0.55327374 0.12562954
1.4049002 0.1592116 0.49328664 -0.4105587 -0.074853614 -0.26199177 -0.16377054 -0.18495056
0.27462915 0.18439558 -0.026367014 0.24752836 -0.27400208 1.3403381 -0.2608494 -0.27230895
0.015167695 0.21265686 -0.16297418 0.14406164 0.16985601 -0.3672467 0.26746702 0.25661218
00000000: 5044 b53f 4856 2abe 1943 8e3e 1469 45be
00000010: 3bb4 44be fcf2 ef3d 656c 333e 3a97 0bbf
00000020: 4d64 7d3e 86ad 09be adee 34be b2b1 ca3e
00000030: 0203 8bbe 58f0 a33f c572 fcbe 7d55 7d3e
00000040: d2fd 4abe febf fabc 4721 2c3e b5b3 6fbe
00000050: 60b9 9dbe c922 a6bd 59a3 0d3f 08a5 003e
00000060: c5d3 b33f 5e08 233e 1190 fc3e c034 d2be
00000070: da4c 99bd c923 86be 77b3 27be ae63 3dbe
00000080: 319c 8c3e 32d2 3c3e a3ff d7bc 1378 7d3e
00000090: 004a 8cbe 3390 ab3f 0d8e 85be 146c 8bbe
000000a0: ec81 783c b8c2 593e b4e2 26be e584 133e
000000b0: bcee 2d3e c207 bcbe 70f1 883e ac62 833e

fc3.bias f4 [2]
-0.022332845 0.014905429
00000000: 5ff3 b6bc e735 743c
