cartpole/cart_pole.pt (torch_old, 4117 bytes, 6 tensors)

fc1.weight f4 [24, 4]
00000000: 4b0f 06be 66dc 9abd 0e4b 26be 3159 6bbe
00000010: f6be cabe 8710 903e 657f 093f f655 a03e
00000020: b5b3 013f 9f89 90be 0db3 88bf f743 73be
00000030: b5aa 32be 1965 e7be ba37 48bf d74a f7bd
00000040: 4a6d 2d3d a9bf 9abd 3a8e bebe 744c 82be
00000050: 944c a6be 6896 da3e f1f0 043f 9337 013f
00000060: 0704 21bd cf5f 72be 7a91 363e b4cf 1abf
00000070: 81ce 20bf 4911 c83e c7ba 813d f51a 403f
00000080: a45c 453e 1958 1ebf af40 acbf 1bfd 37bf
00000090: b69e 59bf 03d5 283f 38e1 9a3f e93a ef3e
000000a0: cd52 173f f8e9 16bf 07de 65be f490 32bf
000000b0: 9263 43be e34f 393e 7e8d 6f3f b62b 033f
000000c0: 92b8 c3be 532d 333f b334 833f 3e4f 4e3f
000000d0: 39a1 cc3d d34f 58bc 37cb 613e 31a7 babe
000000e0: bcf7 1b3f 3c6a cbbe 3d58 33bf 7ff7 bfbe
000000f0: 1a82 ce3d e7ed 15bc e156 ccbd 12aa ce3d
00000100: 60e2 b5bd 3aee e43e 4b78 583f 8e05 b63e
00000110: 289d 313e 81cf d93d a5ea 02bf 3d3b bcbe
00000120: ca9d 51be f709 b63e c946 523f 5b4b f53e
00000130: 3b0a 933e f3fc b8be b8f7 f9bd 0330 cbbe
00000140: 67d1 0dbf 0477 9f3e d255 cd3e f42e c3be
00000150: a89f f33d e87a 86be 394f f9bd 49c0 9abe
00000160: 48a2 b3bc 3c57 ab3c d886 1b3f 4279 1e3e
00000170: 7422 f03e 57b0 71be e956 24bf 2d6a 9ebe
-0.13091771 -0.07561569 -0.16239569 -0.22983243 -0.39598817 0.2813761 0.53710014 0.31315583
0.50664836 -0.28229997 -1.0679642 -0.23756395 -0.17447932 -0.4519432 -0.7821003 -0.120748214
0.042340554 -0.075560875 -0.37217885 -0.25448954 -0.324803 0.42692876 0.5193015 0.50475425
-0.03931048 -0.2366936 0.17828932 -0.6047318 -0.628151 0.39075688 0.06334453 0.75041133
0.19273621 -0.61853176 -1.345724 -0.71870583 -0.850078 0.6595003 1.2099981 0.46724632
0.5911072 -0.5895076 -0.22447978 -0.6975243 -0.19080952 0.1809688 0.93575275 0.5123857
-0.38226753 0.69991034 1.0250458 0.80589664 0.09991688 -0.013202625 0.22050177 -0.36455682
0.6092489 -0.39729488 -0.70056516 -0.37493512 0.10083409 -0.009150959 -0.09977508 0.10091032
-0.08881068 0.44713002 0.8455855 0.35551113 0.17345107 0.10635281 -0.5113929 -0.36763945
-0.20470348 0.35554478 0.8213926 0.47909054 0.28718743 -0.36130485 -0.12205452 -0.39685068
-0.5539765 0.3114549 0.40104538 -0.3812176 0.118956864 -0.26265645 -0.12173314 -0.30224827
-0.021927968 0.02091562 0.6075263 0.15475944 0.46901286 -0.23602425 -0.64195114 -0.3094038

fc1.bias f4 [24]
00000000: 52ea 3e3f 862d f93e 7af2 17be ba09 acbe
00000010: fa18 583f 43f1 0e3f b1ef aabe cb5c 98bd
00000020: e92a 89be a7aa dfbd f81a 96be a40d 61be
00000030: 4152 9bbe 8ac9 cf3e 3e80 3cbe b8fe 6e3f
00000040: c55a 0bbd d590 d93e ee19 4e3f 401f c1be
00000050: ba82 893e e2a4 053f 9aa5 023f 43a8 083e
0.74576294 0.48667544 -0.14838591 -0.3360117 0.8441311 0.55836886 -0.33385995 -0.07439574
-0.2679055 -0.10921221 -0.2931745 -0.2197786 -0.30336192 0.4058345 -0.18408296 0.9335742
-0.03402211 0.4249331 0.80508316 -0.37719154 0.2685755 0.52204716 0.5103394 0.13345437

fc2.weight f4 [24, 24]
00000000: 125c 873e 9385 c53e 001c 95bf 4c5b aebe
00000010: 6126 313d 1b1a 0a3e 9e99 e3be 665f 0fbf
00000020: 01a9 54bf 5385 9fbf 61f0 5fbf 4c06 22bf
00000030: 74ba 7bbf 5c50 9d3d 78ac 4bbf 7812 833e
00000040: 2f51 2cbf ec8c 2e3d b5d0 c93e 2bcb 813d
00000050: 87db 163e 4b62 c93e b76e 0d3f ca6d 7dbe
00000060: b407 47be ac2f c6bd 8ffc 023e 8cdd 44bc
00000070: b582 e6bd 482d 20be 5f9d 43be d06a 30be
00000080: 4a5f 56bd 5442 e53d d685 cb3d ad96 49be
00000090: 8862 023e f79d 33be d4f3 5dbd a3ab c0bd
000000a0: 500b 21bd 5af6 51bd 2091 3bbe cba5 3fbe
000000b0: d0d4 02bd 0502 09bc 6ee8 bdbd 9fa4 863d
000000c0: 0984 51bd 1446 1f3e 8995 e03d ca5a c3bd
000000d0: 4f68 a93e b551 303e 2d4b fcbd 8d55 fbbd
000000e0: 8c14 b7bd 41a1 8dbf 3927 48bd d43a 21bf
000000f0: 5d30 08bf 67bd 29bd b0dd 093e 4e3e 5a3e
00000100: f320 6ebe f2dd d33d 517e 333e 5484 a93d
00000110: c0be 7fbe b154 aa3e 7eaf a83e c8fa 9f3d
00000120: eda4 72be 04f2 ab3d d43d 96bd 58d0 ecbd
00000130: afce 98be 488e 2b3e 5804 953d 3698 81bd
00000140: 91d4 b3bd 43ee 063e aa79 1d3c 5867 0bbe
00000150: f8a8 dfbd e3de 523e 4345 34be 6a46 3b3e
00000160: bb8a f03d c5d1 b5bd 0935 9f3d 1d84 1dbd
00000170: 33e5 d53d 9311 26bf f4b4 6e3d 5ebb a4bd
00000180: a586 21be 0bab 92bc cd27 6b3e 53c0 10be
00000190: b50c 0dbd a8f3 a43e a74b cb3c 5ccf 13bd
000001a0: a22a 59bd 3f4e b23d 996f b3be 9c59 c9bc
000001b0: 32e5 82bc 4db5 7ebd d0db c0bc e50b 873e
000001c0: 9ff9 553d 64ec 0f3e 60df 573e 9d33 96be
000001d0: 1688 78bd c20a d8be 1403 e83c bfa9 67bd
000001e0: b463 133e 06f1 8a3d a78f b9bd 8b5f a73d
000001f0: f9bb 273e f0c6 e1be ba5d 053d 7942 e1bd
00000200: f758 28bb 7986 103e 7676 2e3b ff1a 7b3e
00000210: b934 553e 2f8a 4c3e a13f 17be c01b eebc
00000220: 8bb5 febe 5d40 2b3e 83e6 40be 48e0 79be
00000230: 3f7d 38bd 559b 983e d840 303e 1f14 643e
00000240: 1da9 803d 35bd 72bd c545 8cbd 8535 573d
00000250: f645 203e 526a 303d f1cb c5bd 2992 cebd
00000260: cae9 50be d8a2 343d cb02 edbd 275c 3abe
00000270: 9849 373e 1561 0bbe 1f32 0ebd e787 3e3d
00000280: 5e89 a4ba 693f 18be 82b2 3cbe b544 2b3e
00000290: ffc2 143d bcbf 223e 6625 8cbd 85ee 473d
000002a0: e2a3 b1bc c502 20bf 4f89 97bd 9082 87bd
000002b0: ef68 1a3e ec9c 74bf ce0c 8fbd beb8 60be
000002c0: d5c8 2d3e 2e08 7b3e 3580 483e eb74 4a3e
000002d0: 2816 173b f575 273e 7f8c 1ebe 0f8c ee3d
000002e0: 3f8a 10bd d9aa 90bd db46 e6be 0a7e bebd
000002f0: 3b9c a53c a23d e43d 0ad7 e9bd 98a6 a93d
00000300: 7181 52bd 6179 c5bd 5cdd 233e cf90 f63d
00000310: e10a 14be 2496 c73d c038 513e dbfe 4a3e
00000320: cf4b 103e 24f5 1a3e 6ed4 843d 0c2d e13d
00000330: 3970 793e 9cc8 df3d 7d45 833e 7df0 673d
00000340: a63a 4c3e f697 8ebd 3c71 10be bf9f 703b
00000350: cc3d c63c 6244 013e 7a09 01be 16e8 133e
00000360: aec3 063e 3f19 883e 4e93 4b3e fa16 ff3d
00000370: 9aca 77bd e963 b63c c562 933e 3a81 f43d
00000380: f931 d5bd e975 e23d 0c16 e33c b194 413d
00000390: 7e15 41be 082f d8bd 945e 55bd e629 1a3e
000003a0: 73f0 b53c 812e f33c b1c7 903d 7ae5 243e
000003b0: c128 f3bd 99d7 80ba 2add 04be 9d19 0f3b
000003c0: a7c3 77be 2bdb 88be 8bd1 2abe 77c6 babd
000003d0: f7b1 d33d 8135 273e 5c35 813e 9d8d aebe
000003e0: 3a9d b4be 3187 e3bd c543 15bc 0d60 b83d
000003f0: 6449 4abe 716a b7bd 5059 5abe 35c3 29be
0.26437432 0.38578472 -1.164917 -0.3405403 0.04324949 0.13486521 -0.44453138 -0.5600494
-0.8307038 -1.2462562 -0.87476164 -0.6329086 -0.9833138 0.07681343 -0.7956004 0.25600028
-0.67311376 0.042614862 0.39417043 0.06337579 0.1473218 0.39332804 0.5524706 -0.24748912
-0.19436532 -0.096770614 0.12791656 -0.0120157115 -0.11255399 -0.15642273 -0.19103001 -0.17228246
-0.05233697 0.11194292 0.099376366 -0.19686384 0.12732899 -0.17540728 -0.05418761 -0.09407737
-0.03931743 -0.05126033 -0.1831708 -0.18715589 -0.031941235 -0.008362298 -0.09272848 0.06574368
-0.05115131 0.15554076 0.109660216 -0.09538801 0.33087394 0.17218669 -0.12319026 -0.12272177
-0.08939466 -1.1064836 -0.04886553 -0.6298039 -0.53198797 -0.041440394 0.13463473 0.2131283
-0.23254757 0.10345067 0.17528655 0.08277193 -0.24975109 0.3326774 0.3294639 0.078115046
-0.23695727 0.0839577 -0.073360115 -0.11563176 -0.29845187 0.16753495 0.07276219 -0.0632786
-0.08780778 0.13176827 0.0096115265 -0.13613641 -0.109209 0.20592837 -0.17604546 0.1828858
0.11745211 -0.08877901 0.077737875 -0.03845607 0.10444107 -0.64870566 0.05827804 -0.0804355
-0.15774019 -0.017903825 0.22964402 -0.14135866 -0.034435946 0.32217145 0.024816347 -0.036086425
-0.053019173 0.087063305 -0.3504608 -0.024578862 -0.01597843 -0.06218462 -0.023542315 0.26376262
0.05224001 0.1405502 0.21081305 -0.29336253 -0.060676657 -0.42195708 0.02832178 -0.056558367
0.14393502 0.06784253 -0.09060603 0.0817252 0.163803 -0.4409709 0.032560088 -0.10999007
-0.0025687793 0.14113797 0.0026620901 0.24522017 0.20820893 0.19974588 -0.14770366 -0.029065967
-0.4974788 0.16723771 -0.18837933 -0.24401963 -0.04504132 0.2980601 0.17212236 0.222733
0.06282256 -0.059262473 -0.06849245 0.052541275 0.15651688 0.043070145 -0.09658039 -0.100864716
-0.20401683 0.044100612 -0.11572798 -0.18199216 0.17899168 -0.13611253 -0.034715768 0.046516325
-0.0012553146 -0.14867939 -0.1842747 0.16725428 0.036318775 0.15893453 -0.06843071 0.048811454
-0.02168459 -0.62504226 -0.073992364 -0.066167 0.15079091 -0.95551944 -0.06984864 -0.21945474
0.16971143 0.24514839 0.19580157 0.19771163 0.0023053978 0.16353591 -0.15483283 0.11647808
-0.03528809 -0.070638366 -0.44975933 -0.09301384 0.020216098 0.11144568 -0.114179686 0.08283728
-0.051392976 -0.09642292 0.1600241 0.12039339 -0.14457275 0.09745434 0.20431805 0.19823782
0.14091419 0.15132576 0.0648583 0.1099492 0.24359216 0.10926935 0.25638953 0.056625832
0.19944248 -0.06962578 -0.14105695 0.003671631 0.024199389 0.12623742 -0.12601271 0.14444003
0.13160583 0.2658176 0.19880411 0.12455554 -0.06049595 0.022264438 0.28786293 0.119387105
-0.10409922 0.11057646 0.027720474 0.047260944 -0.18855855 -0.105558455 -0.05209215 0.15055045
0.022209382 0.02968526 0.07069338 0.16103163 -0.118730076 -0.0009829878 -0.12974992 0.0021835335
-0.24195729 -0.26729712 -0.16681497 -0.091198854 0.103366785 0.16329004 0.25236022 -0.34092417
-0.35276204 -0.1110977 -0.009110396 0.09002695 -0.19754559 -0.08955849 -0.21323133 -0.16578372

fc2.bias f4 [24]
00000000: 345d 0c3f 704d 27be 08ff 993e 6322 863d
00000010: 7242 ba3c 66ec e23d a2ce 44be 04b0 533e
00000020: 3600 c7be 19ec 89bd 232e 2f3d f633 c43e
00000030: 9ebc ddbd aea5 203f c413 773d ccaa 48be
00000040: 578d 8ebd 7611 85bd 36be 363e 865a febd
00000050: 4a3f f63d 20e3 7f3e ee4d da3e db99 6b3e
0.54829717 -0.16338134 0.30077386 0.065495275 0.022736762 0.11080246 -0.19219449 0.20672613
-0.38867348 -0.06734485 0.04276861 0.38320893 -0.108269915 0.6275281 0.060321584 -0.19596404
-0.06960552 -0.06497471 0.17845997 -0.1241961 0.1202379 0.24988985 0.4263758 0.2300791

fc3.weight f4 [2, 24]
00000000: 3019 b63f 4856 2abe 8a0b 8f3e ae81 43be
00000010: 5024 46be 036b f33d 656c 333e 5e70 0cbf
00000020: e387 7d3e a368 0abe c3f3 3bbe 1a93 cc3e
00000030: b78b 8bbe b0d4 a43f 7898 fdbe 2067 7e3e
00000040: 31aa 4cbe 7c3a d7bc 8b72 2b3e ae10 70be
00000050: 6cca 9dbe 7198 a5bd 5722 0e3f 6c9c 003e
00000060: bf2f b53f 5e08 233e bb07 003f 0105 d4be
00000070: 9b36 98bd 57ad 86be 77b3 27be c180 3dbe
00000080: ddcd 8c3e 2d9e 3b3e fa0d a1bc 1778 7f3e
00000090: 4fe8 8cbe aed0 ac3f f84b 86be 25c6 8cbe
000000a0: 6b7c 713c 7151 5a3e bc68 24be 2ac8 123e
000000b0: 413c 2e3e dab7 bcbe fbfe 8b3e b40e 853e
1.4226437 -0.16634476 0.2793849 -0.19092438 -0.1934979 0.11885645 0.17521818 -0.5485896
0.24758868 -0.13516478 -0.18354706 0.3995598 -0.2725503 1.2877407 -0.49530387 0.24844027
-0.19986798 -0.026273005 0.16742913 -0.23443863 -0.30818498 -0.080857165 0.5552115 0.1255967
1.4155196 0.1592116 0.50011796 -0.41410068 -0.0743229 -0.26304123 -0.16377054 -0.18506147
0.2750081 0.18322058 -0.019659985 0.24948154 -0.27520987 1.3501184 -0.26229835 -0.27494922
0.014739136 0.2132013 -0.16055578 0.14334169 0.17015173 -0.36859018 0.27342972 0.2598778

fc3.bias f4 [2]
00000000: b90b b2bc d768 873c
-0.021734105 0.016529484
