cartpole/cart_pole.pt (torch_old, 4087 bytes, 6 tensors)

fc1.weight f4 [24, 4]
000000 8f e3 8f 3d 16 1d 1a bd f7 98 a9 be ea 5f c0 be
       0.07025825 -0.037625395 -0.33124515 -0.37573177
000010 09 8e 46 be f4 5b 33 3e 00 dc a1 3e 48 98 87 3e
       -0.1939012 0.17515546 0.3161316 0.2648337
000020 b8 ff 8d 3e a3 93 6a 3d ac 7a 9d be 2d 6a 90 bd
       0.2773416 0.057269704 -0.30757654 -0.070515014
000030 ab 89 0a bf 06 a6 e7 be d0 6d 1e bf 9e 1e 8b be
       -0.54116315 -0.45243853 -0.6188631 -0.27171797
000040 2a b0 1b ba e6 33 9e bd 3c 23 b2 be 2c 99 8a be
       -0.0005939031 -0.077247426 -0.34792507 -0.27069986
000050 39 ec 44 be 47 ed b6 3e eb fc 0d 3e 2c be 1d 3f
       -0.19230737 0.35727903 0.13866012 0.61618304
000060 e3 90 5b 3c 66 0e 47 be be cd 2b 3e 87 2c 0c bf
       0.013401243 -0.19439086 0.16777703 -0.54755443
000070 75 84 e5 be 0c dd e1 3e c4 d7 18 be 77 5d 02 3f
       -0.4482762 0.44113958 -0.14926058 0.50923866
000080 ad 8e 29 bd d9 32 17 bf 5d 73 9f bf fc 78 26 bf
       -0.04139583 -0.5906196 -1.2457081 -0.6502836
000090 97 66 46 bf 29 1c ea 3e fd 24 b4 3f e7 7b b5 3e
       -0.7750029 0.4572461 1.4073788 0.35446092
0000a0 05 db 77 3e 14 8f f3 be 9b 2d 6e be b1 72 2c bf
       0.24204643 -0.47570097 -0.23259585 -0.67362505
0000b0 78 50 0a bf db f2 b7 be 01 a6 f4 3e 32 a5 e7 3e
       -0.54029036 -0.35927472 0.477829 0.45243222
0000c0 9c 84 d0 be 0b 2e 19 3f b6 e1 99 3f 0f 5a 40 3f
       -0.40726173 0.5983588 1.2022007 0.7513742
0000d0 1c d0 14 3e ed 2c 8d be 80 6d 72 3d 9e 48 d1 be
       0.14532512 -0.27573338 0.05918646 -0.40875715
0000e0 83 4f 3a 3f 5a ef b2 be 39 51 96 bf c9 82 85 be
       0.72777575 -0.34948236 -1.1743537 -0.26076344
0000f0 4a 54 5f 3e 96 f2 0c 3c ed 00 64 be 88 55 19 3e
       0.21809497 0.008602759 -0.22265978 0.14974034
000100 77 70 92 3e 81 99 90 3d ad cd 62 3e c4 2e c0 3e
       0.2860143 0.070605285 0.22148772 0.3753568
000110 81 63 42 3e ed e6 1c 3e b9 1f b6 be de 23 57 be
       0.1898327 0.15322466 -0.35571077 -0.21009776
000120 a5 49 35 3d 65 47 a0 3e 45 63 22 3f 73 a4 b0 3e
       0.044259686 0.3130447 0.63432723 0.34500465
000130 3e fe 06 3d 0f 6b 9f be 19 c1 98 bd 4f bd e1 be
       0.032957308 -0.31136367 -0.074587055 -0.44089743
000140 be 55 38 bf 24 77 af 3e 6a 2d 07 3f 72 71 cc be
       -0.7200583 0.34270585 0.5280367 -0.39930302
000150 1b 90 8a 3e 25 e5 b8 be 72 3b 7f be 80 8c 70 be
       0.2706307 -0.36112323 -0.2492502 -0.23491096
000160 d5 8a 55 3e a0 64 c3 be 1c 83 48 3e 6f 3d ac 3d
       0.20853741 -0.38162708 0.19581264 0.08410155
000170 41 c5 0a 3f c9 12 9e 3d 03 a3 35 bf ad 9d 69 be
       0.54207236 0.07718427 -0.7095186 -0.22814055

fc1.bias f4 [24]
000000 99 b6 0b 3f a6 f0 f2 3e ff b5 e9 be a0 ae 96 bd
       0.54575497 0.47449225 -0.45646665 -0.07357526
000010 62 2a 56 3f b1 85 09 3f df 6c 57 be 7d a6 c8 bc
       0.8365842 0.5371962 -0.21037625 -0.02449345
000020 cb fd 1c be d4 e9 10 be 4d b2 6f be b7 fe 52 be
       -0.1533119 -0.14151698 -0.2340786 -0.20604979
000030 08 f8 9d be 33 8d 18 be 76 43 86 bd 7e d9 5e 3f
       -0.30853295 -0.14897613 -0.06555836 0.87050617
000040 8b 23 8a be 83 15 58 3f 6a 0b 58 3f a9 3a f6 be
       -0.26980242 0.84407824 0.84392416 -0.4809163
000050 06 ec 73 3d a8 f5 eb 3e e1 0c 1b 3f 10 b0 fa bd
       0.05955126 0.46085858 0.60566527 -0.122406125

fc2.weight f4 [24, 24]
000000 dc ce 00 3e e6 53 8f 3e 6d 08 bc be 66 3e c7 be
       0.1257891 0.27993697 -0.36725178 -0.38914794
000010 cd e8 3c bc fc f3 d9 bc 04 a3 9a be d3 21 0d bf
       -0.011530113 -0.026605599 -0.30202496 -0.55129737
000020 c7 13 30 bf 2c a7 ba bf 6f 17 04 bf fd bf a8 be
       -0.6878018 -1.4582267 -0.51598257 -0.32958975
000030 70 64 72 bf c1 63 7b be ce 98 03 bf b1 ee f8 3d
       -0.94684505 -0.24549772 -0.51405036 0.12154902
000040 17 30 ea be 75 5d f5 3d b5 30 ab 3e 4f 4f 21 3e
       -0.45739815 0.11980716 0.33435598 0.1575291
000050 ef 27 cd 3d ed 78 53 3e 93 61 f3 3e e6 08 89 be
       0.10017382 0.20651598 0.4753538 -0.267646
000060 1d c5 3b be ac 2f c6 bd 30 53 0e 3e 80 70 ad ba
       -0.18336911 -0.096770614 0.13898921 -0.001323238
000070 d3 c9 cf bd 48 2d 20 be 5f 9d 43 be d0 6a 30 be
       -0.10145917 -0.15642273 -0.19103001 -0.17228246
000080 1c 97 29 bd 54 42 e5 3d 54 03 e2 3d ad 96 49 be
       -0.041403875 0.11194292 0.11035791 -0.19686384
000090 88 62 02 3e 05 90 23 be 30 c2 30 bd 9e 81 a9 bd
       0.12732899 -0.15972908 -0.04315394 -0.08276676
0000a0 50 0b 21 bd 20 29 24 bd 20 91 3b be 7e 7a 34 be
       -0.03931743 -0.040078282 -0.1831708 -0.17624852
0000b0 d0 d4 02 bd 00 00 2d 3b 6e e8 bd bd 4c 7a 9d 3d
       -0.031941235 0.0026397705 -0.09272848 0.07689342
0000c0 52 f7 41 be 02 48 b1 3d db d0 54 3e e7 20 84 bd
       -0.18942001 0.086563125 0.20782797 -0.06451588
0000d0 3c 85 98 3e 7c d0 11 3e d6 bf f8 bd c1 af 80 bd
       0.2978915 0.14239687 -0.12145965 -0.062835224
0000e0 9c c7 9a bd e0 08 94 bf cc e8 18 ba 84 75 b6 be
       -0.07557604 -1.1565208 -0.0005833029 -0.35636532
0000f0 75 45 2e bf 4d ce ec bd df c5 6f 3d 1e 64 29 3e
       -0.68074733 -0.11562786 0.058538314 0.16542098
000100 52 f4 88 bd a2 d3 bc 3d 4e 55 b9 3d 4c d5 c6 3d
       -0.066872254 0.09220053 0.09049474 0.09708652
000110 7f 96 5c be 4d 14 38 3e 4f 1a b9 3e 30 8e 71 3d
       -0.21541785 0.17976494 0.36152884 0.05897349
000120 70 2a df bd 71 d2 bc 3c ab 96 23 be a5 8b a4 3b
       -0.10896766 0.023049565 -0.15975444 0.0050215297
000130 5c 87 13 be d6 b0 26 3e 7e 57 fd bc 1f 9b 24 3d
       -0.14407104 0.16278395 -0.030925509 0.040186998
000140 30 0f 78 3d 45 30 45 3e c5 28 86 bd 1b 07 91 bd
       0.06056136 0.19256695 -0.06550745 -0.070814334
000150 cf ae e3 bd 72 ba f1 3d cf e8 1e bc 76 7d 6b 3e
       -0.111173265 0.1180314 -0.009699061 0.22997078
000160 e7 18 ca 3d c9 df ba 3d 74 c1 28 bd fa 6b bb 3d
       0.09868031 0.09124715 -0.041200116 0.09151454
000170 5c a4 10 3e af aa c4 be e1 cc 30 be 88 2a eb 3d
       0.14125198 -0.3841147 -0.17265655 0.114827216
000180 22 09 87 be c8 a7 b7 3c 14 c6 30 3e d4 99 98 3d
       -0.26374155 0.022418872 0.17263061 0.074512154
000190 6e 43 f4 bd 25 92 ad 3e a0 93 27 3e 4f 43 93 3d
       -0.11926924 0.33900562 0.16364908 0.071905725
0001a0 99 b5 bb bd ec b6 51 3e 3a 45 2a bd d7 78 37 3d
       -0.091654964 0.20479935 -0.041569926 0.044792976
0001b0 ee 7e 24 3d bc 70 7a 3d 8b 60 62 3d f7 a5 4c 3e
       0.040160112 0.061142668 0.05526785 0.19985186
0001c0 1e 68 a0 3d 97 85 10 3e 50 8a 65 3e 55 26 d4 3d
       0.07832359 0.1411346 0.22416043 0.10358874
0001d0 66 b4 24 3e 07 f4 b7 be cc 94 d1 bb c3 d6 8a 3d
       0.16084442 -0.35928366 -0.006395912 0.06779244
0001e0 c4 e4 2a 3e 21 83 e7 3d 03 f7 98 bd 77 f8 6a 3d
       0.1668883 0.11304308 -0.07468989 0.05736586
0001f0 11 20 6d 3e b8 2b df be c0 02 84 3c d7 cb bc be
       0.23156764 -0.43588042 0.016114593 -0.36874267
000200 f3 f9 4d ba 40 ed 1f be 98 b6 de bd 22 f4 b2 bd
       -0.0007857375 -0.15617847 -0.10874671 -0.08737971
000210 30 96 6d 3c ee 93 2f be 1e 7e 3d be 24 62 5f bd
       0.0145011395 -0.17146274 -0.18505141 -0.054536954
000220 dd 72 b1 be 28 3a 33 3e e5 98 b9 bd b0 8f ac bd
       -0.34657946 0.17502654 -0.090623654 -0.08425844
000230 fa 92 1e be a8 a1 8f 3e 90 3d 1b 3e 80 c8 b2 3d
       -0.15485755 0.2805302 0.15160203 0.087296486
000240 d3 7d 64 3d b2 de c3 bd 3f 91 9a bd 89 c7 46 3d
       0.055784058 -0.0956396 -0.07547235 0.048530135
000250 ea 96 18 3e 49 6c b3 3c 44 18 ce bd bf cc ea bd
       0.14901319 0.02190222 -0.10063222 -0.114648335
000260 5e da 53 be 90 3f 5b 3c 77 ea fb bd 94 a6 49 be
       -0.20688769 0.013381854 -0.1230058 -0.19692451
000270 f3 c9 17 3e 94 a9 0f be 4d 13 1b bd 7c ef 13 3d
       0.14823131 -0.14029533 -0.037860204 0.036117062
000280 61 ee ba bc 0e cb 20 be eb e1 4c be 0e 22 1f 3e
       -0.022818746 -0.15702459 -0.20008056 0.15540335
000290 14 ee d3 3c 34 ea 1c 3e 4b bc be bd b1 81 2a 3d
       0.02587036 0.15323716 -0.09313258 0.04162759
0002a0 cc 74 d5 ba a8 59 07 bf 43 74 a6 bd 11 97 24 3e
       -0.0016285419 -0.5287118 -0.08127644 0.16073252
0002b0 b1 49 19 3e a6 cf c8 be 35 96 4f bd 88 4a 92 3c
       0.14969517 -0.39220923 -0.050680358 0.017857805
0002c0 e6 8c 3f 3e 5c 8f 86 bd 7a 22 fc 3d 1b 8a bc bd
       0.18706092 -0.065703124 0.123112634 -0.09206029
0002d0 00 ed 5f 3e 25 69 19 3e f6 a4 96 3b 6a 16 e0 3d
       0.21867752 0.14981516 0.0045973016 0.10941775
0002e0 4f 5c ae 3e 97 51 ad bd d3 16 bc be 0d e6 d5 bc
       0.340548 -0.08462828 -0.36736163 -0.026110673
0002f0 7c 17 47 3d b3 59 f7 3d c9 79 3b 3e 1c 49 a4 3d
       0.04860638 0.12077656 0.18308176 0.08021757
000300 4a fd 89 3d 03 2e e1 bc 86 49 26 3e 6f e5 20 3e
       0.06737764 -0.02748776 0.16238984 0.15712522
000310 d9 ae 13 be 33 25 ab 3d 9d c3 07 3e ee b3 9e 3e
       -0.14422168 0.083567046 0.13258214 0.3099665
000320 79 26 0f 3e 61 32 3b 3e af f7 4c bc 2b 95 0a 3e
       0.1397952 0.18280937 -0.012510224 0.13533466
000330 7c 5a 9f 3e 5f 9b 38 3e 38 04 83 3e 2a 20 a6 3c
       0.31123722 0.1802802 0.25589156 0.020279009
000340 6b d7 bf 3e 39 4d 22 be b1 a2 0a be 68 57 b6 bd
       0.37469038 -0.1584977 -0.13538624 -0.0890339
000350 5c c0 34 3e b7 9f 28 3e 5c 76 ff bd e7 6c e3 3d
       0.17651504 0.16467176 -0.12473747 0.11104756
000360 29 e4 15 3e 98 42 6c 3e 84 2e 5a 3e 9b 4a 2d 3d
       0.14637817 0.23072278 0.21306807 0.042307477
000370 1b ae ad 3c eb 76 69 3d c2 49 0e 3e 7f 3d ca 3d
       0.021201184 0.056998175 0.13895324 0.09875011
000380 9f 21 d4 bd 39 24 07 3e 1f 11 81 3d 73 41 99 3d
       -0.10357975 0.13197412 0.06302094 0.074831866
000390 db 69 3e be 3a 13 18 3b ed 81 f8 bc 16 f1 0a 3e
       -0.18595068 0.002320482 -0.030335391 0.1356853
0003a0 9a f9 90 bc 18 c6 db 3d 36 5e 4e 3d bf 46 95 3d
       -0.017697144 0.10731143 0.050382815 0.07288884
0003b0 f2 59 ff bd cc e3 d6 3d 85 81 72 be 8a 91 f3 3d
       -0.124683276 0.104926676 -0.2368222 0.11892994
0003c0 07 fa 8a 3d 65 c8 12 bd ad 85 17 bf 0c 36 b4 3d
       0.0678597 -0.035835642 -0.5918835 0.08799371
0003d0 f2 83 0f 3f d6 aa 65 3e fa fc b3 bd 73 e4 0c bf
       0.5606071 0.2242845 -0.08788486 -0.55036086
0003e0 a9 3d 57 bf bb e0 67 bf c7 96 59 bf fb 10 f3 3d
       -0.8407846 -0.90577286 -0.8499569 0.11868473
0003f0 57 62 92 bf 40 e7 21 bf 70 ef c8 bf 6f 2b d3 3d
       -1.1436261 -0.63243484 -1.569807 0.10311019

fc2.bias f4 [24]
000000 9f 40 e8 3e 00 fb 1a be 10 39 7d 3e 52 03 10 bb
       0.45361802 -0.15134811 0.24728799 -0.0021974635
000010 6a a0 ab bd 89 8f 11 3e e3 19 4f be fc d5 15 3e
       -0.08380206 0.1421491 -0.20224719 0.1463241
000020 30 d9 8f be c2 57 8f bd b9 60 d8 3e af 34 a4 3e
       -0.28095388 -0.0699916 0.42261294 0.32071444
000030 6e 60 c5 bd 7b 76 04 3f d2 2b 48 bb 27 ec 51 be
       -0.09637533 0.51743287 -0.0030543697 -0.20500241
000040 75 84 5e 3d 69 90 22 be 1a e1 0f 3e 93 e6 20 be
       0.05432554 -0.158754 0.14050713 -0.15712957
000050 2a 86 78 3d 8f 91 3e 3e 0b da 71 3e b8 aa 5a 3e
       0.060674824 0.18610214 0.23618333 0.21354187

fc3.weight f4 [2, 24]
000000 5c 71 a1 3f 99 dc 1a be 4e b7 c8 3e da 18 8a be
       1.261272 -0.15123214 0.3920235 -0.26972085
000010 36 d6 79 be d1 48 a7 3e d2 5a 32 3e d4 af 78 be
       -0.24398121 0.32672742 0.17417458 -0.24285823
000020 f3 2d ad 3e 8f 79 7a bd 02 5c 82 3f e4 0f ab 3e
       0.3382412 -0.061151084 1.0184329 0.3341056
000030 95 0c 40 be 4a c9 8e 3f f6 40 58 be 32 ee 42 3e
       -0.187548 1.1155179 -0.2111853 0.19036177
000040 38 76 6d be 5a 5a 42 be 66 b6 15 3e 26 71 71 be
       -0.23189628 -0.18979779 0.1462036 -0.23578319
000050 a5 6e 1d be e8 2b c5 bd 7f b8 87 3e 5e 91 be 3d
       -0.15374239 -0.09627515 0.26507947 0.0930507
000060 3b b8 8b 3f 36 9e 33 3e 8f 14 e3 3e 4d 15 76 be
       1.0915598 0.17540821 0.44351622 -0.24031563
000070 07 4d 0c be 61 31 c1 bd fb c2 28 be 66 d6 0d be
       -0.13701259 -0.094332464 -0.16480629 -0.13851318
000080 4d 2c 99 3e 5e 03 3e 3e b7 da 91 3f ce 13 96 3e
       0.2991661 0.18555972 1.1394871 0.29311985
000090 84 f7 46 be 80 23 99 3f 05 35 a4 be 06 44 43 be
       -0.19430357 1.1963959 -0.320717 -0.19068918
0000a0 88 b4 23 bd eb 29 0d 3d c6 0d 2d be c1 c8 e4 3d
       -0.03996709 0.034463804 -0.16899785 0.11171103
0000b0 81 e3 e7 bc 0e 51 90 be 0a 65 9b 3d aa 63 17 3e
       -0.028306725 -0.2818684 0.07587631 0.14784113

fc3.bias f4 [2]
000000 44 26 21 bd c4 d2 b3 3a
       -0.039343134 0.0013719429
