cartpole/cart_pole_chk.pt (torch_old, 4087 bytes, 6 tensors)

fc1.weight f4 [24, 4]
0.07268999 -0.029430008 -0.32733017 -0.3750618 -0.19220318 0.1772546 0.3093488 0.26333833
0.27789682 0.056366745 -0.3044883 -0.07063922 -0.54856837 -0.44257754 -0.59970796 -0.27065912
0.0035501565 -0.072624944 -0.34564924 -0.2690713 -0.18477839 0.35754028 0.13212691 0.61136395
0.017143566 -0.18642427 0.17844069 -0.551116 -0.4583606 0.43113196 -0.1633607 0.51228905
-0.043871097 -0.5852914 -1.2246268 -0.6553842 -0.7822265 0.4507752 1.383179 0.35492444
0.25121817 -0.47208986 -0.22563826 -0.673346 -0.53328335 -0.3487122 0.4805708 0.4479545
-0.40510353 0.5959816 1.1756252 0.75147706 0.15579008 -0.2754592 0.0652608 -0.40547842
0.73031497 -0.34765676 -1.1556579 -0.26533145 0.22033882 0.012855084 -0.22137892 0.15112627
0.28397855 0.06705833 0.21316352 0.37438214 0.19208454 0.15810004 -0.35209966 -0.2092641
0.047870647 0.31545195 0.63187915 0.3443044 0.031393822 -0.31412965 -0.07167422 -0.43943015
-0.7124952 0.34998196 0.52609277 -0.4065921 0.2748435 -0.35778144 -0.24402909 -0.22744694
0.21193287 -0.3796278 0.20049687 0.088841625 0.54432803 0.077856064 -0.7038064 -0.23075438
00000000: 7dde 943d 3317 f1bc d297 a7be 1a08 c0be
00000010: e9d0 44be 3b82 353e f762 9e3e 48d4 863e
00000020: 7e48 8e3e d1e0 663d e4e5 9bbe 4cab 90bd
00000030: fa6e 0cbf 8699 e2be 7686 19bf d593 8abe
00000040: bea9 683b 63bc 94bd f0f8 b0be b7c3 89be
00000050: 8c36 3dbe 850f b73e 474c 073e 5982 1c3f
00000060: aa70 8c3c 01e6 3ebe 28b9 363e f015 0dbf
00000070: 3eae eabe 54bd dc3e 0748 27be 6025 033f
00000080: 2eb2 33bd a8d5 15bf 92c0 9cbf 42c7 27bf
00000090: ff3f 48bf 02cc e63e 020c b13f a8b8 b53e
000000a0: ab9f 803e c3b5 f1be b70d 67be 6760 2cbf
000000b0: 4285 08bf 688a b2be 600d f63e 4b5a e53e
000000c0: bb69 cfbe 4092 183f e37a 963f cd60 403f
000000d0: 6f87 1f3e fd08 8dbe 74a7 853d de9a cfbe
000000e0: ecf5 3a3f 1100 b2be 99ec 93bf 86d9 87be
000000f0: 80a0 613e 219e 523c 28b1 62be d8c0 1a3e
00000100: a365 913e e155 893d 8a47 5a3e 04af bf3e
00000110: cfb1 443e fae4 213e 6846 b4be 5449 56be
00000120: 0314 443d eb82 a13e d5c2 213f ab48 b03e
00000130: cf96 003d 9ad5 a0be efc9 92bd fdfc e0be
00000140: 1666 36bf d630 b33e 04ae 063f d72c d0be
00000150: 4ab8 8c3e 212f b7be c3e2 79be dae7 68be
00000160: ee04 593e 935e c2be 0d4f 4d3e 99f2 b53d
00000170: 1559 0b3f 0073 9f3d a82c 34bf e04a 6cbe

fc1.bias f4 [24]
0.54150283 0.47113737 -0.45270142 -0.07384504 0.83372575 0.531683 -0.20152263 -0.017770661
-0.14674643 -0.14275172 -0.22458267 -0.21337499 -0.30765128 -0.14000838 -0.06532687 0.86546737
-0.2690031 0.84100926 0.84004337 -0.4786393 0.055810936 0.4576248 0.6005168 -0.118866205
00000000: ee9f 0a3f eb38 f13e 7bc8 e7be 113c 97bd
00000010: 0d6f 553f 611c 083f f35b 4ebe c793 91bc
00000020: b244 16be 822d 12be 00f9 65be f97e 5abe
00000030: 7884 9dbe 5b5e 0fbe 18ca 85bd 458f 5d3f
00000040: c6ba 89be 624c 573f 150d 573f 3610 f5be
00000050: 029a 643d cc4d ea3e 78bb 193f 2070 f3bd

fc2.weight f4 [24, 24]
0.12043622 0.27678096 -0.3504143 -0.37595472 -0.016616914 -0.02766346 -0.29937094 -0.5504689
-0.67675793 -1.4420129 -0.51163703 -0.3229516 -0.93320465 -0.2426203 -0.5046445 0.11776297
-0.44953346 0.11575885 0.33127874 0.1575291 0.10341111 0.20031753 0.47056058 -0.26339072
-0.18336911 -0.096770614 0.13898921 -0.001323238 -0.10145917 -0.15642273 -0.19103001 -0.17228246
-0.041403875 0.11194292 0.11035791 -0.19686384 0.12732899 -0.15972908 -0.04315394 -0.08276676
-0.03931743 -0.040078282 -0.1831708 -0.17624852 -0.031941235 0.0026397705 -0.09272848 0.07689342
-0.19065526 0.082906395 0.20704336 -0.0641148 0.2965326 0.13952135 -0.12395593 -0.059041217
-0.07580844 -1.1420152 -0.0008102135 -0.35705173 -0.6773381 -0.11507896 0.059101123 0.1638309
-0.07274002 0.090608954 0.08747194 0.09588113 -0.21495563 0.178936 0.35939133 0.058126923
-0.11118456 0.022839483 -0.15315656 0.0071594333 -0.14640099 0.16133167 -0.031928867 0.038669452
0.06464361 0.1924452 -0.0653276 -0.070355356 -0.11086052 0.12052987 -0.0071814223 0.22917883
0.10012528 0.088246934 -0.04196716 0.08804359 0.13829978 -0.3762911 -0.1724123 0.1170144
-0.2622697 0.02128784 0.17549555 0.071936004 -0.12084318 0.33668807 0.16558623 0.070285074
-0.087663494 0.20436963 -0.039167956 0.043924324 0.040499665 0.06371192 0.056733005 0.19918106
0.08015495 0.14024965 0.22284235 0.10131122 0.15842341 -0.35647202 -0.008802764 0.07076575
0.16444938 0.1097328 -0.07369663 0.05782408 0.2283272 -0.42781195 0.023822179 -0.3607154
-0.00037462107 -0.15251815 -0.10589803 -0.079004884 0.023079503 -0.16615233 -0.1841666 -0.059617814
-0.3341476 0.17236976 -0.0969327 -0.08413496 -0.15654843 0.27567872 0.14294465 0.09071269
0.055784058 -0.0956396 -0.07547235 0.048530135 0.14901319 0.02190222 -0.10063222 -0.114648335
-0.20688769 0.013381854 -0.1230058 -0.19692451 0.14823131 -0.14029533 -0.037860204 0.036117062
-0.022818746 -0.15702459 -0.20008056 0.15540335 0.02587036 0.15323716 -0.09313258 0.04162759
-0.0012729731 -0.51747245 -0.08081905 0.15941082 0.14991748 -0.38862363 -0.05296548 0.016434843
0.18651572 -0.07289384 0.1218256 -0.0948668 0.22020125 0.14690906 0.003893883 0.109030545
0.339754 -0.08367248 -0.3592815 -0.026395872 0.05062736 0.119703315 0.18142794 0.08005595
0.06861614 -0.030956594 0.16131167 0.15703446 -0.14284244 0.080209285 0.1311156 0.30558214
0.13925895 0.18086722 -0.01247934 0.13398743 0.30799186 0.1794609 0.2563621 0.021574225
0.37201995 -0.15642373 -0.13695645 -0.088571206 0.17578752 0.16642922 -0.12176506 0.1111834
0.14967597 0.23011425 0.21357132 0.042017646 0.02239151 0.053551976 0.13701746 0.098794945
-0.10324457 0.13002148 0.062559746 0.07349597 -0.18856427 -0.0005085481 -0.030529024 0.13958526
-0.024980688 0.110468775 0.051825292 0.07371999 -0.118007705 0.10599603 -0.2331202 0.11672413
0.06519861 -0.03784013 -0.59039724 0.08014739 0.5571458 0.223777 -0.07723833 -0.54861367
-0.82685536 -0.88997495 -0.83769757 0.11075103 -1.120037 -0.62148863 -1.5618904 0.100788906
00000000: 44a7 f63d 3cb6 8d3e 8169 b3be 237d c0be
00000010: 3220 88bc 7b9e e2bc 2647 99be 88eb 0cbf
00000020: 0240 2dbf e193 b8bf a5fa 02bf ea59 a5be
00000030: 80e6 6ebf 7571 78be 6230 01bf b62d f13d
00000040: 4029 e6be fa12 ed3d 5e9d a93e 4f4f 213e
00000050: 34c9 d33d 0a20 4d3e 51ed f03e 26db 86be
00000060: 1dc5 3bbe ac2f c6bd 3053 0e3e 8070 adba
00000070: d3c9 cfbd 482d 20be 5f9d 43be d06a 30be
00000080: 1c97 29bd 5442 e53d 5403 e23d ad96 49be
00000090: 8862 023e 0590 23be 30c2 30bd 9e81 a9bd
000000a0: 500b 21bd 2029 24bd 2091 3bbe 7e7a 34be
000000b0: d0d4 02bd 0000 2d3b 6ee8 bdbd 4c7a 9d3d
000000c0: 223b 43be d4ca a93d 2d03 543e 9f4e 83bd
000000d0: 1fd3 973e afde 0e3e 9bdc fdbd 34d5 71bd
000000e0: 7541 9bbd 8e2d 92bf 8264 54ba 7ccf b6be
000000f0: 0866 2dbf 85ae ebbd 0514 723d 4ac3 273e
00000100: b8f8 94bd 3091 b93d 7d24 b33d 535d c43d
00000110: 541d 5cbe 003b 373e 2402 b83e 7f16 6e3d
00000120: bbb4 e3bd de19 bb3c 13d5 1cbe ae99 ea3b
00000130: 24ea 15be 2134 253e d8c7 02bd dc63 1e3d
00000140: de63 843d 5b10 453e 7aca 85bd 7816 90bd
00000150: d70a e3bd 5dd8 f63d 2352 ebbb dbad 6a3e
00000160: 7c0e cd3d cfba b43d c2e5 2bbd 3350 b43d
00000170: 759e 0d3e 3aa9 c0be da8c 30be 3fa5 ef3d
00000180: 3748 86be d663 ae3c 1bb5 333e 2f53 933d
00000190: a17c f7bd 6162 ac3e 708f 293e 9ff1 8f3d
000001a0: eb88 b3bd 4646 513e 946e 20bd fee9 333d
000001b0: fae2 253d 657b 823d de60 683d 1ff6 4b3e
000001c0: 4728 a43d 9b9d 0f3e c930 643e 427c cf3d
000001d0: bf39 223e 8083 b6be 7839 10bc a2ed 903d
000001e0: 6b65 283e 97bb e03d 42ee 96bd f1d8 6c3d
000001f0: 9bce 693e 2b0a dbbe bb26 c33c b0af b8be
00000200: ca68 c4b9 b82d 1cbe 11e1 d8bd 50cd a1bd
00000210: 3a11 bd3c d623 2abe 2b96 3cbe cf31 74bd
00000220: 6515 abbe b381 303e a784 c6bd f34e acbd
00000230: 3b4e 20be c325 8d3e 1560 123e 93c7 b93d
00000240: d37d 643d b2de c3bd 3f91 9abd 89c7 463d
00000250: ea96 183e 496c b33c 4418 cebd bfcc eabd
00000260: 5eda 53be 903f 5b3c 77ea fbbd 94a6 49be
00000270: f3c9 173e 94a9 0fbe 4d13 1bbd 7cef 133d
00000280: 61ee babc 0ecb 20be ebe1 4cbe 0e22 1f3e
00000290: 14ee d33c 34ea 1c3e 4bbc bebd b181 2a3d
000002a0: e4d9 a6ba 1379 04bf 7584 a5bd 973c 233e
000002b0: f883 193e adf9 c6be 55f2 58bd 5da2 863c
000002c0: fafd 3e3e 5e49 95bd b37f f93d 8649 c2bd
000002d0: 707c 613e 546f 163e 8430 7f3b 684b df3d
000002e0: 3cf4 ad3e 7a5c abbd bff3 b7be 283c d8bc
000002f0: a25e 4f3d 0327 f53d 3fc8 393e 60f4 a33d
00000300: 9e86 8c3d af98 fdbc e32e 253e a4cd 203e
00000310: 4a45 12be c444 a43d 2b43 063e 4375 9c3e
00000320: e699 0e3e 4235 393e 2576 4cbc 0034 093e
00000330: 1cb1 9d3e 99c4 373e e541 833e 6ebc b03c
00000340: 6679 be3e 8b2d 20be 503e 0cbe d264 b5bd
00000350: a501 343e 6c6c 2a3e f65f f9bd 1fb4 e33d
00000360: a844 193e 12a3 6b3e 71b2 5a3e b21a 2c3d
00000370: 666e b73c 5159 5b3d 4e4e 0c3e 0155 ca3d
00000380: e471 d3bd 5a24 053e 531f 803d 0e85 963d
00000390: fe16 41be 1650 05ba 0118 fabc 70ef 0e3e
000003a0: 4da4 ccbc 743d e23d c246 543d 82fa 963d
000003b0: 06ae f1bd 7214 d93d 10b7 6ebe 100d ef3d
000003c0: d986 853d 41fe 1abd 4624 17bf 5124 a43d
000003d0: 1ba1 0e3f cc25 653e 212f 9ebd f271 0cbf
000003e0: cbac 53bf 66d5 63bf 5973 56bf 70d1 e23d
000003f0: 5f5d 8fbf e119 1fbf 06ec c7bf 6a6a ce3d

fc2.bias f4 [24]
0.44905555 -0.15134811 0.24563113 -0.005194541 -0.086063184 0.13746609 -0.20224719 0.14684339
-0.2781397 -0.06506868 0.4195387 0.31945992 -0.09797582 0.5129084 -0.00063586544 -0.20362845
0.052185725 -0.16103764 0.14065568 -0.15398626 0.058615815 0.18877569 0.23478903 0.21634701
00000000: 9cea e53e 00fb 1abe ba86 7b3e f836 aabb
00000010: e541 b0bd e9c3 0c3e e319 4fbe 1d5e 163e
00000020: 5468 8ebe ba42 85bd c7cd d63e 4090 a33e
00000030: 8ca7 c8bd f74d 033f 35b0 26ba fa83 50be
00000040: b3c0 553d 0de7 24be 0b08 103e 93ae 1dbe
00000050: 2317 703d 6a4e 413e 896c 703e 128a 5d3e

fc3.weight f4 [2, 24]
1.2432585 -0.15123214 0.38762987 -0.2716487 -0.24206784 0.31677616 0.17417458 -0.23996124
0.33693388 -0.062046025 1.0062882 0.3268841 -0.18734333 1.1022505 -0.21373115 0.18666317
-0.22795287 -0.1861149 0.14520776 -0.23260908 -0.15408014 -0.09739599 0.2630525 0.089990705
1.0781597 0.17540821 0.43862206 -0.23458128 -0.13738146 -0.087026484 -0.16480629 -0.13951218
0.29686457 0.18573633 1.1232176 0.29481673 -0.19570693 1.1794358 -0.31695575 -0.18672518
-0.041054644 0.03337271 -0.16762008 0.10898366 -0.0265937 -0.2784862 0.07872285 0.15175211
00000000: 1823 9f3f 99dc 1abe 6c77 c63e 8a15 8bbe
00000010: a2e0 77be 7c30 a23e d25a 323e 66b8 75be
00000020: 9982 ac3e f923 7ebd 0dce 803f 5a5d a73e
00000030: eed6 3fbe 8b16 8d3f 57dc 5abe a124 3f3e
00000040: 7a6c 69be e894 3ebe 58b1 143e 1331 6ebe
00000050: 2fc7 1dbe 8c77 c7bd d1ae 863e 0c4d b83d
00000060: 2301 8a3f 369e 333e 1293 e03e 1336 70be
00000070: baad 0cbe f13a b2bd fbc2 28be 48dc 0ebe
00000080: a2fe 973e aa31 3e3e 98c5 8f3f 38f2 963e
00000090: 6667 48be c1f7 963f 0648 a2be e334 3fbe
000000a0: ea28 28bd d3b1 083d 99a4 2bbe d332 df3d
000000b0: 08db d9bc be95 8ebe 7239 a13d e864 1b3e

fc3.bias f4 [2]
-0.04202062 0.0056557287
00000000: d01d 2cbd b153 b93b
