lunar_lander/lunar_lander_chk.pt (torch_old, 172255 bytes, 6 tensors)

fc1.weight f4 [200, 8]
000000 0e 22 43 3d 49 73 a2 3e 13 68 be be 95 bb 1d bf
       0.0476399 0.3172858 -0.37188777 -0.6161435
000010 26 4d b4 3d b4 41 eb 3e dc b4 9d bd ed f9 cb 3e
       0.088037774 0.45948565 -0.07700512 0.39839116
000020 c4 d3 c9 3d 09 5e 8f 3d 51 16 c9 be 42 08 8a be
       0.09854844 0.07000358 -0.3927484 -0.26959425
000030 ad ad f6 be 5a 12 96 3d 2b 0a 2e be 77 54 ca 3d
       -0.4817938 0.07327719 -0.16996066 0.09879392
000040 03 41 39 3e b5 b2 4e be 4b 9b 0c bf 30 ff ea be
       0.18091206 -0.20185359 -0.5492446 -0.45897818
000050 e8 6c 19 3e a3 30 cf 3e 21 2b 1f 3d 6a 27 72 3e
       0.1498295 0.40466794 0.03885949 0.23647848
000060 0e 13 e5 bd b6 c9 b0 3d 05 f6 18 3f ce 56 2f bf
       -0.11185275 0.08632223 0.59750396 -0.6849183
000070 f1 70 b6 be e9 15 91 3d af e9 40 bd 7a b6 f1 3e
       -0.35633042 0.07084257 -0.047097858 0.4720953
000080 23 7f cf 3d 86 f3 a6 3d c7 b2 78 bf 0f 86 08 bf
       0.10131671 0.08151917 -0.9714779 -0.5332956
000090 d4 8b c4 be d3 af 9d 3e dd 50 bf 3e cd 0b 2f 3d
       -0.3838793 0.30798206 0.3736638 0.042735863
0000a0 01 86 f2 bc 92 23 ee be 54 e0 85 3e 25 48 30 be
       -0.029604914 -0.46511513 0.2614771 -0.17215021
0000b0 7a 2a 3e bf 73 54 8a 3e a5 c8 2c 3d 2a b8 ba 3e
       -0.74283564 0.27017555 0.042183537 0.3646863
0000c0 8f 77 e5 bd e7 e9 9d bd 16 66 45 3f d2 76 af 3f
       -0.112044446 -0.07710629 0.77108896 1.3708136
0000d0 2b 54 cf 3e f2 61 84 be 46 af 11 bd 43 6e 13 3f
       0.40493903 -0.25855976 -0.035567544 0.5759012
0000e0 aa 49 cd 3d 32 1a 84 bf f9 b7 2a be 37 34 6d bf
       0.10023816 -1.0320494 -0.16671742 -0.926578
0000f0 94 02 91 3e 61 0f f6 3e 5b 14 0b bf 28 1f 11 be
       0.2832228 0.48058608 -0.54327935 -0.14172041
000100 b2 07 c2 3e b7 36 2b bf 42 c7 c3 3d 74 5c 63 be
       0.37896496 -0.66880363 0.0955949 -0.22203237
000110 77 ca 23 3f 4d a7 69 3e 42 47 4d bf 24 02 49 bd
       0.6398081 0.22817726 -0.80186856 -0.049074307
000120 33 1c 01 3f 34 a5 d9 bb 87 68 64 3f 4d d0 c5 3e
       0.50433654 -0.006642008 0.89221996 0.38635483
000130 5a c8 6a bd 42 35 44 be 51 f8 e9 3d 07 d4 5f bd
       -0.057319976 -0.19160941 0.11424316 -0.054645564
000140 ba 03 c9 be 1c f2 02 3f 4b e7 57 3d 7b 3d f8 be
       -0.39260656 0.5115068 0.052710813 -0.48484406
000150 76 2c 73 be 22 e6 f4 be 7b 28 c8 be da 3a 2f bf
       -0.23747429 -0.47831827 -0.39093384 -0.68449175
000160 c1 ee b9 3f 35 82 10 be 50 8b 25 3f f4 5c 7e 3c
       1.4525987 -0.1411217 0.646657 0.015525091
000170 04 3b 93 3e 22 45 a1 3d 3f 8b 0e bd d2 b9 63 bd
       0.28755963 0.07874514 -0.034800764 -0.055597134
000180 92 2a 87 3e 7e 1f 2e bf de 10 ee be 73 92 82 3d
       0.26399666 -0.68016803 -0.46497244 0.06375589
000190 d8 cf 34 3f 75 e5 a4 3e 24 60 a1 be 09 6b 0e be
       0.70629644 0.32206312 -0.31518662 -0.13908018
0001a0 5c 00 b5 be 40 97 b8 bd 34 71 21 bf d9 76 01 bf
       -0.35351837 -0.09013224 -0.6306336 -0.5057197
0001b0 2d 30 e7 3c c3 36 af 3c 27 78 97 3d 7c 82 99 3e
       0.028221214 0.021388417 0.07395964 0.29982364
0001c0 2d a3 30 be e4 24 22 3f 2f e5 03 3f 6e 1c 1d bf
       -0.17249747 0.6333754 0.5152158 -0.61371505
0001d0 e6 92 11 be 58 be 6f 3e f8 3e 1d 3e 08 88 48 bf
       -0.14216194 0.23412454 0.15356052 -0.7833257
0001e0 1f 63 37 3d e5 bb d1 bd 26 b9 ca be 5b 2b 0f 3e
       0.044772264 -0.10240916 -0.39594382 0.13981383
0001f0 51 50 d4 bd 24 78 68 bf df 50 f2 3d 4e ce 8c bd
       -0.10366882 -0.9080832 0.11831831 -0.06875287
000200 8c fd 94 bc af 86 ee be c3 94 08 be c5 53 a8 3c
       -0.018187307 -0.4658713 -0.13337998 0.020547757
000210 f9 5b 9d be 68 3d df 3d c5 5d bc 3e 7c d5 97 3e
       -0.30734232 0.10900384 0.3679029 0.29655063
000220 2a 3c 95 be 58 b6 de be a6 27 2f be c0 4c 87 3c
       -0.29147464 -0.43498492 -0.17104968 0.01651609
000230 fb ed 05 3f f3 46 17 3f 14 ae ea 3e 9a 39 0b be
       0.52316254 0.59092635 0.45835936 -0.13596192
000240 67 f7 68 be 26 e2 4e 3e 2e 36 34 3d 75 6e e8 be
       -0.22750627 0.20203456 0.043996982 -0.45396772
000250 25 3e e7 be e6 0a 3f bf 90 24 0a bf 2d dc 52 bf
       -0.451646 -0.74626005 -0.5396204 -0.8236721
000260 4b 6b 77 3d 15 4d f2 bd 93 3f 43 3f 21 08 75 bf
       0.060405057 -0.118311085 0.7626888 -0.9571553
000270 5f d5 54 3f 69 55 71 be f4 e5 a8 be 9d c8 28 bf
       0.8313808 -0.23567738 -0.3298794 -0.6593111
000280 c6 85 4c be 2f 5f d3 3e 78 3c 1b bf 14 3b 64 be
       -0.19972906 0.41283557 -0.60639143 -0.22288162
000290 07 07 76 3f 51 b4 17 bd 06 f4 08 bf 31 ec 9c 3e
       0.9610447 -0.037037198 -0.5349735 0.3064895
0002a0 5c ea 6e bd 74 bd c8 be 15 30 0d 3e 0d f4 e9 bc
       -0.05832897 -0.3920704 0.13787873 -0.028558755
0002b0 40 17 57 3f fa 78 a4 3e c6 c3 77 bf b0 85 0f 3f
       0.8401985 0.32123548 -0.967831 0.56063366
0002c0 94 b1 86 be aa 97 1b bf 54 61 43 3e 3f 78 77 bf
       -0.26307356 -0.60778296 0.19080096 -0.96667856
0002d0 dc 33 40 be 41 19 22 be 2b 75 a0 3e 1c 9a 25 3e
       -0.18769783 -0.15829946 0.31339392 0.1617207
0002e0 9f 01 be 3e bd 08 2c 3e 6d e7 07 be 77 3a 83 be
       0.37110612 0.16800208 -0.13271876 -0.25630543
0002f0 e2 82 10 bf 3b b1 60 3e 2f 42 35 3e 12 89 9c 3e
       -0.5644971 0.21942608 0.17701028 0.30573326
000300 71 b1 22 bf ec 9c 88 bd c7 26 43 bf 0b 3c fa be
       -0.63552004 -0.066705555 -0.76231045 -0.48873934
000310 e2 aa ee be 37 76 98 3e d6 10 4a bd e6 52 d4 be
       -0.46614748 0.2977769 -0.049332462 -0.41469496
000320 98 8a 95 3e 42 84 88 3e 20 c8 c9 be 81 97 14 bf
       0.292073 0.26663405 -0.39410496 -0.58043677
000330 bd 18 0f bf bd 3e 63 3e 5a 5a 9d bd 4a c0 94 3e
       -0.5589712 0.22191902 -0.07683249 0.29052955
000340 f4 22 e4 3e 15 39 c1 3d 87 95 17 3e ea 07 96 be
       0.44557917 0.09434716 0.14803134 -0.29302913
000350 6c 3c 51 3e ae 9d 2f 3d a2 bb ba bd 27 7f b3 bc
       0.20433205 0.042874984 -0.09117819 -0.021911217
000360 90 5b 2a bf 33 ed d5 bd f6 80 ed 3e c6 70 1d bf
       -0.66545963 -0.10445633 0.46387452 -0.61500204
000370 dd e1 68 bd 82 54 b3 3e 71 de 3d 3e bb 27 b8 be
       -0.056856025 0.35025412 0.18541886 -0.35967812
000380 3d 82 00 bf 33 01 1f ba c4 b0 22 bf 45 13 99 be
       -0.5019873 -0.00060655473 -0.6355097 -0.29897514
000390 22 dd 69 3b 63 b6 24 be 49 f0 22 bf 10 f0 4f 3e
       0.0035684784 -0.160852 -0.63647896 0.2030642
0003a0 31 dd aa 3e f0 24 ea 3e 64 72 ca 3e 49 a5 db be
       0.3337188 0.45731306 0.39540398 -0.4289954
0003b0 4d 5e cb 3e 7b 35 a4 bd af e4 c2 be 37 89 c7 3c
       0.39720383 -0.08018013 -0.38065097 0.024357421
0003c0 23 85 b6 bd 5f a2 e0 3e 79 2d 3d be fe 53 a3 3d
       -0.089121126 0.4387388 -0.18474378 0.079750046
0003d0 30 b3 05 3f a1 2b bd be 16 69 f8 3e 45 fd 81 bf
       0.52226543 -0.3694735 0.48517674 -1.0155417
0003e0 14 88 8c bc 0e 4f 3e be 9e 0e 09 bf 4c be d3 be
       -0.01715473 -0.18584844 -0.5353793 -0.41356122
0003f0 86 ea 50 3f 35 d9 43 3e 6b 5f 3a be 25 49 36 bf
       0.81607854 0.19125827 -0.18200462 -0.7120536

fc1.bias f4 [200]
000000 37 78 a4 be 51 e4 28 3f e0 67 1e 3d f7 4a 9d 3c
       -0.32122967 0.65973383 0.03867328 0.019200785
000010 95 b9 21 be fd 26 90 3e 94 16 49 3d 5f 94 83 3e
       -0.1579345 0.28154746 0.049093798 0.25699136
000020 5a 1f 32 bf c6 b8 a4 3e 3a 34 88 bd c4 06 da 3d
       -0.6957909 0.3217222 -0.066505864 0.10645822
000030 90 20 6a bf 90 a5 73 3c 38 27 7f be 62 f1 7b 3e
       -0.91455936 0.014871016 -0.24917305 0.24603799
000040 c7 cc 04 3f 9a 7c 58 be 31 5e 33 be fc 4d 7c 3c
       0.51874965 -0.21141282 -0.175164 0.015399452
000050 dd 7e 00 be 8a 44 19 bf 06 60 cc be f5 1f 06 3f
       -0.12548395 -0.5987021 -0.3991701 0.5239251
000060 a5 87 93 3d 62 e3 74 3e 1a 14 e8 3e c8 00 6f 3d
       0.072036065 0.23914865 0.45327836 0.058350354
000070 e8 d2 1e 3a f6 29 b5 3e 9b fd 0f be df 0c 35 bd
       0.0006058649 0.35383576 -0.14061587 -0.044201728
000080 35 72 d9 3e 27 fa ec bd 2e 4e 1e be c7 a9 66 bf
       0.42469946 -0.1157115 -0.1545951 -0.9010281
000090 7b c6 57 3e 78 62 27 3f a9 88 00 3f 55 d7 00 3f
       0.21071808 0.65384626 0.50208527 0.5032857
0000a0 64 8b d0 3e 70 5a 82 bf ae 2a 2d be c3 79 f2 bd
       0.40731347 -1.0183849 -0.16910812 -0.118396305
0000b0 6a 6b 0d 3f 7a bc 0b 3e 95 d1 6f be cf 50 ca 3e
       0.55242026 0.13646117 -0.23419793 0.39514777
0000c0 df ac 37 3e 15 d4 30 bf e5 69 c4 3e f1 28 6d be
       0.17937039 -0.6907361 0.3836204 -0.23160149
0000d0 66 8b b8 3a a9 ec 02 3e 22 c3 89 3e a6 fe 1e 3f
       0.001407963 0.12785591 0.26906687 0.6210731
0000e0 fc d6 15 3f 1b 3a 64 be 11 2c 84 3e 28 e5 84 3e
       0.58531165 -0.2228779 0.2581487 0.25956082
0000f0 a5 45 9d be 62 1e 3f 3e b6 31 98 3e a6 ab 08 3f
       -0.30717197 0.18663934 0.29725426 0.53386915
000100 dd 69 13 bf ea 89 6f bd 3e db a6 bd f8 77 ed 3e
       -0.5758341 -0.058481134 -0.08147286 0.4638059
000110 64 fa d1 3e 04 54 40 bd 2d ac aa 3e 6f 5f a6 3d
       0.41011345 -0.046955124 0.33334485 0.08123671
000120 2d 11 4e be a8 f0 7b bb d7 99 39 3e a0 4c a9 bb
       -0.2012374 -0.0038443003 0.18125091 -0.005166605
000130 7a 34 f0 3e 3b 49 0e bd dc 17 12 bf ba 98 8d be
       0.46915036 -0.034737807 -0.57067657 -0.27655584
000140 82 1d 43 3e 17 8b a1 3e 3a 1e da 3c d4 7c 2b bf
       0.19054225 0.3155143 0.026625741 -0.6698735
000150 fc 0d bc 3c 17 c4 10 bf af eb cc be 64 0a 82 3e
       0.022955887 -0.5654921 -0.40023562 0.25398552
000160 5a 30 e0 be 0e ba b1 3e 13 96 ed 3e a3 7f 2c bd
       -0.4378689 0.3471226 0.4640356 -0.04211391
000170 12 db f1 3e fc 50 89 be 2a 6c 07 3f d6 9b c8 3e
       0.4723745 -0.268196 0.5289942 0.39181393
000180 0b de 8e 3d 7f 93 0e 3f ca 5e 49 be 66 e8 eb bd
       0.06975945 0.5569381 -0.19665065 -0.11518936
000190 51 60 54 3e ef 53 00 bf 80 31 a4 3c 33 3e 00 bf
       0.20739867 -0.5012807 0.020043135 -0.5009491
0001a0 a1 d1 8c be 29 6b dd be f2 e8 79 3e 97 57 09 be
       -0.27503684 -0.4324582 0.24405268 -0.13412319
0001b0 1c dd c7 bd 52 a6 5d 3d 3e 8a f3 3e 37 0d 52 be
       -0.0975897 0.054113694 0.47566408 -0.20512854
0001c0 36 90 d7 bd 37 70 c7 bd 34 60 46 3e 80 12 2f 3e
       -0.10525553 -0.097382 0.19372636 0.17096901
0001d0 28 e8 21 3f 84 ef 4b 3e 03 b2 91 3e e9 b4 c9 be
       0.6324487 0.19915587 0.28456125 -0.39395836
0001e0 85 1b 2f 3f f5 eb 4c bf e5 f1 fa 3d c7 1c eb 3e
       0.68401366 -0.8004754 0.12253169 0.45920393
0001f0 61 4b c1 be d6 0b 54 3e b4 30 ea 3e 3d de 26 bd
       -0.37752822 0.2070764 0.45740283 -0.040739287
000200 7c da 77 3e b1 dd 98 be 13 cb a2 3d f9 04 5d 3e
       0.24204439 -0.29856637 0.079488896 0.21583928
000210 6c cb e9 3e 48 50 a3 3e 77 38 2c 3e c0 46 03 bf
       0.4566301 0.31897187 0.16818415 -0.5127983
000220 90 80 d0 3e 34 c0 52 3e 7c 60 b6 3e 1f 61 8b 3e
       0.40723085 0.20581132 0.35620487 0.27222535
000230 b5 20 e9 3e 33 bb 0a 3f ca 79 a2 3d 7e 44 88 3e
       0.45532766 0.54191893 0.07933386 0.26614755
000240 25 22 46 bc d8 5c 61 3e 5b 8f fd 3e d7 c4 ca 3d
       -0.012093102 0.22008073 0.49523434 0.099008255
000250 31 96 09 3e 4f 70 c7 bd e0 2c e0 be e4 24 db 3e
       0.134362 -0.09738218 -0.43784237 0.42801583
000260 03 1e fa 3d 6f e9 0e be c3 1c 33 3e 86 0f ce be
       0.122127555 -0.13956235 0.1749144 -0.40246218
000270 ea 71 08 3f c4 c5 56 bd 98 90 16 3d 84 b6 16 3e
       0.5329882 -0.052434698 0.03675899 0.14718062
000280 dc ad 45 3a e3 e9 ec 3d 03 21 6e 3d 39 89 76 be
       0.00075408607 0.11568048 0.05813695 -0.24075784
000290 61 ed 05 3f 5c 74 12 bf 04 83 83 be ff 07 18 3f
       0.52315336 -0.572088 -0.25685894 0.593872
0002a0 f9 42 1e 3e 7b 20 e6 bc 60 67 e2 be 14 e5 44 be
       0.15455236 -0.02809166 -0.44219494 -0.19228011
0002b0 50 ea c1 be 25 c9 02 3e c6 4c 34 3d e9 0b cb 3e
       -0.3787408 0.12772043 0.04401853 0.39657524
0002c0 b8 63 78 be 3c 1a 47 3e fa 40 f4 3d 68 1c eb 3e
       -0.2425679 0.19443601 0.11926456 0.4592011
0002d0 12 08 e0 3e 3c 40 03 3f 7a 4b 7a bb 0e 77 bf 3c
       0.43756157 0.5126989 -0.003819196 0.0233722
0002e0 32 04 bb 3e d2 e5 c4 be b4 a0 81 3d 53 26 17 bf
       0.36526638 -0.3845659 0.0632948 -0.59042853
0002f0 9a 6a 51 bf fa 24 8c 3e ca a5 35 3e e3 0e ae 3e
       -0.81803286 0.2737196 0.17739025 0.33995733
000300 8a 7a da 3e 45 9e c4 3e 14 a2 33 3e 1b e2 09 3e
       0.42671615 0.38402 0.17542297 0.13465159
000310 d2 57 61 3d 89 75 b1 3e f5 67 30 3d a4 09 33 be
       0.055015393 0.34659985 0.04306789 -0.17484146

fc2.weight f4 [200, 200]
000000 ee 7f 0a ba 7a ec 9c bc 32 8f 87 bd c0 53 88 ba
       -0.0005283345 -0.01915573 -0.06619109 -0.0010400936
000010 68 1d 81 bd 87 ef 70 3c 56 3c 86 bd e8 0e 0c bd
       -0.06304437 0.014705545 -0.06554477 -0.034193903
000020 c0 5b 09 bd ab 25 16 3d 77 72 7d bd b8 e3 13 3d
       -0.033534765 0.036657017 -0.06187674 0.03610584
000030 3a 42 11 3d b9 51 1f 3d 69 e5 04 3c de d0 98 3c
       0.03546355 0.038896296 0.008111336 0.018654283
000040 11 53 14 3d 43 41 4c 3b b2 a1 6e 3b be 9f 92 bd
       0.03621203 0.0031166829 0.0036412296 -0.07159375
000050 61 4d f6 bc 00 ea 98 bb 36 3f 3e bc bc 59 30 bd
       -0.030066194 -0.004666567 -0.01161175 -0.043054327
000060 c2 bb a2 bd 76 cf e1 bc 0b 30 06 3c e8 a3 4c 3d
       -0.07945968 -0.027564745 0.008190165 0.049961
000070 3f 9c a1 bd 10 71 8a 3c 83 ce bb bd dd 34 a1 bd
       -0.0789113 0.016899616 -0.09170248 -0.07871411
000080 7f 16 5d bd 8c 05 19 bc 19 b9 0d 3c 80 44 5c bd
       -0.053976532 -0.009339701 0.008650088 -0.053776264
000090 9b b8 31 3d 09 25 39 3d 96 0d dd bb 21 65 19 3d
       0.043388944 0.045201335 -0.0067460043 0.03744996
0000a0 cc 94 30 bd 17 df 1f bd 12 ad e6 bc 2e 35 35 3b
       -0.043110654 -0.039031114 -0.028158698 0.0027650106
0000b0 c7 43 6b bd 1a eb 67 bd e8 d3 e4 3c 24 60 04 38
       -0.057437684 -0.056620695 0.027933076 3.156079e-05
0000c0 4a 2c 60 3d 7a 8d 23 bd 5d 8e cd 3a 48 50 22 bd
       0.054729737 -0.039929844 0.0015682686 -0.039627343
0000d0 b4 3a 7e 3c d1 55 17 bc 19 3b fe 3c 1c 3e 84 3c
       0.015516926 -0.009236769 0.03103404 0.016142897
0000e0 8e 99 43 3d 90 f9 83 3c 3d e9 81 bc 43 4e 48 3d
       0.047753863 0.016110212 -0.015858287 0.04890276
0000f0 bc 1f 2a bd 32 1c 31 3d 60 ba 47 3d a8 b7 43 3d
       -0.04153417 0.04323978 0.048761725 0.04778257
000100 0f f8 39 bd 93 52 69 bd 30 28 7b bc 7f 03 9f 3b
       -0.045402583 -0.056963515 -0.015329406 0.0048527117
000110 d8 c9 e4 3c 34 14 0f 3c 22 9e 76 3d e8 3a 18 bd
       0.027928278 0.008732844 0.0602094 -0.037165552
000120 b5 b0 11 bd 30 2b c2 3c c9 02 cb 3a 65 9e 5b bd
       -0.03556891 0.023702234 0.0015488501 -0.053617854
000130 9c 0e 9a bc 61 f9 92 bd fa e8 27 bd 2f 61 41 bd
       -0.018805794 -0.071764715 -0.04099367 -0.047211822
000140 ba e2 7d 3d 6b b5 94 bd df ad 5d bd 84 b8 8d bd
       0.0619838 -0.07261165 -0.054120895 -0.06919959
000150 34 b4 9d 38 fe ec 5e bd fb ea 86 3c 2c 98 8b bd
       7.519909e-05 -0.054425232 0.01646947 -0.06816134
000160 34 88 39 bd bd f0 73 bd aa a0 14 bc 68 b0 5c 3d
       -0.04529591 -0.059555758 -0.009071508 0.05387917
000170 9c bf 3f 3d 3a 47 a8 bc 6e 6d 9d bd 2e f8 15 bd
       0.046813592 -0.020541776 -0.07686888 -0.036613636
000180 9c ff 0e bd 32 c2 03 bd 50 54 dd 3c cc 6b 87 3c
       -0.034911737 -0.03216762 0.027017742 0.016530894
000190 49 92 48 3c c9 49 15 3c 64 b6 22 bd 00 a3 44 ba
       0.012241908 0.00911183 -0.039724723 -0.00075010955
0001a0 c5 4a 09 bb 90 66 41 bd 9f a9 d3 bc 08 9e 10 bc
       -0.0020949107 -0.04721695 -0.025837718 -0.00882674
0001b0 ad ea b0 bd c5 f1 16 3d fc 63 95 bc 32 e9 93 bd
       -0.08638511 0.036851663 -0.018236153 -0.07222213
0001c0 bd bc 37 3d 15 b0 7b bd 7d 44 c1 3b 58 c9 71 3d
       0.04485773 -0.06144722 0.005898057 0.059029907
0001d0 96 71 69 bc 51 65 98 3a 7f 36 8b 3c 73 3a 28 3d
       -0.014248272 0.0011626874 0.01699376 0.041071367
0001e0 48 a5 22 bd 18 fb 22 bd 70 ae 92 bc a7 0d 35 3d
       -0.039708406 -0.039790243 -0.017905444 0.044202473
0001f0 4d 43 61 bc be 91 2b 3d 9d 9d db bc bc 93 2d 3c
       -0.013748956 0.041887037 -0.026808554 0.010594305
000200 06 79 0d bc 00 98 fb 3a df 84 bc bd 49 5a 9f bd
       -0.008634811 0.001919508 -0.09205031 -0.077808924
000210 e4 99 3c bc 9f e6 a9 3c c9 ea e7 3c 2d 67 18 bc
       -0.0115113 0.020739852 0.028310196 -0.009301943
000220 e4 2b f4 3c 5b bd c8 3b e8 ca 8e bd d5 f1 95 bd
       0.029806085 0.0061260886 -0.06972295 -0.073215164
000230 70 90 60 bd fe c7 20 bc d3 04 57 bd 9c 70 30 bd
       -0.054825246 -0.009813307 -0.052494835 -0.043076143
000240 c6 5a 97 bc 3b 14 87 3c d6 66 e7 bb d0 da 38 3d
       -0.018475901 0.016489139 -0.0070618195 0.04513055
000250 aa c9 57 3d 37 49 55 bd 47 49 8e bc 09 dc 74 bb
       0.052682556 -0.052071776 -0.017368926 -0.0037362596
000260 ab 5f 4f 3d d1 3c 07 bd 0b 70 3e bd 4e 56 81 bd
       0.050628345 -0.033016983 -0.04649357 -0.063152894
000270 df a1 ea 3c 9a af 25 bd 1b ec 19 bd c8 6c 16 3d
       0.02864164 -0.04045067 -0.037578683 0.036724836
000280 dc 09 5d 3d 8f 6d be bc 9c dc 8d bd bf 49 1c 3d
       0.05396448 -0.023245601 -0.069268435 0.038156267
000290 19 e7 35 bd ee 5e 26 bd 82 72 78 bd e1 fc 5b bd
       -0.044409845 -0.040617876 -0.06065608 -0.05370796
0002a0 73 73 82 bd 86 28 73 bd bb eb 83 bd f0 80 69 bc
       -0.063696764 -0.059364818 -0.064414464 -0.0142519325
0002b0 65 0e 8e 3c 7b 92 80 bd c4 5c 92 bc 26 43 18 bd
       0.017340848 -0.06277939 -0.0178665 -0.037173413
0002c0 10 18 0c 3d c9 22 1b 3d 1d 85 f0 bc 42 92 6b bd
       0.034202635 0.03787497 -0.029360348 -0.05751253
0002d0 d3 38 81 bd 11 d7 5c bd 0c 3f a7 3c 0c 61 e2 bb
       -0.063096665 -0.05391604 0.020415805 -0.0069085415
0002e0 b7 e9 9b 3c fc 24 2c bc 2d 28 7a 3c 5d 5b 9a bd
       0.019032342 -0.010506865 0.015268368 -0.075369574
0002f0 78 b7 9b 3c 1c 2b 41 3d da 52 8f bd 27 b7 5c bd
       0.019008383 0.047160253 -0.069982246 -0.053885605
000300 bc 50 b5 3c 6e 4a a8 bc 9a 43 66 bd 90 b1 30 3d
       0.022133224 -0.020543303 -0.056216814 0.043138087
000310 f2 72 d0 bb b5 ab c2 bc 4c 71 05 bd b8 01 0b 3d
       -0.006361359 -0.023763517 -0.03257875 0.033937186
000320 02 b8 86 3c 67 8f 95 bd 18 f2 ab 3d 55 2d 82 be
       0.016445164 -0.073027425 0.08395785 -0.2542521
000330 81 aa 18 3e 9d 73 ee be 88 be ac 3e 1b a7 9b 3e
       0.14908792 -0.4657258 0.33739114 0.3040093
000340 ac 75 32 3f 5a b0 c0 3e 42 62 d8 be f1 4f 86 3e
       0.69710803 0.37634546 -0.42262465 0.26232865
000350 cd 66 4e 3f f3 9c a0 3d e9 6e 04 be cd ed 70 3e
       0.8062561 0.07842436 -0.12932934 0.23528214
000360 1f ed b1 be 71 87 80 3e 90 da 1b be 32 9f 4a 3d
       -0.34751222 0.25103334 -0.15220094 0.049468227
000370 61 48 6d 3d 5c 8a 1c 3e ee a2 4a 3f 6b 5a 01 be
       0.057930354 0.15287155 0.7915486 -0.12632148
000380 31 a5 ec 3d 19 a1 37 bc 56 c1 b3 3d 33 6f 06 be
       0.11554945 -0.011207842 0.0877711 -0.13128357
000390 01 c8 da bd ce e1 d7 3c f9 27 09 bf 2d e5 1c 3f
       -0.10682679 0.02635279 -0.5357662 0.61287194
0003a0 5a 0c 38 bd c5 72 ac 3d bd ef ac 3d 57 17 59 3f
       -0.044933654 0.08420328 0.08444164 0.8480124
0003b0 87 31 94 3e c1 27 09 3f ff bc 1f 3e 14 d4 02 3f
       0.28944036 0.53576285 0.1559944 0.51104856
0003c0 1a 5c 95 3d d0 1a 88 3f 82 cf 31 3f 57 62 6e 3f
       0.072929576 1.0633183 0.69457257 0.93118805
0003d0 9b 19 f3 be 6a 23 c4 3e 78 2d c9 3e 0d b4 0b be
       -0.47480473 0.3830827 0.39292502 -0.13642903
0003e0 52 9c 94 3b cd 77 46 3f 44 32 1b be 04 5e 31 3f
       0.0045352364 0.7752655 -0.15155894 0.6928408
0003f0 24 f1 89 be 5b 7f d9 be 1c 59 35 3e 2e ea 2b bf
       -0.26941788 -0.42479977 0.17709774 -0.67154205

fc2.bias f4 [200]
000000 97 7c a0 3c a3 c9 0c be fc 54 cf bd 82 91 e6 be
       0.019590659 -0.13748793 -0.10123631 -0.4503289
000010 91 0f 45 3c 78 d9 4b 3d 3c 8f 7c 3e 41 86 97 bd
       0.012027637 0.04976794 0.24664015 -0.07398654
000020 80 c5 e5 3c 82 60 c0 3e 68 c0 a1 bd 39 3e 1a 3e
       0.028048277 0.3757363 -0.07898027 0.15062799
000030 03 9c 3a 3e 13 b0 fa bd 69 3b 12 be d9 ad 96 3c
       0.18223576 -0.12240615 -0.14280476 0.018393444
000040 fb 51 c6 3e 69 2a 0f 3c 08 66 ad 3e e8 1e 3d 3d
       0.3873442 0.008738139 0.33866906 0.046172053
000050 20 1f 6c 3e fc f0 7f 3c 4f da e1 be a6 b9 8f 3e
       0.23058748 0.01562142 -0.4411187 0.28071326
000060 ae 01 8c 3d 1d fa 9b 3d f7 2a 6b bd be a7 8a 3d
       0.06836258 0.07616065 -0.05741402 0.067702755
000070 e4 d5 e0 bd 59 d0 4a bd 29 fb 61 3e a3 8f 65 3e
       -0.109782964 -0.049515102 0.22068466 0.22418074
000080 3b 78 f2 be 32 79 79 be 03 ed da bd 8a 11 b5 3e
       -0.47357354 -0.24362639 -0.10689738 0.35364944
000090 ab 2a 88 bc c8 d6 52 3e 79 a9 54 3e 77 3b b1 bd
       -0.016621908 0.20589745 0.20767774 -0.0865392
0000a0 a2 90 5b be 18 d4 5d bd cc 93 4f bd 3b 15 05 3e
       -0.21441892 -0.054157346 -0.05067806 0.1299638
0000b0 5e 98 81 bd 65 b6 94 3e 11 42 c6 bd f8 cc 79 bc
       -0.0632789 0.29045406 -0.0968057 -0.015246622
0000c0 e6 4f d4 bd 4b ab d3 bb bd a2 b0 3d 84 d8 9a 3b
       -0.10366802 -0.0064596287 0.0862479 0.0047255177
0000d0 f3 17 a6 3e a9 2f e5 3d 61 a3 92 3e 83 9e 9f bd
       0.32440147 0.11190731 0.28640273 -0.077939056
0000e0 90 15 a5 be 71 7c 25 3b 21 f7 7b 3e a1 be 7a 3e
       -0.32243013 0.0025251175 0.24605991 0.24486782
0000f0 a8 bb 88 3b 63 66 49 be 94 92 5c 3e 2c 23 f0 bb
       0.004172761 -0.19667964 0.2154029 -0.0073284116
000100 e0 b1 1c 3c ed 08 85 3c b1 72 cf 3e 2e f6 0d be
       0.009563893 0.016239608 0.4051719 -0.13863441
000110 fa de ea 3d 4d f8 05 bc 42 4d 77 3e 0f 2e 7e bd
       0.11468311 -0.008176875 0.24150565 -0.062055644
000120 7e b6 2b bc f0 d1 e7 be f1 86 63 3e c9 11 a9 bd
       -0.010480521 -0.45277357 0.22219445 -0.082553454
000130 80 e7 8a 3e 13 79 36 3d bc b1 02 3e 0f 23 64 3e
       0.27129745 0.04454906 0.12763113 0.22278999
000140 65 2b 98 3c a5 b6 9a 3e b1 80 5e 3e d5 4a ae 3e
       0.01857538 0.30217472 0.2172878 0.34041467
000150 ff 60 ef 3d dc a6 57 3d 50 95 ab be 0d 45 aa 3d
       0.116884224 0.052649364 -0.33512354 0.08313952
000160 0d 74 ee be ec d5 08 bd 4c 3c eb bb e5 9c b3 bd
       -0.46572915 -0.033407137 -0.007178819 -0.0877016
000170 e3 0b 06 bf d5 a7 0b be bb b2 fe 3d 8c e4 e0 3c
       -0.5236189 -0.13638242 0.12436434 0.02745273
000180 d1 95 8d 3d c7 cb 00 3d c3 f2 87 3d 31 ff bd bd
       0.06913341 0.031444337 0.066381 -0.092771895
000190 43 98 b0 3e 18 be 53 bd d4 9c fc bc b0 dc 4e be
       0.34491166 -0.05169496 -0.0308365 -0.20201373
0001a0 f9 9d 9a bd 07 3a 6e bd 4d 7e a1 be 1b 1c 2b 3e
       -0.07549662 -0.058160808 -0.31541672 0.1670994
0001b0 d2 c7 02 3e c0 32 e4 35 67 bc 3e 3d 65 1c 69 3d
       0.12771538 1.7002094e-06 0.046566393 0.056911845
0001c0 b2 20 6b 3e 76 d9 76 3a 53 7f a3 3d 2a fa 88 bd
       0.22961691 0.00094165595 0.079832695 -0.0668834
0001d0 6f ce 5e 3e a1 45 70 bd 67 1f c4 bd 62 34 a9 3d
       0.21758436 -0.058660153 -0.09576302 0.08261944
0001e0 ba 3b b1 be 47 28 e5 3b 04 89 f8 bd a8 6a b2 be
       -0.3461588 0.006993327 -0.12135509 -0.34846997
0001f0 5a f8 ce 3d 35 2d cc 3e d2 65 08 be 9b c4 bb bc
       0.10105963 0.3987824 -0.13320091 -0.022920897
000200 72 27 f8 3c a3 0a eb be 1b 25 9e 3e aa bf 02 bf
       0.030292246 -0.45906553 0.30887684 -0.51073706
000210 00 a3 1f 3b 25 2e bb be ff d9 e3 bd 35 67 c0 bd
       0.002435863 -0.36558643 -0.11125564 -0.09394685
000220 37 fb 06 be 79 87 b6 3c 57 e7 7f 3e 17 ad 66 bc
       -0.13181768 0.022281395 0.24990593 -0.014079354
000230 36 77 a5 3c b6 21 20 3e b8 04 92 3e 6d f5 85 bd
       0.020198446 0.1563786 0.28519225 -0.06540952
000240 b3 a1 16 3e cc e8 85 3d 0d 92 a5 bb 5f 62 a9 bc
       0.14710121 0.06538543 -0.005052811 -0.02067679
000250 d7 ea 61 3d ca 07 91 bd 50 87 8b 3b fb f4 34 be
       0.0551556 -0.07081564 0.004258074 -0.17671578
000260 48 68 37 bd 82 95 40 bd b3 08 03 bf 8a 7a 83 3d
       -0.044777185 -0.04701758 -0.5118515 0.06419857
000270 42 ac 5b bd eb 37 43 bd 2b d8 df bc f5 db a4 3c
       -0.053631075 -0.04766075 -0.027324757 0.020124415
000280 12 dc 26 3e 00 e0 ac 3e 61 e5 30 bd 40 84 04 bb
       0.16294888 0.33764648 -0.043187503 -0.0020220429
000290 28 77 16 bd fb c5 32 bd b9 70 9e bc a0 5f 3e be
       -0.03673473 -0.04364584 -0.01934086 -0.18591166
0002a0 ba ec 11 bd 87 c4 93 3c a1 af 98 3d b4 df a9 bd
       -0.03562615 0.018038047 0.074553736 -0.08294621
0002b0 80 47 af 3d a8 08 6b be f6 fa b0 bc 43 1e 7b bd
       0.085585594 -0.22952521 -0.021604043 -0.061308157
0002c0 29 c0 25 3e 8a 15 f0 bc 1c 24 bf bc 15 db e3 be
       0.16186585 -0.029307146 -0.023332648 -0.44503084
0002d0 28 b1 34 3e 70 0c 10 bd 42 f4 73 bd a5 90 e6 be
       0.17645705 -0.03516811 -0.059559114 -0.4503223
0002e0 97 b7 4b 3e 36 1a db be 09 e3 fb bc 4e eb dd bc
       0.19894253 -0.42793435 -0.030747907 -0.027089741
0002f0 3d bf 8c bd 9d 41 be bd 15 32 5f 3d 5b fb 4e bd
       -0.06872413 -0.092898585 0.05449112 -0.05053268
000300 aa ac ab 3e d4 03 a5 bc 64 e9 bc 3e bb 09 ec 3d
       0.3353017 -0.020143427 0.36896813 0.115252934
000310 6a b3 dc 3c a5 76 8c bd c3 0c 84 bc f9 1a 0a 3e
       0.02694102 -0.06858567 -0.016119367 0.13486852

fc3.weight f4 [4, 200]
000000 54 f5 09 3d 75 f8 e4 be 2d 7f ed be f3 9b 04 bf
       0.03368123 -0.44720808 -0.4638609 -0.5180046
000010 56 99 02 3d fd 0a 25 3d 47 86 80 3e 8e 2a ec be
       0.031884514 0.040293682 0.25102445 -0.46126217
000020 92 96 71 3d 5e c0 d9 3e f2 4d 71 3d 13 54 bc be
       0.058981486 0.42529577 0.058912225 -0.36782894
000030 4e a5 15 bf 25 0e 33 bf bf 04 1c bf 56 85 7f 3d
       -0.5845536 -0.6994346 -0.6094474 0.06238302
000040 74 6b ad 3e cd a8 81 be 84 ed b7 3e 9b 74 0b bd
       0.33871043 -0.25324097 0.35923398 -0.03404675
000050 c1 2c a7 3e 03 b1 79 be 3e 5d 72 bf 44 22 0f 3f
       0.32651332 -0.24383931 -0.94673526 0.5591166
000060 bd 83 b6 3f dc ad 7c be 80 e7 ee be 12 9d 35 3f
       1.4258953 -0.24675697 -0.46660995 0.70942795
000070 f3 53 ec be 42 66 63 3d c2 f0 a4 3e 02 a5 63 3f
       -0.46157798 0.055517443 0.32214934 0.88923657
000080 23 72 10 bf 19 14 d8 bd c6 81 f6 be 26 fa 81 3e
       -0.5642416 -0.10550708 -0.48145884 0.2538616
000090 bf 28 8f 39 4c 33 b9 3f b4 6e d8 3f a1 0a b4 be
       0.00027305444 1.446878 1.6908784 -0.3516436
0000a0 48 ed 57 bf 10 3b 8d be 24 91 89 3c 42 58 fd 3d
       -0.8434644 -0.27584124 0.016792841 0.123703495
0000b0 12 59 fe be ce 14 bb 3e b4 80 15 3e c7 79 9d 3c
       -0.4967733 0.3653931 0.14599878 0.019223107
0000c0 7e de fa bd e7 56 c8 bc 00 1f 5f 3f b4 d9 39 bc
       -0.12249468 -0.0244555 0.8715668 -0.011343408
0000d0 2b f8 fa 3e 23 9c e6 be b8 ca f5 3e 27 d6 ad bc
       0.49017462 -0.45040998 0.48006225 -0.02122028
0000e0 e2 f5 72 be 9e 40 7f be a7 3c 9c 3e ed 64 c2 3e
       -0.2372661 -0.24926993 0.30515024 0.37967625
0000f0 ba 2c 51 3c bc 40 19 be d3 f2 a5 be 06 5c 8e bd
       0.012767011 -0.149661 -0.32411823 -0.06951146
000100 8e ea 57 3c c1 6a be be d6 58 95 3e cc b0 f1 be
       0.013178481 -0.37190822 0.2916934 -0.47205198
000110 58 93 97 be 56 c8 54 3d ed 52 17 3f 6b 82 3c 3f
       -0.29604602 0.051948868 0.5911091 0.736365
000120 30 fd 82 3f bc 24 fb be a5 bf d6 3e 00 90 b3 be
       1.0233517 -0.49051464 0.41943088 -0.350708
000130 96 a8 10 3f 62 dc 3e 3d 96 49 d6 bd d7 63 aa be
       0.5650724 0.046596892 -0.10463254 -0.33279297
000140 7b 52 47 bd 7f f9 99 3e df f4 c5 3e 63 62 a5 3e
       -0.048662644 0.30073163 0.38663384 0.32301626
000150 1d 51 b6 be 80 52 97 bb 0b a3 1f bf a3 2e 38 3f
       -0.3560876 -0.004617989 -0.6235816 0.7194616
000160 23 5c 46 bf 3e e5 0d 3d bf 62 b7 ba 60 2b 61 bd
       -0.7748434 0.03464245 -0.0013991221 -0.054973006
000170 a2 ea 47 bf d1 47 d9 be ff 4b 9e bf f2 a7 39 3d
       -0.78092396 -0.42437604 -1.2366942 0.04532618
000180 79 9c 46 3e 07 64 00 bd f5 1a fc 3e c0 3d bd be
       0.19395627 -0.031345394 0.49239317 -0.36961174
000190 fe ed be 3e fa dd d5 be 2e 24 f2 bc 58 f0 13 bf
       0.3729095 -0.41770917 -0.029558267 -0.5778861
0001a0 a6 8c 1b bd 99 30 ab bd 1a 82 67 bf 4f 8f 9d be
       -0.03797593 -0.08358879 -0.90432894 -0.30773398
0001b0 38 05 cb be 7b 5d 6f bf 2c 66 b2 be 05 4c 4d 3d
       -0.3965242 -0.93502015 -0.34843576 0.050121326
0001c0 4a 90 d4 3e a7 b3 f1 be 8e 0b 34 3d d5 00 61 bd
       0.41516334 -0.47207376 0.043956332 -0.054932434
0001d0 a5 39 4b 3f 74 0b 4a bf 89 09 e8 be 39 7a 87 3f
       0.79384834 -0.78923726 -0.45319775 1.0584174
0001e0 bb 73 0d bf 17 a0 50 bd 48 ea e6 be 58 18 09 bf
       -0.55254716 -0.050933924 -0.45100617 -0.5355277
0001f0 79 52 6e 3e 3d c5 b5 3e 4a 9b e6 be 75 1d e5 be
       0.23273648 0.35502043 -0.4504035 -0.44749036
000200 33 eb 4f bd d9 c9 29 bf a9 c2 e6 3e 38 6e 06 bf
       -0.050761413 -0.6632362 0.4507039 -0.5251193
000210 59 f7 e6 be c4 58 3e bf ac 8f 74 3f 09 ac 88 3d
       -0.45110586 -0.74354196 0.95531726 0.06673438
000220 ad 57 00 bf 80 39 7d bd 0e be b3 3e 32 1b 11 3b
       -0.5013378 -0.061822414 0.35105938 0.0022141454
000230 db 9c 88 be 5d 67 0a 3f 9d 05 b0 3e b8 2e 26 3d
       -0.2668217 0.5406397 0.34379283 0.0405719
000240 d7 aa ce be 04 47 30 3f f2 84 99 be 2d d7 3f 3c
       -0.40364715 0.6885836 -0.29984242 0.011709017
000250 ad 99 f4 3e d8 e2 02 3f 4b e9 57 bd 5b 96 0d bd
       0.47773495 0.51127386 -0.05271272 -0.03456722
000260 5f d3 86 3d 15 dd bc be c2 03 84 bf 9a 7f b4 3e
       0.065832846 -0.36887422 -1.0313647 0.35253602
000270 21 70 87 3d 36 8a a7 3c 35 de bd 3f 2b ac 88 bd
       0.06613184 0.020451646 1.4833437 -0.066734634
000280 f3 26 7d 3f 10 16 ce 3e 46 b6 1f 3d 00 91 cd bb
       0.98887557 0.40251207 0.03899219 -0.006273389
000290 ec 07 ce be 6d e3 5a 3d aa 63 a7 3f aa e4 4f bf
       -0.4024042 0.053439546 1.307729 -0.8120829
0002a0 f9 02 56 3d 96 a7 b2 bc 7a 28 e5 bd c0 6d f7 be
       0.05224893 -0.021808427 -0.11189361 -0.4832592
0002b0 85 c7 a7 be 6d 22 b7 be d6 1a 7d 3d 5f e2 14 3d
       -0.3276941 -0.35768452 0.06179317 0.036348697
0002c0 f7 2b bb 3e b2 fc cd be 8b c7 b4 be 7b 12 42 bf
       0.3655698 -0.40231854 -0.3530849 -0.7580945
0002d0 8d d5 ec 3e 94 c6 61 bc ec 61 fa bc 1b c4 1a bf
       0.46256676 -0.013780255 -0.03056427 -0.60455483
0002e0 f4 6f 83 3e 66 c7 00 bf dc 60 ea 3c 66 5d cf bd
       0.2567135 -0.5030426 0.02861064 -0.10125236
0002f0 f9 1e d3 be b8 d4 e3 be 83 7d d6 3e f9 97 30 bd
       -0.41234568 -0.4449823 0.41892633 -0.043113682
000300 40 9f 8e 3e f0 b1 14 bf af ad d4 3e 7b 6b d2 3d
       0.27855873 -0.5808401 0.4153876 0.102744065
000310 8f 08 9f 3c 60 8e dd 3c c0 5e 2d 3d f9 db 03 3f
       0.01941326 0.027045429 0.04232669 0.51507527
000320 b6 b0 39 bc 37 cd f8 be 4a 3c 10 bf bd 90 ff be
       -0.011333635 -0.48594067 -0.56341994 -0.49915114
000330 54 cf ad 3c f1 27 4a bb 42 33 67 3e 9c 41 fa be
       0.021217026 -0.003084656 0.22578147 -0.4887818
000340 93 bf 0b bd b5 90 d2 3e f2 eb 54 bc 7b 20 8c be
       -0.034118246 0.41126028 -0.012995707 -0.2736853
000350 0a 35 ee be 0f ad 5f be a8 7e b4 be 2f 39 be 3c
       -0.4652484 -0.2184336 -0.3525288 0.023220627
000360 56 82 a5 3e 00 9d 54 3b 6b 60 81 3e 80 df 92 3a
       0.32326 0.0032442212 0.25268874 0.0011205524
000370 11 7f 36 3e d6 82 61 3d d4 1e 46 bf 0d 67 df 3e
       0.1782191 0.055056415 -0.7739079 0.4363331
000380 4d 0c a3 3f d3 61 4a be 5e 6b fe be b8 78 75 3e
       1.2738129 -0.1976388 -0.4969129 0.23971832
000390 ff c1 09 bf ab b8 39 bc 95 d9 4a 3e 5d 5c 57 3f
       -0.5381164 -0.011335532 0.19809563 0.8412531
0003a0 73 ea 4f bf 13 26 ce be 45 dd dc be ab 8d b0 3e
       -0.81217116 -0.40263423 -0.43137565 0.34483084
0003b0 12 1e 04 3d dd 5b b4 3f 85 fe 05 40 6d a1 10 bf
       0.03225524 1.4090534 2.0936596 -0.56496316
0003c0 37 26 92 bf 1e 6f 75 3b e5 3d 17 3c 1c 63 6a 3e
       -1.1417912 0.0037450264 0.009231065 0.2288937
0003d0 15 82 0b bf fa 33 d6 3e a6 b2 5c be b9 52 a8 bb
       -0.54495364 0.4183653 -0.21552524 -0.0051368144
0003e0 3c 9e 03 3f ca 2b a0 3c 67 ee 87 3f 09 e7 35 ba
       0.5141332 0.01955213 1.061963 -0.0006939029
0003f0 eb be 2a 3f de f8 b9 be 51 b7 e8 3e c5 b0 1c bd
       0.6669757 -0.36322683 0.4545236 -0.038254518

fc3.bias f4 [4]
000000 12 40 57 3e 9f ce 2c 3d 91 40 40 3e 1c 3e 8a 3e
       0.21020535 0.042189237 0.1877463 0.2700051
