lunar_lander/lunar_lander.pt (torch_old, 2973 bytes, 6 tensors)

fc1.weight f4 [16, 8]
0.24527818 0.25170603 -2.1052337 -1.4840891 -2.3732355 -0.18943843 -0.25173697 -0.021926044
0.15427943 0.9793681 1.059268 -0.23130254 2.2072232 0.6576483 0.036273725 -1.8140045
-0.21245483 -0.270912 -1.101678 0.12748145 -0.45832944 -1.1656108 -2.182254 -0.41337815
-0.13403101 0.58733696 0.05194531 0.6187039 -1.3711096 -0.49958763 0.055695865 0.73198366
0.7289774 1.3615985 -0.18841733 -0.23412709 3.0866187 1.8980641 0.7391252 -0.4227262
-0.1516774 0.6491652 2.1719918 -2.615388 -0.5857186 0.40238312 -0.5421576 -0.27912983
1.034818 0.0684221 -1.122075 -0.8729917 3.2699754 -1.3527687 -1.1387146 -0.15587752
0.3199575 0.47122818 0.5904775 0.89044076 -1.5094645 -0.9921219 -0.26558852 -0.014917496
0.019810345 0.39472646 -0.032130606 -0.94246536 -0.32048503 -1.5081794 -1.0754826 -0.17082275
-0.46092165 0.22605099 -1.4613556 -2.6221852 -0.5971355 0.83545345 0.56382364 -0.5316092
-1.3583577 0.8810221 -2.2667305 -0.42076394 0.6954614 0.6139456 0.013334758 -0.032572746
1.0108604 0.38175562 0.6683551 -0.57878333 0.008469374 0.6488161 -0.25507593 -1.6478575
-0.73193276 -0.82299453 -1.0858363 -0.87076545 0.8190788 0.57455355 -0.32818028 -1.2929783
-0.3289476 0.56057143 2.4791672 -1.7119614 0.32019958 0.5608765 0.8739393 0.23599614
0.44059932 0.32541317 0.7702342 -0.28778398 -0.5227852 0.79173994 -0.1668002 -1.1106931
-0.1306496 0.95175976 0.8358907 -1.2597932 -0.45941675 -1.9746782 -2.3817382 0.525175
00000000: 342a 7b3e 9ddf 803e 26bc 06c0 a2f6 bdbf
00000010: 17e3 17c0 26fc 41be abe3 80be 3f9e b3bc
00000020: 6dfb 1d3e deb7 7a3f 1896 873f 93da 6cbe
00000030: 2543 0d40 a45b 283f c293 143d 4d31 e8bf
00000040: c28d 59be fab4 8abe c903 8dbf 7f8a 023e
00000050: 28aa eabe bc32 95bf 0daa 0bc0 4da6 d3be
00000060: 6d3f 09be b75b 163f 9bc4 543d 6163 1e3f
00000070: 8580 afbf f3c9 ffbe 5921 643d 4863 3b3f
00000080: 439e 3a3f dc48 ae3f 79f0 40be 03bf 6fbe
00000090: 298b 4540 c4f3 f23f 4f37 3d3f 926f d8be
000000a0: 5251 1bbe b12f 263f ea01 0b40 8462 27c0
000000b0: a7f1 15bf 2905 ce3e d7ca 0abf 1bea 8ebe
000000c0: eb74 843f e320 8c3d 27a0 8fbf 627c 5fbf
000000d0: 4747 5140 8627 adbf 66c1 91bf 5b9e 1fbe
000000e0: 78d1 a33e d244 f13e 8929 173f edf3 633f
000000f0: 2236 c1bf b3fb 7dbf 38fb 87be 8368 74bc
00000100: 4e49 a23c 9619 ca3e 629b 03bd 6945 71bf
00000110: 9d16 a4be 060c c1bf 6aa9 89bf 29ec 2ebe
00000120: ecfd ebbe e979 673e b30d bbbf e2d1 27c0
00000130: dfdd 18bf 47e0 553f bf56 103f 8a17 08bf
00000140: aade adbf aa8a 613f 1d12 11c0 5f6e d7be
00000150: c209 323f 8a2b 1d3f 077a 5a3c 006b 05bd
00000160: e063 813f 7975 c33e 5219 2b3f 252b 14bf
00000170: 21c3 0a3c d018 263f 5099 82be ffec d2bf
00000180: f25f 3bbf c5af 52bf affc 8abf 7cea 5ebf
00000190: 26af 513f f115 133f 3f07 a8be 5080 a5bf
000001a0: d26b a8be 9c81 0f3f adaa 1e40 8d21 dbbf
000001b0: 33f1 a33e 9a95 0f3f 7cba 5f3f f9a8 713e
000001c0: 3c96 e13e 8e9c a63e 122e 453f 6c58 93be
000001d0: 40d5 05bf 78af 4a3f accd 2abe 312b 8ebf
000001e0: 02c9 05be 87a6 733f effc 553f e740 a1bf
000001f0: ac38 ebbe 41c2 fcbf 666e 18c0 de71 063f

fc1.bias f4 [16]
0.3449519 0.78429025 -0.05692292 0.57491845 1.435844 0.7679386 0.21764083 0.5943179
0.38912436 0.6503921 0.5136554 -0.023640212 0.28535298 0.78613913 -0.56532466 0.3655664
00000000: 899d b03e 3fc7 483f 0228 69bd db2d 133f
00000010: bcc9 b73f a097 443f 3ddd 5e3e 3825 183f
00000020: 4f3b c73e 1980 263f ec7e 033f 1ea9 c1bc
00000030: c919 923e 6a40 493f 1eb9 10bf 852b bb3e

fc2.weight f4 [16, 16]
-1.4532015 -0.80172896 1.2928162 0.8892866 0.11425938 0.4373382 -0.80506027 0.9389098
1.171056 0.13775206 0.8465551 1.0586102 0.5176203 -0.4020786 1.0731775 0.12177534
-0.082067095 0.42516434 1.7511044 1.660104 -0.63104135 0.81830716 -1.4209502 1.2935448
1.1943259 -0.9564808 -0.25669062 0.06866284 0.22086102 0.17817229 0.08413498 1.056875
-2.0982685 -0.32313716 1.6712278 0.68191075 0.4000059 -0.11932856 -0.53319514 0.20233451
1.0284696 0.7804785 1.3616229 0.06860465 0.6387842 -0.4088614 0.28801972 -0.37990195
-1.6247494 -0.2565067 2.0765874 -0.349491 0.3058612 0.45513555 -0.14471675 -0.70388746
1.3775392 0.5692207 1.5228399 0.41695392 1.480501 -0.4822562 0.67968786 -0.17443395
2.3440526 1.784266 -0.88415056 -0.40999287 0.6096528 2.170867 1.4633425 -0.5461213
-0.41741362 1.442279 -1.3040416 1.3356142 -0.6158058 1.8826175 0.3047787 0.94529617
-1.1934808 -0.7668226 0.69434625 1.0744778 0.60819185 0.024367442 -0.6064336 0.66149986
0.9865527 0.0152404 1.0636611 1.3364462 0.37065858 -0.098666064 0.53917795 -0.3054534
1.5715655 -0.660324 0.14625347 0.71476114 -0.8742759 0.26189023 -3.3461103 -0.09923336
-0.5789244 1.4691604 0.9013449 0.5644842 -0.95160085 0.012496935 -1.0409595 -0.6658207
-2.072807 1.2246754 0.63121057 -0.19548611 1.4120684 0.28093457 -1.3277621 0.37106186
-1.6451716 -1.3276805 -0.12393571 -0.06582241 0.95166963 0.61586654 -4.13528 -1.1010889
0.7345548 0.8221835 -0.28825805 0.46424425 0.9582023 -2.490996 0.96659184 0.24648538
-0.21194352 -1.1049417 0.9062042 -1.6562172 -1.300634 -2.2003765 1.992162 -0.5166607
-0.061158363 -0.02215614 0.00924778 -0.16908577 0.0753442 0.109288394 -0.060252607 -0.10353393
-0.14207296 -0.046686966 -0.2018319 -0.20266084 -0.11971932 -0.096710004 0.050511234 -0.11005941
2.855656 1.5271182 -1.4199185 -0.53701836 1.0917586 1.6768509 1.7761339 -0.84758186
-0.2584351 0.9100246 -0.39174226 0.14059536 0.063651696 1.2594452 0.4877099 1.6234239
-1.2983904 0.37123442 0.7691105 0.3789248 1.1130697 -0.7572228 -0.6429759 0.60549986
-0.84843385 -0.17820513 0.77474 2.2894626 2.3471212 -0.007892674 3.0851805 -1.5454041
-2.2310266 -0.37887365 1.8373085 0.38875 0.41413084 -0.1223516 -0.5249401 0.4222352
1.1035482 0.7688062 1.4390768 0.13854966 0.5636976 -0.42827913 0.4169795 -0.060344957
-0.9584053 0.10542215 1.2428648 0.90212226 1.2894061 -0.803696 -0.34705183 0.9599925
-0.36660135 -0.10788457 1.1758088 1.823616 2.2195103 -0.019836556 2.0844147 -1.5076339
1.9599488 0.89133 -1.3502722 -1.3664106 0.77484304 0.7377344 2.0096538 -1.7216215
0.0018279284 1.1639881 0.17044438 0.6227395 0.46235546 0.1078399 0.8932344 1.1913692
-1.8993778 -0.25314948 1.9826075 1.0796349 0.050683074 -0.37164065 0.0904842 1.1260141
1.5665867 0.31908283 1.9032527 0.064790584 0.7454267 -0.04705273 0.63640594 0.14745247
00000000: 8202 babf 1c3e 4dbf 007b a53f 49a8 633f
00000010: d200 ea3d cbea df3e 6e18 4ebf 655c 703f
00000020: 2ae5 953f e00e 0d3e d6b7 583f 8a80 873f
00000030: c482 043f 3fdd cdbe e15d 893f 5965 f93d
00000040: cb12 a8bd 24af d93e 3024 e03f 4a7e d43f
00000050: ed8b 21bf 947c 513f b2e1 b5bf e092 a53f
00000060: acdf 983f eddb 74bf f46c 83be 1a9f 8c3d
00000070: 6429 623e cc72 363e f64e ac3d ae47 873f
00000080: 084a 06c0 3c72 a5be cbea d53f b491 2e3f
00000090: 93cd cc3e 8862 f4bd 7a7f 08bf c730 4f3e
000000a0: e4a4 833f 70cd 473f a949 ae3f 9880 8c3d
000000b0: 5d87 233f 4856 d1be 5277 933e 8282 c2be
000000c0: caf7 cfbf d954 83be cfe6 0440 7cf0 b2be
000000d0: d799 9c3e 8707 e93e a130 14be f831 34bf
000000e0: 3453 b03f 73b8 113f 6bec c23f fc7a d53e
000000f0: 0f81 bd3f 49ea f6be 0600 2e3f d09e 32be
00000100: f504 1640 d462 e43f b157 62bf 96ea d1be
00000110: 3512 1c3f 7cef 0a40 cf4e bb3f 9bce 0bbf
00000120: 3db7 d5be 999c b83f d6ea a6bf 68f5 aa3f
00000130: 73a5 1dbf 9cf9 f03f f40b 9c3e eefe 713f
00000140: fbc3 98bf 7c4e 44bf adc0 313f 7d88 893f
00000150: 76b2 1b3f 3b9e c73c 3b3f 1bbf 0e58 293f
00000160: b88e 7c3f dfb2 793c 0c26 883f ab10 ab3f
00000170: f6c6 bd3e 6f11 cabd 9107 0a3f 6364 9cbe
00000180: 0f29 c93f fe0a 29bf 78c3 153e 96fa 363f
00000190: 8cd0 5fbf 7a16 863e ac26 56c0 dc3a cbbd
000001a0: 6434 14bf 730d bc3f 8abe 663f 0982 103f
000001b0: 1d9c 73bf f2bf 4c3c 293e 85bf 3a73 2abf
000001c0: dfa8 04c0 2ac2 9c3f 0497 213f 832d 48be
000001d0: a8be b43f a8d6 8f3e 1cf4 a9bf d2fb bd3e
000001e0: fc94 d2bf 6ff1 a9bf 01d2 fdbd e6cd 86bd
000001f0: 9fa0 733f 6ea9 1d3f 3754 84c0 7bf0 8cbf
00000200: c90b 3c3f 9e7a 523f 8f96 93be 6cb1 ed3e
00000210: bf4c 753f 7a6c 1fc0 9072 773f aa66 7c3e
00000220: b907 59be bb6e 8dbf 00fd 673f edfe d3bf
00000230: 2d7b a6bf f8d2 0cc0 2aff fe3f e043 04bf
00000240: 3181 7abd cb80 b5bc 0084 173c d224 2dbe
00000250: 0f4e 9a3d 98d2 df3d 70cb 76bd 9909 d4bd
00000260: 937b 11be d53a 3fbd 06ad 4ebe 5386 4fbe
00000270: 672f f5bd e50f c6bd dee4 4e3d d466 e1bd
00000280: 11c3 3640 9c78 c33f e4bf b5bf 097a 09bf
00000290: bfbe 8b3f 0da3 d63f 5b58 e33f 20fb 58bf
000002a0: 9b51 84be 5ff7 683f 7192 c8be 3bf8 0f3e
000002b0: d25b 823d 8035 a13f 1db5 f93e 5bcc cf3f
000002c0: a831 a6bf 7012 be3e 6de4 443f 6e02 c23e
000002d0: 1179 8e3f 5ad9 41bf 129a 24bf 0a02 1b3f
000002e0: f632 59bf 687b 36be 5c55 463f 8e86 1240
000002f0: 3c37 1640 4650 01bc 9973 4540 cdcf c5bf
00000300: 24c9 0ec0 bafb c1be ed2c eb3f 3d0a c73e
00000310: f508 d43e 7a93 fabd 7962 06bf 362f d83e
00000320: 1141 8d3f 7cd0 443f ab33 b83f f6df 0d3e
00000330: 7c4e 103f 6747 dbbe 567e d53e 462c 77bd
00000340: 0d5a 75bf 91e7 d73d 3216 9f3f 7cf1 663f
00000350: 420b a53f 05bf 4dbf c7b0 b1be 12c2 753f
00000360: 2cb3 bbbe 96f2 dcbd e780 963f 406c e93f
00000370: 750c 0e40 4680 a2bc 0d67 0540 26fa c0bf
00000380: 9adf fa3f 342e 643f b8d5 acbf 8be6 aebf
00000390: 1d5c 463f 29dc 3c3f 2b9e 0040 185e dcbf
000003a0: 1997 ef3a 90fd 943f f988 2e3e db6b 1f3f
000003b0: dbb9 ec3e 2adb dc3d 02ab 643f c97e 983f
000003c0: d01e f3bf cf9c 81be 15c6 fd3f 7a31 8a3f
000003d0: 0e99 4f3d af47 bebe c84f b93d 3b21 903f
000003e0: ea85 c83f d35e a33e c99d f33f edb0 843d
000003f0: 49d4 3e3f 5dba 40bd 80eb 223f c8fd 163e

fc2.bias f4 [16]
-0.4226412 0.48141882 0.025652824 -0.44604862 0.7405305 -0.51693887 -0.31835932 0.06756849
0.6983523 -0.119428635 1.0035387 0.39395463 0.13448985 0.13873099 0.60394704 0.21613574
00000000: 6d64 d8be 877c f63e df25 d23c 7c60 e4be
00000010: 6893 3d3f 1b56 04bf feff a2be 5961 8a3d
00000020: 37c7 323f 0097 f4bd f573 803f 6cb4 c93e
00000030: b5b7 093e 7f0f 0e3e 469c 1a3f b052 5d3e

fc3.weight f4 [4, 16]
-1.1105556 1.2049204 -1.6784073 -4.3339114 0.52212286 -0.43630615 0.2987346 2.7312694
5.745353 -0.03380916 0.9014168 0.6802781 -1.7523417 0.9143402 -0.96002233 -0.9123779
-0.9617356 0.5566769 -0.82280684 -1.8577673 1.8230189 -1.0458655 1.7398336 1.4459584
2.9304683 0.22475338 1.2284908 -2.6275263 -1.0616643 -1.9507284 0.54632264 -1.1890239
-2.1124976 -1.9461415 -1.211843 -0.9606904 1.1374248 -2.0979204 2.6208985 -0.7197714
0.7412277 -0.2658964 1.8658576 -1.8805153 -1.183758 -2.0100908 1.5693097 -0.3893269
-0.9261032 -2.4819486 -1.2691444 -0.32522222 1.2595508 -0.76682013 -0.26054958 -4.4884744
4.147232 0.036994524 1.7325552 0.121788874 -1.2680793 -0.05899263 1.561382 -1.2074513
00000000: b026 8ebf d53a 9a3f 0dd6 d6bf 67af 8ac0
00000010: d8a9 053f 8563 dfbe bef3 983e 1ecd 2e40
00000020: efd9 b740 797b 0abd 40c3 663f b526 2e3f
00000030: bc4c e0bf 3312 6a3f 06c4 75bf 9991 69bf
00000040: 4e34 76bf 6182 0e3f 78a3 52bf 52cb edbf
00000050: af58 e93f ecde 85bf deb2 de3f 2a15 b93f
00000060: cb8c 3b40 c025 663e 303f 9d3f 6429 28c0
00000070: 9ee4 87bf 78b1 f9bf cddb 0b3f ef31 98bf
00000080: 2933 07c0 2a1b f9bf ac1d 9bbf ceef 75bf
00000090: 2397 913f 5444 06c0 cdbc 2740 f042 38bf
000000a0: 19c1 3d3f 9323 88be 6cd4 ee3f bab4 f0bf
000000b0: 6285 97bf 54a5 00c0 24df c83f db55 c7be
000000c0: 1915 6dbf 3fd8 1ec0 5373 a2bf 8783 a6be
000000d0: f638 a13f 534e 44bf c166 85be 95a1 8fc0
000000e0: 20b6 8440 9287 173d 5ec4 dd3f 726c f93d
000000f0: 6c50 a2bf 42a2 71bd 5edb c73f c48d 9abf

fc3.bias f4 [4]
1.2105325 0.093428 0.9875712 0.3770473
00000000: bbf2 9a3f 2e57 bf3d 77d1 7c3f 580c c13e
