lunar_lander/lunar_lander.pt (torch_old, 21011 bytes, 6 tensors)

fc1.weight f4 [64, 8]
0	0x3f3c777b	0.7361981
1	0xbda711c8	-0.081576884
2	0x3db64dba	0.08901544
3	0xbf5401e9	-0.82815415
4	0x3ca05993	0.019573962
5	0xbeb6a0c1	-0.3566952
6	0xbf8da382	-1.1065524
7	0x3d11bb58	0.035579056
8	0xbcc9371a	-0.024562407
9	0x3e9f6bae	0.3113684
10	0x3fe62663	1.7980465
11	0xbc3a618e	-0.011375798
12	0xbd42e157	-0.047578182
13	0xbf84137d	-1.0318447
14	0xbe2714e6	-0.16316566
15	0x3dd5e575	0.10444156
16	0x3e890292	0.26759773
17	0xbf3fbfc4	-0.74901986
18	0xbf252ebc	-0.64524436
19	0x3edc6914	0.43048918
20	0xbf628287	-0.8848042
21	0xbf09052a	-0.53523505
22	0xbf300713	-0.68760794
23	0x3f84441a	1.0333283
24	0xbe114b53	-0.1418889
25	0xbf503643	-0.81332797
26	0x3f4599c2	0.7718774
27	0xbf3274db	-0.6970956
28	0xbf45941a	-0.7717911
29	0xbf68c095	-0.90918857
30	0x3eece933	0.46271667
31	0x3ee8e83a	0.45489675
32	0x3cb0a758	0.02156417
33	0x3c157fcc	0.009124707
34	0xbcad6ba5	-0.021169493
35	0xbd3ba3a0	-0.04581034
36	0x406f4fc3	3.7392433
37	0x38950941	7.106597e-05
38	0xbc9726b2	-0.018451069
39	0x3ca084d5	0.01959459
40	0xbf3906e4	-0.7227614
41	0x3f66f284	0.902138
42	0x3fa5b35a	1.2945359
43	0x3e983324	0.29726517
44	0x3da5b16c	0.08090481
45	0xbe4016ef	-0.18758748
46	0xbf9497bc	-1.1608806
47	0x3f2d8073	0.6777412
48	0x3ebd2a1b	0.36946186
49	0xbf45d577	-0.77278847
50	0xbf25b212	-0.6472484
51	0xbe7a8fb3	-0.2446888
52	0x3e519ed8	0.2047075
53	0xbc596a79	-0.013270014
54	0x3dfea5c8	0.12433964
55	0x3ef96996	0.48713368
56	0xbf7601ec	-0.9609668
57	0xbf1cc303	-0.61235064
58	0xbf186ce2	-0.5954114
59	0xbf855b0e	-1.0418413
60	0xbfbed9b4	-1.4910188
61	0x3e3b3297	0.18281017
62	0x3e86415b	0.26221737
63	0x3f6ff203	0.93728656
64	0x3e47e3ba	0.19520465
65	0xbee3b609	-0.4447482
66	0x3ed2980c	0.41131628
67	0x3e89936f	0.26870295
68	0x3fb61f00	1.422821
69	0x3ee7435d	0.45168582
70	0x3e6c1d81	0.2305813
71	0x3d9acd8f	0.075587384
72	0xbee3dbdd	-0.4450368
73	0xbe131b3e	-0.14365861
74	0x4038196f	2.8765523
75	0xbedfbc60	-0.43698406
76	0x3ebb233e	0.36550325
77	0x3e3bff7b	0.18359177
78	0x3eb0b890	0.3451581
79	0xbd95b4ad	-0.07309852
80	0xbd9ab092	-0.07553209
81	0xbd889d9b	-0.06670686
82	0xbf35184b	-0.70740193
83	0xbfc854f9	-1.5650932
84	0x3d821ace	0.06352769
85	0xbda40470	-0.08008659
86	0xbfe37bcc	-1.7772155
87	0x3cf2f30d	0.029656911
88	0xbdf1cbec	-0.11806473
89	0x3dbb8d0b	0.09157761
90	0xbce42b5d	-0.027852708
91	0x3fd2f281	1.6480256
92	0xbf003343	-0.5007822
93	0xbf02a94d	-0.5103958
94	0x3cb92f88	0.022605672
95	0xbfccc5a1	-1.5997812
96	0x3f3b3538	0.7312808
97	0x3e4be730	0.1991241
98	0xbe8a8d5f	-0.27060983
99	0xbf1462d2	-0.5796329
100	0x3fb9bcac	1.4510703
101	0x3ea8b831	0.32953027
102	0x3e1404d1	0.14454962
103	0xbd1a2670	-0.037634313
104	0xbf0f9ce2	-0.5609876
105	0x3e3d0cc0	0.18461895
106	0xbf0c1041	-0.547123
107	0xbf7067ab	-0.93908185
108	0x3e5a7abb	0.2133588
109	0xbe19b35b	-0.15009825
110	0x3eec567f	0.4615974
111	0x3efde50f	0.4958882
112	0x3f73bd91	0.9521113
113	0xbd83f64a	-0.0644346
114	0x3dacfe1e	0.084469065
115	0xbf056852	-0.52112305
116	0x3e4ad1bf	0.19806574
117	0x3eafcb1a	0.34334642
118	0x3e805cd3	0.2507082
119	0xbf9c15f3	-1.2194198
120	0xbf2fd33b	-0.6868169
121	0xbead6cbb	-0.33872017
122	0xbf220626	-0.6329063
123	0x4011ae5c	2.276267
124	0x3dbe3ebf	0.092893116
125	0xbd38af68	-0.045089155
126	0xbf740292	-0.9531642
127	0xbf1ec2d7	-0.6201605
128	0xbd25b7cf	-0.040458497
129	0xbeee5981	-0.4655266
130	0x3eb27e83	0.34862146
131	0x3f569685	0.83823425
132	0x3eecfaa2	0.46284968
133	0x3e1d84e4	0.15382725
134	0x3f94cd1b	1.1625093
135	0x3edcf516	0.43155736
136	0x3f24a6e6	0.64317167
137	0x3dddd50d	0.10831652
138	0xbeb3f858	-0.3515041
139	0x3fced3f1	1.6158429
140	0xbda1d91c	-0.079027385
141	0xbe30c7c1	-0.172637
142	0xbfa1fae9	-1.2654697
143	0x3eae66c3	0.34062776
144	0xbd4d7539	-0.05016062
145	0xbf9f370e	-1.2438676
146	0xbe306d8c	-0.17229289
147	0xbf9361be	-1.1514204
148	0x3ed21ae9	0.41036156
149	0x3ec4cca3	0.38437375
150	0x3ef5acc8	0.47983384
151	0x3e9cb3e7	0.30606005
152	0xbba55f92	-0.0050467933
153	0x3f33c795	0.70226413
154	0xbe6f6bc5	-0.23380955
155	0xbf6c82b7	-0.92386955
156	0xbeb25183	-0.34827814
157	0xbdd93d46	-0.1060739
158	0x3dd4d005	0.10391239
159	0xbe651435	-0.2237099
160	0xbcb18a90	-0.021672517
161	0xbf685101	-0.907486
162	0x3e712467	0.23549043
163	0x40347f86	2.8202834
164	0x3e5ed0be	0.21759316
165	0xbd8f767f	-0.07005023
166	0x3a54a2bb	0.0008111407
167	0xbb3a1b93	-0.0028397783
168	0xbdcf08df	-0.10109114
169	0xbed3edc6	-0.41392344
170	0xbeaa60d2	-0.33276993
171	0xbf841fec	-1.0322242
172	0x3f878877	1.0588521
173	0xbf8a6b9a	-1.0814087
174	0xbe2305f7	-0.15920244
175	0x3ea391da	0.31947213
176	0xbe8bea5f	-0.27327248
177	0xbf80a46c	-1.0050178
178	0xbe07b171	-0.13251282
179	0x405043c7	3.2541368
180	0xbdcf14b3	-0.1011137
181	0xbeb7252d	-0.3577055
182	0xbefe2252	-0.4963556
183	0xbebc96a4	-0.3683368
184	0x3fbf5aec	1.4949622
185	0x3f05e5bc	0.5230367
186	0x3e75be77	0.23998438
187	0x3eb873b9	0.3602579
188	0x3f64f95b	0.89442986
189	0x3f6c1000	0.92211914
190	0xbf383472	-0.71955025
191	0xbf3b9458	-0.7327323
192	0xbe2fd221	-0.17170002
193	0x3f322ea8	0.6960244
194	0x3f4fc170	0.8115454
195	0xbf5b6fd1	-0.85717493
196	0xbef4ccff	-0.4781265
197	0x3f08027e	0.531288
198	0x3ece2bdd	0.4026784
199	0xbe7b24f6	-0.24525818
200	0x3e0627a7	0.13101064
201	0xbe7104d4	-0.23536998
202	0x3f85dfc9	1.0458919
203	0xbfc895b9	-1.5670692
204	0xbdebedff	-0.115200035
205	0x3d2bfcca	0.041989125
206	0xbdb36ded	-0.08761201
207	0xbe4d3bfe	-0.20042416
208	0xbe64f8c9	-0.22360529
209	0xbfe4de6c	-1.7880378
210	0x3f69736c	0.91191745
211	0xbfa07f6e	-1.2538888
212	0xbc7117d1	-0.014715151
213	0xbf2dac8a	-0.678414
214	0x3f86b66d	1.0524422
215	0x3e4a0a75	0.19730552
216	0x3f220dae	0.63302124
217	0xbf1e2865	-0.6178039
218	0xbe312018	-0.17297399
219	0xbbf4b1da	-0.0074674906
220	0xbce9aa3e	-0.02852356
221	0xbef583b7	-0.47952053
222	0x3da7dd54	0.08196512
223	0x3d691852	0.05690796
224	0xbf42be7a	-0.76071894
225	0xbf10d901	-0.5658112
226	0xbf1605d8	-0.58602667
227	0xbf705af7	-0.938888
228	0x3e18f9b2	0.14939001
229	0x3ec4a0ed	0.38404027
230	0x3f369352	0.7131854
231	0xbf8a0e78	-1.0785666
232	0x3f7e1623	0.9925253
233	0x3de0e2e8	0.10980779
234	0xbe8e625f	-0.27809426
235	0x403e4547	2.9729784
236	0xbea3fd7e	-0.32029337
237	0x3eea7706	0.45793933
238	0xbf908bdf	-1.1292685
239	0x3d5425a3	0.051793706
240	0xbedfa00b	-0.4367679
241	0xbe405d2d	-0.18785544
242	0xbe50ef33	-0.20403747
243	0xbf3a259b	-0.7271363
244	0x3f2c7429	0.67364746
245	0xbdded502	-0.10880472
246	0xbff4d222	-1.9126627
247	0xbcaaae4f	-0.02083507
248	0x3f139a7a	0.5765759
249	0x3ee6adbc	0.45054424
250	0xbffa4790	-1.9553089
251	0x400025bd	2.0023034
252	0xbe84c83e	-0.25934023
253	0xbeaee72f	-0.34160754
254	0xbeb053d1	-0.34438947
255	0xbf981b8f	-1.188341

fc1.bias f4 [64]
0	0x3ea081fd	0.31349173
1	0x3f608407	0.8770146
2	0x3dd0a417	0.10187548
3	0x3f05daa5	0.5228675
4	0xbd1533d2	-0.036426373
5	0xbee26e19	-0.44224623
6	0x3f9684cb	1.1759275
7	0x3f3411ed	0.7033985
8	0x3f0f6f63	0.5602934
9	0x3dd65198	0.104647815
10	0x3d1a3fc3	0.037658464
11	0xbf8d3c7a	-1.1034081
12	0x3eb3340c	0.35000646
13	0x3ec669f9	0.38752726
14	0x3e68a00e	0.22717306
15	0xbf85a5fe	-1.0441282
16	0xbdea67cb	-0.11445578
17	0xbf9f97dc	-1.2468219
18	0x3d2b378a	0.041801013
19	0x3f463052	0.7741748
20	0xbef154df	-0.47135064
21	0x3f92089a	1.1408875
22	0xbf3e6edc	-0.7438791
23	0xbed5d242	-0.41761976
24	0x3f68bb61	0.9091092
25	0x3e88eed3	0.26744708
26	0x3fb6ed23	1.4291118
27	0x3f690ce6	0.91035306
28	0xbe1ff71b	-0.15621607
29	0xbe567792	-0.2094405
30	0x3f19aba6	0.6002754
31	0xbece5b73	-0.40304145
32	0x3e04fdd6	0.12987456
33	0x3f51e019	0.8198257
34	0xbea11afc	-0.314659
35	0x3f691481	0.9104691
36	0xbdf5d173	-0.1200284
37	0x3f58c99e	0.84682643
38	0x3f116505	0.5679477
39	0x3e0638e7	0.13107644
40	0x3f51dc10	0.81976414
41	0x3f549c2d	0.83050805
42	0x3db9cdd0	0.09072459
43	0x3f27fedd	0.65623266
44	0x3d9db1bf	0.07699918
45	0x3ebc4bef	0.36776683
46	0x3e86e2f9	0.2634504
47	0x3f0f11a3	0.55886286
48	0x3f179922	0.5921804
49	0x3d10f1d7	0.035386886
50	0x3f4e2f8e	0.8054131
51	0xbe153720	-0.1457181
52	0xbe84f931	-0.25971368
53	0x3f14d62e	0.5813931
54	0xbee5c0fb	-0.44873795
55	0x3ee649e7	0.44978258
56	0x3f015f93	0.5053646
57	0x3f9b9f05	1.2157904
58	0x3f42d1ff	0.7610168
59	0x3de65f6b	0.11248668
60	0x3e700f09	0.23443235
61	0xbf141318	-0.57841635
62	0x3ee992fa	0.45619947
63	0x3e7b5d7e	0.24547383

fc2.weight f4 [64, 64]
0	0xbed5f415	-0.41787782
1	0x3ea8669f	0.32890794
2	0x3f0ad729	0.5423456
3	0xbcc204cb	-0.023683926
4	0x40147bba	2.3200517
5	0x3f6a3a83	0.9149553
6	0x3f5ef527	0.8709282
7	0x3f514124	0.8174002
8	0xbf21b2eb	-0.6316363
9	0x3e669a0e	0.22519705
10	0x3f7f8709	0.9981542
11	0x3fa88717	1.3166226
12	0x3d031e4a	0.032011308
13	0xbf18f77d	-0.5975264
14	0xbe8fe770	-0.2810626
15	0x3f980f24	1.187962
16	0xbe9d6ba4	-0.30746186
17	0x3f866c76	1.050185
18	0x3ab897ee	0.0014083365
19	0x3f388fe9	0.7209459
20	0x3f23bf57	0.63963836
21	0x3e3f4ca2	0.18681577
22	0x3fa0a2d7	1.2549695
23	0x3f0d1418	0.55108786
24	0x3f5914dd	0.8479746
25	0x3f817a79	1.0115501
26	0x3f540932	0.8282653
27	0xbe6f8a13	-0.23392515
28	0xbede6dda	-0.43443185
29	0x3f94c104	1.1621404
30	0xbeb94cb5	-0.36191335
31	0x3f38113d	0.71901304
32	0xbe8005ad	-0.2500433
33	0x3f447066	0.76734006
34	0xbf90bb05	-1.1307074
35	0x3f3543c0	0.70806503
36	0xbf1a876c	-0.6036289
37	0x3f4481ac	0.76760364
38	0xbdac9d6a	-0.08428462
39	0x3f6301a9	0.8867441
40	0x3f4f9c95	0.810983
41	0x3edaadbd	0.42710677
42	0xbed0856f	-0.40726802
43	0xbc0c07eb	-0.00854681
44	0x3f166896	0.58753335
45	0xbf0a3ad2	-0.53996
46	0xbe59fee3	-0.21288638
47	0xbec239ce	-0.37934726
48	0xbeee4981	-0.46540454
49	0x3f959789	1.168687
50	0x3eab1438	0.33413863
51	0xbf30b32e	-0.69023407
52	0x3f2b58e2	0.669325
53	0x3f5dc6bb	0.86631364
54	0x3ec4f798	0.3847015
55	0xbe34824d	-0.17627831
56	0xbe9d006f	-0.30664393
57	0x3f03586d	0.513068
58	0x3f2769e0	0.6539593
59	0x3f8271b4	1.019095
60	0x3f3ea14b	0.74464864
61	0x3f15af2a	0.58470404
62	0xbf30b5c7	-0.6902737
63	0x3f4c32a7	0.7976479
64	0xbd02b4dd	-0.031910766
65	0xbd3f5256	-0.04670938
66	0x3d6503b3	0.05591173
67	0x3da47745	0.08030561
68	0x3d829165	0.06375388
69	0x3d11836d	0.035525728
70	0xbdcaf28c	-0.099095434
71	0x3dd4d315	0.10391823
72	0xbdf9f362	-0.12204625
73	0xbd695b60	-0.056971908
74	0xbdd4a4c1	-0.10382987
75	0x3d117820	0.03551495
76	0xbdf581e5	-0.11987666
77	0xbd7c69c4	-0.061624303
78	0xbdc3204a	-0.09527643
79	0xbdb0a0c6	-0.08624415
80	0xbd6f02d8	-0.05835232
81	0x3de82bf5	0.11336509
82	0xbcd5a4e4	-0.026079603
83	0x3abb8c0d	0.0014308706
84	0xbe14c102	-0.14526752
85	0x3daabaa3	0.083363794
86	0xbcdefb80	-0.027219534
87	0xbdfed928	-0.12443763
88	0x3d4b620a	0.049654044
89	0xbd8fcca2	-0.070214525
90	0x3d9c6d95	0.076380886
91	0xbde6c18a	-0.112673834
92	0xbe07176b	-0.13192527
93	0xbdd8ae57	-0.10580128
94	0x3c98c99d	0.018650824
95	0xbd46ae4d	-0.04850607
96	0xbe06cb0d	-0.13163395
97	0xbc185a37	-0.009298853
98	0xbd08ae98	-0.03336963
99	0x3c302ca4	0.010752831
100	0xbda2bc25	-0.07946042
101	0xbe0091cb	-0.12555616
102	0x3d8df78d	0.06931982
103	0xbda5a318	-0.08087748
104	0x3d804814	0.06263748
105	0x3daf0c29	0.08547241
106	0xbdb3077a	-0.087416604
107	0xbdc299a7	-0.09501963
108	0xbc503a0f	-0.012709155
109	0xbe08ec65	-0.13371427
110	0x3cb86d43	0.022513038
111	0xbd963488	-0.07334238
112	0xbd9baf94	-0.07601848
113	0xbe08981c	-0.13339275
114	0x3d07766d	0.033071924
115	0xbda322a0	-0.079655886
116	0xbe0b4bd8	-0.13603151
117	0xbd6e8b76	-0.05823847
118	0xbdd72011	-0.10504163
119	0xbe0cb1b2	-0.1373966
120	0x3cb92f4b	0.022605559
121	0xbd9a484c	-0.07533321
122	0x3d7e3a02	0.06206704
123	0x3d51a3cb	0.051181596
124	0xbdc3c2b6	-0.095586225
125	0xbda8bcba	-0.08239122
126	0xbd7497ae	-0.059714966
127	0x3d45961f	0.04823887
128	0x3ed80984	0.4219476
129	0x3f0b3020	0.5437031
130	0xbe7d639c	-0.24745029
131	0x3f31d8a0	0.6947117
132	0xbfe50d60	-1.7894707
133	0xbefa1f2b	-0.48851904
134	0xbf0bb2fd	-0.5456999
135	0x3d36a980	0.04459524
136	0x3f10dbc1	0.5658532
137	0xbdd90505	-0.105966605
138	0xbe2e5748	-0.17025483
139	0xbe9335d1	-0.28751996
140	0x3e3780ce	0.17920229
141	0x3f03b7cd	0.5145233
142	0x3f04bd9c	0.5185182
143	0xbfbdfccd	-1.4842774
144	0x3f6a83e8	0.9160752
145	0xbee4c08e	-0.44678158
146	0xbd2f44c8	-0.042790204
147	0xbd929933	-0.07158127
148	0xbf2f9e97	-0.68601364
149	0x3eb53382	0.3539086
150	0xbf55b32f	-0.8347654
151	0xbfc330ca	-1.5249264
152	0xbd5580d1	-0.052124802
153	0xbe13fdcd	-0.14452286
154	0xbe6609ab	-0.22464626
155	0x3f4a34b3	0.7898666
156	0xbee38dff	-0.44444272
157	0xbd8b0903	-0.06788828
158	0x3f7d3f64	0.9892485
159	0x3ed72380	0.42019272
160	0x3ec9d782	0.39422232
161	0x3cd4d59a	0.02598076
162	0x3f859cfd	1.0438534
163	0x3df85d78	0.12127203
164	0xbe90b6d3	-0.28264484
165	0xbdc064c3	-0.09394219
166	0xbdf6532b	-0.12027582
167	0xbe900b14	-0.28133452
168	0xbd0d2c7c	-0.03446625
169	0xbee52fbd	-0.44762984
170	0x3fcff44f	1.6246432
171	0x3f026685	0.5093768
172	0x3e201e49	0.15636553
173	0x3f437dc8	0.763638
174	0x3ee02d42	0.4378453
175	0x3efaccbe	0.4898433
176	0x3f5a1243	0.85184115
177	0xbeb5869c	-0.3545426
178	0x3e73b0aa	0.2379786
179	0x3f3d73de	0.74004924
180	0xbd9c7ebd	-0.07641361
181	0xbd27aa88	-0.040934116
182	0x3db1b13a	0.086763814
183	0xbe5194f9	-0.20466985
184	0x3e47ee6b	0.19524543
185	0x3d120b00	0.03565502
186	0x3cbd3296	0.02309541
187	0xbfa2061c	-1.2658114
188	0x3ebcea71	0.36897615
189	0x3f23489d	0.63782674
190	0x3f5fd940	0.8744087
191	0x3e038ebb	0.12847416
192	0x3f062263	0.5239622
193	0x3be48308	0.006973628
194	0xbd334d03	-0.043774616
195	0x3ef533ab	0.47890982
196	0xbff6e7c1	-1.9289476
197	0xbefa876b	-0.4893144
198	0x3ed367b9	0.41290072
199	0xbda42bdf	-0.0801618
200	0x3eff62d0	0.49880075
201	0x3f2ffa50	0.6874132
202	0x3f1b1354	0.6057637
203	0xbf836e12	-1.0267966
204	0x3f135cf0	0.57563686
205	0x3f62dc44	0.8861735
206	0x3de55820	0.11198449
207	0xbf9b7f75	-1.2148272
208	0xbe8f9068	-0.2803986
209	0x3e547823	0.20748954
210	0x3d1fe9ed	0.03904145
211	0xbd845798	-0.0646202
212	0x3e94699c	0.28986824
213	0x3ef172db	0.4715794
214	0xbf63a8af	-0.88929266
215	0x3ef8fb49	0.48629215
216	0xbe6eb60d	-0.23311634
217	0x3ec73025	0.3890392
218	0x3e28debf	0.16491221
219	0xbe69f05b	-0.22845595
220	0x3ea6e727	0.3259823
221	0x3d223e54	0.039610222
222	0x3ec8159b	0.39078984
223	0xbf7eb9af	-0.9950208
224	0x3e814633	0.2524887
225	0x3c8c8946	0.0171553
226	0x3f6814a0	0.9065647
227	0xbf2cb4ce	-0.67463386
228	0xbee79bff	-0.45236203
229	0xbe591c75	-0.21202262
230	0x3ee3f3f8	0.4452207
231	0xbe9b947e	-0.30386728
232	0xbed22c54	-0.41049445
233	0xbe622e87	-0.22088061
234	0xbf210690	-0.6290064
235	0x3e0937e5	0.13400228
236	0x3f780b1d	0.9689196
237	0x3e2264a2	0.15858701
238	0x3f208315	0.62700015
239	0x3eb9e2a8	0.36305737
240	0x3ea49daa	0.32151538
241	0x3f29e9ce	0.6637238
242	0x3e8e40cf	0.2778382
243	0x3f1b65a1	0.6070195
244	0xbe60014e	-0.21875498
245	0xbe31b3b3	-0.17353706
246	0xbee3fb5f	-0.44527718
247	0x3dac5182	0.08413984
248	0x3e4a8af9	0.19779576
249	0x3ee8cd70	0.45469236
250	0xbee336ea	-0.44377834
251	0x3f73865a	0.9512688
252	0x3ea7a431	0.32742456
253	0x3ef17a42	0.47163588
254	0x3d04e3e0	0.03244388
255	0xbdcd5586	-0.10026078

fc2.bias f4 [64]
0	0x3f4849b0	0.7823744
1	0xbe0380e5	-0.12842138
2	0xbc59519e	-0.013264088
3	0xbf0fbcb1	-0.56147295
4	0xbde9db37	-0.11418765
5	0x3e5bf40a	0.21479812
6	0xbe6da270	-0.23206496
7	0x3ee0147c	0.43765628
8	0xbd8f7377	-0.07004445
9	0x3d5afef9	0.053465817
10	0xbe85471f	-0.26030824
11	0xbe13852d	-0.14406271
12	0x3d881862	0.06645276
13	0x3f2cf8f8	0.67567396
14	0x3f4b9fd0	0.7954073
15	0x3e2788a6	0.16360721
16	0xbe1d0d89	-0.15337195
17	0x3e928b74	0.2862202
18	0xbb98ce28	-0.0046632476
19	0x3ea4f65b	0.32219204
20	0x3efa9ea9	0.48949173
21	0x3eb0def1	0.3454509
22	0x3f2481ef	0.6426076
23	0xbf257af2	-0.64640725
24	0x3cc4c8f3	0.024021601
25	0x3ef25fab	0.47338614
26	0xbe1e51b8	-0.1546086
27	0x3f481f7c	0.7817304
28	0x3f4c60e9	0.79835373
29	0xbe28a32f	-0.164685
30	0x3d8672d7	0.06564873
31	0xbe2a04d6	-0.16603407
32	0xbe055fd2	-0.13024834
33	0xbdfb2392	-0.12262644
34	0x3eb52639	0.35380724
35	0x3f3cd6e4	0.737654
36	0x3e0173b9	0.12641801
37	0x3e94111c	0.28919303
38	0x3d0dd76b	0.034629267
39	0x3f26ec02	0.6520387
40	0xbf4ded1c	-0.80439925
41	0x3ebac576	0.36478776
42	0x3ee20de1	0.44151214
43	0xbf0f0a09	-0.5587469
44	0xbd8681b5	-0.065677084
45	0x3df0de5b	0.11761161
46	0x3e42345a	0.18965283
47	0xbd6ff2ec	-0.058581278
48	0x3f2cd156	0.6750692
49	0xbe912414	-0.28347838
50	0x3e3b5518	0.1829418
51	0xbd3c324b	-0.0459464
52	0xbe26cdcf	-0.16289447
53	0xbcdba512	-0.02681211
54	0x3f16782b	0.5877711
55	0x3f484e3b	0.7824437
56	0x3ed89faa	0.42309314
57	0xbe7c190a	-0.24618927
58	0xbd10bac7	-0.035334375
59	0xbc9c0598	-0.019045636
60	0x3f12a917	0.5728926
61	0x3f1c7ad7	0.6112494
62	0x3de77e5a	0.113033965
63	0x3ef2e4da	0.47440225

fc3.weight f4 [4, 64]
0	0x3f42af2c	0.7604854
1	0xbd80056e	-0.06251036
2	0xbf15d4cf	-0.58527845
3	0xbdf76448	-0.12079674
4	0x40311797	2.7670648
5	0xc001ebb6	-2.0300117
6	0xbf68e11f	-0.9096851
7	0x3f5a3d58	0.85249853
8	0xbf5d74a6	-0.86506116
9	0x40165ddb	2.3494785
10	0xbf192d8d	-0.5983513
11	0x3da3b746	0.07993941
12	0x3ea19010	0.31555223
13	0x3f54027e	0.828163
14	0x3f62e93f	0.88637155
15	0x3e0e060a	0.13869491
16	0xc006a0d9	-2.1035674
17	0xbea3202a	-0.31860477
18	0xbf07805c	-0.52930236
19	0x3ede56c7	0.4342558
20	0xbf082f2a	-0.53196967
21	0x3f2da79e	0.6783389
22	0x3f2b2d23	0.6686575
23	0xbf071db2	-0.52779686
24	0xbee4da8c	-0.44697988
25	0x3f2b3950	0.66884327
26	0xbefab750	-0.4896798
27	0x3f1a84ed	0.6035908
28	0x3f478068	0.7793031
29	0xbf218f35	-0.6310914
30	0x3dbfaa03	0.09358599
31	0xbfc41ec1	-1.5321885
32	0x3f4026b8	0.7505908
33	0x402a6390	2.6623268
34	0x3fa87829	1.316167
35	0x3f3a9cde	0.7289561
36	0xbf6f7ec3	-0.935528
37	0x3fb0f661	1.3825189
38	0xbfbbcf53	-1.4672645
39	0x3f1a3099	0.60230404
40	0xbf6fe1cf	-0.9370393
41	0xbe5c76b8	-0.21529663
42	0x3f8ee5aa	1.1163838
43	0xbf26ddcc	-0.65182185
44	0xbf26d6b5	-0.65171367
45	0xbf535322	-0.82548726
46	0xbf920255	-1.1406962
47	0x3db9380a	0.09043892
48	0x3f1c58ce	0.61073005
49	0xbf3d6cfe	-0.73994434
50	0xbf811950	-1.008585
51	0xbfd48620	-1.6603432
52	0xbee41ad3	-0.44551715
53	0x3eccb2e9	0.39980248
54	0x3f0a0960	0.53920555
55	0x3f3a2198	0.7270751
56	0xbee4a802	-0.4465943
57	0xbf5261aa	-0.82180274
58	0x3d9ba0f4	0.07599059
59	0xbf20671c	-0.6265733
60	0x3ed04aef	0.4068217
61	0x3f326eb5	0.69700176
62	0xbeed7368	-0.4637711
63	0x3f8a5aac	1.0808921
64	0x3f61165e	0.87924755
65	0x3d6cf046	0.05784633
66	0xbdaffd8c	-0.08593282
67	0xbf5037a9	-0.8133493
68	0x3f9addef	1.2098979
69	0xc002b614	-2.0423632
70	0xbe0b835c	-0.13624328
71	0x3f769036	0.963138
72	0xbf532fc0	-0.82494736
73	0x3fff800e	1.9960954
74	0xbefba4b6	-0.49149102
75	0xbdacf81c	-0.084457606
76	0x3ebcf5c3	0.3690625
77	0x3f3b29e7	0.7311081
78	0x3f0bc853	0.54602545
79	0xbf0b8a43	-0.54507846
80	0xbf205992	-0.62636673
81	0xbfa77aea	-1.3084385
82	0xbe8f3cef	-0.27976176
83	0x3eaf2532	0.34208065
84	0xbdf9792c	-0.12181315
85	0x3f19f2ea	0.6013628
86	0x3f259899	0.6468597
87	0xc025c5cb	-2.5901973
88	0xbf3a0ad0	-0.7267275
89	0x3ee4a8b6	0.44659966
90	0xbee60643	-0.44926652
91	0x3f337148	0.7009473
92	0x3f49a5ae	0.7876843
93	0xbfc2d1b4	-1.5220246
94	0x3da1ca62	0.078999296
95	0xbe21836b	-0.15772788
96	0x3e3440f4	0.17602903
97	0x3ff72989	1.930955
98	0xbfb2842d	-1.3946587
99	0x3f1e454a	0.61824477
100	0xbcd461f6	-0.025925618
101	0x3ff233e4	1.8922086
102	0xc0077791	-2.1166728
103	0x3f2b0c96	0.6681608
104	0xbe501ce9	-0.20323528
105	0xbeae5444	-0.34048665
106	0x3fcbfe05	1.5936896
107	0xbf5e3ece	-0.8681458
108	0xbf5502d8	-0.83207464
109	0xbf8203f7	-1.015746
110	0xc03aa21d	-2.9161446
111	0xbdde8379	-0.1086492
112	0x3f2c89a5	0.6739753
113	0xbefcfbbd	-0.4941081
114	0xbf6f8d34	-0.93574834
115	0xbfc35392	-1.5259879
116	0xbed17898	-0.40912318
117	0x3fc32353	1.5245155
118	0x3f1c74d7	0.61115783
119	0x3f33c59a	0.7022339
120	0xbe0bb2fe	-0.13642499
121	0xbf22e677	-0.6363291
122	0x3cdf5638	0.027262792
123	0xbea58e3c	-0.3233508
124	0x3f16e83b	0.58948106
125	0x3f2e8b4e	0.6818131
126	0xbeb4ba9b	-0.3529862
127	0x3f9cd008	1.2250986
128	0x3f517cec	0.8183124
129	0xbdd4ac83	-0.103844665
130	0xbf57b21b	-0.8425614
131	0xbcfb221d	-0.030655915
132	0x4004193a	2.0640397
133	0xbf0d069e	-0.5508822
134	0xbeaa62b4	-0.3327843
135	0x3e07372a	0.13204637
136	0xbf9e1e4f	-1.2353
137	0x3fafb870	1.3728161
138	0xbf059b27	-0.5218987
139	0x3da5b318	0.080908
140	0x3e47eaeb	0.19523208
141	0x3f39b05b	0.7253472
142	0x3f531035	0.82446605
143	0xbf9e3c53	-1.236216
144	0xbdafc946	-0.08583312
145	0xbf2e8544	-0.681721
146	0xbe7c4c7e	-0.24638554
147	0x3f01153e	0.5042304
148	0xbfc16d69	-1.5111514
149	0x3f633f02	0.8876802
150	0x3f02fbfa	0.51165736
151	0xbff7c6f5	-1.9357592
152	0xbe321569	-0.1739098
153	0x3e3bfb84	0.18357664
154	0xbea64a9d	-0.324788
155	0x3f5e8e2d	0.86935693
156	0x3f46d56d	0.7766941
157	0xbf6fa355	-0.936086
158	0x3d27d73b	0.040976744
159	0xbfcb9e8e	-1.5907762
160	0xbff89e02	-1.942322
161	0x3fd3ed05	1.6556708
162	0xbf9a5cc3	-1.2059559
163	0x3f6d1c34	0.9262116
164	0xc00af768	-2.1713505
165	0x3fa6a341	1.3018571
166	0xbf9948e6	-1.1975372
167	0x3f70449c	0.9385469
168	0xbf57eb42	-0.8434335
169	0xbf86ee79	-1.0541526
170	0x3f86877f	1.05101
171	0xbfc79de7	-1.5595063
172	0xbf643efa	-0.89158595
173	0xbf51b48e	-0.8191613
174	0x3f3a984c	0.72888637
175	0x3dbdfdea	0.09276946
176	0x3f615099	0.8801361
177	0xbf5b4048	-0.8564496
178	0xbe6ae645	-0.22939403
179	0xbf88c1e0	-1.0684166
180	0xbe5d503c	-0.21612638
181	0x3ef90962	0.4863997
182	0x3f72c75f	0.94835466
183	0x3f733663	0.9500486
184	0xbe99e85a	-0.30060083
185	0xbd76fba9	-0.060298596
186	0x3c627680	0.013822198
187	0xbda9f4cc	-0.082986444
188	0x3f800393	1.0001091
189	0x3e8c9a23	0.27461347
190	0x3d7526da	0.059851505
191	0xbe916ecc	-0.28404844
192	0x3f4fd79b	0.8118836
193	0x3d57422f	0.052553352
194	0xbe5f5bf7	-0.21812426
195	0xbf9c6f5e	-1.2221487
196	0x3fc1eec7	1.5150994
197	0xbde9cbe6	-0.11415844
198	0xbe0f9ff4	-0.14025861
199	0x3f6e765b	0.93149346
200	0xbfee6d2d	-1.8627068
201	0x4072801e	3.7890697
202	0xbeb6b273	-0.3568302
203	0xbdc3977d	-0.095503785
204	0x3f5d1de4	0.86373734
205	0x3f5bb28b	0.8581931
206	0x3f7e62e9	0.99369675
207	0xbf73d143	-0.95241183
208	0xbfe6030a	-1.7969677
209	0x3ebc54d9	0.36783484
210	0xbf2b26c7	-0.66856045
211	0x3f308346	0.6895031
212	0xbf284b83	-0.6574022
213	0x3f06bb31	0.5262938
214	0x3f594b5e	0.84880626
215	0xbf835054	-1.0258889
216	0xbdca48a3	-0.098771356
217	0x3f3feb60	0.7496853
218	0xbef5bde7	-0.47996446
219	0x3f00f119	0.50367886
220	0x3f1c6d04	0.61103845
221	0xbe7580db	-0.23974936
222	0xbdd5ee57	-0.1044585
223	0xbf8e3bda	-1.1112015
224	0x3fbe00ae	1.4843957
225	0x3fe3e20c	1.7803359
226	0x3fde3057	1.7358502
227	0x3f37dfca	0.7182585
228	0xbe5f577f	-0.21810721
229	0x3f8b7215	1.089419
230	0xbfe2bc4b	-1.7713712
231	0x3f02bd76	0.51070344
232	0xbf6e9a09	-0.9320379
233	0xbf6d8bc4	-0.9279139
234	0xbe1854ac	-0.1487605
235	0xbfc2c4c2	-1.5216296
236	0xbef4a899	-0.4778488
237	0xbeb54136	-0.35401314
238	0xbf761105	-0.9611972
239	0x3dc99356	0.09842555
240	0x3f0a45ff	0.54013056
241	0xbf533a05	-0.82510406
242	0xbee2d945	-0.44306388
243	0xbfdd6ebb	-1.7299417
244	0xbf15b1e7	-0.5847458
245	0x3d843498	0.06455344
246	0x3f1da5ec	0.615813
247	0x3f14831e	0.5801257
248	0xbf8d39d1	-1.1033269
249	0xbf139e62	-0.5766355
250	0xbcfddd2a	-0.030989248
251	0xbf2186a4	-0.6309607
252	0x3f585040	0.8449745
253	0x3ef1618c	0.47144735
254	0xbef12e80	-0.4710579
255	0x3f9f7b05	1.2459418

fc3.bias f4 [4]
0	0x3f24b47e	0.6433791
1	0x3ed35581	0.41276172
2	0x3efb2382	0.49050528
3	0xbd192f5b	-0.037398677
