lunar_lander/lunar_lander.pt (torch_old, 172255 bytes, 6 tensors)

fc1.weight f4 [200, 8]
-0.0141867 -1.6824658 -0.18086469 0.03107728 -0.7320854 0.12040792 0.057649456 0.69999266
0.21375003 -1.0221684 0.15427329 -0.86100477 -0.28374776 -0.07071671 0.23411551 -0.19601804
-0.11511497 0.26349592 0.4159162 0.19596757 -0.065122075 -0.46320215 -0.0432502 -0.80708617
0.03219455 -0.0941193 -0.09946321 0.18059346 -0.8346434 -0.41002133 -0.023748923 1.0627542
0.70746136 -0.47365034 0.38760772 -0.43289828 0.7930489 0.28949103 0.12027105 -0.19141589
0.7711281 -0.16713807 0.67232376 -0.2805554 -0.701973 -0.21903409 -0.10611737 0.123597175
-0.26871142 -0.14913587 -0.8348643 -0.20727946 0.555235 0.11497798 0.33810747 0.33379826
-0.24131799 -0.675016 0.49884704 0.18776134 -0.58757275 0.20554116 0.19387893 0.71018755
-0.40606833 0.07953935 -0.50877184 -0.2565658 -0.22689351 -0.76776737 0.23384039 0.20880342
-0.1525098 -0.16462648 -0.061794184 0.078963704 -1.164375 -0.35239577 -0.4768296 0.15008447
0.064982824 0.19340369 -0.3837141 -0.07279151 0.8040919 -0.119044855 -0.9420834 0.508114
0.041228224 0.5441702 0.30516136 -0.52993006 0.5001096 0.46230346 -0.1504182 -0.48504063
0.09029193 -0.17740391 -0.014633499 -0.22627579 1.4316515 0.075905934 1.2130201 0.13382043
-0.07519343 -0.36072052 0.50370216 -0.66689515 0.72545356 0.14594424 -0.39008492 0.3045536
0.14942394 -0.8208174 -0.13665992 0.06076774 -0.304642 -0.08900031 0.09391161 -0.0026294969
-0.40932423 -0.0252679 0.10403518 -0.72237587 0.0009098359 -0.45173582 -0.77228045 0.17479368
-0.02618017 0.22567478 0.22689708 0.0055076513 0.5271406 1.3102026 0.8201578 -0.03357068
0.22377151 0.33727306 -0.3121171 -0.6126018 -0.42968318 -0.20436075 -0.26801515 0.073739335
0.28210878 -0.2555354 0.37979513 -0.52952373 0.38798025 0.19441216 -0.52717805 0.37944785
0.019382346 -1.0644484 -0.32444644 -1.0870693 -0.3709639 -0.30073145 -0.036083076 -0.718276
-0.27401066 -0.21800856 -0.1677077 0.8917982 -0.101246394 -0.55744857 -0.57229817 -0.48092103
-0.27198565 -0.13601607 -0.41965237 0.12299568 0.33484522 0.39904675 0.6287886 0.5309423
0.88416916 -0.19919106 0.370755 0.13994126 -0.30489212 -0.028527817 0.27421474 0.01451346
-0.19701141 0.5576176 -0.3391089 -0.5719151 -0.19351399 -0.15821609 0.13679013 -0.20488241
-0.16563079 0.4592628 0.19785109 -0.55196923 -0.2172815 0.62002015 0.5554402 -0.53129566
0.08922275 -0.08954963 0.22727558 -0.4893511 0.36455578 0.2033409 -0.25489563 0.04439157
0.18332164 0.016132548 -0.24305296 0.2169416 -0.73911613 -0.11393118 0.26758963 1.0546824
1.1846182 -0.2601736 0.49660608 -0.00029183828 -0.6266641 0.1516866 -0.044201892 0.008297693
0.06538199 -0.27070662 0.12617888 0.020244563 0.24048983 0.81722385 0.23308635 -0.2878083
0.8902449 -0.13529849 -0.15611315 -0.30719376 -0.72198415 0.41383514 -0.010835409 -1.2618264
-0.3736665 0.016523406 0.32929268 -0.019308984 -0.7531024 -0.11597008 -0.7266 -0.43112725
-0.15509923 0.78802985 0.3703681 -0.17264497 0.04615228 0.44620043 0.08710051 -0.50443435
00000000: 556f 68bc 0a5b d7bf 9834 39be c895 fe3c
00000010: f369 3bbf 6d98 f63d d621 6c3d b832 333f
00000020: 4ae1 5a3e 6ad6 82bf d1f9 1d3e cf6a 5cbf
00000030: 6347 91be ecd3 90bd fabb 6f3e f4b8 48be
00000040: 66c1 ebbd f0e8 863e f8f2 d43e b9ab 483e
00000050: b95e 85bd d528 edbe 1f27 31bd 339d 4ebf
00000060: 6fde 033d 9fc1 c0bd 5eb3 cbbd 7eed 383e
00000070: 31ab 55bf 51ee d1be 1a8d c2bc 5408 883f
00000080: 301c 353f 4c82 f2be 8574 c63e d8a4 ddbe
00000090: 4105 4b3f 2b38 943e ab50 f63d 8702 44be
000000a0: a768 453f 3e26 2bbe 691d 2c3f f5a4 8fbe
000000b0: 81b4 33bf 794a 60be 1054 d9bd 8420 fd3d
000000c0: 8b94 89be 13b7 18be abb9 55bf 1141 54be
000000d0: e223 0e3f 9379 eb3d 6c1c ad3e 9be7 aa3e
000000e0: 101c 77be d9cd 2cbf e168 ff3e 8244 403e
000000f0: 2b6b 16bf 6279 523e 3388 463e dace 353f
00000100: 30e8 cfbe 87e5 a23d df3e 02bf 985c 83be
00000110: c656 68be 678c 44bf db73 6f3e 90d0 553e
00000120: 872b 1cbe d893 28be e61b 7dbd b9b7 a13d
00000130: 3d0a 95bf 386d b4be 0223 f4be beaf 193e
00000140: b715 853d 9e0b 463e 2d76 c4be b713 95bd
00000150: f7d8 4d3f cacd f3bd 612c 71bf c213 023f
00000160: edde 283d bd4e 0b3f 1c3e 9c3e 7fa9 07bf
00000170: 2f07 003f 0ab3 ec3e 3b07 1abe 3f57 f8be
00000180: faea b83d 5fa9 35be 58c1 6fbc d7b4 67be
00000190: 5b40 b73f 9274 9b3d 3e44 9b3f 3908 093e
000001a0: 03ff 99bd 5cb0 b8be a0f2 003f a4b9 2abf
000001b0: 53b7 393f 6872 153e 36b9 c7be 73ee 9b3e
000001c0: 9702 193e 1721 52bf 94f0 0bbe 98e7 783d
000001d0: 09fa 9bbe cb45 b6bd bb54 c03d a353 2cbb
000001e0: f292 d1be a1fe cebc 6510 d53d a0ed 38bf
000001f0: 0e82 6e3a eb49 e7be 2cb4 45bf 1dfd 323e
00000200: cc77 d6bc 4a17 673e b557 683e 8779 b43b
00000210: b0f2 063f b8b4 a73f ddf5 513f 6981 09bd
00000220: 5c24 653e 0eaf ac3e d0cd 9fbe 79d3 1cbf
00000230: 6fff dbbe f243 51be 4839 89be a604 973d
00000240: 9070 903e 89d5 82be 8274 c23e de8e 07bf
00000250: 59a5 c63e fb13 473e 24f5 06bf fd46 c23e
00000260: bac7 9e3c d83f 88bf d81d a6be 1625 8bbf
00000270: fbee bdbe 79f9 99be d9cb 13bd f0e0 37bf
00000280: 204b 8cbe a33d 5fbe 91bb 2bbe e34c 643f
00000290: 455a cfbd f3b4 0ebf 2282 12bf 483b f6be
000002a0: b441 8bbe cc47 0bbe addc d6be 29e5 fb3d
000002b0: d570 ab3e db4f cc3e 4af8 203f d6eb 073f
000002c0: e958 623f bef8 4bbe 99d3 bd3e c34c 0f3e
000002d0: d21a 9cbe 2bb3 e9bc e065 8c3e ddc9 6d3c
000002e0: 5cbd 49be 07c0 0e3f af9f adbe 0769 12bf
000002f0: 8828 46be 6603 22be b612 0c3e b2cc 51be
00000300: 1e9b 29be 7e24 eb3e 7a99 4a3e db4d 0dbf
00000310: 0b7f 5ebe a4b9 1e3f 5431 0e3f fe02 08bf
00000320: 6bba b63d cc65 b7bd eeba 683e 3a8c fabe
00000330: 0ea7 ba3e 9938 503e ae81 82be efd3 353d
00000340: abb8 3b3e 6828 843c e0e2 78be f025 5e3e
00000350: b736 3dbf c054 e9bd 8201 893e d5ff 863f
00000360: 92a1 973f 7935 85be 2743 fe3e df01 99b9
00000370: 0f6d 20bf bb53 1b3e 0b0d 35bd 0cf3 073c
00000380: fee6 853d 0f9a 8abe 0935 013e edd7 a53c
00000390: f742 763e 9535 513f 30ae 6e3e 9c5b 93be
000003a0: 17e7 633f b08b 0abe 20dc 1fbe 8048 9dbe
000003b0: f4d3 38bf 33e2 d33e 0087 31bc 8783 a1bf
000003c0: 3751 bfbe 185c 873c 0d99 a83e e02d 9ebc
000003d0: 52cb 40bf b981 edbd 7502 3abf b6bc dcbe
000003e0: 55d2 1ebe 53bc 493f e3a0 bd3e d8c9 30be
000003f0: 2c0a 3d3d 6274 e43e c161 b23d 9c22 01bf

fc1.bias f4 [200]
-0.3603667 0.2338137 -0.6281341 0.21576467 0.6048987 0.08147347 0.38947374 0.22856455
-0.096463025 0.31757846 0.4317819 -0.118239015 0.048778165 0.54184407 1.3247422 0.1968972
0.047839027 0.67851573 0.47252193 -0.15193048 -0.14619203 -0.037287217 0.33726293 0.5525558
-0.027962588 0.20777103 0.23024824 0.34567907 0.38805714 0.33811057 0.22589758 -0.2889517
0.267643 0.048231266 -0.75316274 -0.14566974 -0.014149081 0.6359532 0.18680234 0.58541757
-0.41574448 -0.00717383 0.27674162 -0.08951862 -0.5517634 0.4388659 0.24258965 -0.19348119
0.23430589 0.2637314 -0.46886322 0.062069252 0.62217647 -0.034626335 0.47793528 -0.48794273
0.0972468 0.2006825 -0.4176047 0.004616774 0.06478661 0.41021922 0.4211381 -0.019267
0.03704491 0.13530353 0.26493347 0.18533365 0.1586752 0.47760978 0.11478854 -0.03834806
0.14488305 0.06653333 -0.07656131 -0.3581021 0.5396273 0.49678865 -0.08227478 0.092571154
0.09638901 0.03487482 0.2546426 0.45515338 -0.39080518 0.2857898 -0.60030043 -0.4114216
0.49045563 0.19482455 -0.000743443 0.27347118 -0.43586195 0.21038215 -0.609784 0.06244778
0.1230934 0.07938322 -0.1070976 0.62046283 -0.25567758 0.03694427 0.29742926 -0.16244811
0.24361874 0.5378254 0.4138393 0.18737672 -0.15459926 0.18733439 0.55767894 0.18905716
-0.019768376 0.15798317 -0.046054356 -0.23221558 0.5974086 0.5307096 0.15550202 0.5517793
0.27066046 0.23193328 0.91516685 -0.47297737 0.8277584 0.4571179 -0.44399777 0.2458041
0.29879257 -0.12688175 -0.17286764 0.55793357 -0.61561203 -0.11136924 0.245165 -0.20693898
-0.27415544 -0.35928014 0.19689523 -0.35457554 0.17132002 -0.7376093 0.09343377 0.5152728
-0.5659532 0.17177406 0.3377901 0.6741625 -0.008384447 0.5264039 0.1471602 0.75732476
0.30667147 0.3485677 0.16704601 0.020691833 -0.28055456 0.24374725 -0.1351189 0.60717005
0.57391936 0.031295557 -0.24750863 0.5942349 -0.3623148 -0.6797571 -0.230223 0.14822547
0.47313535 0.2906107 0.3440485 0.41307274 0.22292626 0.7177595 -0.40420747 0.38698995
0.07242888 -0.03633277 0.30275232 0.028168103 0.29654336 0.4811814 0.08699566 0.34618708
0.36777115 -0.39794943 -0.2582603 0.08908486 0.13479611 -0.02493506 -0.20248434 0.10644372
-0.18953773 0.4117521 -0.0046025557 0.0778031 0.40775472 0.5982303 0.5424782 -0.14338897
00000000: fc81 b8be dc6c 6f3e 65cd 20bf 6af1 5c3e
00000010: a4da 1a3f 90db a63d 1a69 c73e d30c 6a3e
00000020: 688e c5bd a599 a23e 8412 dd3e 4c27 f2bd
00000030: 9dcb 473d 4bb6 0a3f 2791 a93f 6b9f 493e
00000040: dbf2 433d 35b3 2d3f 65ee f13e aa93 1bbe
00000050: 5db3 15be 7bba 18bd baad ac3e 4c74 0d3f
00000060: cc11 e5bc eec1 543e 32c6 6b3e d9fc b03e
00000070: 6daf c63e d41c ad3e b251 673e 7af1 93be
00000080: 8108 893e 268e 453d 46cf 40bf 732a 15be
00000090: 8cd1 67bc d4cd 223f 1d49 3f3e eddd 153f
000000a0: 76dc d4be 7312 ebbb 14b1 8d3e 8a55 b7bd
000000b0: 5e40 0dbf 08b3 e03e 6c69 783e ef1f 46be
000000c0: e2ed 6f3e cd07 873e d70e f0be 543c 7e3d
000000d0: f546 1f3f 58d4 0dbd efb3 f43e a1d3 f9be
000000e0: 5529 c73d b77f 4d3e 49d0 d5be 4f48 973b
000000f0: d8ae 843d 4108 d23e 6a9f d73e d4d5 9dbc
00000100: 67bc 173d 028d 0a3e 5ca5 873e 1bc8 3d3e
00000110: c07b 223e 4589 f43e 4116 eb3d db12 1dbd
00000120: 395c 143e a042 883d 2dcc 9cbd 2959 b7be
00000130: 0425 0a3f 155b fe3e ae7f a8bd f295 bd3d
00000140: 9a67 c53d e6d8 0e3d 8460 823e dd09 e93e
00000150: 9e17 c8be 0a53 923e 4aad 19bf daa5 d2be
00000160: 001d fb3e 1680 473e 9de3 42ba 6a04 8c3e
00000170: 4c29 dfbe 6b6e 573e ce1a 1cbf 3ec9 7f3d
00000180: 6418 fc3d ab93 a23d fd55 dbbd a7d6 1e3f
00000190: 2ce8 82be e052 173d a648 983e cc58 26be
000001a0: 3177 793e edae 093f bfe2 d33e afdf 3f3e
000001b0: 454f 1ebe 96d4 3f3e 0cc4 0e3f 3398 413e
000001c0: 4af1 a1bc 57c6 213e 7ea3 3cbd ecc9 6dbe
000001d0: c5ef 183f 96dc 073f ec3b 1f3e 6941 0d3f
000001e0: 0294 8a3e eb7f 6d3e 6048 6a3f 172a f2be
000001f0: f9e7 533f 5b0b ea3e ad53 e3be 12b4 7b3e
00000200: 57fb 983e 4aed 01be 3704 31be bcd4 0e3f
00000210: c098 1dbf 8e15 e4bd 890c 7b3e d0e7 53be
00000220: 1a5e 8cbe 91f3 b7be e79e 493e ed8a b5be
00000230: 846e 2f3e f7d3 3cbf 345a bf3d ebe8 033f
00000240: 4fe2 10bf 8ae5 2f3e d3f2 ac3e ea95 2c3f
00000250: eb5e 09bc 68c2 063f 2ab1 163e 09e0 413f
00000260: 0b04 9d3e 7777 b23e 1c0e 2b3e eb81 a93c
00000270: d9a4 8fbe e198 793e 9c5c 0abe 7f6f 1b3f
00000280: 61ec 123f c52f 003d e772 7dbe c71f 183f
00000290: 5381 b9be 9004 2ebf 94bf 6bbe 6bc8 173e
000002a0: cc3e f23e edca 943e 2027 b03e 457e d33e
000002b0: c846 643e 16bf 373f 48f4 cebe 8c23 c63e
000002c0: 9855 943d acd1 14bd 5a02 9b3e cbc0 e63c
000002d0: 88d4 973e 695d f63e c82a b23d 6f3f b13e
000002e0: 804c bc3e 07c0 cbbe b23a 84be 2072 b63d
000002f0: fe07 0a3e 9c44 ccbc 0e58 4fbe 2aff d93d
00000300: 2e16 42be 2cd1 d23e 09d1 96bb 3b57 9f3d
00000310: 3ac5 d03e 9f25 193f dadf 0a3f 8fd4 12be

fc2.weight f4 [200, 200]
0.37383887 0.057967976 0.042606294 0.45316112 -0.7459968 0.67624307 -0.045705628 0.5653107
0.31550086 -0.68552834 -0.102087885 -0.40355834 -1.4398987 -0.41824207 -0.13368888 0.13318075
-0.50817543 0.032597695 -0.2372185 0.042474933 0.3000804 0.21019806 0.28149837 -0.0045084846
-0.077062964 0.01390394 0.25139278 0.7533752 0.61311054 -0.3660655 0.2308821 -0.5632032
-0.3764656 -0.27245936 0.6349411 0.06940446 -0.83509403 0.066471756 -1.2625276 0.15587352
-1.143625 -1.3065695 0.11409587 -0.27874538 -0.020729331 -0.6514745 -0.077129155 -0.014315417
-0.11737588 0.3431766 0.15246409 0.07885624 0.07576767 -0.17537835 0.01412979 0.43762428
0.37542933 0.13001142 0.11203528 -0.11510789 -0.30211836 0.006430397 -0.013864394 -0.81857884
0.17947643 -0.029239848 -0.13797419 0.23668058 0.52998 0.34893245 -0.2072156 0.03248942
-0.29552993 1.0073397 0.47904822 0.33948353 0.167402 0.20067905 0.18265203 -0.051034
0.5526276 0.4909971 -0.22680524 0.19669724 0.61787206 -0.24932511 0.4805859 0.32149187
0.3581392 -0.6567566 -0.15879716 0.3932833 -0.011438028 -0.17386414 -0.0154457735 0.27830115
-0.32570937 -0.12143772 -0.05742242 0.25187597 0.4682161 -0.04175131 0.40713775 0.29625568
0.3486641 -0.40346017 -0.6408425 -0.24102515 0.25030473 0.06907952 0.048605364 -0.06663742
0.56610125 0.24405049 -0.1043328 0.2899687 -0.02290685 -0.024440598 -0.2960963 -0.28633833
-0.37416548 0.19966924 0.31936944 0.28023553 -0.321104 -0.066146076 -0.24785608 0.052594606
0.23345555 0.103891715 0.52703357 -0.06200499 -0.16486806 0.267539 -0.1553443 0.49463
0.13793921 -0.32169154 0.26186237 0.048493676 0.37241808 -0.049208447 -0.20671193 -0.209979
-0.77320534 0.18220259 -0.039029583 0.009013369 -0.51955694 0.1885329 -0.2299864 0.05043274
0.066232584 0.017422361 -0.044691395 0.088160135 0.5080671 0.75453097 0.22382627 0.095188856
0.08048512 0.5853561 -0.030898271 0.62444764 0.70919985 -0.12780206 0.08791266 -1.5529953
-0.44661212 0.42303574 0.071191125 -0.025712933 0.25847813 -0.16255665 -0.045345698 -0.06858578
-0.032983817 -0.19054359 0.3959082 -0.3675128 0.026066136 -0.25741267 -0.15251726 -0.017145682
0.055526156 -0.18912633 -0.8576249 0.23201439 0.91157264 0.5134706 -0.8855902 0.07590927
-0.8828448 -0.25231022 -0.1897008 0.51416487 -0.071588345 1.0448836 -0.020622712 -0.63559115
0.0065617464 -0.17590289 -0.23829071 -0.4956824 -1.2543703 0.009369061 -0.3633269 -0.36325756
0.17068084 -1.5815281 0.18328385 -0.17445597 -0.94193935 -1.6022525 -2.1613662 -0.28029582
-0.11742013 0.015141271 -1.426749 0.64385337 0.32340664 -0.5857463 -0.09956964 0.12650703
-0.024706054 -0.7542747 -0.078044735 -0.13575713 -0.81889486 -0.311938 0.15953928 0.06236764
-0.23589745 -0.52067953 0.69967544 -0.025223082 -0.62036663 0.11465008 0.62463224 -0.039271403
0.4541172 -0.92304075 0.043122422 -0.057995383 0.42837554 -1.5652317 -0.07619984 -0.11259341
0.014581583 -0.4147856 0.09662686 -0.21544759 0.054839812 0.06287282 0.09194445 -0.112815544
00000000: cf67 bf3e d46f 6d3d f083 2e3d bc04 e83e
00000010: a5f9 3ebf 441e 2d3f d335 3bbd 34b8 103f
00000020: 5489 a13e c97e 2fbf 7413 d1bd 339f cebe
00000030: 9a4e b8bf d323 d6be bde5 08be 8960 083e
00000040: c917 02bf 2985 053d 68e9 72be 32fa 2d3d
00000050: 23a4 993e 293e 573e 8e20 903e e9bb 93bb
00000060: 30d3 9dbd 5acd 633c 8eb6 803e 32dd 403f
00000070: d0f4 1c3f f06c bbbe 5b6c 6c3e 162e 10bf
00000080: 19c0 c0be cb7f 8bbe 808b 223f ed23 8e3d
00000090: b9c8 55bf 5822 883d 819a a1bf 4f9d 1f3e
000000a0: 4e62 92bf ab3d a7bf 18ab e93d b7b7 8ebe
000000b0: 8fd0 a9bc 08c7 26bf e4f5 9dbd 368b 6abc
000000c0: c462 f0bd d8b4 af3e 8c1f 1c3e 617f a13d
000000d0: 152c 9b3d 6296 33be a280 673c 4a10 e03e
000000e0: 4638 c03e b721 053e c172 e53d afbd ebbd
000000f0: 42af 9abe 14b6 d23b 7c27 63bc 628e 51bf
00000100: abc8 373e 6888 efbc 1b49 0dbe 655c 723e
00000110: c5ac 073f 46a7 b23e 5430 54be a013 053d
00000120: b34f 97be 82f0 803f cf45 f53e c9d0 ad3e
00000130: 6e6b 2b3e cf7e 4d3e 2209 3b3e 0709 51bd
00000140: 0179 0d3f f963 fb3e a23f 68be 006b 493e
00000150: dd2c 1e3f 154f 7fbe 5b0f f63e 959a a43e
00000160: 055e b73e 3321 28bf b99b 22be 6e5c c93e
00000170: 9166 3bbc 7109 32be 4510 7dbc 7d7d 8e3e
00000180: 61c3 a6be 57b4 f8bd c533 6bbd e3f5 803e
00000190: 05ba ef3e 6c03 2bbd 5c74 d03e d3ae 973e
000001a0: 1a84 b23e 5592 cebe 410e 24bf 4ccf 76be
000001b0: f127 803e 9079 8d3d 6b16 473d 3379 88bd
000001c0: 03ec 103f 5fe8 793e 6fac d5bd c776 943e
000001d0: 25a7 bbbc a637 c8bc ef99 97be f09a 92be
000001e0: 9e92 bfbe 1876 4c3e 6484 a33e 087b 8f3e
000001f0: be67 a4be 9877 87bd fccd 7dbe 716d 573d
00000200: f90e 6f3e 2ec5 d43d aceb 063f f2f8 7dbd
00000210: 2cd3 28be dffa 883e 9412 1fbe 2540 fd3e
00000220: f03f 0d3e c1b4 a4be d312 863e 4ea1 463d
00000230: 95ad be3e cc8e 49bd 4bac 53be bc04 57be
00000240: c9f0 45bf 5193 3a3e 7cdd 1fbd cfac 133c
00000250: af01 05bf c50e 413e 8e81 6bbe 9092 4e3d
00000260: f3a4 873d 57b9 8e3c 530e 37bd 4d8d b43d
00000270: af10 023f f128 413f b732 653e 60f2 c23d
00000280: 62d5 a43d e6d9 153f 5f1e fdbc cddb 1f3f
00000290: 1f8e 353f 8bde 02be 8d0b b43d 8dc8 c6bf
000002a0: 58aa e4be 2498 d83e a7cc 913d eea3 d2bc
000002b0: 3f57 843e 4075 26be 69bc 39bd b476 8cbd
000002c0: 0a1a 07bd dc1d 43be 7bb4 ca3e a32a bcbe
000002d0: a688 d53c 98cb 83be 7c2d 1cbe 1a75 8cbc
000002e0: 656f 633d 55aa 41be 4e8d 5bbf 2e95 6d3e
000002f0: d35c 693f cf72 033f 0ab6 62bf 5276 9b3d
00000300: 1e02 62bf ce2e 81be ed40 42be 4fa0 033f
00000310: e99c 92bd bfbe 853f f6f0 a8bc 1ab6 22bf
00000320: eb03 d73b e31f 34be 7b02 74be 15ca fdbe
00000330: 358f a0bf b180 193c fc05 babe e5fc b9be
00000340: f5c6 2e3e 836f cabf c3ae 3b3e 96a4 32be
00000350: f022 71bf 9c16 cdbf d353 0ac0 ef82 8fbe
00000360: f779 f0bd 1813 783c b69f b6bf 93d3 243f
00000370: 8e95 a53e 78f3 15bf 2beb cbbd 0f8b 013e
00000380: 5a64 cabc 2618 41bf ebd5 9fbd eb03 0bbe
00000390: 18a3 51bf 56b6 9fbe 445e 233e 3675 7f3d
000003a0: 1a8f 71be 414b 05bf ee1d 333f a3a0 cebc
000003b0: 59d0 1ebf a9cd ea3d e6e7 1f3f 0ddb 20bd
000003c0: 0d82 e83e 664c 6cbf 23a1 303d 918c 6dbd
000003d0: 0a54 db3e 8359 c8bf a90e 9cbd 6097 e6bd
000003e0: 98e7 6e3c c75e d4be 4ee4 c53d 4b9e 5cbe
000003f0: b69f 603d 77c3 803d 5f4d bc3d d60b e7bd

fc2.bias f4 [200]
0.068615414 -0.09007009 -0.08094833 0.5609552 0.19431335 -0.18338631 -0.0106950505 -0.03472247
0.0013242579 -0.17625491 0.08487696 -0.1337549 0.02051449 -0.08404746 -0.04171168 0.39946792
0.36183208 -0.13298841 -0.13116775 0.48558736 -0.08073629 0.001573555 -0.16860299 0.049927693
0.57315946 -0.18930328 0.34733602 0.2847797 -0.16855873 0.024050917 -0.045309987 -0.010307703
0.13383563 -0.07300719 -0.1356541 -0.15009159 -0.20568095 0.28844997 0.092972204 0.49619937
-0.009557128 -0.058160156 0.22337222 0.22842126 0.21174105 -0.08229485 -0.038612008 0.28243417
-0.37578237 0.008482717 0.307004 -0.061398774 0.07927894 -0.18688841 0.030927643 -0.098890044
0.10520863 0.012384896 -0.007175933 -0.093596436 -0.14931 -0.13531788 -0.013273361 -0.13506806
-0.15011129 0.30392358 -0.16249481 0.022563137 -0.08802514 0.22150134 -0.31544536 -0.060404368
-0.031819172 -0.070191845 0.0035387115 -0.12626079 -0.11094755 0.041302755 0.4513892 -0.2219779
-0.1613538 0.42326272 0.17048 0.24393958 0.12164951 -0.029800665 -0.020129312 -0.05054682
-0.06904174 -0.27408543 -0.0667501 -0.006975483 0.022493117 -0.050138883 -0.10819596 -0.20139146
-0.049209423 -0.16291124 -0.33941454 -0.10807652 -0.13807207 -0.11128581 -0.06803382 0.45948192
0.06570753 0.030951072 -0.04883999 -0.13608319 0.024970395 -0.081630014 0.19291699 -0.023864562
0.012715452 -0.030173484 0.32851845 -0.047734983 0.019313253 0.25421536 -0.026702885 -0.14956418
-0.108452044 0.5159689 -0.0053224578 0.22369874 0.5033181 0.5157193 0.016164212 -0.22559533
-0.2898651 -0.09994204 -0.07407619 0.531975 -0.00549496 0.50876325 -0.07368035 -0.021195535
0.10574241 0.051341027 -0.19923966 -0.25554404 0.43456742 0.5544971 0.369731 -0.035859387
-0.10885482 -0.11403626 -0.07876155 -0.011890634 0.14580582 -0.01942815 -0.04173637 -0.08186015
-0.0021180955 -0.16648827 0.4646806 -0.035634175 0.4637054 -0.050416294 -0.02685355 -0.07493842
0.51869434 0.5065397 -0.04095655 0.005969657 -0.058063768 -0.0037722576 -0.17015639 -0.14469014
0.009489634 -0.10913182 -0.07650147 -0.22653842 0.2863001 -0.05615518 -0.049358927 -0.051359825
-0.0008544971 -0.08284376 -0.06598271 -0.019423233 -0.1388387 -0.1762341 -0.12621057 -0.19918774
0.46029595 0.003979402 -0.2446955 -0.31276345 -0.079673134 -0.11441541 -0.02358587 0.057263955
0.10185509 -0.036061503 -0.02978092 0.17269005 -0.026284834 -0.1826982 0.20607525 -0.07874591
00000000: 3d86 8c3d ab76 b8bd 3dc8 a5bd c39a 0f3f
00000010: 14fa 463e 9fc9 3bbe 4b3a 2fbc 2639 0ebd
00000020: b992 ad3a 2b7c 34be f9d3 ad3d 0bf7 08be
00000030: 010e a83c 1321 acbd ded9 2abd 0f87 cc3e
00000040: 0e42 b93e 1d2e 08be d750 06be e89e f83e
00000050: 1159 a5bd bf3f ce3a 43a6 2cbe fb80 4c3d
00000060: 94ba 123f b8d8 41be 07d6 b13e a5ce 913e
00000070: a99a 2cbe 6e06 c53c f796 39bd a4e1 28bc
00000080: 350c 093e cb84 95bd e9e8 0abe 9cb1 19be
00000090: 079e 52be b7af 933e 3668 be3d d80d fe3e
000000a0: 8095 1cbc 5839 6ebd b0bb 643e 43e7 693e
000000b0: a5d2 583e 348a a8bd a027 1ebd 369b 903e
000000c0: 8c66 c0be 18fb 0a3c a12f 9d3e 487d 7bbd
000000d0: ff5c a23d ad5f 3fbe f85b fd3c dd86 cabd
000000e0: 9f77 d73d 05ea 4a3c 1724 ebbb 7daf bfbd
000000f0: b8e4 18be c590 0abe 8378 59bc 484f 0abe
00000100: c6b6 19be df9b 9b3e 0a65 26be 54d6 b83c
00000110: 8646 b4bd 3fd1 623e 0e82 a1be 926a 77bd
00000120: d254 02bd bec0 8fbd bae9 673b 824a 01be
00000130: 7838 e3bd 142d 293d 7c1c e73e 2d4e 63be
00000140: ee39 25be e4b5 d83e 4f92 2e3e 4ccb 793e
00000150: 6123 f93d 8620 f4bc 3ae6 a4bc 2f0a 4fbd
00000160: c165 8dbd ed54 8cbe 47b4 88bd 9892 e4bb
00000170: 7c43 b83c 6e5e 4dbd d895 ddbd 9039 4ebe
00000180: d28f 49bd 34d2 26be bec7 adbe 3957 ddbd
00000190: c462 0dbe d1e9 e3bd 5155 8bbd 3741 eb3e
000001a0: ab91 863d 1a8d fd3c 710c 48bd 6459 0bbe
000001b0: b78e cc3c a32d a7bd 088c 453e 9d7f c3bc
000001c0: 7954 503c 622e f7bc 9233 a83e c285 43bd
000001d0: d436 9e3c 8428 823e 02c0 dabc 5a27 19be
000001e0: 1b1c debd 8a16 043f 0368 aebb 4811 653e
000001f0: 74d9 003f 2e06 043f cf6a 843c 7602 67be
00000200: 3369 94be 6aae ccbd 42b5 97bd 832f 083f
00000210: 110f b4bb 4f3e 023f b9e5 96bd 42a2 adbc
00000220: 7a8f d83d f84a 523d 7b05 4cbe abd6 82be
00000230: 9f7f de3e 86f3 0d3f 624d bd3e 4be1 12bd
00000240: 47ef debd d88b e9bd bc4d a1bd efd0 42bc
00000250: 1f4e 153e c927 9fbc c2f3 2abd 4ba6 a7bd
00000260: bfcf 0abb e77b 2abe 9eea ed3e 24f5 11bd
00000270: cb6a ed3e 5181 4ebd fafb dbbc 5079 99bd
00000280: 27c9 043f 96ac 013f 0ec2 27bd 1d9d c33b
00000290: 46d4 6dbd fb37 77bb 7a3d 2ebe a729 14be
000002a0: 697a 1b3c 8180 dfbd cdac 9cbd b0f9 67be
000002b0: ed95 923e f902 66bd 962c 4abd ae5e 52bd
000002c0: 5400 60ba fda9 a9bd f121 87bd 791d 9fbc
000002d0: bb2b 0ebe b676 34be 583d 01be dff7 4bbe
000002e0: e9ab eb3e a565 823b 7591 7abe 8822 a0be
000002f0: ab2b a3bd a052 eabd 2837 c1bc 9c8d 6a3d
00000300: 6799 d03d 3ab5 13bd 1ef7 f3bc a9d5 303e
00000310: 4b53 d7bc 3d15 3bbe 6405 533e 8945 a1bd

fc3.weight f4 [4, 200]
0.0622769 -0.8527672 0.035250604 0.5086729 1.0567998 -0.30094743 -0.45549625 0.019720094
-0.7318547 -0.17466493 -0.586994 -0.6609731 0.05985082 -0.4546137 -0.6691525 0.53569514
0.4548439 -0.56116086 -0.3271179 0.3207658 -0.8380048 -0.31574956 -0.5883543 0.79286575
0.44263023 -0.1969685 0.46721953 0.48439652 -1.1357257 0.05952233 0.0071566855 0.045337386
0.16670497 -0.060716413 -0.36848986 -0.45818758 -0.1997272 0.3503557 -0.12751684 0.37255314
-0.47374412 -0.19694091 0.37907872 0.6018484 1.3520153 0.057353526 0.0014560398 0.7296181
-0.41280562 -0.5053073 0.30008504 -0.90894735 -0.7621521 -0.39891425 0.030382298 -1.0089471
-0.2893855 -0.4322462 -0.047505032 -0.023415338 -1.1646878 -0.23570399 -0.018336996 -0.08786972
-0.90303975 0.71857893 -0.12241888 -0.052523367 -0.6434439 0.80766815 -0.8079898 -0.06105761
-0.62498516 -0.73981965 -0.0013517896 -1.1706182 -1.1303638 0.03528973 0.37571 -0.6676577
-0.1189164 0.45705703 -0.811289 0.29388383 -0.455087 -0.03275108 -0.05513286 0.012748902
0.041831303 -0.72003466 0.00030183024 -0.046898562 0.024997126 -0.6894314 -0.40627214 -1.010087
1.1164802 0.20115955 -1.2514402 -0.7255181 -0.614784 -0.6363242 -0.013887987 0.3775059
-0.41650027 -0.05775929 -0.006232351 -0.44618228 0.03866228 -0.30634966 0.23437963 0.005535179
-0.98581636 -0.31753078 0.52943045 -0.7391518 -0.49956587 -0.16022198 -1.124404 -0.956611
-0.82518816 0.4452381 0.15138663 0.19819045 0.4516326 0.35029078 -0.017108364 -0.31675848
-0.9516118 -0.28512967 -0.64424586 0.47591984 0.038729187 0.4020027 0.060552895 0.0620934
0.38292545 0.019161934 -0.7096182 -0.45521307 0.47314036 0.36886445 0.7704335 -0.44358072
-0.3112228 -0.7232614 -0.54505235 0.016118579 0.5645277 -0.9460112 -0.38794726 -0.71630615
-0.4753916 -0.7867719 0.46914878 -0.66485363 0.47311226 -0.56882834 -0.5383706 -0.5587676
0.52140474 0.45834455 0.044884153 -0.076596946 0.041800704 -0.022551853 -0.45450327 -0.5274121
0.070113085 -0.37182525 -0.023918856 -0.91911674 0.31465784 -0.022540193 0.023171816 0.056476213
0.055975597 -0.49814227 -0.5764329 -0.7040128 -0.38875207 -0.6545154 -0.51004684 -0.9193943
0.52249235 0.0075442716 -0.77666384 -1.0605568 -0.5498335 -1.231287 0.05815598 0.6048276
-0.5166394 -0.011010382 0.055393048 0.16953488 -0.31341422 -0.92012435 0.027119434 0.04357613
0.12633483 -1.2738899 -0.04548065 0.44267318 1.1952628 -0.43905622 0.2930559 -0.013332982
-0.76879036 0.17248343 -0.50154096 -0.5338775 0.04877847 -0.33997956 -0.5133007 0.43934965
0.36456585 -0.38895056 0.073269345 0.40393445 -0.9020002 -0.2856025 -0.7669237 0.68881273
0.4634771 -0.48965117 0.42686182 0.081371605 -0.8865007 0.005469357 0.059500583 -0.028167255
0.11884373 0.016343024 -0.57781816 -0.7658539 0.09472223 0.03830622 0.06449121 0.45795122
-0.50519353 0.26279753 0.50987864 0.7628668 1.5718216 -0.055983454 -0.027965251 0.751591
-1.4552231 -0.512334 0.49361083 -0.8157226 -0.28979495 -0.7170311 0.031523637 -0.69374335
00000000: 1016 7f3d f44e 5abf f062 103d 6338 023f
00000010: 3745 873f c815 9abe ce36 e9be 098c a13c
00000020: d45a 3bbf 5ddb 32be 3d45 16bf 8835 29bf
00000030: 2226 753d 20c3 e8be 944d 2bbf 5123 093f
00000040: 4de1 e83e 3da8 0fbf ff7b a7be 6a3b a43e
00000050: 7c87 56bf eda9 a1be 639e 16bf 40f9 4a3f
00000060: 6ea0 e23e 1cb2 49be 6637 ef3e d202 f83e
00000070: 765f 91bf b0cd 733d a182 ea3b b2b3 393d
00000080: b5b4 2a3e c6b1 78bd b4aa bcbe 9097 eabe
00000090: 4a85 4cbe d361 b33e c693 02be 49bf be3e
000000a0: 978e f2be e1aa 49be 9b16 c23e bd12 1a3f
000000b0: d60e ad3f 88eb 6a3d 97d8 be3a 40c8 3a3f
000000c0: 425b d3be d25b 01bf bfa4 993e c6b0 68bf
000000d0: 661c 43bf 7d3e ccbe 4ce4 f83c 2e25 81bf
000000e0: 562a 94be 604f ddbe a394 42bd 86d1 bfbc
000000f0: 7d14 95bf 635c 71be 7837 96bc 0af5 b3bd
00000100: 9d2d 67bf caf4 373f c0b6 fabd be22 57bd
00000110: bdb8 24bf 57c3 4e3f 6bd8 4ebf 8b17 7abd
00000120: 07ff 1fbf d264 3dbf 882e b1ba d1d6 95bf
00000130: c3af 90bf f78b 103d 105d c03e 9deb 2abf
00000140: 718a f3bd 6103 ea3e a3b0 4fbf f177 963e
00000150: 2a01 e9be ff25 06bd fed2 61bd c5e0 503c
00000160: 4d57 2b3d 3154 38bf f83e 9e39 b518 40bd
00000170: c6c6 cc3c 947e 30bf e702 d0be 884a 81bf
00000180: d3e8 8e3f c5fc 4d3e 312f a0bf 8ebb 39bf
00000190: 7c62 1dbf 25e6 22bf 708a 63bc 7448 c13e
000001a0: 863f d5be 0195 6cbd c038 ccbb 0172 e4be
000001b0: 575c 1e3d ddd9 9cbe 3701 703e 7260 b53b
000001c0: 765e 7cbf 6593 a2be c188 073f 0d39 3dbf
000001d0: 19c7 ffbe 3b11 24be 78ec 8fbf 75e4 74bf
000001e0: 883f 53bf 40f6 e33e 1905 1b3e 70f2 4a3e
000001f0: 633c e73e 5059 b33e d726 8cbc 2b2e a2be
00000200: d59c 73bf 84fc 91be 4ced 24bf c4ab f33e
00000210: 7fa2 1e3d 4cd3 cd3e 5006 783d a655 7e3d
00000220: ce0e c43e 7df9 9c3c 8aa9 35bf b011 e9be
00000230: 743f f23e cddb bc3e 213b 453f 031d e3be
00000240: 9858 9fbe a927 39bf 8d88 0bbf 1c0b 843c
00000250: e384 103f ca2d 72bf 06a1 c6be d75f 37bf
00000260: 8766 f3be e269 49bf 4534 f03e d933 2abf
00000270: c53b f23e bc9e 11bf a8d2 09bf 650b 0fbf
00000280: c87a 053f 23ac ea3e 72d8 373d dcde 9cbd
00000290: 3737 2b3d aabe b8bc a7b4 e8be 7b04 07bf
000002a0: 7397 8f3d e15f bebe 7af1 c3bc 3c4b 6bbf
000002b0: d51a a13e 36a6 b8bc d2d2 bd3c 9a53 673d
000002c0: ab46 653d 810c ffbe 1b91 13bf 2f3a 34bf
000002d0: 830a c7be 528e 27bf 6e92 02bf 6d5d 6bbf
000002e0: 0fc2 053f f035 f73b 71d3 46bf 53c0 87bf
000002f0: e3c1 0cbf d09a 9dbf f734 6e3d fbd5 1a3f
00000300: 7b42 04bf e464 34bc d2e3 623d 8d9a 2d3e
00000310: d477 a0be 458d 6bbf 9329 de3c e27c 323d
00000320: eb5d 013e d30e a3bf eb49 3abd 0fa6 e23e
00000330: 5ffe 983f facb e0be 6c0b 963e 9472 5abc
00000340: 72cf 44bf 7f9f 303e fd64 00bf 32ac 08bf
00000350: efcb 473d cd11 aebe ad67 03bf 70f2 e03e
00000360: 60a8 ba3e 8724 c7be 3d0e 963d 7fd0 ce3e
00000370: 7ce9 66bf 7e3a 92be 1d55 44bf 0856 303f
00000380: df4c ed3e 8fb3 fabe a28d da3e 28a6 a63d
00000390: b6f1 62bf 4b38 b33b e2b6 733d 04bf e6bc
000003a0: 5764 f33d cee1 853c e4eb 13bf 000f 44bf
000003b0: bbfd c13d fce6 1c3d f813 843d 9578 ea3e
000003c0: 5d54 01bf 668d 863e 6887 023f 3d4b 433f
000003d0: 7331 c93f e84e 65bd 6217 e5bc 4568 403f
000003e0: c044 babf 5228 03bf 8fba fc3e 32d3 50bf
000003f0: 0160 94be 5a8f 37bf ee1e 013d 2a99 31bf

fc3.bias f4 [4]
0.32027867 0.20730287 0.31858075 0.32573724
00000000: 91fb a33e 3447 543e 041d a33e 08c7 a63e
