lunar_lander/lunar_lander_chk.pt (torch_old, 172255 bytes, 6 tensors)

fc1.weight f4 [200, 8]
00000000: 6a0b 31bc cc36 0e3e b7f4 18bf a39f 7dbe
00000010: c60d 97be 1d42 b23e dc24 41bf 48b4 973e
00000020: 6805 3d3d 90bf 5f3e 504d debe 0e87 9d3e
00000030: 8bd8 4ebf 6607 1dbf 133b 16bf b728 52be
00000040: 1f57 c83e 7a53 173c dd21 bfbe 48e1 20bf
00000050: 6d03 ef3d e31a 9d3e 77d3 8dbd 662b b63e
00000060: ab3a 4dbd 6558 0fbd c140 003f 76aa 0ebf
00000070: 5ffb 87be 7b82 48be 8838 adbb 2957 223f
00000080: f528 af3d 7cdf 9dbd 43c4 27bf cb22 d7be
00000090: 8117 2abf 07d9 113e 3cb6 963e c6ef d53d
000000a0: cd1f 09be da34 e0bc 6f95 4e3d c677 eabe
000000b0: 619e 03bf a867 57be 8b02 063e 493d 023f
000000c0: 81f2 1f3c c30b 49bf 7a78 103e e909 2440
000000d0: e63a cdbd 0879 14bd a266 523f ee02 57bf
000000e0: 38d7 323e 9f93 68be dd20 bebe ed98 b3be
000000f0: a599 0b3e e1d1 923c c8f6 bdbe 51e7 ca3c
00000100: 69de eabd 82e6 d53d e671 4e3e fc97 4dbe
00000110: d48b eb3e 1c97 563f f1ca c2bd 46dc 50be
00000120: e73b c03e 4c63 343d c576 313f 6e67 0b3f
00000130: de65 bc3d 6b7e 22be 0b4b b63e 73ab 783e
00000140: 8fba bfbe 7999 cf3e 98e0 7b3e 1600 ebbe
00000150: 44fd 94be a5da 2ebf b320 03bf 0798 fcbe
00000160: 634a bc3e d90d 9bbd 1c6b 0a3f f8d5 12be
00000170: 6c22 983e 6619 263f b64f 09bf 95ae 87be
00000180: 0a71 333e c94e d13e 65cf 113d e832 0abf
00000190: 97ea de3d 9246 2a3f 39dc 23bf 34d2 01bf
000001a0: 8785 fabd a81b 91bd 4bba 03bf 6660 03bf
000001b0: 0ab7 eabe 8d95 5dbd 45e1 85bc c57a 433e
000001c0: 8d69 01bd 9322 1b3f ad1f 4b3d 1651 e7be
000001d0: d562 6dbf e7ce 92be 7166 cc3e 0de8 933b
000001e0: ff63 2b3f 0355 2e3d 0518 83be c63a 843e
000001f0: 6ae2 cebe 2492 ffbe 1b53 39be b2cc fbbd
00000200: 7f49 9cbc 05cf f8be 8f84 f13d d38b 2bbe
00000210: 2de5 b3be 6c7c 983d 2351 533e fb91 6dbd
00000220: 142b a1be 0cb9 11be 731d a6bd 4df2 193e
00000230: 20f4 2f3f 7e92 143f 3560 013f 1808 7fbe
00000240: d557 aebe f647 dabe 2ef4 fa3d 3e89 9abb
00000250: 9bfb 7cbe c24b dbbe 7b1b 70be 30aa fcbe
00000260: b5f9 85bd a560 a53e b63b a33e 5833 cfbe
00000270: 44ac a53e fa22 68bf 461a c1be 9128 87be
00000280: f4e2 da3d ecff 27bd 8acc 8bbf 3349 c1be
00000290: c2cd 0cbe dcb3 88bd 8815 493d 31b4 ae3c
000002a0: f64c 7abf 3401 efbd ec39 f63e 825c 34bf
000002b0: 4cff c0be 0a61 833e 3810 29bf 1e00 9a3e
000002c0: 726e b2be 723a 51be 8c02 3a3e f2f3 6cbf
000002d0: adf6 76be 2105 0fbe 836d 883d 503d 7cbe
000002e0: 8b33 843e e641 3abc a809 5cbe f033 82bd
000002f0: 982c 6bbf a0a3 873e 76fd e13d f4b5 f23e
00000300: 7997 88be 978a 223e e1e1 d2be 289f 76be
00000310: 7bf5 22bf 0057 3e3e 0e1e 24be 120a 05be
00000320: 38e6 0a3e 84a7 893e 5501 08bf 0007 a7be
00000330: e29b 2cbf 24a3 463e 795b 8abe f796 d93e
00000340: ef71 053e 5124 b03d c39c 9cbe 7f49 f4bd
00000350: 2c2b 993e 7bfb 1abf 6813 9bbe c5fc 883c
00000360: 51aa ecbe c1b8 d03c 7704 183f f626 e6be
00000370: 102a 1dbf ed46 ea3e 8604 dfbc 7318 88bc
00000380: eb5a 19be 5c6c b53e 8878 eebe 9444 8cbd
00000390: ddff a0be 7f8b 013d da6a bbbd d474 e43e
000003a0: d9a4 f43d ac66 d83e 39ab e13d 0035 79be
000003b0: 93be c13e e01d ebbe 6d3b bebe da3a ba3e
000003c0: ec11 383e 40f0 f73e 8a9c 9fbe d168 fdbd
000003d0: 7f23 a63e 8040 33bf d0ef 5dbe 2d3d 16bf
000003e0: a638 f8be 65e1 4abe bac6 24bf 45a3 90be
000003f0: e6a4 4f3f 4ba9 3d3e 0cd6 7a3c 7a8c b7be
-0.010805944 0.13888091 -0.59748405 -0.24767928 -0.29502696 0.34816065 -0.7544687 0.2962973
0.046147734 0.21850419 -0.4341836 0.307671 -0.8079917 -0.61339414 -0.5868389 -0.20523344
0.39128968 0.009236211 -0.37330523 -0.6284375 0.11670575 0.30684575 -0.06925099 0.35579985
-0.05010478 -0.03499641 0.50098807 -0.5572885 -0.26558968 -0.19581024 -0.00528628 0.63414246
0.08552734 -0.07708642 -0.65533847 -0.42018732 -0.66442114 0.14242946 0.2943591 0.10446124
-0.13391037 -0.027368952 0.05043548 -0.45794505 -0.5141354 -0.21035635 0.13086908 0.50874764
0.009762407 -0.7853357 0.14108458 2.5631049 -0.100209996 -0.036248237 0.82187855 -0.83988845
0.17464912 -0.22712563 -0.37134448 -0.3507761 0.1363283 0.017922344 -0.37102342 0.024768503
-0.114682026 0.104443565 0.20160636 -0.20077509 0.46005118 0.83824325 -0.09511364 -0.20396528
0.37545702 0.04404001 0.6932185 0.54454696 0.09199117 -0.15868537 0.35604128 0.24284153
-0.3744702 0.40546778 0.24597394 -0.45898503 -0.29099476 -0.68302375 -0.5122177 -0.49334738
0.36775503 -0.075710006 0.54069686 -0.14339435 0.29713762 0.64882505 -0.53637254 -0.26500383
0.1752359 0.4088042 0.035598177 -0.53983927 0.10884588 0.6651393 -0.6400791 -0.5071137
-0.122324996 -0.07085353 -0.51456136 -0.5131897 -0.45842773 -0.0540977 -0.016342768 0.19089802
-0.0315948 0.6059963 0.049590755 -0.4517905 -0.9272893 -0.2867348 0.39921907 0.0045137466
0.66949457 0.042561542 -0.25604263 0.2582609 -0.40407115 -0.49916184 -0.18098108 -0.12294902
-0.019078014 -0.48595443 0.11792862 -0.16752557 -0.35135785 0.074456066 0.2063642 -0.058000546
-0.31478179 -0.14230746 -0.08111086 0.15033837 0.6873188 0.5803603 0.50537425 -0.24905431
-0.34051386 -0.42633027 0.12253605 -0.0047160676 -0.24705355 -0.42831236 -0.23447983 -0.49348593
-0.065417685 0.32300296 0.31881493 -0.4046886 0.3235799 -0.9067837 -0.37715358 -0.26398137
0.10687819 -0.04101555 -1.0921795 -0.3775116 -0.13750365 -0.066749305 0.0490928 0.021326156
-0.97773683 -0.11670151 0.48091066 -0.70453656 -0.37694776 0.25659972 -0.6604037 0.30078214
-0.34849888 -0.20432451 0.18165034 -0.9255973 -0.24117537 -0.139668 0.06661513 -0.24632764
0.25820574 -0.0113682505 -0.21488059 -0.063575625 -0.9186492 0.26492023 0.11034672 0.47404444
-0.26678064 0.1587318 -0.41187957 -0.24084151 -0.63655823 0.18587875 -0.1602709 -0.12992123
0.13564384 0.26885617 -0.5312703 -0.32622528 -0.6742536 0.1939817 -0.27022913 0.4249799
0.13031743 0.08600677 -0.3058835 -0.11928081 0.2991575 -0.6053998 -0.30288243 0.016722092
-0.4622369 0.025478723 0.5938181 -0.449516 -0.6139231 0.45757237 -0.027223837 -0.01661322
-0.14976089 0.35434234 -0.46576333 -0.06849018 -0.31445208 0.031627174 -0.0915124 0.44620383
0.11945505 0.42265832 0.11018986 -0.24336624 0.3784071 -0.4592123 -0.37154713 0.36373025
0.17975587 0.48425484 -0.31174117 -0.12373508 0.32448956 -0.70020294 -0.21673512 -0.58687097
-0.4848072 -0.19812544 -0.6436573 -0.28249565 0.8111099 0.18521611 0.015309822 -0.35849363

fc1.bias f4 [200]
00000000: d436 7dbe 6e06 8b3e c210 5ebd 768e e83a
00000010: ea7d 453d 7a96 a3bc a735 923c 6c5f a43e
00000020: 3005 83be aef9 e73d 5252 bb3c 05aa a8bb
00000030: 7e7e 7ebc eac1 a43d 60e1 4fbe 1dbc 3a3e
00000040: d506 1e3f 3b42 79be b355 29bf 4518 033e
00000050: 1d01 1bbc b1ed f5be f148 8c3e e0e1 663e
00000060: d85e 983e 30ea 193e 6e61 923e 3f4b 753d
00000070: 80c5 403e cdd9 813e 3138 80bc 0dc3 81be
00000080: bf35 853e 5847 5fbd 9aa1 e0bd 7d3e ffbe
00000090: 0dc0 b63e 4a3b d23e 4b5d 1d3f 2564 843e
000000a0: b381 663e 0d51 3fbf 6569 b0be 36df b2be
000000b0: e8ca 0f3f 2eb4 933d 90ee 49bd dae5 9b3c
000000c0: b189 5ebe 4983 03bf d73c 213e 3eaa 213c
000000d0: 1adb be3d 302c 1f3e f6f0 9d3d ca3c 083f
000000e0: a57c 053f ddd2 52be 515b c03d 20c6 b43d
000000f0: 9317 f0be 8c9d 2ebd 0b91 db3d edd8 2a3e
00000100: b87e aebe 3298 75be d5f7 36bf a84c df3e
00000110: 0fdd ac3e 3a54 363d 59bf 583e d618 1b3e
00000120: 2d82 783d 8b6d 4a3d cc3f 703d 218e 503e
00000130: a84d e73d fb0a 263e 572a cebe f5f6 5ebc
00000140: 77c5 d3bd 640f 033f 85fc b8be b5c3 66bd
00000150: f2d7 2b3e 0028 14bf 7b56 a0be debb fc3e
00000160: c9c4 09bf 7192 f23e 9546 893e ba3a f43e
00000170: 1bf5 2a3e 6861 08bb d0b6 d93e 5dbd f63e
00000180: 9438 96bc 2ddd af3e bad6 9e3d d7cb 96be
00000190: 4123 e83d fcc7 0f3e 6b3d 403e 0116 833e
000001a0: e7aa c3bb c3c9 f93c 2d8c 853e 93ad 22bd
000001b0: dea6 a23e 12b3 e63d dea1 e23e fb02 1a3e
000001c0: 39e1 1b3e 708e abbb ed2d c83e 4710 ef3e
000001d0: 49d0 ab3e d7a9 8c3e 7b3b af3e 3a0c ecbe
000001e0: 8b1b ba3e 6dfa b7be 4781 d1bb 05b0 9c3e
000001f0: 2614 0abe c8e7 633e 40bc 833e 5e2a 4e3a
00000200: eb5e b93e b586 8abe df07 16be 97e1 f43e
00000210: 7396 d93d 6bdb 823e e461 593e 44c6 8a3e
00000220: d010 d33e c794 ac3e 5c64 e73d 4973 f13d
00000230: 6c4f d9bb 5af3 e03e ca01 b83c 31b5 b93e
00000240: 746f 293d 2c24 5d3e 62a8 733e 1b4f ddbe
00000250: 13a9 ecbb 53e8 27be c642 26be 568d 0d3f
00000260: 9681 693e 914f 01be f5d6 ddbd 7c8f e7be
00000270: ba9a 0dbe e59a 97be 0fee 4e3d 26d3 983d
00000280: 284d 86bc e628 823d 89a0 6c3e be6a 023d
00000290: bce2 103f 42c0 5ebb f16b 423d 4a65 ab3e
000002a0: 0f9e 3e3e 3a7d a0be 62f8 06bf 66fa bc3b
000002b0: 2741 52be 355c 2b3e 7b4b 1cbd 04eb f53e
000002c0: d946 34bd bbe5 3a3d 75cd 723e 0560 a33e
000002d0: cf61 be3e e826 553d 631a 023e 8cd7 063e
000002e0: 94b8 973d e74b 82be 8ac8 1ebd 3ad9 e8be
000002f0: 2c92 2dbf 642e 5a3e 4420 fdbd d506 9d3e
00000300: b8a0 7f3e c727 893e c051 8a3c e70f dabd
00000310: 7546 a23d 62de 013f e8f7 793e d0d4 033d
-0.24727947 0.27153343 -0.0542152 0.0017742652 0.048215784 -0.019969214 0.017847849 0.3210405
-0.25589895 0.113269195 0.022866402 -0.005147221 -0.015533088 0.08044799 -0.20300817 0.18235822
0.61729175 -0.24341671 -0.6614639 0.12802227 -0.009460715 -0.48032907 0.273994 0.22547102
0.2975986 0.15030742 0.28589958 0.059886213 0.1882534 0.2536148 -0.015651794 -0.25344124
0.26017568 -0.054511398 -0.10968323 -0.49852362 0.35693398 0.4106086 0.6147048 0.25857654
0.22510414 -0.7473305 -0.3445541 -0.3493592 0.56168985 0.07212101 -0.049299777 0.0190305
-0.21732213 -0.513722 0.15745865 0.009867249 0.09319134 0.155442 0.07711975 0.53217757
0.5214332 -0.2058825 0.09392417 0.08826852 -0.46892986 -0.042630717 0.10721024 0.16684313
-0.34081054 -0.23983839 -0.7147191 0.43613172 0.33762404 0.04451392 0.21166743 0.15146193
0.06067102 0.049420875 0.05865459 0.20366718 0.11294109 0.16215126 -0.40266678 -0.013608684
-0.10340398 0.5119536 -0.36130157 -0.056338985 0.16781595 -0.57873535 -0.3131598 0.4936208
-0.53815895 0.4737735 0.26811662 0.47701055 0.16695063 -0.0020810012 0.42522287 0.48191348
-0.018337525 0.3434843 0.077557996 -0.29452392 0.11334849 0.14041132 0.18773429 0.25602725
-0.005971301 0.030491715 0.26083508 -0.039716315 0.31767935 0.11264624 0.4426412 0.150402
0.15222634 -0.0052354857 0.3909754 0.46692106 0.33557346 0.27473328 0.34225067 -0.46103078
0.3634914 -0.35933247 -0.006393585 0.30603042 -0.13484249 0.22256386 0.2572956 0.00078645896
0.3620523 -0.27055898 -0.1465144 0.4782836 0.10624399 0.25558028 0.21228749 0.2710439
0.41223764 0.33707258 0.11298439 0.11789567 -0.0066317823 0.43935663 0.02246179 0.3627105
0.041366056 0.2159583 0.23794702 -0.43224415 -0.0072223037 -0.16397218 -0.1623641 0.55293787
0.2280334 -0.12628008 -0.108320154 -0.45226657 -0.13828555 -0.29610363 0.05052 0.07462148
-0.016394213 0.06355457 0.23108114 0.03184008 0.5659597 -0.0033989106 0.047466222 0.33475715
0.18614982 -0.3134554 -0.5272275 0.0057671545 -0.20532666 0.16734393 -0.03815792 0.48030865
-0.044012878 0.045629244 0.23711188 0.31909195 0.37183997 0.052039057 0.12705378 0.13168162
0.07408252 -0.25448534 -0.038765468 -0.4547823 -0.67801166 0.21306759 -0.1235967 0.30669275
0.24963653 0.2678816 0.016884685 -0.106475644 0.07923595 0.50729954 0.24410975 0.032185376

fc2.weight f4 [200, 200]
00000000: cf57 a63c e723 49bc 30b3 55bd 445b 38bc
00000010: 52b1 9bbd 6b43 513b 57c3 59bd 8f0e 7ebc
00000020: 4850 4abd cdc1 cf3c 0478 4dbd 064f b43c
00000030: 9e81 bf3c fd89 243d 0fb7 52bc 9cc5 f53c
00000040: 3108 f03c b609 d23b 4886 363c 2c63 86bd
00000050: d556 b6bc 3b65 043d e351 3abc 2761 5ebd
00000060: ab81 7fbd c93a c9bc d60b a83c f772 703d
00000070: 4b15 a1bd 5c8b 8f3c 079b a4bd 5e40 4ebd
00000080: f407 7abd 502f aebc cee6 113c 2044 82bd
00000090: 85c7 5b3d 4bca 363d 7a0f ed3b 7289 fd3c
000000a0: 9fd5 40bd e094 0cbc 332c 2abd 40d2 98bc
000000b0: 8e31 1bbd e41e 81bd a0b8 103d d9b7 a53b
000000c0: 23eb 453d c21e 50bc 2094 00ba 0370 f9bb
000000d0: acac 6c3c 978e 943c 7d73 2c3d 4151 033d
000000e0: 4631 9b3d 172b 033d 02d8 eebc d1a5 7a3d
000000f0: 4c08 7dbd b865 463d f283 333d 62b7 1b3d
00000100: ac46 06bd 5598 96bd 093a 04bc a11b 823c
00000110: e9bc 213d 41da 45bb 6af8 513d 08f3 1bbd
00000120: de41 54bd 6661 723c a306 adbb 8514 96bd
00000130: 25f7 d7bb 63a9 71bd 1afe 5abd d2cb edbb
00000140: 4ddf 9f3d f3cc 98bd 3a6e 93bd 7738 aebd
00000150: ed7b fabb feec 5ebd c054 d23a 0e34 41bd
00000160: f497 b0bc 7007 82bd 4ddd 4abc 6155 ac3d
00000170: 1b21 1b3d 278e 3e3c 8ad2 a3bd 59f6 33bd
00000180: 4554 fcbc aa29 21bd ebd8 383d 8b42 fa3c
00000190: 1441 733b 8cc6 9a3c 5b19 4ebd 45d1 cabc
000001a0: b111 493c 0b21 71bd 4249 56bc 2680 ff3b
000001b0: 77de 9fbd eb79 4d3d 82ad 50bc 606c 98bd
000001c0: 665b 233d 0f26 0ebd fc49 f4bb e05b 893d
000001d0: a8d1 e0bc 9bfd 9c3c c739 043d 1e34 cd3c
000001e0: a791 4fbd 18fb 22bd 39fa fcbc 2632 233d
000001f0: 888c 93bc f435 2a3d 2a8f a3bc eab4 193d
00000200: 7ee8 69bc 8c35 c9bc acc6 91bd fdd1 84bd
00000210: 350f b9bc ca03 323d 945a 8f3c e310 26bc
00000220: bda2 203d 5c73 933b 33f9 8fbd 3de9 8dbd
00000230: b05e 7bbd 0a7a 2c3b c564 6bbd 32ba 04bd
00000240: ac0d c8bc 13f9 2f3c 931f 0dbc 5ff4 643d
00000250: a492 8b3d b9bd 54bd c059 e6bc 67bf 543a
00000260: ca3b 873d 0583 0ebd 81f9 04bd f52b a6bd
00000270: f044 2c3d f3a0 02bd 08ea 1ebd 93ee 133d
00000280: 626a 8e3d 087b 183c 66ae 9abd 3146 f53c
00000290: fa44 6bbd 4835 93bc 4a6c 1bbd 687c 83bd
000002a0: 194e 80bd 02db 9abd 64fb 74bd 1411 43bd
000002b0: 8294 163d d6df 87bd ef13 23bc ae90 2ebd
000002c0: 910d c83c 4450 213d fb76 19bd 69ab 0ebd
000002d0: 8e00 45bd 6905 84bd bf28 273c f429 cc3c
000002e0: 5db4 6e3c 0553 0dbd 2611 453d 6f4d 98bd
000002f0: 1221 1f3d 6f35 753d 1969 52bd ca57 76bd
00000300: 93d5 b23c 527a a1bc 2200 6bbd 6a85 113d
00000310: 7a1d 06bb 5358 70bb ad2d 08bd cf1f 313d
00000320: fc04 bc3e 4e67 74bf fdce b83d 1d32 bebe
00000330: 2089 413d 8e4e 4ebd 0f91 18c0 6ca7 1e3e
00000340: 7145 053f dea6 f3bf 91ae 0dbe fcf5 063f
00000350: 5cc0 f73e 2b17 3c3e fb09 c1bc e017 81be
00000360: ab75 dfbe 4942 ea3e 2f9b b4be fd59 c4bb
00000370: 3b97 2a3e 7a82 ee3e 0297 dc3c 8dd6 9ebe
00000380: f304 0c3e 254d 983d 1e21 cfbc bcef f43c
00000390: 0e58 a53d 3b91 ae3d d1b2 a2be 729b 1b3f
000003a0: dbd2 903d 572f cf3e abb0 bc3e 7216 2a3f
000003b0: 4235 683d 1021 4dbf 3bb3 0bbe 4927 9bbe
000003c0: 4b65 003e b5d8 033f e6cb f5bf 798a 97be
000003d0: 61f4 36bf bbd6 af3e f68b bebe 4850 813c
000003e0: 96ec edbe 1e44 4b3f 2539 47bd 3056 193e
000003f0: f80a b5bd 7feb 1bbe a365 05be 9fe8 44bf
0.020305542 -0.012276626 -0.05217284 -0.011252228 -0.076021805 0.0031931053 -0.053164806 -0.015506401
-0.04939297 0.025360966 -0.050163284 0.022010338 0.023377236 0.04017066 -0.012861027 0.030001454
0.029300781 0.006409849 0.011140414 -0.06561884 -0.022258202 0.032323103 -0.011372062 -0.05429187
-0.06237952 -0.024564164 0.020513456 0.05870339 -0.078653894 0.017522506 -0.080373816 -0.050354354
-0.06104274 -0.021262795 0.008905126 -0.0636065 0.053657074 0.044626515 0.007234511 0.030949328
-0.047078725 -0.008580416 -0.041546058 -0.018654943 -0.037889056 -0.0630472 0.035332322 0.0050573167
0.048319947 -0.012702646 -0.0004904885 -0.00761223 0.014445465 0.018134398 0.042102326 0.03205991
0.075777575 0.032023516 -0.029155735 0.06119329 -0.06177549 0.04843685 0.043827005 0.038016684
-0.03278224 -0.07353274 -0.008070477 0.015882315 0.0394868 -0.0030189904 0.051262297 -0.03807357
-0.05182063 0.014793729 -0.005280332 -0.073281325 -0.006590741 -0.05899943 -0.053464986 -0.0072569633
0.07806263 -0.07460966 -0.071987584 -0.085068636 -0.0076441676 -0.054425232 0.0016046986 -0.047168784
-0.021556832 -0.06349075 -0.012381864 0.08414722 0.03787337 0.011630571 -0.079991415 -0.043936107
-0.030801902 -0.039346375 0.045128744 0.030549308 0.0037117647 0.018893503 -0.05031715 -0.02475799
0.012272284 -0.058869403 -0.013078989 0.007797259 -0.07806104 0.0501651 -0.01273668 -0.07442546
0.039882086 -0.034704264 -0.0074551087 0.06706977 -0.027443722 0.019163897 0.032281663 0.025049265
-0.050676014 -0.039790243 -0.030881034 0.039842747 -0.018011346 0.04155536 -0.019965727 0.03752605
-0.014276622 -0.024561666 -0.07117972 -0.064853646 -0.02259026 0.043460645 0.017499246 -0.010135862
0.0392177 0.004499836 -0.07029953 -0.06929252 -0.061369598 0.0026317858 -0.05746915 -0.032404132
-0.024420582 0.010740536 -0.008613485 0.055897113 0.06815079 -0.051938746 -0.028118968 0.00081156794
0.06603201 -0.03479292 -0.032464508 -0.08113853 0.04205793 -0.031891774 -0.03879741 0.036116194
0.06953885 0.009306677 -0.07552795 0.029940696 -0.057438828 -0.017969742 -0.03794507 -0.06420213
-0.06264896 -0.07561304 -0.059810057 -0.04762371 0.03676272 -0.0663449 -0.009953483 -0.042618446
0.024420531 0.039383188 -0.037466984 -0.03483144 -0.048096232 -0.064463444 0.010202586 0.024922349
0.014569369 -0.034503 0.048112057 -0.07436644 0.038849898 0.05986541 -0.05136976 -0.060142316
0.021830356 -0.019711647 -0.057373174 0.035527624 -0.0020464347 -0.003667374 -0.033246685 0.043243226
0.36722553 -0.9547013 0.09023855 -0.37147608 0.047249913 -0.050367884 -2.3838537 0.15493554
0.52059084 -1.9035299 -0.13836123 0.5271909 0.48388946 0.18368213 -0.02356433 -0.25213528
-0.4364446 0.45753697 -0.35274646 -0.0059921728 0.16659252 0.4658392 0.026927475 -0.31023064
0.13673763 0.07436589 -0.025284346 0.02989947 0.08073436 0.08523794 -0.3177705 0.60784066
0.070714675 0.40465805 0.36853537 0.664405 0.056691416 -0.80128574 -0.1364259 -0.3030341
0.1253864 0.51502544 -1.920285 -0.29597834 -0.7146664 0.34343514 -0.37216157 0.015785351
-0.46469563 0.79400814 -0.04863848 0.14974284 -0.08839983 -0.15226553 -0.13027053 -0.7691745

fc2.bias f4 [200]
00000000: c8c4 763c e0ce 8bbe 0711 6e3d f194 ca3c
00000010: 88bf 9f3d e689 ab3e 248b 53bd 61da e53c
00000020: 9457 473c d1b9 a13e c5ab 8fbd 7fd2 b5be
00000030: 750b 85bd 8176 9bbd 69b9 cbbd fe3f 333e
00000040: 2dc1 583e 6f37 f23d 4d36 843e 6dd2 2b3e
00000050: 43ba bcbd 85e1 31bd 5e1e 2ebe 9bc7 86bd
00000060: 5e41 423e dc78 163e ff19 333e a4e2 7d3e
00000070: d470 08be 11ca 4dbd 2988 c13d 4f28 a03b
00000080: c178 44bd 6708 143b 6009 69bd 62e1 2a3e
00000090: 2daa 57be df8e f13c 90e7 ae3d 43c2 47bd
000000a0: 98a9 433d 6dfb 073d cd9a 15bd a491 923d
000000b0: e98f 0abe 0d1a 433e bada e13b 6c56 703e
000000c0: a9cd bebd b163 8e3d 7f87 abbd f7db 843e
000000d0: ab0e 323e 2735 0bbd a13d 3b3e 69c0 863d
000000e0: 0ee2 0d3e 030c 8e3d 30fb 743e 2833 79bd
000000f0: 149d 2c3e bb7d ab3b f82e 213e 5a81 a5bc
00000100: be94 75be dd7a 37bc 077b dd3c 1919 2dbe
00000110: 841f 94bc bdc1 92bc c1e6 adbd 69f0 3a3e
00000120: 4cd3 84bd 7605 223e a938 5bbc ec7f 00be
00000130: d3cf 043e d71d 0e3e b257 a93d 8378 e53d
00000140: c4c0 143e 75cd 8d3e 0e6d 263e b66f 6fbc
00000150: e7b1 4abe 1f3a 3bbe 0204 a1bd dca8 853d
00000160: fd92 46bd 8ca0 02bd 6b37 613e 4b5a 203e
00000170: 5070 c83d 2d96 0cbb 9179 0c3e 9560 77be
00000180: 0af1 34bb 5beb 333e 549c 9dbd 5003 15bd
00000190: 6874 adbc baec 2c3d b15d 673e a459 18bf
000001a0: 12c5 91bd 4453 063e 0c75 1d3e 50b1 d4bd
000001b0: b7f6 bbbd 8683 363e e682 e73c 32ca 573d
000001c0: f946 0c3e b04a 77bd 35d5 e33c 0884 66bd
000001d0: 3b3c 8b3e f88a 633e ed18 5b3c a1a8 69bd
000001e0: 9e31 e9bd 8b69 d73c 9b64 82bd 7c92 efbc
000001f0: c597 9abd ef7a 923e aab4 0cbe 53dc 0abd
00000200: c1f2 553e be87 28bd 9f8c 723e 5f52 91be
00000210: 5a46 aa3d 3e68 bebe e227 8d3e f72c a8bd
00000220: 21ce 86be bebf 993d e7cd 9b3e cf47 533e
00000230: a07c 97bc 99c4 e0bc cab3 533e ef65 c6bd
00000240: 7834 8cbc eaa6 a53e ea8b 37bd 53b7 a33b
00000250: 5e66 3d3e 10be aa3d 5087 8b3b d4d6 103e
00000260: 4fbc 7fbd 4eb2 16be a5c7 2dbe 4399 05be
00000270: ea00 09be a9e8 61bd a134 213d 33e0 6a3c
00000280: f2b1 35be 1430 8d3e 0e40 14be 94b4 51bc
00000290: 0196 a2bd 93f9 033e 5c15 6fbb 3a58 35be
000002a0: e433 7a3e 6b0e 7b3c f44d 173d 0118 3ebd
000002b0: 8863 213e 982e 0cbe a171 69bc b4bc 42bd
000002c0: 7132 a9b9 15a9 5fbd a990 abbd 15f0 4cbd
000002d0: 9d06 823d bc72 06bd fe75 c6bd a08e 8e3d
000002e0: 6eaf a1bd 8c3e 89bc 6d23 533e 828a b63d
000002f0: 9787 43bd ed04 67bc 3643 863d 620c 8cbd
00000300: b9f7 d1bc e2d1 8fbe cd61 1e3e e5f6 b53c
00000310: e623 f93d dbd4 86bd 35de 5c3e fe47 8f3d
0.015061565 -0.2730627 0.058121707 0.024729224 0.078002036 0.33503646 -0.051646367 0.028058233
0.012166876 0.3158708 -0.07015184 -0.35512158 -0.06496326 -0.07590962 -0.099474736 0.1750488
0.2116744 0.11826979 0.25822678 0.1677949 -0.09215214 -0.043427963 -0.17003772 -0.065810405
0.18970248 0.14694542 0.17490385 0.24793488 -0.1332429 -0.050241534 0.094497986 0.0048876177
-0.047966722 0.0022588016 -0.056893706 0.16687539 -0.2106101 0.029487072 0.08540261 -0.048769247
0.04776916 0.033198763 -0.036524583 0.07156685 -0.1353146 0.19052906 0.0068925293 0.23470467
-0.0931657 0.069526084 -0.08375453 0.2594907 0.17388408 -0.033986237 0.18285228 0.06579668
0.13855764 0.06935885 0.23923945 -0.060839802 0.16856796 0.005233494 0.15740573 -0.020203281
-0.23982522 -0.0111987265 0.027036203 -0.16904105 -0.018081434 -0.017914647 -0.084912784 0.18255772
-0.06485614 0.15822396 -0.013380208 -0.12548798 0.12969904 0.1387857 0.0826868 0.112046264
0.14526659 0.27695814 0.16252539 -0.014614036 -0.19794427 -0.1828389 -0.078620926 0.06526348
-0.048480023 -0.03189139 0.21993797 0.15659444 0.09787047 -0.0021451816 0.13718249 -0.24157937
-0.002760949 0.1757025 -0.07695833 -0.036380112 -0.02117367 0.042217948 0.22594334 -0.5951178
-0.07117666 0.13117701 0.15376681 -0.10385382 -0.091779165 0.1782361 0.02826066 0.052683063
0.13698949 -0.060373962 0.027811626 -0.05627826 0.2719439 0.22220981 0.013372642 -0.057045583
-0.11386417 0.026295444 -0.06366845 -0.029244654 -0.07548479 0.28609416 -0.13740793 -0.033901524
0.20893385 -0.04114508 0.23686455 -0.28383157 0.083142 -0.37188905 0.2756949 -0.08211701
-0.2632914 0.07507275 0.3043053 0.20632862 -0.018492043 -0.027437495 0.20674053 -0.09687411
-0.017114863 0.32353908 -0.044811167 0.004996219 0.18496081 0.08337033 0.004258074 0.1414445
-0.062435444 -0.14716455 -0.1697069 -0.13046746 -0.13379255 -0.055153523 0.03935683 0.01433568
-0.17743662 0.27575743 -0.1447756 -0.012799401 -0.07938767 0.12888174 -0.0036481237 -0.17709437
0.24433857 0.015323262 0.036939576 -0.04640961 0.15760624 -0.13689649 -0.014248283 -0.047543243
-0.00032271774 -0.05460461 -0.08377201 -0.050033648 0.06348918 -0.032824263 -0.09690474 0.06960797
-0.07894789 -0.016753457 0.20618983 0.08913137 -0.04773673 -0.0141002955 0.06555788 -0.06838299
-0.025630819 -0.28089815 0.15466996 0.022212455 0.1216505 -0.06583568 0.2156914 0.06996153

fc3.weight f4 [4, 200]
00000000: c421 5a3c 60cf b4be 7b5d 823e dd83 efba
00000010: ee0e bf3e 6eb9 bc3e 7103 a33e 7ffb 35bf
00000020: 9296 713d 52a3 bc3e 4d5d 583d 7e01 25bf
00000030: 98e3 bdbe a26c 77bc 1a80 03bf d18e 6e3f
00000040: f8ac b53e 4e0d 00bf 7f39 b43e ebc1 03bf
00000050: f165 26bf 866e 06bd 4426 d9be 78d9 593d
00000060: a408 903e 2d59 3e3f 25b1 2dbf 0f25 413f
00000070: cf06 2bbf 4266 633d ff61 0b3f 7e2a b73b
00000080: 581c 3abf 78a2 193f ccfe 0bbf fc8c 363e
00000090: eae8 02bf d528 673e be22 633f 380e 2dbd
000000a0: 8a4b 373c e01f e1be f147 103c d9c5 b13e
000000b0: cc1a 6ebf e40e b43e 9c76 87be 0d69 dc3e
000000c0: ce00 febe c0a1 3c3f 180f 273d 4887 b33e
000000d0: 3a4b 323e 4134 e33c e5aa b93e eed9 9a3e
000000e0: 7eff d73e f8e2 d1be 972b 873e ace3 f23c
000000f0: b2d5 b83e c918 053e 0a25 93be 2924 4cbd
00000100: e389 9cbe 7ce7 42bc 8b4b 4ebd ba1c 80bf
00000110: 4baf aebc 9b2c 153d e0ba a8be 9787 783f
00000120: 85c5 f63c 0f9b 023f 34f5 573f c3ae 9dbe
00000130: cdf8 803f ef9a aa3f c1b0 aa3e a489 9d3e
00000140: 7303 913b 8159 a03e c2ac 8b3f 9214 38bc
00000150: d015 ccbe 4337 2ebf 0a8e e3be c52e f0be
00000160: 5c81 e9be 3ee5 0d3d 78be 993e 5ce5 823e
00000170: bf01 cc3d 57a5 553d c749 a53e 7748 b4be
00000180: 7087 613a 3a23 133f aaad 7c3d 1b45 34bf
00000190: 78de aa3d b937 b1bf 0027 9a3e ab43 68bf
000001a0: 69c7 25bc ff4a 0f3f 4a34 b43e 9aab b3be
000001b0: 950c f6be 5da6 7c3e b006 4fbd a1ae 7f3c
000001c0: 3f27 833f 83a5 d6be 710a d23e 2c78 08bf
000001d0: 38da b63e f926 323f 90e6 3fbf f9e1 1b3d
000001e0: 4e58 d5be cc58 803c b132 55bf 090d b9be
000001f0: ed20 c2be 99e2 af3e ad94 d2be e59f bcbe
00000200: d84b 7c3e 372a ddbe f0e5 ba3e 5320 d3be
00000210: 3dde d53e a3fd 98be dc45 b93e 03c9 e43c
00000220: 21f3 46bf 85e6 593e 59a4 6abd 928d 163f
00000230: c4c9 01bd 8062 c13c ce18 c23e 4909 acbe
00000240: bf90 1fbd 6236 b73e 4933 29bb 6fdc 89bf
00000250: 40be 363f 2e62 993e 4be9 57bd eefb efbf
00000260: 1297 4d3d 1b38 b7be 98ec c4be 07ea a73d
00000270: dc2d 7bbe 8d97 a83c 55c7 ad3e c492 99bd
00000280: 2fdc a43e b96f c83e 397e d9be 0029 8fba
00000290: 82dc 0dbf 6ecb c53e 5259 113b 139e e3be
000002a0: da82 c03e 5ec1 bcbb 193e 4d3d 8696 4ebf
000002b0: 7c4a 323f 4acb a33f d61a 7d3d e9a6 203d
000002c0: b1e0 a33e 0285 443d b0b3 96bd c94d f3bc
000002d0: 3e42 0d3f cefa f2bc 0049 883e afe9 a6be
000002e0: a87b 173d d457 44be b722 c23e 808d c93e
000002f0: 3590 3dbf 48d4 2ebf 4a87 14be c6a9 053e
00000300: 08c4 3fbd a667 e5be 587e c13e ac7a 10bc
00000310: 74d4 b8bd 111d f53c f96e cc3e 7944 433e
00000320: 4c8b 2cbd 9938 07bf 1844 7e3e 8303 10bd
00000330: cd9a 173f 288e 9c3e a53b 23be d9c7 88bf
00000340: 93bf 0bbd 2e24 a03e 5ea7 95bc 4c74 25be
00000350: 9491 10bf 44dd 90bc 3e56 2dbf c0d6 443f
00000360: a3c8 a53e d63c 89bd 38b0 313e 73c1 06bf
00000370: b1fc 5dbf 1f99 8a3b 7f2d 18bf 6afe 52bd
00000380: d53b ca3e 6ae0 d63e 3f27 e4be 46c6 263f
00000390: 9f3c d0be b2d1 2dbc 2a59 103f d1a3 17bc
000003a0: daac 2cbf 81dc bd3e 1039 9cbe 233d a93e
000003b0: c393 d2be c21e c13e 7f38 833f 2ac3 ffbc
000003c0: 8a19 46bd 52be 09be c0e0 d9bb 399c da3e
000003d0: f471 88bf cb3b c03e 986a 99be 87cb c03e
000003e0: 1fb3 87be 9abe 0a3f d768 083d d008 a43e
000003f0: 7a15 76ba e2cf d8bc d720 e13e 7830 933e
0.013313714 -0.35314465 0.25461945 -0.0018273551 0.37316078 0.36860222 0.31838563 -0.7108688
0.058981486 0.36843354 0.052823354 -0.644554 -0.37087703 -0.015101584 -0.5136734 0.9318667
0.35483527 -0.500203 0.35200116 -0.5146777 -0.649993 -0.032820247 -0.42412007 0.05318591
0.28131592 0.7435482 -0.67848426 0.7544717 -0.66807264 0.055517443 0.54446405 0.0055897823
-0.726995 0.6001353 -0.54685664 0.17827219 -0.5113665 0.2257417 0.8872489 -0.04224989
0.0111874435 -0.4396963 0.008806215 0.34721258 -0.9300964 0.3516761 -0.2645768 0.43048897
-0.4960999 0.7368431 0.04078588 0.3506415 0.17411509 0.027734878 0.36263195 0.30244392
0.42187113 -0.40993476 0.26400444 0.029649578 0.36100537 0.12997736 -0.28739196 -0.049839173
-0.3057395 -0.0118960105 -0.050365012 -1.0008767 -0.02132382 0.036419492 -0.32955074 0.97081894
0.030123482 0.5101785 0.84358525 -0.30797395 1.0075928 1.3328532 0.33337978 0.30769074
0.00442546 0.31318286 1.0912097 -0.011235373 -0.39860392 -0.6805307 -0.44444305 -0.46910682
-0.45606506 0.03464245 0.3002813 0.25565612 0.099612705 0.052159633 0.3228285 -0.35211536
0.00086032506 0.57475626 0.061689056 -0.70417947 0.08343214 -1.384513 0.3010788 -0.90728253
-0.010118344 0.5597381 0.35196143 -0.3509186 -0.48056474 0.24672838 -0.050543487 0.0156056
1.0246352 -0.4192315 0.4102359 -0.5330837 0.35713363 0.6959072 -0.74961185 0.0380573
-0.41668934 0.015667342 -0.83280474 -0.36142758 -0.37915745 0.34352568 -0.41129056 -0.3684074
0.24638307 -0.4319627 0.36503553 -0.412356 0.41771117 -0.2988101 0.3618611 0.027927881
-0.77714735 0.21279342 -0.05728564 0.5880977 -0.03168656 0.023606539 0.3790955 -0.33600834
-0.0389564 0.35783678 -0.0025817922 -1.0770396 0.7138405 0.29957718 -0.05271272 -1.8748758
0.0501929 -0.35784993 -0.38461757 0.08198934 -0.24529213 0.020580078 0.3394114 -0.074986964
0.32199237 0.39147738 -0.42479113 -0.0010922253 -0.55414593 0.38631767 0.0022178483 -0.4445654
0.37599832 -0.005760356 0.05010805 -0.8069843 0.69644904 1.2796414 0.06179317 0.039221678
0.32007363 0.04797841 -0.073584914 -0.029700177 0.551792 -0.029660609 0.26618195 -0.3260016
0.036983162 -0.19174129 0.3791711 0.39365768 -0.7404817 -0.68292665 -0.14504734 0.13053045
-0.04681781 -0.4480564 0.37791705 -0.00881831 -0.09024897 0.029921087 0.39928415 0.19069089
-0.04212503 -0.52820736 0.24830663 -0.0351596 0.5922058 0.30577207 -0.15940721 -1.0685989
-0.034118246 0.31277603 -0.018268283 -0.16157645 -0.56472135 -0.017683633 -0.6770972 0.7689018
0.32379636 -0.06701057 0.17352378 -0.5263893 -0.867137 0.0042296792 -0.5944442 -0.05151216
0.39498773 0.4196809 -0.44561192 0.6514629 -0.4067125 -0.010609077 0.56386054 -0.0092553655
-0.6745125 0.37082294 -0.30512285 0.33054456 -0.41128358 0.3771878 1.0251616 -0.031220991
-0.0483642 -0.13451508 -0.0066491067 0.42697313 -1.0659776 0.37545618 -0.29964137 0.3765528
-0.26503846 0.54197085 0.033303108 0.32037973 -0.00093873555 -0.026466314 0.43970367 0.28747916

fc3.bias f4 [4]
00000000: dfa5 2f3e 1d8c 0c3e e4b0 ba3d 2e78 543e
0.17153119 0.13725324 0.091157705 0.2074897
