lunar_lander/lunar_lander_chk.pt (torch_old, 172255 bytes, 6 tensors)

fc1.weight f4 [200, 8]
000000 26 ee 49 bd 17 4a 6d 3e 1c 7b aa be a7 6d a1 be
       -0.04929938 0.23172794 -0.3329705 -0.3152897
000010 77 75 8a bd b5 20 94 3d 37 47 e1 3d 36 95 d3 3e
       -0.06760686 0.07232801 0.10999911 0.41324776
000020 a5 fb f7 bb 1d c5 a6 3d b7 e2 c4 bd 7b 74 40 bd
       -0.00756784 0.08143065 -0.09613555 -0.046986084
000030 ce b3 cd be 30 41 ba be 6a db 8c be d8 99 0a bd
       -0.40176243 -0.3637786 -0.2751115 -0.033838123
000040 2b 8f 1f 3e 73 c9 61 3e 5b d9 4e be ce 8e 70 be
       0.15581958 0.22049503 -0.20200102 -0.23491976
000050 5b e9 16 3e 4d 85 9d 3e 8b 3f 86 3d 17 87 cd 3e
       0.14737456 0.30765763 0.065550886 0.40142128
000060 fd a5 7c bd f8 c1 c4 3d 85 d9 8a 3e 9a 92 ca be
       -0.061681736 0.09607309 0.2711908 -0.39564973
000070 b8 bb 54 be 47 b3 fb bd a3 61 e7 bc eb 54 c6 3e
       -0.20774734 -0.12290054 -0.028244799 0.38736662
000080 41 f7 56 be 75 48 10 be a4 5f 81 be 8e 47 ce be
       -0.20992757 -0.1409014 -0.2526828 -0.40288967
000090 b9 60 2e be a2 94 b1 3e 31 66 b5 3e 92 3b 93 3e
       -0.17029084 0.3468371 0.35429528 0.28756386
0000a0 95 a5 8d 3c af 5a 2f bd 1b e2 10 3d 2d fe ca be
       0.01729087 -0.042811092 0.03537188 -0.39647046
0000b0 e2 78 87 be d4 41 90 be 6f 63 b2 3e aa 90 98 3e
       -0.26459414 -0.28175223 0.34841487 0.2979787
0000c0 02 79 f6 3b bd c9 da 3d 32 07 bf 3e 58 bd c7 3e
       0.0075217495 0.1068301 0.37310177 0.39011645
0000d0 b8 6a c8 bc aa 78 e3 3b f3 d8 9d 3e 52 2b 55 be
       -0.02446495 0.0069418745 0.30829582 -0.20817307
0000e0 f8 73 79 bd f5 26 7c be 9c 10 bf be 08 36 7a be
       -0.060901612 -0.24624236 -0.3731736 -0.24434674
0000f0 0c 7f 7d 3e c9 33 cd 3d 8b ae 35 be b0 4a 5a 3e
       0.24755496 0.10019643 -0.17742364 0.21317554
000100 ca 98 ba 3e 9e f7 b3 3d 97 08 3a 3e 55 e6 2d bd
       0.36444694 0.087874636 0.1816734 -0.04245599
000110 71 cb 9a 3e f4 5c 01 3f 1f 57 71 be 15 7a f3 bd
       0.30233338 0.5053246 -0.2356839 -0.1188852
000120 23 74 2e 3e ce aa a2 3e c4 5f 9f 3e 29 f2 9b 3e
       0.1703649 0.3177094 0.3112775 0.3045819
000130 6f 24 8e bc b8 95 da be 0a 83 cf bd d2 24 70 be
       -0.017351357 -0.4269235 -0.101324156 -0.23451546
000140 fc be 9e be 0d 57 99 3e b8 1d a1 3e 7a 1b c5 be
       -0.31005085 0.29949227 0.31467986 -0.38497525
000150 d0 de 11 bc b7 7a 64 be 15 5b 50 be 9a 3d 63 be
       -0.00890322 -0.22312437 -0.20347245 -0.22191468
000160 99 df 93 3e bc 81 87 bb 78 34 a8 3e 3a 55 07 3d
       0.2888153 -0.0041353386 0.3285253 0.033040263
000170 a2 51 a5 3e c1 35 8b 3e 4e d7 bb be 4a f4 67 be
       0.32288843 0.27189448 -0.36687702 -0.22651783
000180 d3 d8 84 3e 01 a7 0a 3e 50 cf 61 be ac ef a5 be
       0.25946674 0.1354027 -0.2205174 -0.32409418
000190 1a 93 a1 3e c4 ad 9b 3e f4 e0 c5 bd e3 52 6f bd
       0.31557542 0.3040601 -0.09662047 -0.058428656
0001a0 80 3f c8 be b8 d2 17 3d 9a 28 91 be 22 43 ab be
       -0.39110947 0.03706619 -0.2835129 -0.33449656
0001b0 50 3e d2 3c 31 f0 48 bd 0c 2c a2 bb 17 59 b1 3e
       0.025664479 -0.04905719 -0.0049490985 0.34638283
0001c0 ca 9f 4b be 81 f9 b2 3e 21 52 86 3e ef 13 9f be
       -0.19885173 0.3495598 0.26234534 -0.31069896
0001d0 57 d0 25 be 00 ca 30 be aa 80 a8 bd d2 dd be 3d
       -0.16192757 -0.17264557 -0.08227666 0.093196526
0001e0 f8 50 58 3e f9 de 0d bc 03 2b ff bd 56 3e 50 3e
       0.21124637 -0.008659118 -0.12459376 0.2033628
0001f0 f9 ad e4 be 53 d5 ac be 65 7e 3c be 97 5a 30 be
       -0.4466398 -0.33756503 -0.1840759 -0.17222057
000200 03 b5 ae bd e8 0b cc be 01 6f 79 bd 1e 52 5d 3c
       -0.08530619 -0.39852834 -0.060896877 0.013508348
000210 ea 9e 0b be 29 89 fe 3d d3 a5 e0 3e 66 8b b3 3d
       -0.1363484 0.12428505 0.43876514 0.087668225
000220 fa c6 4a be 2b 2b dd 3d d3 a6 2a bd 90 7d 2e 3f
       -0.19802466 0.10799249 -0.041663002 0.68160343
000230 60 5c 86 3e 43 32 f2 3c 27 ca 50 3e 39 e2 e9 bd
       0.26242352 0.029564982 0.20389615 -0.11420102
000240 77 d8 6c be c3 5a 70 bd d9 38 a3 3e d9 c0 d3 bd
       -0.2312945 -0.058680307 0.3187931 -0.10339517
000250 12 31 9a be 2a ef cf be 65 f7 d8 be 24 c8 98 be
       -0.30115563 -0.40612155 -0.42376247 -0.29840195
000260 5d 7a 67 bd e7 a4 37 3e 66 de 5f 3e 42 07 b5 be
       -0.05651318 0.17933999 0.21862182 -0.353571
000270 23 5d 0e 3e 27 47 dd be 86 c6 69 be 13 db 72 be
       0.13902716 -0.43218347 -0.22829637 -0.23716383
000280 41 88 06 be 05 0a 16 bd 7b 4b bd be 0d 03 9e be
       -0.13137914 -0.03663065 -0.3697165 -0.30861703
000290 53 4f 4a 3d a6 7a b1 bc 0a b2 af bd 3b ca 84 3e
       0.049392056 -0.021664929 -0.0857888 0.2593554
0002a0 27 0f c0 be d9 19 6e be 3b 76 67 3e 40 d9 4f be
       -0.3751156 -0.23252048 0.22603695 -0.20297718
0002b0 d5 4b be 3e ba c0 23 3e e6 5c a3 be 5e 79 b4 3e
       0.3716723 0.15991488 -0.31906813 0.35248846
0002c0 11 cf e6 3c a0 ff 43 bd d9 e0 ae 3e 04 42 95 be
       0.028174909 -0.047851205 0.3415592 -0.29151928
0002d0 7f 32 be bd b0 bb 35 be 04 3d b8 3e 87 68 8a bb
       -0.09286975 -0.17747378 0.3598405 -0.0042238864
0002e0 4d 04 71 3e 25 79 42 3e 46 b9 09 bd 98 c2 dc bd
       0.23536797 0.18991525 -0.033623956 -0.10779303
0002f0 18 f3 b9 be 61 f5 51 3d 3f e0 c6 3e 0c e3 a2 3e
       -0.36318278 0.051259402 0.3884296 0.31813848
000300 a2 a3 98 be 80 cb 0e bd 24 aa 85 be 42 0e 96 be
       -0.29812342 -0.03486204 -0.2610637 -0.29307753
000310 7e d1 19 be 86 7a ce 3d 91 79 98 be 7f 3a 92 3c
       -0.15021321 0.10081963 -0.29780248 0.017850159
000320 f8 43 08 3d ac 2e 69 3e f2 b5 80 be 86 90 a8 be
       0.033267945 0.2277171 -0.25138813 -0.32922763
000330 10 83 5c be af e7 42 3e 76 b3 27 3d 60 b7 d7 3e
       -0.21534371 0.19033693 0.04094263 0.42132092
000340 2a bf 1e 3e ce 96 39 3d 51 92 f4 3c 40 a0 17 be
       0.15502611 0.045309834 0.029854925 -0.14807224
000350 1e ea 60 3c 3f 21 32 be 7e 36 e7 3d 3a c5 24 3e
       0.013727693 -0.17395495 0.112896904 0.16090861
000360 d3 c1 7a be 69 29 12 be 60 79 ac 3e e0 3c b6 be
       -0.24488 -0.14273609 0.33686352 -0.3559332
000370 74 c9 77 bd 97 29 6c 3e cb a9 b0 3e b2 02 11 3e
       -0.060494855 0.2306274 0.34504542 0.14161184
000380 27 5e dc be 3b d1 22 3e 40 0b b7 be ae 1b 06 be
       -0.43040583 0.15900128 -0.3575077 -0.13096496
000390 38 e6 78 3c 9b 25 2b bd 37 e2 b1 bd d5 06 db 3e
       0.015191607 -0.04178391 -0.08685725 0.4277865
0003a0 06 c9 32 3d 47 16 92 3e 1c c1 6a 3e 8a 1f 9b be
       0.043648742 0.2853262 0.22925228 -0.302975
0003b0 fc 05 2b 3e b1 38 9f be 96 2f 1f be e1 73 31 3e
       0.16701502 -0.3109794 -0.15545496 0.1732936
0003c0 5d 4d 4a 3d 2e 87 70 3e 38 ca 87 be 56 c8 37 bd
       0.049390186 0.23489067 -0.26521468 -0.04486879
0003d0 4c f5 a1 3e 06 11 a0 be 5a 69 5c 3e 03 84 a7 be
       0.3163246 -0.31262988 0.21524563 -0.32717904
0003e0 85 9b 54 3c f7 23 fb 3b 9b 71 55 be 2e a8 41 3c
       0.012976532 0.0076641995 -0.20844118 0.011819882
0003f0 a6 c2 cb 3e 7f 4f df 3d b2 f0 56 be 91 1b 8f be
       0.39796942 0.109038346 -0.20990255 -0.2795072

fc1.bias f4 [200]
000000 6a cf 0d be 37 5f 91 3e 6b 7a 72 3e 7a bc be 3b
       -0.13848653 0.28392956 0.23679511 0.005820808
000010 b2 1f 92 3d 0a a4 23 3d bc 3c 38 3e 20 aa a6 3d
       0.07134952 0.03995136 0.17991918 0.081379175
000020 ba 5f 76 bd 9f 14 8f 3d 8a 25 33 3d cf df 4f 3e
       -0.060149886 0.06986355 0.043736972 0.2030022
000030 a1 7e ca bc 58 79 31 3e e7 f7 79 be b1 17 8b 3d
       -0.024718584 0.17331445 -0.24410973 0.06791628
000040 d6 57 76 3e 40 c5 2f 3d ac 02 36 be 3a 6a 39 3c
       0.24056944 0.04291272 -0.17774457 0.01131683
000050 a1 bd 05 3d 20 35 7e be 03 61 7d be e8 07 bd 3e
       0.032651547 -0.24824953 -0.24744038 0.36920094
000060 69 1c a7 3e 4c 0f 80 3e 2b 5e 9b 3e bf 7e 6f 3e
       0.32638863 0.2501167 0.30345282 0.23388194
000070 98 93 5e 3e 47 4e 98 3e 78 53 64 bd a1 f8 48 bc
       0.2173599 0.2974722 -0.055743665 -0.012266309
000080 95 5e a1 3e 90 f3 5b 3d 23 27 20 be 38 ab 37 be
       0.31517473 0.053699076 -0.1563993 -0.17936409
000090 15 14 8c 3e 0f 04 d1 3e be 12 96 3e c2 28 cd 3d
       0.2735907 0.4082341 0.29311174 0.100175396
0000a0 b8 42 b8 3e 6f c7 8c be 06 94 6f be b3 9f a6 be
       0.35988402 -0.27495906 -0.2339631 -0.32543716
0000b0 a7 41 a0 3e d4 16 f7 3d 8a f4 c4 bd ae a7 55 3e
       0.3130009 0.12064901 -0.096169546 0.20864746
0000c0 ba 52 87 bd 26 2c 64 be 17 c5 e5 3d 1d c4 18 3e
       -0.06607576 -0.22282466 0.112192325 0.14918561
0000d0 ce 1a 27 be 59 29 64 be 77 77 32 3e 4e c0 a2 3e
       -0.16318819 -0.22281398 0.17428385 0.31787342
0000e0 35 c7 09 3e 86 bf 8a bd 74 2f 67 3e ea e9 20 3e
       0.13454898 -0.067748114 0.22576696 0.15714231
0000f0 c4 92 80 be 3f 98 72 be c6 41 1e 3e ed 29 7f 3e
       -0.25111973 -0.2369089 0.15454778 0.24918337
000100 15 20 de bb cf ce 49 3e cf 93 fd bd ed e6 e4 3e
       -0.006778727 0.19707797 -0.12381708 0.44707432
000110 d3 c9 a5 3e 7b 23 97 3d 33 13 4b 3e 2f af 09 3e
       0.32380542 0.07379814 0.19831543 0.13445733
000120 68 0d d5 bd 95 1b f5 3d e5 27 27 3e 15 c6 1e 3d
       -0.10402948 0.119681515 0.16323812 0.038763124
000130 41 a1 ca 3e fb e4 f4 bd d3 20 4e be fd 2e 07 be
       0.39576152 -0.11957737 -0.20129709 -0.13201518
000140 c4 f5 55 be ff ab a8 3e 10 71 92 bd c4 ab 89 be
       -0.20894533 0.32943723 -0.07150471 -0.2688886
000150 84 10 b3 bb e6 f3 a8 bd 49 f8 fa bd df 2b 41 3e
       -0.0054646153 -0.08249645 -0.12254388 0.18864392
000160 95 e8 87 be 76 cf 47 3e 73 d5 bc 3e 84 52 1a 3e
       -0.26544634 0.19512734 0.368816 0.1507054
000170 c7 b1 75 3e 72 11 3b be 3e 7e a0 3e 3e c6 ca 3e
       0.23993598 -0.18268374 0.31346315 0.39604372
000180 31 40 4a 3e 52 6f cf 3e 9b b5 99 be 70 05 bd 3b
       0.1975105 0.40514618 -0.30021366 0.0057684705
000190 fe b0 39 3e 81 d3 75 be 93 f5 44 3e 5b 68 6d bd
       0.18133923 -0.24006464 0.19234304 -0.05796085
0001a0 4f 1b 16 bd 39 ed 5e be 5c 8a e7 3d e2 06 53 be
       -0.036647137 -0.21770181 0.11305687 -0.20608094
0001b0 16 90 85 bc 3e 73 75 3e e8 a9 a7 3e b2 1e 2b 3d
       -0.016304057 0.23969743 0.32746816 0.04177732
0001c0 ef 8f a1 bd 1a e0 89 bd e2 84 29 3e be ff eb 3d
       -0.07888781 -0.06732197 0.16554597 0.11523388
0001d0 2e 25 c2 3e 77 5f 47 3e e1 c3 aa 3e 28 fa 68 be
       0.3791899 0.1947001 0.3335257 -0.22751677
0001e0 e9 e5 a4 3e 4e 99 33 be 09 b2 cc 3b 9f cb ad 3d
       0.32206658 -0.1753895 0.0062468094 0.08486103
0001f0 d3 92 c6 bc e5 21 f2 3d e2 ed c1 3e 1d 63 ec bd
       -0.024239933 0.11822871 0.37876803 -0.11542342
000200 97 e1 5b 3e 5d 3b 17 be 52 b4 ef 3d 35 1a be 3e
       0.21472774 -0.14768739 0.11704315 0.3712937
000210 49 10 88 3e 56 a2 d5 3e 70 72 73 3e 53 1f 51 3d
       0.26574925 0.41725415 0.23774123 0.051055264
000220 ab b2 35 3e c9 ba 5a bd 0f c3 a8 3e 47 e3 64 3e
       0.17743938 -0.05340079 0.32961318 0.22352324
000230 66 79 ab bd 90 35 ca 3e 81 cd 8f 3d 33 4a 6a bd
       -0.08372764 0.3949399 0.07021619 -0.05719967
000240 af c0 8b bd 75 e8 dd bc f2 d5 43 3e 98 a1 36 be
       -0.06823861 -0.027088383 0.19124582 -0.1783508
000250 e7 f1 54 be 3a 89 4a be e3 49 f0 bd 67 b0 ab 3e
       -0.20795403 -0.1977891 -0.11732843 0.33533022
000260 5d b5 93 3e 51 80 4f be 13 99 93 3d 3b 3b 44 bd
       0.28849307 -0.20263793 0.07206931 -0.04790805
000270 a5 62 91 bd ed 8a 60 bc ea 29 c6 bd 2e 42 9a 3e
       -0.07098893 -0.0137049975 -0.09675963 0.30128616
000280 36 6d 8c bd d5 ee 05 3e f5 2f 15 be 99 f0 20 bd
       -0.06856768 0.13079388 -0.14569075 -0.03929195
000290 58 4b 91 3e f0 a0 8f bd af ec 26 3d 44 e2 cc 3e
       0.28377795 -0.07013118 0.040753063 0.40016377
0002a0 35 0e 53 3e 37 4a 4f be 82 2a 3a be a6 c2 89 bd
       0.20610888 -0.20243154 -0.18180278 -0.06726579
0002b0 66 78 e5 bd e0 22 36 3e 63 70 98 bc 16 2e cd 3e
       -0.11204605 0.17786741 -0.018608278 0.40074223
0002c0 0d 40 9a bd fd 88 d8 3c 0c bb 1a 3e 26 43 b6 3e
       -0.07531748 0.026432509 0.15110415 0.35598105
0002d0 61 f3 cc 3e fd 9c 13 3e 2e d6 09 3e cd d0 25 bc
       0.40029433 0.14415355 0.1346061 -0.010120583
0002e0 76 58 89 3e d6 08 1e be 50 9c 93 bd 7e 6b 54 be
       0.26825303 -0.15433058 -0.072075486 -0.2074413
0002f0 8e 05 ae be fb 5d 94 3e 02 92 9a 3d 24 22 b1 3e
       -0.33988613 0.2897795 0.0754738 0.3459636
000300 a6 0a ac 3e 74 61 6f 3e 82 d4 3a 3e 9c b9 55 bd
       0.33601874 0.23377019 0.18245128 -0.052178964
000310 66 c7 65 3e 52 9e 51 3e 54 0c 34 3e ec de a5 3a
       0.22439346 0.2047055 0.17582828 0.0012654937

fc2.weight f4 [200, 200]
000000 60 0c 2d 3c 07 22 10 bc 92 fe 71 bd f5 99 f1 3b
       0.010562032 -0.008797175 -0.059080668 0.0073730894
000010 6f 2c 7a bd 99 ab ce 3c 9d 90 2c bd 58 37 bd bc
       -0.06107753 0.025228309 -0.0421301 -0.023097679
000020 c0 5b 09 bd 69 8a 3d 3d fb 42 71 bd b8 e3 13 3d
       -0.033534765 0.046274576 -0.05890177 0.03610584
000030 3a 42 11 3d 18 bf 25 3d 8f ca 0c 3c 4e 0c f3 3c
       0.03546355 0.040465444 0.008593216 0.029668953
000040 af eb 3f 3d 98 33 64 3c 94 f5 c4 3c 89 df 83 bd
       0.046855625 0.0139283165 0.024042882 -0.0643912
000050 16 60 9b bc 50 17 d2 3b a8 db 11 ba 35 8c 0b bd
       -0.018966716 0.0064114705 -0.00055640424 -0.03406926
000060 f2 45 a2 bd 3f 7a e1 bc 0f 53 93 3c 6e 1f 54 3d
       -0.07923497 -0.027524112 0.017983941 0.051787786
000070 d5 83 95 bd cc 1f ca 3c 07 47 9a bd c0 7c 8a bd
       -0.073005356 0.024673365 -0.07533079 -0.067620754
000080 e7 9c 5a bd 8c 05 19 bc c8 c8 a1 3c 80 44 5c bd
       -0.05337229 -0.009339701 0.01974906 -0.053776264
000090 ae 24 5f 3d af be 60 3d 30 8f 8e 3b 3f 72 46 3d
       0.05447834 0.05486935 0.0043505654 0.048448797
0000a0 d2 1e 03 bd 28 27 e5 bc 34 02 96 bc 40 2c fd 3b
       -0.032011814 -0.027972773 -0.018311597 0.0077262223
0000b0 e6 0a 4a bd 1a eb 67 bd e8 d3 e4 3c bd 08 2f 3c
       -0.0493268 -0.056620695 0.027933076 0.010683236
0000c0 21 ab 8d 3d 2e 2c ec bc 8c 8f cc 3c 24 c1 e9 bc
       0.06917406 -0.02882966 0.024970792 -0.02853448
0000d0 e6 f9 0e 3d 60 5a 80 bb 03 79 31 3d ee e8 20 3d
       0.03490629 -0.0039170235 0.043328296 0.03928464
0000e0 da 12 71 3d c7 02 df 3c 62 c5 d2 bb 1f 61 54 3d
       0.05885587 0.027223004 -0.0064322213 0.051850434
0000f0 bc 1f 2a bd 85 96 88 3d 3f d6 75 3d db 50 6f 3d
       -0.04153417 0.06669334 0.060018774 0.05842672
000100 4a 8c 2c bd 03 a9 3e bd 80 98 92 3b f5 8c 54 3c
       -0.042125978 -0.0465479 0.004473746 0.01297306
000110 68 49 11 3d 34 9a a1 3c 22 9e 76 3d de 87 db bc
       0.035470396 0.01972685 0.0602094 -0.026798185
000120 5c 0a be bc 30 2b c2 3c 59 6d 2d 3c 22 f3 28 bd
       -0.0231983 0.023702234 0.010585153 -0.041247495
000130 6c dd 12 bb 94 98 80 bd f3 67 f4 bc 68 35 18 bd
       -0.002240981 -0.06279102 -0.029834723 -0.037160307
000140 ba e2 7d 3d e3 33 95 bd 5f 01 2b bd 84 b8 8d bd
       0.0619838 -0.07285287 -0.041749354 -0.06919959
000150 aa 49 04 3c fe ec 5e bd 6c 36 5e 3c 19 58 6f bd
       0.0080742035 -0.054425232 0.01356278 -0.058433626
000160 34 88 39 bd a2 3a 39 bd cc 09 c8 3a 73 11 85 3d
       -0.04529591 -0.045221932 0.0015261709 0.06497469
000170 95 0c 6a 3d 0c 62 6f bc a5 4b a0 bd aa 5f bf bc
       0.057140905 -0.014610779 -0.07826928 -0.023361046
000180 8d 95 13 bd f2 92 c5 bc 50 54 dd 3c df de d8 3c
       -0.036031295 -0.02411792 0.027017742 0.02647346
000190 47 70 b6 3c 0c 7a a5 3c 5c 80 ea bc 3a 6e 22 bc
       0.022270335 0.020199798 -0.02862566 -0.009913975
0001a0 40 71 13 3c d1 f0 13 bd 7d 83 7d bc e3 04 93 bc
       0.008999169 -0.036118332 -0.015473244 -0.017946666
0001b0 dd 65 9b bd ee 58 44 3d 60 42 ea bb d2 5f 7a bd
       -0.07587788 0.047936372 -0.007149026 -0.061126538
0001c0 fa 25 65 3d fb 21 41 bd 2e 8a 82 3c 87 9d 8f 3d
       0.05594442 -0.047151547 0.01593503 0.07012468
0001d0 c9 3c be bb 12 85 38 3c af a7 9c 3c 86 e6 5a 3d
       -0.005805586 0.011262195 0.019122927 0.0534425
0001e0 e5 11 fc bc 18 fb 22 bd 30 53 b5 bb 96 81 62 3d
       -0.030770252 -0.039790243 -0.0055335984 0.055299364
0001f0 8c 75 3c bb c3 d0 23 3d 56 46 1d bc b0 ba b1 3c
       -0.0028756587 0.039994013 -0.009599289 0.021695465
000200 be d7 e1 bb 00 98 fb 3a be 7a 9c bd 8e 34 7d bd
       -0.0068921736 0.001919508 -0.07640599 -0.0618177
000210 04 f7 52 bb 2d 40 d4 3c 2e 58 1d 3d 77 72 c9 bb
       -0.003219069 0.025909508 0.038414173 -0.0061476785
000220 e4 2b f4 3c 46 a0 a8 3c 8d b9 8f bd 05 28 92 bd
       0.029806085 0.020584237 -0.07017813 -0.07136539
000230 70 90 60 bd 80 58 9f 3a bd 5a 5c bd 75 e1 01 bd
       -0.054825246 0.0012157112 -0.053797472 -0.031709153
000240 21 4c a1 bc 80 01 e2 3c 9c 4e 86 3c db 89 67 3d
       -0.019689621 0.027588606 0.016394906 0.056527954
000250 49 9f 82 3d 04 06 5e bd 22 9f 18 bc 03 83 1a 3b
       0.063780375 -0.054204956 -0.009315284 0.0023576624
000260 ee d8 7c 3d 84 86 b3 bc 1f 10 17 bd bf ca 5c bd
       0.061730318 -0.021914728 -0.03688061 -0.05390429
000270 f4 6a 55 3d 31 e3 ed bc bc f2 d8 bc 0e 28 1e 3d
       0.05210395 -0.029038997 -0.026482932 0.038612418
000280 01 41 85 3d 80 49 43 bb fb 75 71 bd a3 d2 46 3d
       0.06506539 -0.0029798448 -0.058950406 0.048540723
000290 45 19 08 bd 2c ca 2a bd 14 9e 4b bd 03 98 30 bd
       -0.033227224 -0.041696712 -0.049711302 -0.04311372
0002a0 48 05 84 bd da 2d 27 bd bb eb 83 bd f0 80 69 bc
       -0.0644632 -0.04081521 -0.064414464 -0.0142519325
0002b0 24 e8 e8 3c f3 91 80 bd a1 8a 16 bc 01 b9 10 bd
       0.028431006 -0.062778376 -0.009188325 -0.035332683
0002c0 93 86 ca 3c 06 db 7a 3d 69 02 27 bc 52 f1 36 bd
       0.024722373 0.061244033 -0.010193446 -0.044663735
0002d0 e1 dc 81 bd 1c 2a 2a bd 0c 3f a7 3c 64 e8 84 3c
       -0.063409574 -0.041544065 0.020415805 0.016224094
0002e0 d1 9e ed 3c be 46 a4 bc 74 d2 14 3d f9 04 81 bd
       0.029006394 -0.020053264 0.036333516 -0.062997766
0002f0 78 b7 9b 3c 7c 00 74 3d da 52 8f bd 6d 93 3b bd
       0.019008383 0.059570774 -0.069982246 -0.045794893
000300 19 21 14 3d b8 07 a5 bc e0 87 3f bd 61 53 0b 3d
       0.036164377 -0.020145282 -0.04676044 0.034015063
000310 e0 51 9b 3b 00 81 35 3b 10 f1 af bc 96 dd 34 3d
       0.004739985 0.0027695298 -0.021477252 0.044156633
000320 f4 94 5f 3d 45 dd f9 bd 59 4a 4c 3d 1c 18 a4 bd
       0.054585412 -0.12200407 0.04987559 -0.08012411
000330 6b 82 79 3d 33 cf 1a be 62 6e 73 bd 79 a4 82 3d
       0.060915392 -0.15118103 -0.05943144 0.06379027
000340 f0 45 0c 3e 2f bf ba bb 6a e8 b5 bd 3b d8 44 3e
       0.13698554 -0.0056990604 -0.0888222 0.1922311
000350 a2 46 5a 3d 29 cb 00 3d 0d 2e b9 bd 79 89 11 bd
       0.053290017 0.03144375 -0.090419866 -0.035531495
000360 f4 02 a0 bd 08 76 93 3d c5 56 bd bd 53 57 e1 bd
       -0.07813063 0.07200247 -0.092450656 -0.11002984
000370 57 64 40 bd 97 c8 9a bd 87 b2 92 bd c4 fb e1 bd
       -0.04697069 -0.07557791 -0.07162958 -0.110343486
000380 aa 1a 0e 3d 75 06 d9 3b 68 1b 4a 3c 33 d6 79 bd
       0.034693398 0.006623084 0.012335636 -0.060995292
000390 ac 4b 93 bc d3 22 7a b9 f0 28 91 3d d4 63 7e 3e
       -0.01798042 -0.00023854831 0.07087886 0.24842769
0003a0 90 b2 fb bc 5d 48 8b 3e e4 3c be 3b a9 ee bc 3d
       -0.030724794 0.27203646 0.0058055986 0.09225208
0003b0 de 0b eb 3d 83 a8 08 be c5 29 2a bc 09 98 46 bd
       0.11476873 -0.13345532 -0.010385935 -0.048484836
0003c0 ad d9 1f 3d 71 8d 79 3d fa 30 7b 3b 97 8a eb 3c
       0.03902595 0.060925905 0.0038328753 0.028752608
0003d0 20 4d 6c bb 33 c6 84 3e 8c ae c8 3d 5a 0f c6 bd
       -0.0036056712 0.25932464 0.09798917 -0.09670897
0003e0 1f 87 5f bd 98 ff 8a 3d 29 c3 95 bd 4b fd e7 3d
       -0.05457222 0.06787032 -0.073126145 0.11327609
0003f0 90 18 dc 3b 6d a8 ab bd 00 45 1a 3d 72 47 00 bd
       0.0067167953 -0.08381734 0.03766346 -0.031318136

fc2.bias f4 [200]
000000 79 eb f2 3c f1 89 8d bd cf 0e 84 bd fa 2c 0b 3d
       0.029653298 -0.06911076 -0.06448137 0.03397844
000010 30 d4 c5 3c 27 7a 07 3e 60 e7 d7 ba cc 78 d0 bb
       0.02414903 0.13230191 -0.0016472153 -0.0063620564
000020 80 c5 e5 3c d7 3b 08 3d a2 e1 9a bd c8 00 11 3b
       0.028048277 0.033260193 -0.07562567 0.002212571
000030 e9 0d 91 3d 9c 2b d9 bc 08 d8 91 bd 1c 57 ee 3c
       0.07082731 -0.026510052 -0.07121283 0.029094271
000040 3c 05 78 3d 9b f9 dd 3c dd 4c 43 3d f6 d2 bc 3d
       0.060551867 0.02709656 0.047680724 0.09219925
000050 ca 20 9e 3c ca 91 d6 bc 4b 72 4e 3d 8c 58 6c bd
       0.019302744 -0.026192565 0.050401967 -0.057701632
000060 04 1b f0 3d 10 fb 9f 3b ca ed 88 3d d1 5c 37 bd
       0.11723903 0.004882224 0.0668598 -0.04476625
000070 1a 1f a6 bc f3 bb 0c bd 2c 10 fe ba e5 91 03 3c
       -0.020278502 -0.03435893 -0.0019383482 0.008030389
000080 64 60 70 3d 50 1b e0 3b 6c c1 57 bb d5 4c a2 3d
       0.058685675 0.0068391934 -0.0032921685 0.07924811
000090 08 e5 5e 3c 6d 00 9e 3d cf 48 a2 3b 2e 1d 26 bd
       0.01360441 0.07714925 0.004952527 -0.04055517
0000a0 ec 07 85 3d d2 58 21 bd 9c 1c 2c bd ef e2 43 bd
       0.064956516 -0.039391346 -0.04201947 -0.047823843
0000b0 b6 c5 59 3d ff 7e 06 ba 55 ba 77 bd 96 c7 97 3d
       0.053167067 -0.0005130618 -0.060480434 0.07411115
0000c0 bd cf 98 bc ae fa 10 bb a1 8a a9 bd 5e f6 8c 3d
       -0.018653745 -0.0022122073 -0.082783945 0.06882928
0000d0 69 cd 1a bc 86 e9 01 bd 46 dd 22 3c 86 f1 a8 bc
       -0.009448388 -0.031716846 0.009940451 -0.02062298
0000e0 eb cf b4 3d 69 63 65 3d 0a ea a6 3d ac 53 7b bd
       0.0882872 0.056003008 0.08150108 -0.061359093
0000f0 f4 f6 52 3d ed 1a b7 3c e3 20 d6 3d 18 15 fb bb
       0.051505044 0.022351706 0.104554914 -0.0076624267
000100 e4 d4 37 3d ee d0 1e bc 3c 53 de 3c 61 51 76 bd
       0.044880763 -0.009693367 0.027139299 -0.060136203
000110 51 cd 16 b8 08 97 9c 3c b2 ff 0f bd 6d e6 ae 3d
       -3.5954003e-05 0.019114986 -0.03515596 0.08540044
000120 64 1c 6d bd 5e 66 3c bc 4b af 49 bc f0 c0 26 bc
       -0.057888404 -0.011499016 -0.0123098595 -0.010177836
000130 86 cf ed 3a 11 a6 4e 3d 7e 18 e9 bb 07 97 4f 3d
       0.0018143512 0.050451342 -0.0071135154 0.05068114
000140 f0 10 0d 3d e2 e5 72 3d f8 1b 48 3d c7 38 be 3d
       0.03443998 0.059301265 0.048854798 0.09288173
000150 95 ee 51 bd c8 12 a0 3d 48 11 f6 3c cf dc 00 3c
       -0.05125292 0.07816082 0.030037537 0.007865145
000160 72 61 b7 3d 8c 90 8f bc 5a ab 62 3d 55 0a 3f bc
       0.08954133 -0.01752498 0.055339195 -0.011660178
000170 8b 10 ab bc 4a d2 39 ba 98 11 0b 3d 33 04 88 3d
       -0.020881912 -0.00070885255 0.033952326 0.06641426
000180 4f 80 0f bb f4 d6 9c 3d 24 a3 82 bd 10 e9 53 3c
       -0.0021896546 0.076581866 -0.06378773 0.012933984
000190 7e c0 ca 3c 85 ef 52 3d 41 f6 18 3d 8e ae 2b bd
       0.02474999 0.051497955 0.03734422 -0.041914515
0001a0 bc 95 a4 bc f7 6f 8a 3c d4 94 29 bd 3c 67 ff 3c
       -0.02009093 0.016899092 -0.0414017 0.031177156
0001b0 d1 e3 30 3d f9 63 80 3d 92 6a ec 3d d6 74 69 3d
       0.043186013 0.06269068 0.11543764 0.05699619
0001c0 ed 3b df 3d c6 11 c8 3d e6 c1 0e bd 36 26 99 bd
       0.10900102 0.09769015 -0.034852885 -0.07477991
0001d0 d0 7e 20 3b 92 ac cc 3d f7 88 e8 3c e7 9d 28 bd
       0.0024489649 0.09993853 0.028385622 -0.041166212
0001e0 92 63 66 bd e6 3f fd 3c de ee e5 bc c2 dd 7b 3d
       -0.0562473 0.030914258 -0.028068002 0.06149078
0001f0 f5 1c 9e bd f7 bc b9 3d a5 5d b2 bc 4e 88 53 3d
       -0.07720367 0.09069245 -0.021773169 0.051643662
000200 c6 d6 c5 3d fd 42 9e 3a 8d 1a 9e 3c 7f 4c 92 bd
       0.096601054 0.0012074407 0.01929977 -0.07143497
000210 b4 ec 53 bc 05 1a 99 bc 88 b4 e2 3d 23 b3 84 bd
       -0.012934852 -0.018689165 0.1106959 -0.0647948
000220 db ed 8f bc 18 43 91 3d b1 d3 7f 3d 11 74 53 3c
       -0.017569473 0.07092875 0.062457744 0.01290609
000230 64 24 78 3b 30 64 de bc aa 02 89 3c d0 73 c3 3a
       0.0037863487 -0.027147382 0.016724903 0.0014911834
000240 8b 13 1a bc 8e a7 0a 3e a1 cd a2 bc 34 3e ca 3c
       -0.0094040735 0.1354048 -0.019873442 0.024687864
000250 54 96 84 3d d9 58 0d 3d 50 87 8b 3b c9 be a7 3d
       0.06473985 0.03450856 0.004258074 0.08190686
000260 48 68 37 bd 08 e5 5c bd 81 86 a1 bb ab 68 b1 bc
       -0.044777185 -0.05392936 -0.004929364 -0.021656355
000270 7e ad 4b bd 49 f1 3c bd 7f 45 0a bc 72 2f 0d 3d
       -0.049726002 -0.046128545 -0.008439421 0.034469076
000280 02 7e 7e 3c 35 8c c8 3d ff 78 0d bd c0 b1 49 3b
       0.015532972 0.09792367 -0.03453922 0.0030776113
000290 08 b1 52 bc d3 31 09 3c 40 67 b0 3d 61 25 9b bb
       -0.01285959 0.008373695 0.086134434 -0.0047346805
0002a0 37 7a bf 3c d7 af 02 3d ec 6f 5c 3d 2a 16 2b 3c
       0.023373706 0.031905975 0.053817675 0.010442296
0002b0 12 17 63 3d 87 ba 13 bd d0 d8 f1 bb 4b 36 b3 3c
       0.055441923 -0.03606656 -0.0073805824 0.021876475
0002c0 20 63 f2 bc ba 2d 23 bd c9 90 a2 bd 25 87 fa bc
       -0.029588282 -0.03983853 -0.07937772 -0.03058202
0002d0 e8 9e 02 3d 3a 93 9b bc f9 35 69 bd b1 8c 67 3d
       0.031889826 -0.018991102 -0.056936238 0.05653066
0002e0 05 fa d0 bc 34 b1 c3 3d fd ba fe 3c 7a 78 02 3c
       -0.025509844 0.09555283 0.031095022 0.007963294
0002f0 3a e8 42 3d e9 1f a7 3c 37 cc 93 bd 8e 20 3e bd
       0.04758475 0.020400958 -0.07216685 -0.046417765
000300 97 e9 01 bd f6 63 19 3d 14 13 b1 3d e3 79 22 3d
       -0.03171691 0.037448846 0.08646217 0.03966702
000310 45 12 67 3d d3 17 fc 3c a2 bc d0 bb 2e b6 86 bc
       0.056413908 0.030773079 -0.006370143 -0.016444292

fc3.weight f4 [4, 200]
000000 98 bd 44 3d 38 b8 0a be c9 28 56 bd 92 ec 20 bc
       0.048032373 -0.13546836 -0.05228499 -0.009822028
000010 56 99 02 3d cd 10 c0 3d 32 65 ad bd 62 c0 bc bd
       0.031884514 0.093782045 -0.08466567 -0.092163816
000020 92 96 71 3d b2 c6 cb 3c 6f ad 4e 3d b4 55 9e bd
       0.058981486 0.024875019 0.050458368 -0.0773119
000030 be db 7c bc 9c 0e 82 bd 47 2f be bb d0 bf 4a 3d
       -0.01543325 -0.06350443 -0.0058039757 0.049499333
000040 55 59 be bc 96 f5 89 bd c8 7d 51 3c be 8a 2d bd
       -0.023235956 -0.06736295 0.012786336 -0.042368643
000050 7e 20 c7 3c d6 60 22 bd fa 8b 14 3d 78 d9 59 3d
       0.024307486 -0.03964313 0.036266305 0.05318591
000060 d7 40 42 3c e4 1e f1 3c 06 05 aa bd 02 3d 53 bd
       0.011856279 0.029433675 -0.083017394 -0.051571853
000070 c2 81 b9 bd 42 66 63 3d 61 1a 7e bd a0 05 55 3c
       -0.090579525 0.055517443 -0.062036876 0.013001829
000080 26 98 83 bb 4f 7e b4 3d ec 92 e0 bd 58 25 3b bd
       -0.0040159402 0.08813154 -0.10965523 -0.04568991
000090 96 74 5a bd e1 64 46 bb 14 6b 54 3d 4a ef 0a bd
       -0.05333384 -0.003027253 0.05185993 -0.03391961
0000a0 54 a1 dd 3c 1c 38 b7 bb fd fe 24 3c 81 e6 05 bd
       0.027054466 -0.0055914056 0.01007056 -0.03269053
0000b0 e5 ee ef bd 32 02 02 3d 41 0c 25 3c 9b 1c a3 3d
       -0.117154874 0.031740375 0.010073722 0.079644404
0000c0 a2 6f 90 3c e2 46 2b 3b 34 76 0e 3d 56 ad f9 3c
       0.017631356 0.0026134779 0.034780696 0.03047816
0000d0 c8 ca 90 3c b6 64 24 3d d2 0f ad 3d b3 11 0e 3d
       0.017674819 0.040135108 0.08450283 0.034684848
0000e0 43 57 c6 3c 8c 80 36 bd 62 ec 3c bd b4 59 e9 3c
       0.024211532 -0.044556186 -0.04612387 0.028485157
0000f0 ec e3 a6 3d 18 c0 cb bd 02 97 29 bd 8d 40 9f bd
       0.081489414 -0.09948748 -0.041403778 -0.07775984
000100 bf 2c 08 bd c0 3f a5 bb 60 43 c6 bc 8b 3c ad bc
       -0.0332458 -0.005043 -0.024202049 -0.021147033
000110 71 a4 19 bd 57 92 33 3e 61 bc fd bc 57 75 53 3d
       -0.03751034 0.17536293 -0.030973615 0.051625576
000120 37 4e 0a 3c ae 44 81 3d 5c 50 df 3d a4 1f 07 bd
       0.008441499 0.06311928 0.10903999 -0.03298916
000130 5a bd a9 bc b4 58 37 3d 86 bf 53 bd eb b4 bd bc
       -0.020720173 0.04476233 -0.051696323 -0.023157557
000140 dc 75 59 bd 26 09 34 bc ea 1a 22 3d 03 cd ae 3d
       -0.053090915 -0.010988509 0.03957645 0.08535197
000150 f4 f6 f4 bd e4 4c 8c bd 62 3f c8 bc a2 7c e2 bb
       -0.11961165 -0.06850603 -0.024444286 -0.00691183
000160 2e a7 da bd 3e e5 0d 3d ac 07 36 3d 2e c2 f2 bc
       -0.10676418 0.03464245 0.04444091 -0.029633608
000170 b4 eb a5 bd db 3c 36 3d d8 22 31 bd 85 fc 00 3d
       -0.081015974 0.04449163 -0.04324612 0.03149082
000180 c1 7f 3e bb 59 4b 22 bc fd 59 52 3d a8 57 ef bc
       -0.0029067846 -0.00990566 0.05135535 -0.029216602
000190 d3 13 3b 3c be 95 c7 bd 42 4c b7 3b 60 e2 0a be
       0.011418301 -0.09745358 0.0055938074 -0.13562918
0001a0 96 96 f9 3b 76 cb d1 3d 49 59 18 3d 62 0a c0 bd
       0.007616828 0.10243885 0.037194524 -0.0937698
0001b0 38 6c 6c bd 79 20 32 bd 2a 49 4f 3a 99 44 4d 3d
       -0.057720393 -0.043488 0.00079073256 0.050114248
0001c0 64 17 aa 3d f4 40 c8 bd 90 00 f4 3c 16 f2 8c bd
       0.08305243 -0.09778014 0.029785424 -0.06882112
0001d0 90 4c bd bb 00 fa 32 bd ca c7 e5 bd b6 6d 1b 3d
       -0.005776949 -0.04369545 -0.11219747 0.037946425
0001e0 8f e3 da bd 00 d4 d3 b8 29 ff 94 bd 93 a6 3e bd
       -0.106879346 -0.00010100752 -0.072752304 -0.046545576
0001f0 2f af 99 3b 64 c4 cd 3c 0d be bc bd 91 44 59 bd
       0.004690073 0.02511806 -0.09215937 -0.053043906
000200 07 48 04 3d e6 b3 b1 3b fb 09 d8 3d d4 cf fb 3a
       0.032295253 0.005423057 0.105487786 0.0019211718
000210 e5 aa ab bd 98 39 c8 bd 7e 3c 0d 3d 09 ac 88 3d
       -0.08382205 -0.0977661 0.034481518 0.06673438
000220 21 f3 c0 bd 74 95 4f bd a1 a5 9b 3c 40 25 c7 3d
       -0.09421373 -0.05067964 0.018999876 0.09723902
000230 e5 9d 11 bd 15 81 8c 3c 85 c8 4d 3d 6b a9 1c 3d
       -0.03555097 0.017151395 0.05024006 0.038247507
000240 86 1f 6a bd ab 6d ed 3d 64 d1 3a bd 76 b8 c1 bb
       -0.05715897 0.11593183 -0.045609847 -0.005911882
000250 da c1 70 bd cc b0 fd 3b 4b e9 57 bd 0d d8 a6 bd
       -0.05877862 0.007742023 -0.05271272 -0.08146677
000260 5f d3 86 3d 4f ad d9 bc 4a 03 a8 bd 43 21 08 3d
       0.065832846 -0.026571898 -0.08203752 0.033234846
000270 55 ca 63 3d 98 13 ae 3c a9 2a f4 bb 2b ac 88 bd
       0.05561288 0.021249577 -0.0074513745 -0.066734634
000280 56 ae cc 3d c0 08 a1 3d 50 46 5d 3d 00 29 8f ba
       0.099941894 0.07862997 0.054022133 -0.0010922253
000290 cc 87 81 3d a9 43 21 3e 70 ce 39 3d 64 9c 53 bd
       0.06324729 0.15748467 0.04536289 -0.051662818
0002a0 84 12 cd 3d 8f c9 a9 bc 30 0e b4 3c 57 9b 06 be
       0.10013297 -0.020725993 0.021979421 -0.13145195
0002b0 2e c5 c8 bb f0 92 b9 bd d6 1a 7d 3d ac 27 a1 3d
       -0.0061270213 -0.09061229 0.06179317 0.07868895
0002c0 10 48 2c 3d 51 c5 82 3d 62 5e 9d bd 9d 44 c9 bc
       0.04206091 0.06385291 -0.07684018 -0.02456885
0002d0 f1 13 0c 3e ce fa f2 bc ec 61 fa bc 08 3e 85 bc
       0.13679482 -0.029660609 -0.03056427 -0.01626493
0002e0 20 79 30 3d 69 e4 be 3d 76 41 7f 3d 08 c0 e3 bc
       0.043084264 0.093209095 0.062318288 -0.027801529
0002f0 0a 08 8d bd f2 2e 9c bd 36 7f a7 3d ce 73 4f bd
       -0.06886299 -0.076261416 0.081785604 -0.05064755
000300 bf 47 4c bd ba 02 05 be 1f cc 9f 3d e2 9a 8a bc
       -0.04987311 -0.12989321 0.07802605 -0.016919557
000310 17 b3 d2 3d f3 8f d0 3d 51 70 88 3d 73 60 01 bd
       0.10288065 0.10183706 0.06662048 -0.03158612
000320 c4 29 9b bb aa cb 9e bd bb 08 93 bc f5 26 0d bd
       -0.0047352035 -0.077536896 -0.017948499 -0.03446098
000330 54 cf ad 3c e3 2c 7e 3d d2 53 18 be 9f a9 fd bd
       0.021217026 0.062054526 -0.14875725 -0.12385868
000340 93 bf 0b bd a3 7a 52 bc 3e cd b4 bc e0 e2 bc 3c
       -0.034118246 -0.012846622 -0.022070523 0.023057401
000350 c0 7a 47 be bd 30 4c be 98 74 72 bc 00 c0 39 3b
       -0.19480419 -0.19940467 -0.014798306 0.00283432
000360 59 26 64 bd 86 5b 71 3d f5 7f 19 be c3 a2 16 3e
       -0.055700634 0.058925174 -0.14990218 0.14710526
000370 0b 87 a0 bd 4c dd 41 bb 4c a0 a0 bd 02 2e 74 bd
       -0.078382574 -0.0029581366 -0.07843074 -0.05961419
000380 35 9a e7 3d f9 1c 10 bd 65 8d 36 be e4 96 07 bd
       0.113087095 -0.03518388 -0.17827375 -0.033102885
000390 5e 5e 28 be 98 03 d9 bc 2e 4b 63 be 80 08 31 3b
       -0.16442248 -0.026490971 -0.22196648 0.0027013123
0003a0 77 e4 12 3d 4c 06 26 3e f2 06 e7 bd 30 87 ab 3d
       0.035862412 0.1621334 -0.112806216 0.08375394
0003b0 d8 a4 38 3d 75 d4 34 3e f7 a8 5b 3e cb 76 41 bd
       0.045079082 0.17659171 0.21451174 -0.04723243
0003c0 8a 19 46 bd d2 f1 86 3d 27 d1 06 bc c5 fa 54 3d
       -0.0483642 0.06589092 -0.008228577 0.051996965
0003d0 87 7d 52 be 88 63 f9 3d 76 ff f2 bd 56 74 f7 3d
       -0.20555697 0.12177187 -0.118651316 0.12082736
0003e0 4d 84 46 bc fc 3f 7b 3c 9b 52 e3 3c ce ab a7 3d
       -0.012116504 0.015335079 0.02774935 0.08187066
0003f0 00 0a 09 be eb 99 e6 bc c9 0b 2e 3e a6 12 d2 3d
       -0.13382721 -0.028149566 0.16996683 0.10257463

fc3.bias f4 [4]
000000 45 da 39 3d 3b df 5b 3d 1d ba 4a bc 3f 64 82 bd
       0.045374174 0.053679686 -0.012373474 -0.06366777
