lunar_lander/lunar_lander.pt (torch_old, 172255 bytes, 6 tensors)

fc1.weight f4 [200, 8]
00000000: b5e1 d9bd fa0f 34be bb82 213e 0a41 a6be
00000010: 7733 26bf 3837 8cbf 0f26 a4be 97a4 1b3f
00000020: 1f32 593c bd04 c83e 6d04 bb3e 553c 263e
00000030: 92e5 8fbe ace1 a23d 0cb8 243e beaa ff3e
00000040: f0f4 823e 1fad 383d 3ddf 3bbe fd83 de3e
00000050: 18ec 223f d27f 1abf 71eb 41be 6f36 5e3e
00000060: 799b e8bd 5cec dcbc 0d13 20bf fa77 db3e
00000070: 1d0a 92bf c6a5 5dbe 700e 163e 82a7 80be
00000080: 2657 fa3e f201 a33e 4ebd 2abe a384 40bf
00000090: d32a 633f 8a8a 353d b9f9 153d 59ed 9ebe
000000a0: 0da6 04be a8cd 53be 6740 253e 3093 6fbe
000000b0: 4110 44bf be54 57bf 8175 11bf f01a 9e3e
000000c0: 355c 213f caec 1dbf fe37 8dbf 48c0 7fbe
000000d0: 534c 2b3f 947b 09bf f182 cdbe 390f 9e3e
000000e0: 06fb 3a3e 71b4 9abe ad46 5d3d 35a9 46bf
000000f0: 2147 5ebe b728 973d d8a2 803d 969b 62bb
00000100: a279 5b3e 1306 1cbf 3a93 70be d9fa 88bf
00000110: 031e 8b3e 8f0f fdbc 3949 933e 4bf7 043d
00000120: 1741 0f3f d71e cabd fb1c 1e3f adaa 153f
00000130: 9577 82bb 5f57 783e 8cb9 2a3e b268 a33e
00000140: e870 2dbe d4ff b1be e6b7 393f 1740 093e
00000150: 532c cfbd 8e86 3d3f e82a 0dbf c870 7abe
00000160: 1c0a 773e 0050 3c3f d5cf 89be ec16 24bd
00000170: 8d48 863e 524f 5f3e 9f58 fe3d 1794 11bf
00000180: dce0 413a 0070 043f 80d6 f13c 1e47 61be
00000190: 508e 0e3f c990 bc3e e126 f33d 345b d6bc
000001a0: 8f8f c4be 7add 54be 4190 f539 43bd 90bf
000001b0: 71b9 79be de33 bcbb 4acb b93d e089 903e
000001c0: 0389 a43e 48bc cbbe 059b 7f3e a665 263d
000001d0: 91aa 7ebe eddf 663e dd87 d3bb c327 8fbd
000001e0: 85f5 c9bd 041c e33d 711c e73f c8ec 54bf
000001f0: fdd8 15bc de9c 843d 19d6 16bf 176e 88bc
00000200: d627 883e aa5b edbf 8c6b 133e e9e7 30be
00000210: ba49 2d3f 9ca3 233f b887 243f 6e96 783d
00000220: 8304 d53e c43a 803e 2ae6 b9be 7de7 debe
00000230: 0478 80be 5b97 ddbc db78 f8be 7082 743e
00000240: ae37 063f 5f2a 12bf 54ab 303e a448 a8bf
00000250: 9d69 c43e e6e2 ebbd 6e79 5bbe a375 303f
00000260: 6051 1d3e 7232 9c3b c670 633e 8cfb 89bf
00000270: 1fcb 2dbf 2ced 1abf 113e 843e 3d25 00bf
00000280: c0f2 cebf f244 1fbe de05 19bf 3d91 23be
00000290: 3ac7 b63d 36c4 88bc 3fae 37bc 6d30 40bd
000002a0: 47cc 90be eb67 953e 81cb e0bd 4822 cbbf
000002b0: 4493 343e 5175 803e 872e a53e a6d8 363e
000002c0: 27e7 583e d266 2ebf 41d9 19bf 7e9a c3be
000002d0: 13d9 673e b152 8c3e 7457 41be 90da 62be
000002e0: 5038 91bd 90dd cd3e 7932 e7be 721a 84be
000002f0: fec7 783e 1414 313e ce47 39be 01cf d8be
00000300: 6bea 02bf 188d ef3e d35c 853e 829d 653e
00000310: d8de c4be a3b2 acbe 0903 9e3c 8a27 e1be
00000320: 6fd4 d03e 10fe 363d 0900 09bd 0297 923e
00000330: 9f35 1a3f e60a 843e 219d 80be 0432 11be
00000340: 40cc 5f3e 20b0 1d3e 0457 e9be 3574 783e
00000350: 82dd a4bf 654b a8bc aa03 c53e 0b9c 933e
00000360: 4e8e 5c3f 1b44 4dbe a4f9 03be ba3a 7d3d
00000370: 6929 d5be 7de1 14bf e1c9 30be d59d 4ebe
00000380: 15e8 0c3e 0dd3 02bd c49e c33e 0e2b 63be
00000390: 77ef 39bc a656 6f3f 9642 acbc 8f5f d6be
000003a0: 36cd 7a3e 7eb2 b43d 81d1 4bbf 6427 183f
000003b0: ce13 81bf 966a 52bf 2fd5 21be 7cb2 18bf
000003c0: e0e9 13bf 914a 28be 4e82 df3d 3d8d a03c
000003d0: 90b2 edbe 809f 1d3e 8526 cabd 649a babd
000003e0: c3df 7cbf 970b c93e 2ff4 74bd 78cc db3e
000003f0: 5ea6 1bbf 895a 31be 1337 bc3e 0100 0cbf
-0.10638753 -0.1758422 0.15772526 -0.32471496 -0.6492228 -1.0954351 -0.32060286 0.6079802
0.013256579 0.39066115 0.36526814 0.16233952 -0.28104836 0.079532 0.16085833 0.49934953
0.25577497 0.045086976 -0.18346877 0.43460074 0.636415 -0.6035129 -0.1893747 0.21700452
-0.11357779 -0.026968174 -0.6252907 0.42864972 -1.1409336 -0.21645269 0.14653945 -0.25127798
0.48894614 0.31837422 -0.16673777 -0.7520239 0.8873722 0.044321574 0.036615107 -0.31040457
-0.12953968 -0.2068392 0.16137849 -0.23395991 -0.765873 -0.8411368 -0.5681992 0.30879927
0.6303132 -0.61689436 -1.1032712 -0.24975693 0.66913337 -0.5370419 -0.40138963 0.3087099
0.1825982 -0.3021579 0.05402248 -0.7760194 -0.21706821 0.073808126 0.0628106 -0.00345776
0.21433118 -0.6094677 -0.23493662 -1.0701553 0.27171335 -0.030891208 0.28766802 0.0324624
0.55958694 -0.098691635 0.6176297 0.58463556 -0.0039815404 0.2425208 0.16672343 0.31915814
-0.16937602 -0.34765494 0.7254623 0.13403355 -0.10115876 0.7403344 -0.55143595 -0.24457085
0.2412495 0.7355957 -0.26916376 -0.040060923 0.26227227 0.21807602 0.12419247 -0.5686659
0.00073958724 0.517334 0.029521227 -0.21999785 0.556859 0.36829212 0.1187265 -0.026166536
-0.38390777 -0.20787612 0.0004683752 -1.1307758 -0.24387147 -0.0057434877 0.090719774 0.2823019
0.32135782 -0.39792085 0.24961479 0.040624283 -0.24869753 0.22546358 -0.006455405 -0.06990006
-0.09861282 0.11089328 1.8055555 -0.831738 -0.009145972 0.064752325 -0.5892044 -0.016654057
0.26592892 -1.8543599 0.14396495 -0.17275967 0.6769062 0.63921523 0.6426959 0.060690336
0.41605005 0.25044835 -0.36308414 -0.43535987 -0.25091565 -0.027049711 -0.48529705 0.23877883
0.5242871 -0.57095903 0.17252856 -1.3147168 0.38361827 -0.11517887 -0.2143304 0.689295
0.15363073 0.0047667557 0.22210988 -1.0779891 -0.67888063 -0.60518146 0.25828603 -0.5005682
-1.6167831 -0.15553644 -0.5977458 -0.15973373 0.08924718 -0.016695123 -0.011210977 -0.046921182
-0.2828085 0.29180846 -0.10976315 -1.5869837 0.17634302 0.25089505 0.3226206 0.17856082
0.21181928 -0.6812564 -0.6009713 -0.38203806 0.22641401 0.2740684 -0.18881017 -0.22153687
-0.07090819 0.402081 -0.45155695 -0.25801426 0.24295041 0.17292815 -0.18093798 -0.4234543
-0.51138943 0.46787333 0.26047382 0.22423366 -0.38451266 -0.3373004 0.019288557 -0.43975478
0.40787074 0.044675887 -0.0334473 0.28630835 0.6023807 0.25789565 -0.2511988 -0.14179236
0.21855259 0.15399218 -0.455742 0.2426308 -1.2880099 -0.020543763 0.38479358 0.2882999
0.8615464 -0.20045511 -0.12888199 0.061823584 -0.41633156 -0.5815657 -0.1726451 -0.20177396
0.13760407 -0.031939555 0.38207066 -0.22184393 -0.011348597 0.9349159 -0.021027844 -0.4186978
0.24492344 0.08823107 -0.7961655 0.59435105 -1.0084169 -0.8219389 -0.1580398 -0.59647346
-0.5777874 -0.16434695 0.109135255 0.019598598 -0.46425295 0.15392876 -0.09870628 -0.09111479
-0.98778933 0.39266655 -0.059803184 0.42929435 -0.6080073 -0.17319693 0.36760768 -0.54687506

fc1.bias f4 [200]
00000000: df55 babd 09eb e33d 8350 97be e7ac ffbc
00000010: 1723 823e 5452 69be 4647 9dbe f468 503f
00000020: 36e7 193f b9e0 853d a711 a33e a5dc 3cbd
00000030: 2dc3 d5bd 149a 2f3f dd83 1d3f 35ca 71bc
00000040: d85f 7dbb 278c 6b3e 9d1c 113f 9152 ca3e
00000050: 4f65 b4bc 58f1 0e3f 8fc5 473f 95c4 1f3e
00000060: 2f24 a1be f86b e0bd 1fbe 1abe 9513 8a3e
00000070: de80 2b3e 92b2 913d 3e85 723e b5a5 a9be
00000080: 9fca 1fbe f4de 42bc 6c2d 9dbe 1ed8 a83d
00000090: e1c5 a7bd c147 0c3e f056 01bf 1265 e23d
000000a0: fb9f 8cbe b523 b83e 7e6a fc3e ccba cbbb
000000b0: 7c84 94bd d2b9 083f f697 42be d91c 643c
000000c0: 3b4a d93d b34b 323f db57 413e 19cf e0be
000000d0: 1418 653e 0f84 04bd 7f8e e83d a5e0 16bf
000000e0: 275a 833f 797f c83c a679 4c3c bd3f 8d3c
000000f0: 0b32 c4be 26c9 c1bd 90e4 0b3f 0504 bb3e
00000100: abff e0bc cd1f 653f 4bb6 003f 7e5b 7ebb
00000110: c0d8 993e 97fa 0a3e d867 6ebe da65 e73c
00000120: 12ed f73e d08b 443e 9e08 21bc 67ec 1dbf
00000130: a1c0 653d 33d3 5e3e becc a9be e2e8 b1bd
00000140: 4a42 59be 0f27 353e b730 463e f274 673e
00000150: cf86 0fbe b869 d53d 738d acbc 401d f0bd
00000160: 83f9 cf3e c878 033f 0986 6abe 41d4 d83e
00000170: e649 c1bd da97 9e3d 90a8 3d3e 658d bd3d
00000180: 4fdf babe 3279 403e c4fd b9be 5581 273e
00000190: cbd7 f0be d71f 013f 246e 083e d073 833e
000001a0: 11d1 593f 0841 5c3e f2b3 903e 5df1 dc3e
000001b0: fdab 7dbd b724 ed3a 500a 953e 8208 923e
000001c0: c6d4 b83c 978b f73e 4b0e db3d 7c4b 38be
000001d0: 0b4f 673e 9e4d 423d 15ec 93be 13b8 8b3e
000001e0: f9d9 af3e a579 f93d 9cce 8f3e 40de b53d
000001f0: 1a8c 773f 2bf9 c63e ab82 bc3d 8ad1 cabd
00000200: 9814 0d3b 86ef aebe 919c 6abe 6c31 8d3e
00000210: 8394 de3e 0fa0 f4bd d1e1 d13b de6b aabe
00000220: 0653 f6bd dd1b 6cbe 41e8 aebe b86e e2be
00000230: aa2f 5c3c f907 31bf fbe9 8fbe 2e1b 4b3e
00000240: b8b8 023c ed46 fd3d f6c0 703e 5001 703e
00000250: 4b09 613b f8e4 9c3e 963a b2bd 746e 393f
00000260: 3157 6c3d 5545 4a3e f04b afbd 3362 613e
00000270: 3346 ac3e f301 113f 527e 26bf e475 a43d
00000280: 07f8 033e 59b8 acbd c05a f1be 2394 c53e
00000290: ce73 d9bd d534 21bf 7633 633e 23d0 093f
000002a0: b7ff 9b3e 1735 653e 6617 2a3e 61b4 193e
000002b0: 31f6 0bbf 6857 2f3f ef46 bd3c 6a1b f0be
000002c0: 7ad1 ae3e 4ee9 93bc 6d2c 803e ebe0 563c
000002d0: df3b a83d 1845 823e d6a4 4fbe 6147 263f
000002e0: e767 913e 7633 c5be f92e fd3c f4fc 683e
000002f0: b0cb 853e 22cb 663e 2e5c 683c 2eff 613d
00000300: 7768 1bbf 7758 913e 28af 653e 5a3b 993c
00000310: 9a2a d63e 4c6e 97ba 49c7 503e 727e a13c
-0.0909841 0.11128814 -0.29553613 -0.031210376 0.25417396 -0.22785312 -0.3071844 0.81410146
0.60118425 0.06537003 0.31849405 -0.04610886 -0.104376175 0.6859448 0.6152933 -0.014757683
-0.0038661864 0.23002683 0.56684285 0.39516118 -0.022020964 0.5583701 0.78035825 0.15602334
-0.31472918 -0.109580934 -0.15111588 0.26968065 0.16748378 0.07114138 0.2368364 -0.33134237
-0.15604638 -0.0118939765 -0.30698717 0.08244346 -0.08192039 0.13699247 -0.5052328 0.11054434
-0.27465805 0.35964742 0.49299997 -0.0062173363 -0.07251832 0.5340854 -0.19003281 0.013922893
0.106098615 0.6964676 0.1888117 -0.43908003 0.22372466 -0.032352503 0.11355304 -0.5893653
1.0261887 0.024474846 0.012480175 0.017242307 -0.3831943 -0.09462194 0.54645634 0.36526504
-0.027465662 0.8950165 0.50278157 -0.0038811858 0.3004818 0.13572155 -0.23281801 0.028246809
0.48423058 0.19193959 -0.009828715 -0.61688846 0.05609191 0.21760254 -0.33164018 -0.08686997
-0.21216694 0.17690681 0.1935452 0.22603205 -0.14016269 0.10420555 -0.021063542 -0.11724329
0.4062005 0.5135617 -0.22902693 0.42349437 -0.09437923 0.07743807 0.18521333 0.092554845
-0.36498496 0.18796232 -0.3632642 0.1635793 -0.47039637 0.5043921 0.13323265 0.25674295
0.85084635 0.21509182 0.28262287 0.43152896 -0.0619316 0.0018092607 0.2910943 0.28522116
0.022562396 0.48348686 0.106960855 -0.17997545 0.22588746 0.047437303 -0.28891054 0.27288875
0.34345987 0.12181405 0.28087318 0.088802814 0.96698153 0.38861975 0.092046104 -0.09903248
0.0021527167 -0.34167117 -0.22911288 0.27576768 0.4347268 -0.11944591 0.0064050932 -0.3328542
-0.12027554 -0.23057504 -0.3416157 -0.44225097 0.013439098 -0.6915279 -0.281082 0.19834587
0.007978611 0.12367044 0.23511109 0.23438 0.0034337814 0.3064344 -0.08702581 0.72434163
0.05770034 0.1975301 -0.08559406 0.22010116 0.33647308 0.566436 -0.650365 0.08030298
0.12887584 -0.08433599 -0.4713955 0.38589582 -0.10617791 -0.6297124 0.221876 0.53833216
0.30468532 0.22383533 0.16610488 0.15010215 -0.54672533 0.68492746 0.023105113 -0.46895915
0.34144193 -0.018055584 0.25033894 0.013115148 0.082145445 0.2544334 -0.20277724 0.64952666
0.28399584 -0.38515824 0.030906187 0.22752744 0.26131964 0.22538427 0.014182134 0.055175
-0.60706276 0.28387806 0.22430098 0.018705059 0.41829377 -0.0011553257 0.20388521 0.019713614

fc2.weight f4 [200, 200]
00000000: 925a 4c3d bf98 9d3c 5fa8 21bd c598 e03c
00000010: a772 85bd 20ba b33c 1e31 0bbd ed47 423b
00000020: 00a0 0abc b37d a3bb b99b 14bd 140f d03c
00000030: 1632 073d a975 84bd d11d 323d a823 80bd
00000040: d065 4ebd e699 123c c6d2 4d3d 545a bc3c
00000050: 26f7 6ebd 1719 22bb a130 3ebd 0b19 6f3c
00000060: 724e 39bc b0f9 e13b cbd4 95bd 75e2 ba3c
00000070: 730c 563d 1cc4 79bd 9613 aa3b 4434 4dbd
00000080: 9b21 1bbd 3d4f 433d f065 8dbd 561e 8ebc
00000090: 7cfb 0a3c 02d0 583c ac67 e2bc ebb8 6bbd
000000a0: 3093 693c d803 8cbd f80c b13b 502f 37bd
000000b0: c315 e4bc 5295 473d 2682 70bd db9b 1fbd
000000c0: 765a 95bd f1fe de3c 902e 5f3d 29a1 4bbd
000000d0: ab89 d23c 2ba0 d93c a927 a3bd ad89 513c
000000e0: a505 8d3c 20bf 4ebc fad6 423d 03e6 0fbc
000000f0: cc6b 16bc 4024 123d 7859 8cbd 033c 8ebd
00000100: fa7e 18bb 1054 ff3b 5365 22bc 075c 42bd
00000110: 024d 193d d52e 70bd 6118 00bd bc56 82bd
00000120: 8c3a 90bd deee 0f3b 6d1a 05bd 5001 213d
00000130: 4f20 4a3d 8c84 233c d4e9 2f3d f697 49bd
00000140: 7bf4 b63c 786c 1d3d e35b 41bd 2798 c3bc
00000150: a8cc 2dbd 291f 393b a158 8abd 03ef 2cbd
00000160: f106 85bd 7e59 c3bc a571 42bc 7935 79bd
00000170: bad5 d4bc 2481 1d3d c078 603b 32fe 25bb
00000180: 3bae 4dbd 125f aabc 4a63 80bd 6549 423d
00000190: f345 843b ea94 903c 0ddc b73c 16f1 7d3d
000001a0: ecc7 47bd f0ac a13c 6d1b a4bd 8f0f 463c
000001b0: f82f 62bd 386c 0d3c c43e 55bd 61b6 973c
000001c0: 862c 073d d027 c43c e8d3 81bd 9c1c 243d
000001d0: a69b 82bd c048 acbd f9cf fe3c 4ccc e0bb
000001e0: 07fe 21bd 33bd 86bd 40ed 45ba ba65 fabc
000001f0: 4ca8 65bd d3f5 c2bc 88e1 99bd e0ae 0e3d
00000200: ae09 86bd a82b c5bc 53fa b4bd 2956 ebbc
00000210: 1cdd b2bc 8662 c53c a857 fdbc 6582 323d
00000220: 0e81 6c3d 884e 6c3c 9960 30bd 2a9c 6ebd
00000230: f107 5bbd f600 2dbd 7bda 2bbd 8350 993c
00000240: 4604 bbbc 1758 b0bc 8d3d 44bc 67de a3bd
00000250: da49 243d 443d febc 16cc 7abd 7a6b 83bc
00000260: 4bd1 a5bd f9e0 c7bb 096b 3bbd 0c12 7ebc
00000270: 685f aabc 7331 413d ae84 5f3d f065 873d
00000280: 0c59 36bc 0460 283d 295e 95bd 8ae4 87bd
00000290: ff25 9c3c 678f 203a 8453 a03c bbdf d03c
000002a0: 7c06 f53c 95fd 693c 7364 f7bc e3df 18bd
000002b0: 933c 323c a7a4 203d 3308 19bc 046d acbc
000002c0: 29a6 0f3d d7c5 2f3d 3cc8 a5bc 69fe cbbc
000002d0: 050b b7bd 505a 8e3b fc90 b13c 66d1 90bd
000002e0: e823 92bd 82e5 98bd 77b9 143d e1c1 873d
000002f0: 7f27 513d 3f0a 353d 3d51 b7bc b9d7 4d3c
00000300: 122b bb3c 39dd 1abd 66c5 54bd 17b6 233d
00000310: 90ce f2bb 7ff4 eb3b 94ea 54bd 243b 47bd
00000320: eae0 113e 54d3 c13d 80a9 773e 96ec 09bd
00000330: 7dba f3bd 597d 87bc a48a 9cbe 9fc0 34bd
00000340: 9cf6 00bf 0748 6d3e a296 8cbf 2abb 293e
00000350: e231 20be 7b73 94bc 9f43 9d3e fa57 13bf
00000360: 1398 773e 431b 3dbe e05b c03e 936e 59be
00000370: 7837 90bd efc7 88bd 8bd5 ebbe 5b19 3bbe
00000380: 95d8 48be 2f86 1dbe a642 9fbd 988b 533e
00000390: 23e2 e93e d943 2ebf 56e0 e1bd 2cbf 683e
000003a0: 104a a73e 8532 31bf 14a6 81be ab8a b93e
000003b0: de70 a63e 04b8 86be 49b9 283e 74f9 31bf
000003c0: 4b6b 243d a8d9 7cbd bd39 c73d 2c18 50bf
000003d0: cb27 34be 4f3c 57bf 938c 9dbe a70a 10be
000003e0: daaf 78be 77ba fe3d 9c65 083f 571b 513d
000003f0: 0e6d 84bd 2d48 1dbf 507b babd 8ab0 183e
0.049891062 0.019237874 -0.03946721 0.027416596 -0.06516009 0.021939337 -0.03398239 0.0029644922
-0.008460999 -0.0049893497 -0.03628132 0.025397815 0.03300675 -0.064677544 0.043485466 -0.06256801
-0.050390065 0.008947825 0.050249837 0.02299229 -0.058341168 -0.0024734193 -0.046433095 0.014593373
-0.011310207 0.00689622 -0.07315978 0.022813061 0.052257966 -0.06097804 0.005190323 -0.050098673
-0.037873846 0.04768299 -0.06904209 -0.01734845 0.00848281 0.013233187 -0.027637325 -0.0575494
0.014256284 -0.06836671 0.0054031573 -0.044722855 -0.027842408 0.048726387 -0.05871787 -0.038966995
-0.07292645 0.027221175 0.054487765 -0.04971424 0.02570041 0.026565632 -0.07966549 0.012789172
0.017214606 -0.01261881 0.0475683 -0.008782866 -0.009180974 0.035679102 -0.06853002 -0.0694504
-0.0023269043 0.0077920035 -0.009911853 -0.047451045 0.037426956 -0.058638413 -0.03127325 -0.063641995
-0.07042417 0.0021962444 -0.032495905 0.039307892 0.049347218 0.009980332 0.042947605 -0.049217187
0.022333374 0.038433522 -0.04720677 -0.023876263 -0.042431504 0.0028247333 -0.06755186 -0.042220127
-0.064954646 -0.023846384 -0.011867915 -0.06084201 -0.025980819 0.038453236 0.003425166 -0.0025328514
-0.050214987 -0.020797286 -0.06268938 0.047433276 0.004036659 0.017649133 0.022443796 0.061997496
-0.048774645 0.019735783 -0.080130436 0.01208867 -0.055221528 0.008631758 -0.05206181 0.018519582
0.033001445 0.023944765 -0.06339246 0.040066347 -0.06377344 -0.084123135 0.031105028 -0.0068602916
-0.0395489 -0.06579056 -0.00075503066 -0.030566085 -0.056068704 -0.023798859 -0.0751372 0.034834743
-0.06544815 -0.024068668 -0.08836808 -0.028727608 -0.021833949 0.024094831 -0.030925587 0.043581385
0.057740264 0.01442302 -0.043060873 -0.0582544 -0.05347437 -0.042237245 -0.041956406 0.018715149
-0.022829186 -0.02152638 -0.0119775655 -0.08001404 0.040109493 -0.031035073 -0.061229788 -0.01604246
-0.0809656 -0.006099817 -0.045756374 -0.015507232 -0.020797446 0.0471663 0.054569893 0.0661124
-0.011129629 0.041107193 -0.0729335 -0.06635387 0.019061087 0.0006124884 0.019571073 0.025497308
0.029910319 0.01428165 -0.030199265 -0.03732289 0.0108787 0.039219525 -0.009340334 -0.021048076
0.035070572 0.042913284 -0.02023708 -0.024901586 -0.08937649 0.004344262 0.02167558 -0.070711896
-0.07135755 -0.0746565 0.036309686 0.06628776 0.051063057 0.044199225 -0.022377605 0.012563639
0.022847686 -0.03780863 -0.051946066 0.039968576 -0.007409878 0.007200777 -0.051981524 -0.048640385
0.14245954 0.09464136 0.24185753 -0.03367289 -0.11900804 -0.016539263 -0.30574524 -0.04412901
-0.50376296 0.23172008 -1.098347 0.16575304 -0.15644029 -0.018121472 0.30715653 -0.57556117
0.24179105 -0.18467431 0.37570095 -0.21233587 -0.0704183 -0.06678759 -0.46061358 -0.18271391
-0.1961387 -0.15383218 -0.07776384 0.2065872 0.4568034 -0.6807228 -0.11029117 0.22729176
0.32673693 -0.6921771 -0.2532202 0.36238608 0.32507986 -0.26312268 0.1647693 -0.6952126
0.040141385 -0.06173101 0.097278096 -0.81286883 -0.17593305 -0.840764 -0.30771312 -0.14066564
-0.24285832 0.12437909 0.53280044 0.051051464 -0.06466113 -0.61438257 -0.09105551 0.14911094

fc2.bias f4 [200]
00000000: b1e9 24bc 23cc 9bbc 4a37 f73d b686 623b
00000010: 542c 003d c0d0 53bd 48b6 5ebd b95d 00bd
00000020: 256d 6f3d 4b40 a2bc 9c14 2dbd 35bd 173e
00000030: 78ce 2d3d 8911 b0bc 0e8c f5bd 7520 71bd
00000040: 7557 463e f994 aa3d 9cfc b93c 650e 523e
00000050: aa3b 8b3d 0167 3abe 8389 a5b9 a831 94be
00000060: b4d3 5c3d bd08 b7bd 6961 743d ca83 86bd
00000070: 92ee adbc 18c5 143d 6ae1 3abd c47e d6bc
00000080: 83d3 263d 7567 94bd dfc1 263d 6764 b8bd
00000090: 79a9 87be 4adc dfbd aed1 fbbd f206 0a3e
000000a0: 5edf 013f 9af2 933e 79a1 80be 66d9 14be
000000b0: e256 1a3e cee0 aabd a4f6 20bd 1ab5 343e
000000c0: 77b2 d53c dd7c 3ebe c5d4 58bd 200f 953d
000000d0: 41eb de3b a84e 2c3e 7e32 163e acb2 d9bc
000000e0: 4997 a63d b86b babe c924 12be 178f 91bd
000000f0: 2600 f9bd 6766 083d c8c6 04bd 0340 ed3d
00000100: 6e00 54bc 3524 b7bc bdf2 503e 554a fa3d
00000110: 1ead 3ebe 0e80 94bb 1668 283e b01a 8b3e
00000120: 8ef3 7b3e 1804 3a3e efc9 6a3e 7922 5bbe
00000130: 8295 733e 1735 15be 71b3 3abc ea6e adbd
00000140: 5c90 383d a01f 883e 2739 2a3d fe8b 4abe
00000150: 5a6e 4bbe 9fe2 15bd 3ae6 a4bc 02f3 6c3e
00000160: 666e 3f3e 12b8 cb3d ceb2 83bd 5b9a 6d3e
00000170: 9599 96be e526 f3bb bb39 fd3c c447 a63d
00000180: 277d 413e 3321 45be 303d 45bd 59b1 f43c
00000190: 199d c33b de6d 3c3e 5966 383e 40b0 173e
000001a0: 9e80 3f3e 288f 853e 2d8e 383e 0402 7e3d
000001b0: 4c29 8a3e 18b2 08bd a710 acbd 47ff 3f3e
000001c0: c1ca 853e 6e30 743e 7312 33bd dba2 5abe
000001d0: fe9c 84bd d5c2 c1be b347 12be e578 9fbc
000001e0: aaf0 bf3c ccbe 7f3e 4fb0 223e 28aa 903d
000001f0: 7c83 adbe 4b22 5c3e 8af2 833e 3c02 d73c
00000200: 0a9a 56bd a853 9e3c a57c 633e 0129 37be
00000210: 228e d93e 3da1 30bd 5977 55be 8b19 07bd
00000220: 1e89 bebd 6381 8c3e 9f22 9fbd 0a09 2c3e
00000230: b18d 363e 6110 513e d684 343d d5f1 4abd
00000240: 1e90 cb3c 2f76 88bd 4c95 ffbc c648 b5bc
00000250: 11c2 f43c 971f 31bd 4a30 a0bd 900f fa3c
00000260: 742b 1b3d 361f 2d3e ab59 52be cd2a 4fbb
00000270: 5d29 7f3e 91bf a53d b4eb 2dbd 3ce5 09be
00000280: cc82 853c 0036 4abd 4fba 0dbe b8c2 3b3e
00000290: 8187 cabc 3d66 ba3c a392 02bd 5656 3dba
000002a0: fccf edba 73bd 123d e3ef 393e bed8 54be
000002b0: 691a 74bd 0cc1 63bd f529 313e eaa4 bfbd
000002c0: e68d 893e 49f0 11bd f1c2 383e 2122 91bd
000002d0: 938d 5d3d 3bf0 02bd a19a 393c 033d 6bbd
000002e0: dac0 583d b68b 9e3d bf9f 3ebe 83ab 253c
000002f0: c865 2dbd 807b 533e d63b bfbd 059b 903e
00000300: 7aef 81be f634 a2bd d404 0fbd a691 a6be
00000310: 3dad e4bd 50f5 683d 9bef 2c3e c394 be3d
-0.010065482 -0.019018238 0.120710924 0.0034565157 0.031292275 -0.05171275 -0.054373056 -0.03133938
0.058453698 -0.019806048 -0.042255983 0.1481827 0.042433232 -0.021492736 -0.11989604 -0.058868844
0.193693 0.083291955 0.022703461 0.20513304 0.067984894 -0.18203355 -0.00031573707 -0.28944135
0.053912833 -0.089372136 0.05966321 -0.065681055 -0.021231923 0.036320776 -0.045625128 -0.026183493
0.040729057 -0.07246295 0.040712234 -0.09003525 -0.26496485 -0.10930689 -0.122958526 0.13479212
0.50731456 0.28896028 -0.25123194 -0.14536056 0.15072206 -0.08343659 -0.039297715 0.1764721
0.026086075 -0.18602319 -0.052937288 0.072782755 0.006802947 0.1682688 0.14667699 -0.026574455
0.08134324 -0.36410308 -0.14271845 -0.0710737 -0.121582314 0.033300783 -0.032416135 0.11584475
-0.012939556 -0.022356132 0.20405097 0.12221209 -0.18620726 -0.004531867 0.16445956 0.27168798
0.24604627 0.18165624 0.22928594 -0.21399869 0.23787501 -0.14571033 -0.011395321 -0.08468421
0.045059547 0.26586628 0.04155841 -0.19779965 -0.19866315 -0.036593076 -0.020129312 0.23139575
0.18694457 0.09947218 -0.06430589 0.23203413 -0.2941405 -0.007420408 0.030911317 0.08119157
0.18895398 -0.19250946 -0.048154056 0.029869722 0.0059696552 0.18401286 0.18007793 0.14813328
0.18701407 0.26085782 0.18022986 0.06201364 0.26984632 -0.03337297 -0.08401614 0.18749724
0.2613125 0.238466 -0.043718766 -0.21351187 -0.064752564 -0.37843958 -0.14285164 -0.019466827
0.023430187 0.24975127 0.15887569 0.07063705 -0.33889377 0.21497457 0.2577098 0.026246183
-0.052392997 0.019327 0.22215517 -0.17886735 0.4249125 -0.04312252 -0.20846309 -0.032983344
-0.09303497 0.27442464 -0.07770275 0.16800323 0.17827488 0.20416404 0.044071995 -0.049547035
0.024848994 -0.06663167 -0.03119912 -0.022129428 0.029877694 -0.043243017 -0.078217104 0.030524999
0.037883237 0.16906437 -0.20542018 -0.0031611205 0.24918123 0.08093179 -0.042461112 -0.13466352
0.01629772 -0.049367905 -0.13840602 0.18335998 -0.024722816 0.02275383 -0.031878125 -0.0007222643
-0.0018143649 0.035825204 0.18157916 -0.20785806 -0.0595955 -0.055604026 0.17301162 -0.09357627
0.26866072 -0.035629544 0.18043114 -0.07086588 0.054090094 -0.031967383 0.01132837 -0.057431232
0.052918293 0.077414915 -0.18615626 0.010111692 -0.042333394 0.2065258 -0.09337585 0.2824327
-0.2537802 -0.07920258 -0.034916714 -0.32532996 -0.11165855 0.056874573 0.16888277 0.09305718

fc3.weight f4 [4, 200]
00000000: e196 8c3c 66cd 063f 0791 fa3d 125b a23b
00000010: 7e6e 3abd 0119 12bd c71b ac3f dc8f de3c
00000020: 51ae 92bd 274b 55bb 106f 8ebe 6bad f73e
00000030: 0dd1 a73e 5713 9bbd f255 8ebd 07c9 4d3d
00000040: 4a00 b83e e8bc 37bf 937e 243f 2757 993e
00000050: 999d 913d a2a3 413f b472 57bd f8c9 d03d
00000060: c458 e83e 32b2 c63d 027c e93e cc40 85bf
00000070: 26f8 98bf c4b2 8d3e 5009 763c 629e 7a3d
00000080: f1ad e63d 856c d23c 422b 703e c05c a1bb
00000090: a0e4 073f 462e d3be eb14 47bd a375 563e
000000a0: c67a fcbd 20aa c2bd c680 34be cff5 89be
000000b0: 44e0 2b3f cf33 6c3d b01a c03b 3b0f d73e
000000c0: c912 ab3d 10de aabe d3c8 e63e d811 1ebf
000000d0: 6eea 28bd 4b04 23bf b765 f33d ecbc 1abd
000000e0: 1002 9bbe e5af 7dbe 96c9 18bd 5f2f af3b
000000f0: ad64 99bd 66ec c93c 1605 01bc 5bbf 583f
00000100: 496f 29bf 6cf7 fe3d 625f ad3e 61ac 4b3f
00000110: d2d8 6ebf 1d00 04bf cc9a ad3e f55e 45be
00000120: 2185 923e 437d a73e cc8a 233f d7a4 3d3f
00000130: 3493 963e cc94 683f 1451 093f 0bb8 e4be
00000140: fc27 e63e f7cc c43e 6e3b 66bc 80f3 8fbe
00000150: ef77 0bbf edc3 d4bc fed2 61bd 250d c43e
00000160: 02b1 a93e b228 bfbe 56fa c4bc 56d7 b23e
00000170: 2a75 703e 84c1 3dbd a188 19bf 1719 ca3f
00000180: 911f 9b3e f4fc ff3e d463 043f 5382 083d
00000190: 3a92 16bf 1517 57bf 3631 153f 0580 11bf
000001a0: 47a1 17bf 46b6 09bf 2d29 a73e 5c20 12be
000001b0: e5b6 c83e 6ecf 57be 3d1f f23e cdb1 053f
000001c0: b100 8e3e c44c f93e f6e1 f83c fc56 f03e
000001d0: f278 aebe 00ba c53d 1bc2 183e 2a03 11bd
000001e0: dd7f 36bf 695e db3e 483b c6be 35df 103e
000001f0: 19c4 19be 5fc0 b43e ebf2 af3e c32b 0dbe
00000200: 33d4 033f c5b5 0dbd fdf4 9ebe 67d2 823d
00000210: cc82 883f 36b0 b5bc 5771 143f a655 7e3d
00000220: fe6e 093d c33a b13e 260c 5fbe 204f c8be
00000230: 59fe dc3e 9eff dd3e e1a3 ad3c 18e8 16bd
00000240: 55de 9c3e de23 2dbd 8aab 7ebe 9a7b 9dba
00000250: 16e9 423f 63a1 6fbe b3e1 7a3e f60c d8be
00000260: 9076 8cbf b1c7 113f 71c1 083e 809d bcbe
00000270: d44a b63e 2d33 d63e d534 f2be b0fd 03be
00000280: 21d8 9e3e 47c5 793e 0cab 4e3f d557 543f
00000290: daac 38bd 8ef7 243e aecb 4ebd 97a5 76ba
000002a0: 7397 8f3d 0756 0dbf 339b ac3e f8ad 153f
000002b0: 3857 e1bc 5595 4dbc 9930 a53e c23b 4d3e
000002c0: dd80 e23e c436 19bd fa72 3c3f ae61 bbbe
000002d0: 506c c83e 6bfa c1bd 5136 2fbd a217 56bd
000002e0: 8dd3 3d3f 480a c03e dc72 87be f089 98bc
000002f0: 2018 11be 3060 803e 9dd8 8c3e 7ad8 103d
00000300: 5d6d 59be 2a96 163f d2e3 623d 1885 96be
00000310: fadb b1be 972d 973e 7c76 333f 8c8f 063f
00000320: 5bb9 9ebc ca13 84bd 6567 fc3e b276 223b
00000330: f379 3a3d 564a 03bd f688 663f 8c50 efbc
00000340: 7549 b0bc 521a 603d a3e7 0fbf 420b c13e
00000350: c0b1 c43e 0faf 28bf 3750 ffbe fd5d cd3c
00000360: 2b30 be3e d128 22bf abd6 f13e fffe a13e
00000370: dd06 94be 7bc9 133f 5403 22bf fd20 003c
00000380: 21a7 ff3e fcf6 fabd 9e7a cb3e 7191 59bf
00000390: 28a3 57bf 9d42 d33e 9009 523d 04bf e6bc
000003a0: b294 363f 7860 0ebf f618 da3d 8d52 1ebd
000003b0: 1190 023e ca27 80bf 4de4 afbe c925 8c3e
000003c0: 807d a23c b368 d1be 85fb 083e 9037 623e
000003d0: 42a2 2f3f 7ca8 82bd d68a d2bc 63fd da3e
000003e0: 41c5 49be 1458 d63e fc46 093f 7509 42bf
000003f0: 0dce 1abd f2bc 3fbe 57ce 63be bab3 13bd
0.017161788 0.52657163 0.12234693 0.004954704 -0.04551553 -0.035668377 1.3445977 0.027168207
-0.071621545 -0.0032546015 -0.2781911 0.48374495 0.3277668 -0.07572048 -0.069499865 0.050240543
0.3593772 -0.71772623 0.64255637 0.29949304 0.071101375 0.7564031 -0.052599624 0.101947725
0.45380223 0.09701957 0.45602423 -1.04104 -1.1950729 0.2767545 0.015016869 0.061186202
0.112636454 0.025686512 0.23454002 -0.0049243867 0.5308323 -0.4124624 -0.048603933 0.20943312
-0.12328105 -0.09505105 -0.17627248 -0.2694535 0.6713908 0.057666596 0.0058625564 0.42003807
0.08353192 -0.33372545 0.45075092 -0.6174598 -0.041239195 -0.63678426 0.11884635 -0.037777826
-0.3027501 -0.2477413 -0.037301622 0.0053462232 -0.074899055 0.024648856 -0.007874748 0.84666985
-0.6618543 0.12449536 0.33861834 0.79559904 -0.9329959 -0.5156267 0.33907163 -0.19274504
0.28617194 0.32712755 0.6388366 0.7407965 0.29409182 0.90852046 0.5363934 -0.44671664
0.4495238 0.38437626 -0.014052255 -0.28115463 -0.5447988 -0.025972331 -0.05513286 0.38291278
0.3314286 -0.37335736 -0.02404515 0.34929913 0.23482195 -0.04632713 -0.59974104 1.5788907
0.3029752 0.49997675 0.51714826 0.03332741 -0.58816874 -0.84019595 0.58278215 -0.5683597
-0.59230465 -0.5379375 0.32648602 -0.14270157 0.39202037 -0.21075222 0.47289458 0.5222443
0.27734903 0.4869138 0.030381184 0.46941364 -0.3407665 0.09654617 0.14917795 -0.035403408
-0.71288854 0.42845467 -0.38717103 0.14147647 -0.15016212 0.35303017 0.3436502 -0.13786225
0.51495665 -0.034597177 -0.31046286 0.06387787 1.0664916 -0.02217875 0.5798544 0.0620934
0.033553116 0.34615144 -0.21781978 -0.39122868 0.43162802 0.43359083 0.021196308 -0.036842436
0.30638376 -0.042270534 -0.24870124 -0.0012014986 0.7613691 -0.23401408 0.2450016 -0.42197388
-1.0973682 0.5694533 0.13355042 -0.36838913 0.35603964 0.4183592 -0.47305933 -0.12889743
0.31024268 0.24391662 0.80729747 0.8294652 -0.04508672 0.1611006 -0.050487213 -0.000940883
0.070113085 -0.5520939 0.33712158 0.5846858 -0.02750741 -0.012547811 0.3226364 0.20042327
0.4423894 -0.037405744 0.7361294 -0.3659796 0.39145136 -0.094715916 -0.04277641 -0.05226863
0.74150926 0.37507844 -0.26454818 -0.018620461 -0.14169359 0.25073385 0.27509013 0.0353627
-0.21233125 0.5882288 0.055393048 -0.29398417 -0.3473814 0.2952697 0.7010267 0.52562785
-0.019375494 -0.06449087 0.49297634 0.0024789986 0.045526456 -0.032053314 0.90052736 -0.029213212
-0.021519402 0.0547126 -0.56212825 0.37703902 0.38416862 -0.6589212 -0.49865887 0.025069231
0.37146124 -0.6334353 0.4723409 0.3163986 -0.28911486 0.5772931 -0.6328633 0.007820365
0.49932197 -0.1225414 0.39741987 -0.8498755 -0.8423333 0.4126176 0.05127865 -0.028167255
0.7132064 -0.5561595 0.10649292 -0.038652945 0.1275027 -1.0012143 -0.34353867 0.27372578
0.019835234 -0.40900192 0.13377197 0.22091508 0.6860696 -0.06379792 -0.025700968 0.42771444
-0.19704153 0.41864073 0.5362394 -0.7579568 -0.03779416 -0.1872442 -0.22246681 -0.036060072

fc3.bias f4 [4]
00000000: 7e1c 5c3e 3468 943e decd eb3d be51 763e
0.21495244 0.2898575 0.115138754 0.2405462
