acrobot/acrobot.pt (torch_old, 20250 bytes, 6 tensors)

fc1.weight f4 [64, 6]
00000000: 1f95 8a3d b315 943e 862c 063d c2f1 d3bd
00000010: a40b 72be 79af 663d 0399 3abd 76ac 9b3e
00000020: f344 16bd bb3a 843d b27c f53d e85b a63d
00000030: e12f 663e 77db 37bf 6109 6dbd bc78 df3e
00000040: ac1d a53b e4dc cfbb b912 05be c2ca 9a3d
00000050: 03f1 55be 9f1c debc 5ad2 dc3d db0a bc3d
00000060: 06dd b5be a940 c7bd d32d 80be adb2 883d
00000070: 0805 03bb 68ac a5bc 6132 babe a70e 9b3f
00000080: ec7a 043e 0a00 03be bf88 17bc e57e b1bb
00000090: 3353 a93e 35d9 e2be 96ff 1e3e 59dd 81be
000000a0: c77e 03bd 00c3 5c3b fdad f83e c94f 293e
000000b0: 7a52 36be 0f03 733e 88b1 aebd f0f2 15bd
000000c0: ab14 dfbe f3e1 963d 1ba2 10bd 80a4 7dbe
000000d0: 8144 693d d065 55bc c7a4 a4bb 6504 d43e
000000e0: 5692 20bb d4aa 653c 124a a53c 72ab 863c
000000f0: e09d 3fbf 5e75 703b f83b a73d 9a9a bc3e
00000100: a2b1 c0bc 17d1 d2bc 5516 7abe aca5 e1bd
00000110: 4def 22be 5544 babd 5cf7 3abd 4074 83bd
00000120: 381d 8b3e 45ef 7b3e 53e1 5b3d 63fa 823e
00000130: 29bb 103e a03f fa3d 8fbb 91bf 83c0 e53e
00000140: 767a f13c 706b ae3d 921e 4dbc 6f08 103b
00000150: 2f27 61bb 23f6 25bf 7620 ffbe 4714 513e
00000160: 98ed b63b b4c3 9fba 5ff8 223e 16c8 1f3e
00000170: adfb fabb c5bf a73d e04f 50be 7aaf a7bd
00000180: 8e37 c93c 1ef8 3d3c eba7 37be 6eff c73c
00000190: 8734 7c3d 0d0d aa3c 39fa 353e a88b 3bbf
000001a0: efce d2be ebe1 a0be a25f 263c 4ea1 cd3a
000001b0: c1b9 d7bd 9778 213d b430 89bd cc37 893d
000001c0: f3e7 2a3a 7e44 c53b 81f7 a7be c2bd 2a3e
000001d0: 4d16 2c3d 3c9d 2d3e 85d6 ddbd f94f f8bc
000001e0: b588 6bbe 9997 663e 6e8c 6a3e 90da 7f3e
000001f0: ee92 81be bb4f 41be 15da 3dbf 6ad6 103c
00000200: c41b 173e 1671 53bc bfd9 b6bd 36aa 2cbd
00000210: 1e8b 25be d0e8 a63b 1b5a 08be 0d9a 5b3b
00000220: 7610 143d 79ef 913d bdcd 91be 0e21 0f3e
00000230: 8551 f3bd 9d04 3f3e 25f9 0dbe 3c71 6fbc
00000240: baa3 8dbe 9168 5bbe 3aca 01be 1e4c 15be
00000250: d7b4 583d 1d63 ef3c fdb2 5dbe 7d7c 30be
00000260: 8038 483e 9fbb a43d 6c24 453d 948d 763d
00000270: 6e36 66bf 93a0 a93e 127b 433e c3ee 403d
00000280: cac2 e53d 4bf5 313d 53dd 33bc 114c 833f
00000290: 52eb cdbe 8e12 d9bc c502 073c 314f 253c
000002a0: 476b 82bf 6eba 01be 4a67 d4bd f6f2 173b
000002b0: 9872 53bb 637a ec3a 7259 233d c9a0 03be
000002c0: 90c8 a23d 2502 12bc 1866 1d3e 2736 8d3d
000002d0: 5588 a2be 5fec 72be 6c60 19bc 75e4 6abe
000002e0: b0c7 dd3d e16b 903d 6b95 05bf 2689 233e
000002f0: 79a0 ae3b 0dae 9ebd 7645 ac3a aed4 c63b
00000300: dd68 ffbe 2a5b 4b3e 2385 3a3e b529 a1bd
00000310: e7f9 753e 854f b73d 42a6 133f 82cf 63be
00000320: 9e19 003e 11d3 7bbe 998b 443d dc63 f0bc
00000330: fc49 283e d0b4 9dbe e1b6 74bc 51cd 0f3d
00000340: a830 583e c351 3dbd 332c ccbe ae7b 4339
00000350: 04f6 c3bd 570d 4f3e 3199 56bd 6357 c33d
00000360: d570 3dbe 0b43 7c3e bb47 f2bd 2230 003e
00000370: 1165 843d eba1 223d 6e95 1fbe c000 9cbd
00000380: f414 703e a623 b6be b969 213d 7578 7a3c
00000390: bff5 123d fb49 40bd 5e6c f7bd ecad 423c
000003a0: 700e e1bb 51aa 19bc 5d67 2cbf 9237 dbbd
000003b0: b049 26bc d4f2 c03e 6bed 10bc dff9 44ba
000003c0: 030f 84be 39c7 3e3e c043 12bc d0cc 36be
000003d0: b22b 52bd 3deb 063c 25b0 9dbf 14f7 73be
000003e0: 2b51 26be 34af 143c 8bf8 363a 8e23 4bbb
000003f0: b3a7 b3be 374a b63b 133e 62be 91bd 05bd
0.06766724 0.28922805 0.032757305 -0.10348846 -0.23637253 0.056319688 -0.04555608 0.30405015
-0.03668685 0.064565144 0.11986674 0.081229985 0.22479202 -0.7181925 -0.057870273 0.436468
0.0050389376 -0.006343471 -0.12995423 0.07558204 -0.2089272 -0.027113257 0.10782309 0.09181758
-0.3552019 -0.0972913 -0.2503496 0.06674705 -0.0019992013 -0.020223811 -0.3636656 1.2113847
0.12937516 -0.12792984 -0.009248911 -0.0054167383 0.33071288 -0.4430634 0.15527186 -0.25364187
-0.032103326 0.0033685565 0.48570243 0.16534342 -0.178049 0.23731636 -0.08529955 -0.036608636
-0.43570456 0.07367315 -0.035310846 -0.24769783 0.056950096 -0.013024762 -0.005024526 0.41409603
-0.0024501286 0.014017779 0.020176921 0.016439173 -0.74850273 0.003669105 0.08165735 0.36836702
-0.023522202 -0.025734467 -0.24422581 -0.110179275 -0.15911599 -0.090950646 -0.045646057 -0.06418657
0.2717073 0.24602993 0.053681683 0.25581655 0.14133896 0.12219167 -1.1385363 0.44873437
0.02947734 0.08516586 -0.012519496 0.0021977683 -0.003435563 -0.648287 -0.49829453 0.20417891
0.0055825226 -0.0012189061 0.15915059 0.1560367 -0.0076593966 0.08190874 -0.2034297 -0.081877664
0.024562623 0.0115948 -0.1793515 0.02441379 0.06157353 0.020758176 0.17771234 -0.73259974
-0.41173503 -0.31422362 0.010154637 0.0015688331 -0.105334766 0.039421644 -0.066987425 0.067000955
0.00065195485 0.006020128 -0.32806018 0.1667395 0.042013455 0.16954511 -0.10831932 -0.030311571
-0.23001368 0.22518767 0.22905132 0.24985719 -0.2530741 -0.18878071 -0.7416089 0.008840183
0.14756685 -0.01290538 -0.089282505 -0.042154513 -0.1616635 0.0050936714 -0.13315623 0.003350857
0.03614851 0.07125754 -0.28477278 0.13977453 -0.11880783 0.18654104 -0.13864572 -0.0146143995
-0.27663976 -0.21426608 -0.126748 -0.14579818 0.052906837 0.029222066 -0.2165031 -0.17234989
0.19552803 0.080435984 0.048130438 0.060193613 -0.89926803 0.3313032 0.19089916 0.0471027
0.11218794 0.04344682 -0.010978061 1.0257589 -0.40218598 -0.026498105 0.008240406 0.0100896815
-1.0188988 -0.12668774 -0.10371263 0.0023185587 -0.0032264348 0.0018041845 0.039880224 -0.12854303
0.079484105 -0.008911644 0.15370977 0.06895094 -0.31744638 -0.23722981 -0.009361368 -0.22938712
0.10829103 0.07051826 -0.5218112 0.15970287 0.0053291884 -0.07748041 0.001314326 0.006067834
-0.49884692 0.19858995 0.1821485 -0.07869283 0.24021111 0.08950714 0.57675564 -0.22247127
0.12509772 -0.24592234 0.047984693 -0.029344492 0.16434473 -0.3080201 -0.01493618 0.035107914
0.21112311 -0.046220552 -0.3987747 0.00018642723 -0.09568408 0.20219932 -0.05239219 0.09538152
-0.18500073 0.2463495 -0.11830088 0.12518361 0.064645894 0.0397052 -0.15584347 -0.076173306
0.23445493 -0.35574073 0.039407466 0.015287508 0.035878893 -0.046945553 -0.12081216 0.0118822865
-0.006868176 -0.0093789855 -0.6734522 -0.107039586 -0.010149404 0.37685263 -0.008845667 -0.00075140403
-0.25792703 0.18630685 -0.008927286 -0.17851567 -0.051311202 0.008234796 -1.231938 -0.23824722
-0.162419 0.009074975 0.0006979785 -0.0030996534 -0.35088882 0.0055630463 -0.22093992 -0.032651488

fc1.bias f4 [64]
00000000: 08c0 e7be b1c4 7c3f 5c3d 2c3f f1fb acbc
00000010: fc28 85bf e63c 9ebc d370 153f a1a8 943f
00000020: c1ea 8fbf fae4 0abf 1476 143f 75c4 32bf
00000030: d84e 8d3f 23d2 48bf a744 593f 6706 6d3f
00000040: b44b 2fbf 2842 543f 141b 65be fe4a 87bf
00000050: fc91 12bf 1474 63bf 7937 30bf 9b10 3ebf
00000060: 04b1 bf3e 60e3 3fbf 3ec5 9cbf cbd6 143f
00000070: b3e8 843f 829a 4bbf 2a31 42bf 3db1 23bf
00000080: a8a2 8fbf db5a 943f 9ab4 06bf 213e 95bf
00000090: 28ff 94bf db93 993f 97a3 74be e9a9 943e
000000a0: cedb 35bf fcc4 823f 2408 99bf e9a9 31bf
000000b0: cf44 93be be0f edbe a022 39bf 208b 62bf
000000c0: bfba 33bf 2bf7 5abf fe7d 0bbf 8fc0 40bf
000000d0: bccc 323e 39fb 25be 4d61 803f 3a53 8a3f
000000e0: 5877 42bf d255 263f dd9b 91bf 9e15 813f
000000f0: d1b3 fb3e e311 343e 1504 48bf 56ab 94be
-0.45263696 0.9873763 0.67281127 -0.021116229 -1.0403132 -0.019316148 0.5837528 1.1613961
-1.1243516 -0.5425564 0.5799267 -0.6983102 1.1039686 -0.78445643 0.8487038 0.92587894
-0.6847489 0.82913446 -0.2237361 -1.0569761 -0.57254004 -0.88848996 -0.68834645 -0.7424409
0.3743974 -0.7495632 -1.2247694 0.5814025 1.0383514 -0.79532635 -0.7585627 -0.6394232
-1.1221514 1.1590227 -0.52619326 -1.1659585 -1.1640368 1.1998247 -0.2389053 0.2903588
-0.7103852 1.0216365 -1.1955609 -0.6939989 -0.28763434 -0.46301073 -0.7231846 -0.8849354
-0.70206827 -0.855334 -0.54489124 -0.7529382 0.17460912 -0.16209115 1.0029694 1.0806649
-0.75963354 0.649747 -1.1375691 1.0084722 0.49160627 0.17584948 -0.7813123 -0.2903697

fc2.weight f4 [64, 64]
00000000: ae02 c4bd d376 14be 2e5a 3e3b 276a 1d3d
00000010: bc46 c03d 2ff6 893c b901 b43d 9e54 403d
00000020: c215 08be 516f 01be 0d2f 243d d334 0cbe
00000030: 52ec c03c 743f dbbd 1d3b 5c3d f9dc f33b
00000040: 3969 abbd 3de0 623c 89bd f3bd 80da dfbc
00000050: 809e a03a 74ec 93bd 15ce 7dbd 79f1 9fbd
00000060: 2ebf ac3d 2c7b d93d b6b4 9f3d 69c3 933d
00000070: ad58 43be ca23 413c 5b8d 86bc 004c 26be
00000080: f4ba 323c 4ae0 d2bd a5b5 dabc bcd5 67bd
00000090: 0251 943d d767 d9bd cb38 8cbd df2f 383d
000000a0: d0eb 563d f07c 28bc 8633 173d ba5c 9bbd
000000b0: 16ff 993d 517d 0ebe 40bd 58bd c881 b93c
000000c0: ca05 8e3d 88ad 7fbd 821e 62bd a8e9 3f3d
000000d0: e53d bdbd 621a 09be 9817 15be 78a1 b9bd
000000e0: 7875 c3bc fc99 97bd ac7c 58bd 7c16 10be
000000f0: 5a06 193d 04a4 83bd 4b8c e7bd a772 a23a
00000100: d89c 70be 3ef5 a53e 9a4d 223e da22 37be
00000110: 4bfc b9bb aa40 a63c 3aee aabc 4e3f b43e
00000120: 066b 1fbe cb98 eebd 4065 ba3d 994d afbd
00000130: 45bc 563e 5d67 15bd 2193 cc3d 6bf3 323e
00000140: a457 b33d a8c2 733d 5d99 4cbc aa18 253e
00000150: 9562 59bd c397 963e 7c23 4f3e fc4b 5e3c
00000160: 8f5d 143d 79dd c93d 10ac 3bbe 5f54 f93d
00000170: dfa7 023d 209e efbc 5af5 3ebe e286 68bd
00000180: f42d 003c aa1e c53e 96a8 95bd 5221 24be
00000190: b729 803c 2f50 d23e 5c06 013c c1c0 ffbd
000001a0: 6688 893e da9f 993d a6f1 61be e73e b4bc
000001b0: 0443 2d3d 240c 62bd 6505 63be 6bb3 26be
000001c0: c3c8 913c e51f 4bbe 50e9 a9bb e4b5 323d
000001d0: 97f1 2b3e ef49 cebc 646f 133e fd6c 3f3e
000001e0: f65c cabd 7880 023e bb23 b0bc b62e 5c3e
000001f0: 0861 76bb 4b2e 183e 3ee3 753c 0e80 26bd
00000200: e50f ecbd 637d afbd 8bdb ffbc e408 d9bd
00000210: a124 9e3d 0cc2 133c 6b42 b8bd b372 b33d
00000220: 6532 dcbc cd0f 2fbe fb0d 01be e1a6 233e
00000230: cf38 1e3c 89a1 f2bd 7ff7 bdbd 76f1 f13c
00000240: e514 003d d7dc 81bc d4fa d2bd 8f69 ee3b
00000250: 8d6c c3bd e640 8cbd 8b26 96b8 9e87 6a3d
00000260: 8ff5 67bc aac3 b7bd bfed 173b 08f8 523d
00000270: 9a70 11be 8455 8fbd 6581 9a3b 24b8 c53d
00000280: 977e dcbd 58fb 2d3d 3077 bebd fc07 76bd
00000290: 96c6 93bd 8947 dabb a599 37bc acac 693d
000002a0: 5c80 9b3d e042 133c 8f6a c1bc 30da d73c
000002b0: 45e4 303c 8b83 d2bd b9db d9bc f39f 8fbd
000002c0: f28f 823d d1f6 313d c377 8fbd f4ad 663e
000002d0: a105 00be b5d7 863d c044 833c 01d5 5bbd
000002e0: 0460 23be abda 23bd 6a48 52be be89 66bd
000002f0: 995a 29bc 381a 37bd d63f 92bd 1245 12be
00000300: 8002 2fbc 1636 8fbd 1ca8 803d 9a99 923d
00000310: 8816 a33d 4d3e cf3c 7238 04be 1e5f b43d
00000320: fc96 e1bd 78a6 91bd 4faa f1bd 801d 383d
00000330: cb41 09be c469 7cbd 3516 e0bd cad9 dabd
00000340: 9f0b b3bd 4c29 be3d c7cd 24bd d9a7 043c
00000350: b5ce 1dbe 0a9d e33d 8778 6abd 42f1 eabd
00000360: d2dd 653d 6d7b 82bd 567b e83d a25c ebbd
00000370: c2ad edbd 94ce fdbd 8cc9 5d3d 47ec 33bd
00000380: 6429 01be fc70 e0bb f486 15bd 54f8 383d
00000390: da38 82bd ee3c f4bd 6bfc 613d 27a8 b8bd
000003a0: 4e14 b43d f890 cf3d 6f41 f0bd 780d 6cbd
000003b0: 7367 75bc 246d 17be 383d 1d3d ff06 a8bd
000003c0: 62dd aebd bdac 01be 3e18 e93c a022 a3bd
000003d0: 970a 05be 47cf 80bd eaff cbbd 3230 1bbe
000003e0: e857 4e3d 3de0 9ebd b651 b33d eb6a 6d3d
000003f0: 91bb e0bd b03d 95bd ecbc 35bd deeb 303d
-0.095708236 -0.14498453 0.002904545 0.038431313 0.093884915 0.016841022 0.08789391 0.046955697
-0.1328955 -0.1264012 0.040083934 -0.13692026 0.023550186 -0.10705462 0.053767312 0.0074421135
-0.08369679 0.013847408 -0.11901385 -0.027325869 0.0012254268 -0.07222834 -0.061964113 -0.07809729
0.08434902 0.10619196 0.0779814 0.07215006 -0.19076796 0.011788318 -0.016424825 -0.16239929
0.010908831 -0.10296686 -0.026697943 -0.056600317 0.072420135 -0.10615509 -0.0684677 0.04496753
0.052470982 -0.010283694 0.03691437 -0.075860456 0.07519357 -0.13914992 -0.052914858 0.022644892
0.06934698 -0.06242135 -0.055204876 0.04685369 -0.09240321 -0.1338897 -0.14559782 -0.09064001
-0.023859724 -0.07402417 -0.05285327 -0.14071077 0.037359573 -0.06427768 -0.11306056 0.0012393788
-0.23497331 0.32413667 0.15849915 -0.17884389 -0.0056758276 0.020294506 -0.020865548 0.35204548
-0.1556817 -0.11650237 0.09101343 -0.085597225 0.20970257 -0.036475528 0.09989 0.17475669
0.087569505 0.05951181 -0.0124877365 0.1612269 -0.05307253 0.2941266 0.2022838 0.013567921
0.036222037 0.09856696 -0.18327355 0.12174296 0.031898376 -0.029250205 -0.18648282 -0.05676926
0.007823456 0.38499957 -0.07307546 -0.16028336 0.015644891 0.410768 0.007875051 -0.12487937
0.26861876 0.075011924 -0.22064838 -0.02200265 0.04230024 -0.05518736 -0.22170027 -0.1627938
0.017795926 -0.19836386 -0.0051852837 0.043630496 0.16791378 -0.025181739 0.14397961 0.1869392
-0.09881012 0.1274432 -0.021501413 0.21502194 -0.0037594456 0.1486141 0.015007792 -0.040649466
-0.11526469 -0.085688375 -0.031232616 -0.10597399 0.0772183 0.009018432 -0.08997043 0.087621115
-0.026879499 -0.17095871 -0.1260299 0.15981628 0.009657099 -0.11847217 -0.09275722 0.029534083
0.031269927 -0.015852375 -0.10301748 0.007275767 -0.09542189 -0.06848316 -7.1597366e-05 0.05725824
-0.014157667 -0.08972867 0.002318248 0.051506072 -0.1420311 -0.06998733 0.004715132 0.09654263
-0.107663326 0.04247603 -0.09300077 -0.06006621 -0.07215612 -0.0066613597 -0.011206065 0.05704944
0.07592842 0.008988112 -0.023610381 0.026349157 0.010796611 -0.10278996 -0.02659403 -0.0701293
0.06375112 0.043448273 -0.070052646 0.22527295 -0.12502147 0.065841116 0.016023993 -0.053669933
-0.15954596 -0.04000346 -0.20535436 -0.056283705 -0.010336542 -0.04470274 -0.07141082 -0.1428416
-0.010681748 -0.06992738 0.06282064 0.071582034 0.07963282 0.025298262 -0.12912157 0.08807205
-0.11015126 -0.071118295 -0.11800062 0.04495001 -0.13404004 -0.061624303 -0.10941736 -0.10686071
-0.08742451 0.092852205 -0.040235307 0.008096659 -0.15410884 0.11113937 -0.05724385 -0.114717975
0.056119747 -0.06371198 0.113516495 -0.11492278 -0.11605407 -0.12392917 0.05414729 -0.043926504
-0.12613446 -0.0068494063 -0.036505654 0.0451587 -0.063585 -0.11925684 0.055172365 -0.090164475
0.08792935 0.101350725 -0.117312305 -0.057630032 -0.0149782775 -0.14787728 0.03838846 -0.082044594
-0.08538319 -0.1266355 0.028453942 -0.079655886 -0.12992321 -0.06289535 -0.09960921 -0.15155104
0.050376803 -0.07757614 0.087558195 0.057963293 -0.109732755 -0.072871566 -0.044369623 0.04319369

fc2.bias f4 [64]
00000000: 2594 0ebe 5a97 743f 762b 06bc e12e 5c3d
00000010: 8847 ba3d a965 493e ac0e 923f 04ba 99bd
00000020: 629b 673d 96af 07bd bb1b 903f 7b88 123e
00000030: 89f7 f83d 6dd7 5a3f b9af 5dbc d9d8 7abc
00000040: baf4 5b3f 9894 8d3b 493c 663f a86e 633f
00000050: 13fe 08be 3e77 d7b6 6d74 0d3f 9725 9abd
00000060: ab35 433d 5aec 03be 2426 3a3f eb80 6fbe
00000070: 6d43 833f 5e12 33bd 6bf8 96bd 7c5a 57bd
00000080: 1799 e0bc 5a86 d1bd 19a4 89bd de89 09be
00000090: 4c4a 803d bb55 8f3e 2747 6e3f 446c 07bd
000000a0: 2e84 5d3f 5192 aa3d ac8a dabd 555e 413f
000000b0: d3b1 6c3c 2e0f 823d a588 85bc cc6d f4bb
000000c0: aa6f 74bd 4fd8 47be d06e a9bd f21a f73c
000000d0: 2dcb e8bd 82c6 adbd 53f6 703f 72d0 a5bd
000000e0: 298a 0fbd c9ff 523f a7bf b6bd 30df ddbc
000000f0: d4f2 b53f 8e48 b8bc 73a8 923c a090 c5bd
-0.139237 0.95543444 -0.008189073 0.053755645 0.09095675 0.19667687 1.1410728 -0.07506183
0.05654467 -0.033126436 1.1258463 0.14309876 0.121565886 0.85484964 -0.013530665 -0.01531049
0.859203 0.0043206923 0.8993574 0.88840723 -0.13378172 -6.421381e-06 0.55255777 -0.07526701
0.047658604 -0.1288313 0.7271445 -0.23389022 1.0254952 -0.04371869 -0.07371601 -0.052576527
-0.027416749 -0.10230704 -0.06720752 -0.13431498 0.06264171 0.27995095 0.9307732 -0.033062235
0.86529815 0.08328689 -0.10670981 0.75534564 0.0144466935 0.063505515 -0.016300509 -0.007459378
-0.059676804 -0.19516109 -0.08273089 0.030164216 -0.11366878 -0.08485128 0.9412586 -0.080963984
-0.03504387 0.8242155 -0.089232735 -0.027083963 1.421473 -0.022495534 0.017902588 -0.09646726

fc3.weight f4 [3, 64]
00000000: 058e 153d 0b07 a3be 6011 383c c41d 383b
00000010: 8ca0 4abb 6819 02bc 7978 0cbf 6578 46bc
00000020: 2ec8 b53d 0368 02bd c857 f2be c5e8 91bd
00000030: a819 adbd 6620 e2be 707a 9abd b1a9 7a3d
00000040: 63a6 9abe 58ce dc3b 334e a5be 8369 92be
00000050: b584 aa3d 7980 913d 0715 6dbe bf6f 44be
00000060: b4a6 0e3d 1afd e0bc da52 71be a7e8 9c3c
00000070: 7d63 c6be bbbf fd3c 2c5d 043d 4886 3f3d
00000080: 70e1 23bd 8618 9a3c 1a14 6f3d b883 e53c
00000090: 9c37 ffba a4a3 29bd 355b a5be 4023 2a3c
000000a0: 6d31 d6be 3103 d8bd 9158 233c 2251 a9be
000000b0: 9d77 943d 508c 0f3c 0cba e53b f7a7 82bd
000000c0: 0914 923c 2963 803d d368 823d 4603 813d
000000d0: d1a9 bf3d d287 ad3d a7e3 acbe 8086 283c
000000e0: dec9 a5bd c211 cdbe 482d 8a3c eaf2 ae3d
000000f0: 5f3b 14bf 9f6c 3a3c 6da6 823d d6b1 0abe
00000100: b94f 1fbd da68 b9be e911 133b bab3 d6bc
00000110: dd74 a8bb 83f2 86bc 3b79 0dbf 616d 35bc
00000120: e67c 0b3d 0dcb f8bd db21 00bf 5c0c 803c
00000130: d804 0dbe 5250 dabe c56d 823d 0383 393d
00000140: 9a09 9fbe 0ce9 383d 99ef 9ebe 7374 89be
00000150: 727f 25bd 2aa1 acbd b818 6dbe 741d d3bd
00000160: c021 a7bb 14a6 243c c4cf 7bbe bd50 88be
00000170: 7284 bdbe a439 bfbc 4c9e 3b3d 56e8 89bd
00000180: d438 fbbc 1abf 903d db6e 32bd 7e12 96bd
00000190: a157 633c 1aef 41bd 0541 acbe e811 f6bc
000001a0: 3093 cdbe 178a 853d 37b4 823c e275 9dbe
000001b0: 2dc0 c03a 944c 883c c69d 65bd 0887 88bd
000001c0: 613a 033e 6746 403c d287 773d 1aca 45bd
000001d0: 5aa2 603d cd0c 1cbe aeba 9bbe b970 c2bc
000001e0: aca0 5d3b 8765 d1be 085a 9fbc cce9 253d
000001f0: 2575 13bf d908 bbbb 18c8 1a3d ba28 e13c
00000200: c1fc af3d 6eef b8be 27c4 00bc a936 c03b
00000210: 6284 453d 7c61 1dbc e8e8 0dbf 04cc 11bd
00000220: d438 8abd dedd 44bd 4814 03bf 2c24 6e3d
00000230: b8cf eebd 4f97 acbe fdd0 b63d 6aef 6b3d
00000240: 15ab a9be ca0a 8fbd 856f a6be e39c 82be
00000250: c4d2 ea3a 5102 4d3d 762b 6dbe b9db acbc
00000260: a977 6a3c e4fd 2abd 43aa 89be bb55 8a3d
00000270: 84ba bcbe 3344 523d 1e98 b73d a2b0 d03d
00000280: ab42 2f3d 8510 843d eaf0 363d eaba 2d3d
00000290: d0f1 2c3d 1702 4abc 749c a6be 00cb a93b
000002a0: caae c9be 841b 9d3d e7ee 943b fbb0 b0be
000002b0: 78d6 02bd 88fb c3bd 8ebe 10bb 9a66 3f3d
000002c0: ce29 0fbd cdd1 4cbc ad32 b0bd cd2d 05be
000002d0: 8a51 ed3b c077 193d 384f b4be c281 b73d
000002e0: f1f0 c33b 2c57 d3be 736a 1e3c 8043 0cbc
000002f0: ac56 12bf d070 bc3c 961f cdbd a888 c43c
0.036512394 -0.3184131 0.011234611 0.0028093914 -0.0030918447 -0.007940628 -0.54871327 -0.012113665
0.08876072 -0.031837475 -0.47332597 -0.071244754 -0.08452159 -0.44165343 -0.07542884 0.061196987
-0.30205068 0.0067384653 -0.32286224 -0.28596124 0.08326093 0.07104582 -0.23152553 -0.19183253
0.03482695 -0.027464438 -0.23566762 0.019153906 -0.3874778 0.030975213 0.032315418 0.04675892
-0.040009916 0.018810522 0.05836878 0.02801691 -0.0019471529 -0.041415825 -0.32296148 0.010384381
-0.41834584 -0.10547484 0.009969846 -0.33069712 0.07249377 0.00876148 0.007010704 -0.06379693
0.01783182 0.06268913 0.0636765 0.062994525 0.09358562 0.08473171 -0.33767435 0.010285974
-0.08095144 -0.4005261 0.016867295 0.08542426 -0.57903093 0.011378436 0.063793994 -0.13544402
-0.03889439 -0.36212808 0.0022441095 -0.026208747 -0.0051408843 -0.01647306 -0.5526311 -0.011073441
0.03405466 -0.12148104 -0.5005166 0.015630893 -0.13771379 -0.42639405 0.06368593 0.045290958
-0.31062013 0.045144126 -0.31042174 -0.26846656 -0.040404744 -0.08429177 -0.2315396 -0.10308352
-0.005100459 0.010049362 -0.24590975 -0.26624098 -0.3701511 -0.023342915 0.04580526 -0.06733768
-0.030666746 0.070677 -0.04356275 -0.07327746 0.013875873 -0.047347166 -0.33643356 -0.030037835
-0.40151358 0.06520479 0.015955074 -0.30754 0.001470571 0.016638078 -0.056058668 -0.0666638
0.12815239 0.011735535 0.060432263 -0.048288442 0.05484233 -0.15239258 -0.30415863 -0.023735391
0.0033817692 -0.40897772 -0.01945211 0.04050617 -0.57600623 -0.005707842 0.03778848 0.02748524
0.08593131 -0.3612017 -0.007859266 0.005865891 0.048221953 -0.009605762 -0.5543351 -0.035594955
-0.0674912 -0.04806315 -0.5120282 0.058139965 -0.11660713 -0.3370919 0.0892658 0.05760137
-0.33138338 -0.0698448 -0.32506958 -0.2551032 0.0017915596 0.050051037 -0.2316111 -0.021100866
0.014310756 -0.041746035 -0.26887712 0.06754633 -0.3686105 0.05133457 0.08964561 0.1018994
0.04278819 0.06448463 0.044663347 0.042414583 0.042222798 -0.0123296 -0.3254124 0.00518167
-0.39391166 0.07671264 0.004545081 -0.34510025 -0.031942815 -0.0956946 -0.0022086236 0.046728708
-0.034951977 -0.012501192 -0.08603416 -0.13005753 0.007242386 0.037467718 -0.3521669 0.08960296
0.00597965 -0.41277444 0.009668934 -0.008561015 -0.571635 0.023003012 -0.1001579 0.023990944

fc3.bias f4 [3]
00000000: 371a 58bf a06d 62bf 5acc 67bf
-0.84415 -0.88448524 -0.9054619
