acrobot/acrobot.pt (torch_old, 6553 bytes, 6 tensors)

fc1.weight f4 [32, 6]
000000 99 31 a9 3e dd ea 84 3f 24 94 98 3f 8a 85 0e 3f
       0.33045653 1.0384175 1.1920209 0.55672514
000010 3a 0b 50 be c7 5b da be 48 04 5e 3e ee 5d 40 bf
       -0.20316783 -0.42648146 0.2168132 -0.75143325
000020 2a 9c 2c 3f c1 02 37 bd 36 cd 3c 3f e1 b3 07 bd
       0.6742579 -0.04468036 0.7375063 -0.03313053
000030 c6 d5 6b 3d a3 15 1d be 21 fa e1 bd 38 09 73 be
       0.057576917 -0.15340285 -0.110340364 -0.23733985
000040 4d f1 f3 3c 2f b6 ba bd 55 9c bf 3f a9 69 a0 bd
       0.029778147 -0.0911678 1.4969584 -0.07832653
000050 0c 4a 62 bf bf 5a 09 be 6f 21 c0 3d 91 73 53 3d
       -0.88394237 -0.13413523 0.09381377 0.051623885
000060 48 f0 90 be 00 25 a7 bf 23 08 ae 3d 77 5a 4b bf
       -0.2830832 -1.3058167 0.08497646 -0.79434913
000070 a8 fe bf 3e 9f ef dd bc 63 26 8c 3e 7e 32 cf be
       0.37498975 -0.0270918 0.27373037 -0.4046821
000080 04 6c db 3d 75 b3 96 3e c5 b1 82 be 99 3c ac be
       0.10713962 0.2943379 -0.25526252 -0.33639982
000090 15 21 21 bf 85 19 ff 3e de f9 3c 3f 02 9c f3 bc
       -0.62941104 0.49824157 0.7381877 -0.029737476
0000a0 95 3c e7 bd 6a 69 5e 3e ce 13 2b bd 93 f0 96 bd
       -0.11290852 0.217199 -0.041766934 -0.07370105
0000b0 46 4d 50 3f b8 3d 1c bf 19 f9 a8 be 60 1e 61 bd
       0.8136791 -0.61031675 -0.33002546 -0.05496061
0000c0 9a 86 95 bd 33 59 6b be 21 fe 3b bf b5 e3 2d 3f
       -0.07301064 -0.22983246 -0.73434645 0.6792558
0000d0 dd d0 0e 3c a0 f9 a3 be 58 5a e0 3d 2d 45 30 3f
       0.008716789 -0.32026386 0.10954732 0.68855554
0000e0 57 f2 87 3e ac ab 99 3e 43 52 81 3e 6a be d0 3e
       0.26552078 0.30013788 0.25258073 0.40770274
0000f0 06 be d0 be f8 40 bb 3e bd 42 f3 3d 9d 0c c8 3e
       -0.40769976 0.36573005 0.11877964 0.39072123
000100 6a 61 0e 3d 9f 12 7c bd 69 aa 34 bf d6 f2 bc 3e
       0.03476087 -0.061541196 -0.70572525 0.3690402
000110 a9 9e 55 bf e1 92 ba be 91 23 1c bf 91 dd b5 be
       -0.8344522 -0.36440185 -0.6099177 -0.35520604
000120 5a c6 33 3f a2 42 20 3f 32 81 b0 3f 10 ac c4 be
       0.70224535 0.62601674 1.3789427 -0.38412523
000130 6c 8a b9 be a0 f6 f9 3b 7d a2 8c bf 91 e9 33 be
       -0.3623842 0.007628277 -1.0987087 -0.17569567
000140 cf d4 1a 3f 10 4a 81 3e 53 5c 09 bf 51 3c 74 be
       0.6048097 0.25251818 -0.536565 -0.23851134
000150 f2 fb a8 be 9d 8b 0d 3f 38 d5 ab 3e ad 6d 61 3d
       -0.3300472 0.5529116 0.3356111 0.055036236
000160 11 01 c7 be d7 d4 52 be 9f d5 e5 3e 8a 17 c2 bf
       -0.38868 -0.20589004 0.44889542 -1.5163434
000170 f2 1a c5 be cb 35 07 3f 25 79 5f bf 97 68 b0 be
       -0.3849712 0.52816457 -0.87294227 -0.34454796
000180 88 f0 7c 3e 33 45 aa 3e 44 00 9f be 5d 50 40 be
       0.2470113 0.3325592 -0.3105489 -0.18780656
000190 c5 63 ca be e2 22 1b be c0 93 a6 3a 02 dc 04 be
       -0.39529243 -0.15150025 0.0012708828 -0.12974551
0001a0 27 50 25 bf ac 24 7b be fb 97 16 3d 25 9c 0d 3e
       -0.6457543 -0.24525708 0.036766034 0.13829096
0001b0 5a 69 f5 3e 71 a8 5f be 5d e8 67 bf 58 89 7c be
       0.4793194 -0.21841599 -0.90588933 -0.24661767
0001c0 b5 88 d6 be 22 a1 db bd e8 29 d0 3e 0b d0 36 bf
       -0.41901174 -0.10724093 0.40656972 -0.714112
0001d0 b7 4a c1 3e 3e a5 85 bf 23 ce 85 be 7c c6 42 bc
       0.37752315 -1.0441053 -0.26133832 -0.011888143
0001e0 ba da a3 3e 8a e2 16 3f bd 30 5d 3e 0a 1e 72 3f
       0.32002813 0.5893942 0.21600623 0.94577086
0001f0 73 8b 86 be e4 3b 5d be 99 8e d1 3e f3 31 85 3f
       -0.26278266 -0.21604878 0.40929106 1.0405868
000200 f5 2a c0 be 1c bd 93 3d 76 b8 a0 bd 2e 18 b0 bc
       -0.37532774 0.07213804 -0.07847683 -0.021495905
000210 46 5c 6b be 08 41 be bd aa d8 a3 be fd 7e 0a 3d
       -0.22984418 -0.092897475 -0.3200124 0.03381251
000220 9f dc 9c 3e c9 af 4d 3e 30 0e 40 bf 53 2a a3 be
       0.3063707 0.20086588 -0.7502165 -0.31868228
000230 86 ca cd bc e4 a9 e2 be 2f a9 a2 3e fb ea fa bd
       -0.025120985 -0.4427024 0.31769702 -0.1225185
000240 20 2a 26 bf 49 4c ea 3e 1c f8 d7 3e b2 82 fa 3e
       -0.6490803 0.45761326 0.4218148 0.48927838
000250 76 5a 93 3d 84 96 40 be 53 46 de be 50 31 57 3f
       0.071949884 -0.18807417 -0.43413028 0.8405962
000260 71 47 6d be 32 cc 51 be 11 6d 26 3f 20 3c ea 3d
       -0.23171784 -0.2048805 0.6501017 0.11437249
000270 87 69 ab 3d 25 5c a1 3e ed 30 c6 3e e0 95 bc 3c
       0.08369737 0.31515613 0.38709202 0.023020685
000280 0e 58 bf 3e 67 4b b9 3e 29 ae c8 3e c5 15 6f 3d
       0.37371868 0.3619034 0.39195374 0.05837037
000290 6f 64 89 3e 77 33 af be 67 6c 95 be 74 96 24 3d
       0.26834437 -0.34218952 -0.29184267 0.040182546
0002a0 06 16 01 bf a1 64 99 bf 32 41 29 bf 8c 0c a7 3e
       -0.5042423 -1.1983835 -0.66115105 0.3262676
0002b0 9e 84 c1 be 78 48 82 be 95 72 2f 3e f3 df 93 3d
       -0.3779649 -0.25445914 0.17133553 0.07220449
0002c0 1e 1e 09 3f 01 51 36 bc e1 99 e5 3d 02 60 39 3e
       0.5356158 -0.011127711 0.11210991 0.1810303
0002d0 51 e2 25 3e 46 c4 1e 3f a4 50 ac 3d a4 6a 8e 3f
       0.16199614 0.6201824 0.084138185 1.1126294
0002e0 ce 2b cd 3e d3 a4 76 be aa be 23 bf 83 a5 9d 3f
       0.40072483 -0.24086313 -0.63962805 1.2316135
0002f0 9e 4a 5f bc 9c 72 c0 be e3 7a 15 be ff f2 e3 3e
       -0.01362863 -0.3758744 -0.14597659 0.4452133

fc1.bias f4 [32]
000000 ba d8 67 3f ab c9 3a 3f 4d 93 da 3f 6a d0 ab 3f
       0.90565073 0.7296397 1.7076203 1.3422978
000010 61 e0 31 3f 1e c9 c2 3f 91 8c a4 3f b1 51 4a 3f
       0.69483 1.5217626 1.2855397 0.790309
000020 26 22 01 bf c2 f6 6c 3f 90 bf eb 3f 77 66 b1 bf
       -0.5044273 0.9256402 1.8417835 -1.3859395
000030 e6 eb ae 3f 88 96 f2 3e 8c 46 13 3e e0 ad 3a 3e
       1.366574 0.4738047 0.1438238 0.1823039
000040 76 be c6 3e 51 38 d8 3f ed 35 1b 3f 0e 08 3c 3f
       0.38817185 1.6892186 0.6062916 0.7344979
000050 85 98 5c bf a0 0c be 3f e3 39 f2 3f 6d c9 34 3f
       -0.86170226 1.4847603 1.8923916 0.7061985
000060 89 f7 d2 3f 79 0d 32 3f c0 79 3d 3f 5a 36 ca 3f
       1.6481792 0.6955181 0.740139 1.5797837
000070 1d 0c 06 bf 8e 61 fa 3f de 2f b9 3e 1c 6a 19 3f
       -0.52362233 1.9561021 0.36169332 0.59927535

fc2.weight f4 [32, 32]
000000 3d 1e c6 3d da 6e f1 3e dc 55 7b 3f 17 9d bf 3e
       0.09673736 0.47154886 0.98177886 0.37424538
000010 24 90 67 3e 5a 9e 49 3f 7a b2 db 3e dc ba 36 be
       0.22613579 0.7875725 0.42909604 -0.17844719
000020 86 b4 1c be 8b 10 8d 3d bc b7 93 3f 37 cc 34 3e
       -0.15303239 0.06887921 1.1540446 0.17656027
000030 11 5f 02 3f 5d 79 19 3f 7b 81 42 be 1d dc ca 3d
       0.5092631 0.5995081 -0.18994705 0.099052645
000040 ff 68 28 3c 06 9b 7c 3f 4c ae ac 3d 03 94 68 bc
       0.010278939 0.98674047 0.08431682 -0.014195445
000050 32 9b d4 be 24 11 39 3f 2f d7 6b 3f 11 b9 0d 3f
       -0.41524655 0.7229178 0.9212522 0.55360514
000060 19 52 9e 3e 6b 2b 00 3e f8 e0 2f be ec cd 73 3f
       0.3092201 0.12516563 -0.17175663 0.95236087
000070 86 57 7b bd 84 1e 6c 3f 66 8d 73 bd 08 60 a0 be
       -0.061362766 0.92234063 -0.05946102 -0.31323266
000080 4e f3 14 3e 10 30 24 3f ca 12 68 3f 81 0c 77 3e
       0.14545938 0.6413584 0.9065367 0.24125864
000090 a4 87 41 3e 8b 80 3a 3f 4e b9 94 3e 4e 96 44 3e
       0.18899399 0.7285239 0.29047626 0.19197962
0000a0 56 62 a0 be 25 01 8b bc bb 9d 9d 3f c8 3d 16 bd
       -0.31325024 -0.01696832 1.231376 -0.036680013
0000b0 d0 4c 2e 3f e4 85 a2 3e b9 20 86 be 01 32 95 3e
       0.68085957 0.31742775 -0.2619684 0.29139712
0000c0 84 85 d4 3d 7a 82 89 3f d1 66 06 be 33 e9 2c be
       0.103770286 1.0742943 -0.13125159 -0.16885833
0000d0 6b d8 bc be e4 02 42 3f a0 2d 6b 3f d5 da 34 3f
       -0.36883864 0.7578566 0.91866493 0.7064641
0000e0 2b 72 a8 3e 1d df 0a 39 8d 6a 23 be 6b 8c 6d 3f
       0.32899603 0.00013243822 -0.15958615 0.92792386
0000f0 95 b9 1f be 0c 2a 33 3f 73 49 82 be 53 85 25 bd
       -0.15598138 0.69986033 -0.25446662 -0.04041035
000100 02 b6 ec 3d 7d 7b fa 3e 03 d1 6a 3f 76 b1 3c 3e
       0.11558153 0.4892234 0.91725177 0.18427071
000110 ca 5c 27 3e 63 d4 35 3f 97 f2 b0 3e bd 55 20 be
       0.1634399 0.710272 0.3456008 -0.15657707
000120 b6 22 b7 be 94 ad 94 3c 29 50 8e 3f ef 78 b6 3d
       -0.3576867 0.018149175 1.1118213 0.08909785
000130 00 69 02 3f ce 9c 36 3f 7b 6d 4a be 5b bc 1a 3e
       0.5094147 0.71333015 -0.19768326 0.15110914
000140 a3 df 0c 3e 96 05 4d 3f e3 b5 42 be e6 52 29 3e
       0.13757186 0.8008665 -0.19014697 0.1653553
000150 0d 93 8c be 58 33 69 3f bd 71 6f 3f ad b8 0b 3f
       -0.2745594 0.9109397 0.93532926 0.5457867
000160 86 85 73 3d 3c 9f 11 be 75 43 ea bc 59 50 30 3f
       0.05945351 -0.142209 -0.02859662 0.688726
000170 27 8f 2d 3e f9 21 4f 3f 91 ab dd bd 4f 24 3b be
       0.1694914 0.80911213 -0.10823739 -0.1827557
000180 f0 9d c7 3d 45 96 c6 bd 4c a7 89 3f ed 13 b8 bc
       0.09746921 -0.096966304 1.075418 -0.022470439
000190 ff 17 eb 3d 83 b3 83 3e 47 22 a7 3e 1e 6c ab bd
       0.11479186 0.25722894 0.3264334 -0.08370231
0001a0 e9 9e 01 bf c0 45 70 be b1 3f 88 3f 9c 33 ed 3e
       -0.506331 -0.23464108 1.0644437 0.46328437
0001b0 3f 22 32 3f 05 30 45 3e 36 4c 27 be f7 b4 dd 3e
       0.69583505 0.19256599 -0.16337666 0.43302128
0001c0 8a d9 98 3c 9d c0 55 3f 8f d5 f7 3c 61 6e f4 bd
       0.018658418 0.8349703 0.0302532 -0.119351156
0001d0 6c 8f 22 bf 40 90 c3 3e 1e ad 44 3f 6a d9 74 3f
       -0.63500094 0.38195992 0.76826656 0.9564425
0001e0 ef 9d 80 3e 66 69 23 be f5 d6 ec be b4 e7 69 3f
       0.25120494 -0.15958175 -0.4625775 0.91369176
0001f0 78 f4 11 be 94 0e 22 3f 6d f3 ae 3d 2e cf 41 bc
       -0.14253414 0.63303494 0.085425235 -0.011829181
000200 57 97 59 bc 64 2f d3 3d 9a 0a 0b 3d 8f 85 d8 3e
       -0.013280711 0.103117734 0.033945657 0.42289397
000210 eb dd 11 3d 0f 19 ec 3c 92 c8 01 3f ea ee 2c 3f
       0.035612028 0.028820543 0.5069667 0.67552054
000220 3e 00 27 3d 2d 51 f2 3e 7c c5 ed bd c0 e6 d3 be
       0.040771715 0.47327557 -0.11609933 -0.41386986
000230 6c 79 76 be 24 fe 1f 3f a6 7c fe 3d d3 b6 97 3e
       -0.24069756 0.6249716 0.124261186 0.2963167
000240 26 8a bc 3e f6 ba 47 be 73 3d 73 3e d6 94 bd 3e
       0.3682415 -0.19504914 0.2375391 0.37027615
000250 97 57 e1 bd d1 db 97 3e b4 b7 52 be 5c 62 5d 3f
       -0.110030346 0.29659894 -0.2057789 0.8647821
000260 8f fc 2a 3e e1 e2 5c 3e 71 c8 65 3e 70 85 08 bd
       0.16697906 0.21570922 0.22439744 -0.03333038
000270 9b c1 a7 3f 8d df 03 bf c3 49 c4 3e 67 dc 6d be
       1.3105959 -0.51512986 0.38337526 -0.23228608
000280 54 01 2a be d9 4a b1 3d 14 42 1c bc bc 2f 33 3d
       -0.16602069 0.08656854 -0.009537239 0.043746695
000290 49 c6 9c bd e0 d3 9b bd 06 14 12 bd 4b e9 cb 3d
       -0.076550074 -0.07608771 -0.035663627 0.099566065
0002a0 d3 69 a2 bc a0 24 e4 bd 33 5a 04 3e d2 ea a3 bc
       -0.019825852 -0.11139798 0.12925033 -0.020009432
0002b0 2a 9f 95 3d a0 bb 20 3c 9b 68 a0 3d e7 ee 00 3d
       0.07305749 0.009810358 0.07832452 0.031477835
0002c0 25 fe 27 be ac 16 50 3d e8 cc 46 bd 91 48 2e be
       -0.16405542 0.05080287 -0.048535258 -0.1701987
0002d0 af f6 6d bd 86 30 4c be 04 d4 0e be 15 6e 52 be
       -0.058096584 -0.19940385 -0.13948065 -0.20549805
0002e0 94 a5 53 3d b4 25 59 bd 8c f7 38 bd 10 b0 b3 3b
       0.05167158 -0.053014472 -0.045157954 0.005483635
0002f0 3f a3 65 3d 9a 8f 2a be 14 08 4b 3d 3c 8d 72 3d
       0.056063887 -0.16656342 0.04956825 0.059216723
000300 ea 5c 32 be e7 d6 99 3d ed d5 1d be 4d 97 13 be
       -0.17418256 0.075116925 -0.15413637 -0.14413185
000310 98 f7 3a be 80 7f e8 3d 8b 62 ff bb f3 1b e0 3d
       -0.18258512 0.11352444 -0.0077937297 0.10942831
000320 e6 a2 14 be 17 78 10 3d 48 49 b7 bd 28 26 6b be
       -0.14515266 0.035270777 -0.08949524 -0.22963774
000330 02 7c 93 bc d7 70 5d be f1 c9 83 bc 29 42 ec bd
       -0.018003467 -0.21625076 -0.016087504 -0.115360565
000340 0c bf 16 bd 55 2d ee bb 92 5c 37 3d ea f5 4c be
       -0.03680329 -0.0072685876 0.044766016 -0.20015684
000350 78 d5 12 3d 9f 57 82 bc e5 c4 94 3d e9 7b c4 3d
       0.03584811 -0.015910922 0.07264117 0.095939465
000360 49 fd 3a be 4f 8f 8b bc fa 65 4d be 61 9e 5e 3d
       -0.18260683 -0.017036108 -0.20058432 0.05435026
000370 b0 da 4b 3c fb 7e 0d 3d 42 03 d3 bd cb 2a 78 3d
       0.012442276 0.034544926 -0.10303356 0.060587686
000380 2f 21 46 3e 62 d4 72 3e 24 c1 74 3f a0 70 a7 3e
       0.19348596 0.2371383 0.9560721 0.32703114
000390 e7 a8 70 3e 6d ce 18 3f e3 89 ec 3e 9c 83 8e bd
       0.23501931 0.5968998 0.4619895 -0.06958696
0003a0 6b fa c8 be a7 5c 5a be 27 50 aa 3f 30 64 54 3e
       -0.39253554 -0.21324407 1.330571 0.20741343
0003b0 26 34 1e 3f 52 85 3c 3f f4 c4 03 bd ad db 88 3e
       0.6179832 0.7364093 -0.03217025 0.267301
0003c0 e7 5c 2b 3e 99 91 65 3f 3e 64 f5 bd ae 94 90 3d
       0.16734658 0.8967529 -0.1198201 0.070596084
0003d0 cf ad d5 be 25 ff 11 3f 83 d0 65 3f 54 a6 be 3e
       -0.41734168 0.57029945 0.8977129 0.37236273
0003e0 6b ad 8c 3e fe e7 d4 3d b9 c9 5e 3d 60 b0 79 3f
       0.27476057 0.103958115 0.054391596 0.9753475
0003f0 00 7c 84 3e e3 35 3d 3f c6 e1 f5 bd 55 78 b5 be
       0.25875854 0.7391035 -0.120059535 -0.3544337

fc2.bias f4 [32]
000000 e1 a2 b9 3f 83 ac ad 3f 3e ec cd 3f ec 3a d0 3f
       1.4502832 1.3568271 1.608772 1.6267982
000010 5c 6c d3 be 9a cc 51 be 70 1f 0d 3d 1c 3d c4 3f
       -0.4129361 -0.20488206 0.03445381 1.5331149
000020 d7 c5 fc 3e bd 91 3d 3f fb ea 5e be 82 d7 13 bf
       0.4936969 0.74050504 -0.21769325 -0.57750714
000030 f4 b2 bb 3f c4 06 f6 be 8d b9 1b 3f ab c7 37 bf
       1.4663987 -0.48052037 0.60830003 -0.71789044
000040 3a 55 c1 3f a5 41 0d bf 78 d2 b7 3e 16 72 e1 3d
       1.5104134 -0.5517829 0.35902762 0.11008088
000050 48 b3 af 3f da 22 c5 3f 76 b1 36 3f d6 bc 07 bf
       1.3726587 1.5401261 0.71364534 -0.53022516
000060 0d 1a af be 32 43 cc 3f da cd b2 3f 5a bc bf 3f
       -0.34199563 1.5958006 1.3969071 1.4979355
000070 ab d9 c3 3f 72 be 2e bf 8b cd b6 3f ed aa 34 3f
       1.5300802 -0.68259346 1.4281477 0.7057331

fc3.weight f4 [3, 32]
000000 ec a2 05 bf f3 68 05 bf 68 a9 dc be 38 b5 7e bf
       -0.52201724 -0.52113265 -0.43097997 -0.9949527
000010 d5 49 59 3f 3c 13 59 bc 4d 94 bc 3d 4a 87 e4 be
       0.84878284 -0.013249215 0.09207974 -0.44634467
000020 4e 02 0e c0 79 e5 cb bf 43 2c 09 3f 9a 72 88 3f
       -2.2188907 -1.5929404 0.53583163 1.0659974
000030 20 eb 82 be 44 78 c7 3f 1a 85 ce bf 41 92 8b 3f
       -0.2557001 1.5583577 -1.6134369 1.0904008
000040 9d 83 27 bf a7 96 95 3f 33 ec 6a bf e3 ac b5 bd
       -0.654352 1.16866 -0.9176666 -0.08870866
000050 74 b8 21 bf 55 a7 1c bf 77 c5 66 bf 82 f0 57 3f
       -0.6317208 -0.6119283 -0.9014506 0.8435136
000060 5b 2d a8 3f 11 26 dc be cb 9a 0d bf 73 75 fb be
       1.3138841 -0.42997792 -0.5531432 -0.49113044
000070 e4 e4 2f bf 60 87 62 3f a2 84 0f bf 17 36 c1 bf
       -0.68708634 0.88487816 -0.56061757 -1.5094632
000080 56 45 d5 be 9d 39 a9 be 52 31 05 bf e1 4e 3a bf
       -0.41654462 -0.33051768 -0.5202838 -0.7277661
000090 2a 3b 0f 3f c5 c1 39 3d b0 be 4f bc 34 0d 24 bf
       0.5594965 0.04535081 -0.012679741 -0.64082646
0000a0 d9 72 a1 bf 7e df 8b bf d6 1f 48 3f d5 55 db 3e
       -1.2613174 -1.0927579 0.7817358 0.42838922
0000b0 57 32 40 bf 6c 0f 8c 3f 4e 00 91 bf 96 4c 6d 3f
       -0.7507681 1.0942206 -1.1328218 0.92694986
0000c0 a5 d2 fa be f1 e1 ab 3f 3d 56 57 bf 8d 7d a6 ba
       -0.48988834 1.3428327 -0.84115964 -0.0012702212
0000d0 0a aa 2b bf 11 a3 af be 76 e2 34 bf 42 51 93 3f
       -0.67056334 -0.34304097 -0.7065805 1.1509173
0000e0 d4 bd af 3f 35 c8 21 bf 73 96 23 bf 21 ca 0b bf
       1.3729806 -0.63196117 -0.6390144 -0.546053
0000f0 80 41 22 bf 89 97 74 3f 5c 94 1f bf c4 4e b2 bf
       -0.63381195 0.95543724 -0.62335753 -1.3930287
000100 3b c5 1a bf 1f 3c 24 bf 7a 71 13 bf 60 42 59 bf
       -0.604572 -0.6415424 -0.57595026 -0.84866905
000110 eb 55 02 3f 1a be 48 3c 78 4b 95 3d 71 10 04 bf
       0.5091235 0.012252355 0.07289785 -0.5158759
000120 3a 9d 8e bf 2c ee 89 bf 0e 46 9b 3f 65 5d 1f 3e
       -1.1141732 -1.0775809 1.2130754 0.15562971
000130 93 86 2c bf 2b 6c 91 3f d8 d0 31 bf e3 3f 36 3f
       -0.67392844 1.1361135 -0.69459295 0.71191233
000140 67 d5 c5 be ce e6 8f 3f 7d 8e 2e bf 19 aa e7 3d
       -0.38639376 1.1242311 -0.6818617 0.113117404
000150 f5 4a b0 be 02 e4 15 bf 61 16 3a bf 95 f8 88 3f
       -0.34432188 -0.5855104 -0.726904 1.0700861
000160 72 5a 9c 3f d2 a3 14 bf 11 30 1e bf 38 2d 1f bf
       1.2215102 -0.5806247 -0.61792094 -0.62178373
000170 d2 69 27 bf d8 51 5f 3f 61 70 57 be e3 45 d4 bf
       -0.65395844 0.8723426 -0.21038963 -1.6583828

fc3.bias f4 [3]
000000 62 1c 3e bf b2 29 55 bf 32 92 76 bf
       -0.7426206 -0.83266747 -0.96316826
