bipedal_walker/bipedal_critic.pt (torch_old, 798477 bytes, 9 tensors)

fc1.weight f4 [600, 24]
000000 e7 75 57 3e d7 15 cd 3d 81 2e 82 be 5c ab 3e bd
       0.2104107 0.10013931 -0.25426105 -0.04655014
000010 e5 9c 7f 3e 43 6d d5 bd 6d db 44 3e 9d 7c 20 bd
       0.24962194 -0.10421231 0.1922433 -0.03918134
000020 5e 9b 12 3e 5f 7b 48 3d b9 46 34 3e d9 05 cd bc
       0.1431708 0.04894578 0.17605104 -0.025027202
000030 12 a4 8c 3c ed ac 86 3d a1 71 e9 bd 11 75 bf bd
       0.017168079 0.06575952 -0.11398626 -0.093485005
000040 b9 fe c0 bd ab 95 f2 bd e0 bc 8d bd 12 84 ec bd
       -0.094235845 -0.11844953 -0.06920791 -0.11548628
000050 1c 90 e3 bd 94 ba 91 bd b2 ac 0c be 12 1a 84 3d
       -0.11111471 -0.07115665 -0.13737753 0.06450285
000060 bc c0 a2 3e f3 80 57 3e c9 88 04 bf d4 dd d9 3c
       0.3178767 0.21045284 -0.5177122 0.026595034
000070 be ee cb bd 03 35 59 3d 07 b6 b1 3d 46 db bb bc
       -0.09957646 0.05302907 0.08677297 -0.022931706
000080 7d 7b 2e bc db 26 dc 3d 2c bb 5e 3a 95 74 ce bd
       -0.010649559 0.107495986 0.0008496519 -0.1008083
000090 fe 07 c0 3d 76 b8 05 3e 52 1e b7 3d fb 2c b4 3d
       0.093765244 0.13058648 0.0894133 0.08797642
0000a0 c0 f3 ab 3d 59 64 02 3e e5 5b d3 3d ec 9e 01 3e
       0.08396101 0.12733592 0.10320262 0.1265828
0000b0 89 4c b7 3d 27 12 0b 3e b2 04 b1 3d 10 8f 92 bd
       0.08950145 0.13581143 0.08643474 -0.07156193
0000c0 5b 06 02 be a6 d8 46 3e a0 44 63 3e 1d e9 bf 3e
       -0.12697737 0.19418582 0.22194147 0.3748254
0000d0 24 5f 70 bd b6 6a b3 be f6 b5 0e 3c 04 b9 9f 3d
       -0.058684483 -0.3504235 0.008710375 0.07798961
0000e0 40 f4 2b 3d 9e d5 94 bd f9 e5 1d be c9 f4 13 bd
       0.04198098 -0.07267307 -0.15419759 -0.036122117
0000f0 a9 80 74 be f8 79 d3 3d 42 63 f0 3c 60 1e 19 3d
       -0.23877205 0.10325998 0.029344205 0.037382483
000100 39 b1 33 3d 7e 4a b5 3c ee dc 5a 3d fe 54 6c 3d
       0.043870185 0.022130247 0.05343335 0.057698242
000110 1d d3 48 3d ff 24 36 3d 97 59 99 3c 53 6f 44 3e
       0.04902946 0.044468876 0.018719478 0.19183092
000120 d7 50 28 be 54 24 8c be 57 62 b2 3d bf c3 d8 be
       -0.16437088 -0.27371466 0.08710163 -0.42336842
000130 d7 b0 3e be 0f f2 46 be 61 4f 53 be 83 02 d8 bb
       -0.18622147 -0.19428276 -0.2063575 -0.0065920963
000140 cf 9f b6 3c 4a 63 0b 3e b6 a0 37 3e e6 1a 8d bc
       0.022293 0.13612095 0.179324 -0.01722474
000150 87 32 01 3d 1b 3e e8 bd 19 b7 17 bd 53 78 71 bc
       0.031542327 -0.11339971 -0.03703985 -0.01473816
000160 27 53 4a bd d0 72 21 bc 6d 4a d4 bc 8a 30 17 bc
       -0.049395707 -0.009854034 -0.025914395 -0.009227881
000170 33 49 53 bd 9d b0 27 bd 8a 82 52 3e 83 e5 8a 3e
       -0.05158348 -0.040939916 0.20557609 0.2712823
000180 24 2a 0f 3e 5a 54 e9 3e 4c f7 71 3c c0 c6 dd 3e
       0.13980919 0.45572168 0.014768433 0.43315697
000190 29 8d 3a bb e4 07 f9 bd be 78 0d bf f7 5b a1 3c
       -0.0028465486 -0.12159708 -0.5526236 0.019697173
0001a0 b1 b9 e1 bd 89 3e 20 3d f2 97 9a 3c 51 5c b2 bd
       -0.11021746 0.03912214 0.018871281 -0.08709014
0001b0 b4 2b ce 3d dd cb 61 bc ec d4 36 bd 87 ce 8d bc
       0.100669295 -0.013781515 -0.044636652 -0.017310394
0001c0 1b 0d 30 bd 50 6e 74 bb 58 0f 8b 3b 4b ed d8 3b
       -0.04298125 -0.0037297197 0.0042437725 0.0066200844
0001d0 08 0b 28 bb 8e 57 02 bd e0 ba 8e 3c d5 77 a7 3c
       -0.002564134 -0.03182178 0.017423093 0.020442883
0001e0 7a b1 8d bc 5e 39 82 3f 4e 4e 0a bd fe 3d 10 3f
       -0.017296541 1.0173757 -0.033766083 0.5634459
0001f0 d5 49 08 3d 2b 32 80 bb 5e aa 41 bc 96 9c 88 bb
       0.033273537 -0.0039122305 -0.011820404 -0.004169057
000200 89 99 ba 3b 78 5a 02 bb e3 1e 64 3d b1 41 c6 bc
       0.0056945723 -0.001989035 0.05569352 -0.024201246
000210 83 8d b6 3c 5c 2a 6a bc a2 2b d2 3d da 49 56 3d
       0.022284275 -0.014292326 0.102622285 0.052316524
000220 b9 59 62 3d b0 da 42 3d 2b 42 85 3d 43 93 c2 3d
       0.055261347 0.047571838 0.06506761 0.09500744
000230 a2 5b 34 3d 34 3d d1 3d 62 7d cd be d6 79 80 bf
       0.0440327 0.10216752 -0.40134722 -1.0037181
000240 0f 62 a6 bd ae b1 9e be 46 91 81 3d e6 84 6c 3e
       -0.08124172 -0.30994934 0.06326537 0.23097572
000250 35 db 79 be 1f 1d 15 bd a2 23 9e be 24 69 74 bd
       -0.24400027 -0.036404725 -0.3088656 -0.059670582
000260 f4 4d 0f bc 2b 28 b6 3d b4 d6 b0 bc cf 85 bf bd
       -0.008746613 0.0889438 -0.021586753 -0.09351694
000270 56 58 1c 3d 12 ac 91 bc 5c f8 2c 3e a6 d1 64 3e
       0.03817018 -0.017782245 0.16891617 0.223456
000280 6a c5 65 3e 86 a1 44 3e 45 b4 3a 3e 37 4b 36 3e
       0.22438589 0.19202241 0.1823283 0.1780213
000290 1f 66 7c 3e 55 f5 7e 3e 74 07 2a 3e 92 99 19 3f
       0.24648331 0.24898274 0.16604406 0.59999955
0002a0 51 ce b8 3d 20 67 73 3e e7 0c 5d 3f f3 a0 fc 3d
       0.09023727 0.23769808 0.8634781 0.12335386
0002b0 12 19 cd 3c 76 22 38 bc 93 0e e1 bd 03 d9 5c bc
       0.025036369 -0.011238685 -0.10989108 -0.013479474
0002c0 03 d7 6e 3d 8f d2 4f 3d 2c 31 bc 3c 60 a7 d3 bd
       0.05831052 0.050737914 0.022972666 -0.103346586
0002d0 f3 ab cd bd 7a 8e c2 3d a1 11 12 3d 7d 23 96 3d
       -0.10042562 0.094998315 0.035661343 0.073309876
0002e0 36 2d 19 3d ca 2b 5e 3d f6 fa e6 3c 4c 3c 6a 3d
       0.037396632 0.05424098 0.02819584 0.05718641
0002f0 30 c5 79 3d 52 02 7a 3d e8 c6 58 3e 3c 7b 11 3e
       0.06097907 0.06103737 0.21169627 0.14207166
000300 97 fa 87 3c f5 39 7e bd 38 bf 94 bd b8 c5 85 3d
       0.016598983 -0.06206699 -0.072630346 0.065318525
000310 91 50 6c bc e9 98 a1 3d 7e ca fc bd bc 26 e8 3c
       -0.014423505 0.078904934 -0.1234331 0.028338782
000320 14 c1 40 3c 4f f6 d1 3d 90 d2 ce b9 e7 9c bc 3c
       0.011764783 0.10252058 -0.00039448263 0.023024036
000330 19 8c 5b be 2e 5a 72 bc 09 a9 02 3e 08 5c 02 3e
       -0.21440162 -0.014792008 0.12759794 0.1273042
000340 eb ae 09 3e f5 46 0f 3e f5 98 1c 3e 92 83 35 3e
       0.13445632 0.13991912 0.15292723 0.17725971
000350 90 23 4e 3e a0 27 78 3e 70 ba 48 3d 84 2e 56 bc
       0.20130754 0.24233866 0.049005926 -0.013072614
000360 22 e3 ac bd 3c 7f 12 be cd a7 80 be 2b 6d 2b bf
       -0.0844176 -0.14306349 -0.25128022 -0.6696345
000370 a7 a5 db bd ed 8e 94 bd cf 61 fc 3b f5 4d 4b bc
       -0.10724955 -0.072538234 0.0077020894 -0.012408723
000380 0e 83 04 3d af 94 2e 3e 34 68 54 3d 37 2d 0b 3e
       0.032351546 0.17048906 0.05185719 0.13591467
000390 db 4a ee 3d 2a 89 58 3d 91 cb 1f 3e 42 80 33 3e
       0.11635371 0.052865185 0.15604998 0.17529395
0003a0 26 a8 02 3e 76 76 0d 3e ac 9c 40 3e 74 46 3f 3e
       0.12759456 0.1381472 0.18809766 0.1867922
0003b0 2f b4 3a 3e 28 0f 4e 3e 9a b0 29 3e 27 6e 8d 3e
       0.18232797 0.20122969 0.16571274 0.27623102
0003c0 e9 7c 3d 3e 54 0b 7d 3e 39 02 ea bb 9b 39 aa 3c
       0.1850468 0.24711353 -0.0071413782 0.020779422
0003d0 ae ca 1f be 12 a7 b5 bd 89 15 05 bd 5c ce c8 3d
       -0.1560466 -0.08869757 -0.03249124 0.09804985
0003e0 b2 ea 4b 3d 18 f6 8e be dd 83 9e bd 4c d3 98 bd
       0.04978437 -0.2792213 -0.07739995 -0.07462177
0003f0 a6 aa 92 bc 9f 45 c1 bd 5e 15 c2 3d a8 f1 c7 3d
       -0.017903637 -0.09437107 0.09476732 0.09762889

fc1.bias f4 [600]
000000 4e 5b af b8 de 96 1e b9 0e 57 ca 37 b9 4e 1f 39
       -8.361657e-05 -0.00015124257 2.4120814e-05 0.00015192748
000010 3e 45 87 b8 bb 90 11 bb 10 6f d5 37 88 89 d6 38
       -6.450199e-05 -0.002221151 2.5443296e-05 0.000102299324
000020 c0 be e2 b7 2a a5 a5 b8 9c be bd 38 94 09 ef b9
       -2.7030124e-05 -7.898577e-05 9.047726e-05 -0.0004559277
000030 50 f3 06 b9 a5 f4 60 b9 20 70 30 b6 3b 5b 95 b8
       -0.00012869877 -0.00021453442 -2.629131e-06 -7.121867e-05
000040 cd f5 c7 b8 54 0f 51 3a 9c 81 f7 38 64 4c 4f b9
       -9.5348434e-05 0.00079750014 0.000118020194 -0.00019769516
000050 96 ae e5 37 e3 ba 96 b9 b3 dc ef b8 82 2e 98 b9
       2.7380225e-05 -0.0002874947 -0.000114375165 -0.0002902635
000060 ee 52 69 39 86 74 f2 38 e8 59 13 39 fe b1 17 ba
       0.00022251505 0.000115611634 0.00014052505 -0.0005786716
000070 f8 5f b3 38 e4 be 4f b7 54 0c 8b 39 b0 ad 98 38
       8.553261e-05 -1.2382607e-05 0.0002652133 7.2802766e-05
000080 3f a2 a8 39 45 c8 8a b9 d2 45 bc b8 6e 11 34 b9
       0.0003216434 -0.00026470624 -8.9775436e-05 -0.00017172631
000090 3b a8 5f b9 6b 9a bf b9 1a 85 3f b8 6a da a5 b8
       -0.00021329608 -0.0003654541 -4.566191e-05 -7.908496e-05
0000a0 5d af 80 b8 9d 5e b7 b7 7e 75 63 35 e3 ad 9c b8
       -6.1361796e-05 -2.1859358e-05 8.4735063e-07 -7.4710486e-05
0000b0 a6 11 9f 01 34 7c cd b8 90 51 dc 37 af f0 58 b9
       5.84327e-38 -9.7982964e-05 2.6264024e-05 -0.00020689027
0000c0 f0 cb 68 b6 0f 06 d7 b6 be 4d 26 b8 f7 03 7b b9
       -3.4689401e-06 -6.4082046e-06 -3.9649887e-05 -0.00023938702
0000d0 2a eb 05 38 30 02 b3 3a a7 ee 3d ba 9a 43 b5 38
       3.1928685e-05 0.0013657268 -0.000724534 8.643344e-05
0000e0 3e 47 52 39 9a 7d 49 b8 67 ae 9d 39 0e bc fe b7
       0.000200537 -4.803911e-05 0.00030075313 -3.036673e-05
0000f0 5a b9 2e 38 ff ac 93 39 6f 3b b1 39 86 36 68 b8
       4.1657455e-05 0.00028166917 0.00033804352 -5.536389e-05
000100 b5 8b f5 38 98 c1 4c b9 67 fc 02 ba 2c f5 01 b8
       0.00011708533 -0.00019527075 -0.00049967173 -3.098433e-05
000110 5f 5e e3 b8 d4 94 f9 b7 c6 b9 92 38 51 da 4b b9
       -0.000108417815 -2.9752417e-05 6.9964255e-05 -0.00019440918
000120 ad 45 d9 38 96 ec 24 39 66 df f1 38 0a fe bc 38
       0.000103603445 0.00015728394 0.00011533387 9.011857e-05
000130 7a 2c 18 39 f2 9b d4 36 1c d4 a3 37 43 2a 26 b9
       0.00014512418 6.3362468e-06 1.9529885e-05 -0.00015846737
000140 84 42 a2 b8 e0 11 34 b8 b2 46 e2 b8 ec 42 c1 39
       -7.7371515e-05 -4.293199e-05 -0.00010789688 0.0003686169
000150 cc cf bc b7 fd 8f 79 ba 48 08 fd 37 62 0c 28 b7
       -2.250811e-05 -0.0009520052 3.0163807e-05 -1.0016463e-05
000160 46 db ef 39 29 c5 11 38 84 0e 48 38 ec 53 1b 3a
       0.00045749004 3.4754314e-05 4.7697235e-05 0.0005925286
000170 18 25 24 b7 d2 f3 c9 38 60 15 74 b8 40 88 bc b8
       -9.783798e-06 9.629842e-05 -5.819404e-05 -8.989917e-05
000180 c3 a0 18 b8 a8 fa 4c b6 3e 62 03 b9 c9 9e c4 b8
       -3.6389345e-05 -3.054427e-06 -0.00012529732 -9.375584e-05
000190 9c df 7c b9 ce 86 fd 37 14 3a cd 37 b2 eb 35 39
       -0.00024115894 3.0222724e-05 2.446495e-05 0.00017349308
0001a0 b7 51 b8 38 47 67 b7 b6 80 e1 fe b7 c6 18 87 3b
       8.789024e-05 -5.465848e-06 -3.0384166e-05 0.0041228263
0001b0 52 31 53 3a 2c 71 1b b9 60 7c 83 b9 a8 f5 2a 39
       0.00080563605 -0.00014824112 -0.00025078934 0.00016303977
0001c0 d3 9a c9 b8 f4 3a 9f 38 40 53 b1 ba 89 70 e2 b8
       -9.613265e-05 7.592692e-05 -0.0013528839 -0.00010797481
0001d0 15 aa 15 b8 91 e5 72 37 7f 3f 37 ba 4a 0a cb b9
       -3.568277e-05 1.4477774e-05 -0.00069903577 -0.00038726843
0001e0 00 0c 0c b7 86 27 4e 38 20 2e b3 b9 97 7f c5 3a
       -8.347444e-06 4.9151036e-05 -0.00034175906 0.0015067932
0001f0 69 e9 97 38 db c3 87 39 9e 31 50 38 79 22 0e b9
       7.243717e-05 0.0002589513 4.9637274e-05 -0.00013555017
000200 09 37 39 ba 32 9e a1 b8 86 e6 1d b8 c9 88 32 b9
       -0.0007065391 -7.7065444e-05 -3.764641e-05 -0.0001702636
000210 29 89 44 37 4e 90 82 38 fe 24 3e 39 47 9e 1e 39
       1.17144455e-05 6.225762e-05 0.00018133593 0.00015127017
000220 a0 18 0b b7 18 42 f8 39 0c b1 d4 39 5a 8c ee b7
       -8.290779e-06 0.0004735149 0.000405677 -2.8437167e-05
000230 cc 11 07 36 41 e2 22 39 67 6f 6d 3a 5f d4 83 39
       2.0126927e-06 0.0001553381 0.0009057433 0.00025144496
000240 bd 4f 8d b9 0c 87 23 b9 f8 57 26 39 32 2d bc b9
       -0.00026953025 -0.000155952 0.00015863765 -0.00035891827
000250 bf c5 1d b8 0f 3e 05 39 2c 91 96 b8 9a 08 a7 b7
       -3.7615882e-05 0.00012706987 -7.179598e-05 -1.9911957e-05
000260 46 76 8a 38 e6 84 15 ba 23 c9 c9 b7 fc 84 79 b8
       6.602383e-05 -0.00057037023 -2.4054729e-05 -5.9490078e-05
000270 a8 c5 72 3a 6e fb 03 3a c6 7b 05 ba 80 4e 07 b9
       0.00092610205 0.00050347194 -0.0005091991 -0.00012903847
000280 d6 22 3e 37 74 74 8b 38 a4 28 93 38 31 2e 2c b9
       1.1332993e-05 6.6497276e-05 7.017076e-05 -0.00016420406
000290 70 60 4a 36 4d 2c 2e 38 1e 1a 58 39 7f 48 ff b8
       3.015648e-06 4.152609e-05 0.00020609095 -0.00012172851
0002a0 65 28 9e b9 6c 51 8b 38 43 92 e8 b7 f2 b7 49 ba
       -0.00030166205 6.6432025e-05 -2.7724664e-05 -0.00076949515
0002b0 18 26 81 b8 8e 32 e8 39 50 59 d0 b6 cc 73 21 b7
       -6.158295e-05 0.00044288154 -6.2092804e-06 -9.623309e-06
0002c0 be c2 5b 39 27 cc 06 39 88 d8 9d b9 6c 3c 0d 39
       0.00020958015 0.00012855289 -0.00030106702 0.00013469317
0002d0 df cd 6b ba b3 58 41 39 40 0c 1e b5 2c 87 c8 b9
       -0.0008995216 0.00018438957 -5.887741e-07 -0.00038247684
0002e0 46 7c 62 b7 58 3f a8 b8 b4 50 8a 38 35 72 5f 3a
       -1.3499584e-05 -8.022663e-05 6.595385e-05 0.0008523793
0002f0 20 c5 fe b4 e2 c1 40 36 92 54 ca 39 a0 ea b1 39
       -4.7454614e-07 2.8723084e-06 0.00038591452 0.0003393488
000300 fc 78 6f b9 fe 4a 2d 39 2e 84 f8 b9 34 a5 d6 b9
       -0.00022837886 0.00016526502 -0.00047400728 -0.00040940347
000310 ee de b2 b7 fb ac 83 b8 5c be a2 b7 d2 88 b8 b8
       -2.1323063e-05 -6.278787e-05 -1.9400548e-05 -8.7992885e-05
000320 c3 ea ed 37 d3 c1 23 38 30 c7 fd b8 c0 0d ba 37
       2.8361921e-05 3.904274e-05 -0.00012101082 2.217933e-05
000330 80 19 d2 b8 48 0d c3 39 43 5b 58 35 88 61 ea 36
       -0.0001001833 0.00037203194 8.0599074e-07 6.9850976e-06
000340 da 05 6c 39 72 2e 1d b9 9a 59 bc 38 18 21 3c 38
       0.00022508894 -0.00014989989 8.981228e-05 4.4853514e-05
000350 d2 a9 3c 37 84 29 ff b7 7f c4 d6 39 5e 24 44 38
       1.1245213e-05 -3.0417701e-05 0.00040963662 4.676391e-05
000360 b0 42 8f b9 d6 53 cd b8 dc 70 c5 b7 9c 29 0a 3a
       -0.00027324772 -9.7907774e-05 -2.3536784e-05 0.00052704825
000370 96 2e d7 38 90 d7 a0 36 2c 0a 5b b9 1c 85 28 b9
       0.00010260676 4.7934664e-06 -0.00020889257 -0.00016071316
000380 2e 5f b6 b9 40 d1 f3 b6 6a 8d f2 38 f2 0f 1b b8
       -0.0003478466 -7.2663242e-06 0.000115658 -3.696973e-05
000390 c0 52 27 3a cc 50 d2 b7 58 ab 1d b7 50 ce 74 38
       0.0006382875 -2.5071575e-05 -9.397823e-06 5.8366277e-05
0003a0 92 8a 29 39 84 f1 71 38 88 b1 63 b9 63 aa 37 39
       0.00016168717 5.7683807e-05 -0.00021714543 0.00017515714
0003b0 9c 0c f3 b8 ae d9 85 38 3a 69 bf b7 b4 58 b0 37
       -0.000115894916 6.38248e-05 -2.2817974e-05 2.102214e-05
0003c0 5a 05 de ba 16 74 03 b9 94 de 65 39 98 d2 f7 34
       -0.0016938851 -0.00012536379 0.00021922059 4.6160562e-07
0003d0 54 bf 88 b8 5c 10 99 b9 d4 83 b1 39 5f 2c a8 b8
       -6.520623e-05 -0.00029194623 0.0003385829 -8.019129e-05
0003e0 74 d5 de 38 55 b0 8d b9 1e 1c f3 38 2c b2 99 b7
       0.00010625544 -0.00027024993 0.0001159238 -1.8321989e-05
0003f0 bd e1 26 37 58 92 bf b8 bb ad be 39 4a 82 c5 b7
       9.94693e-06 -9.1348484e-05 0.00036369063 -2.35449e-05

bn1.weight f4 [600]
000000 31 4c dc 3e 95 45 71 3e 5b 63 2d 3e 36 1c 33 3f
       0.4302688 0.235617 0.16932432 0.6996492
000010 69 87 0b 3f 26 40 95 3f 4c 27 60 3f 25 27 24 3f
       0.54503495 1.1660202 0.8755996 0.6412223
000020 9d 28 f9 3d af 18 38 3e 9f 72 52 3e e5 d4 3b 3e
       0.121659495 0.17978166 0.20551537 0.18342932
000030 4c 06 04 3f c1 8e 34 3f e3 09 98 3e 9d 44 80 3e
       0.5157211 0.70530325 0.29695043 0.25052348
000040 85 62 21 3f e3 17 35 3f b2 35 10 3f 38 2d 33 3f
       0.63040954 0.70739573 0.5633193 0.69990873
000050 2b be 85 3e 4e 70 e8 3e 7d 11 4f 3f 9c 2c 81 3f
       0.2612165 0.45398182 0.8088606 1.0091739
000060 45 8e 46 3f 49 6b 29 3f a2 16 89 3e 6d a7 7b 3f
       0.77560836 0.6617933 0.2677508 0.98302346
000070 6f 02 84 3f d5 16 48 3e 9d de e4 3e a5 2d 56 3f
       1.0313243 0.1953996 0.4470109 0.836634
000080 46 71 55 3f 45 b0 28 3f 14 22 b3 3e c1 3e 09 3f
       0.83375967 0.65893966 0.34986937 0.5361138
000090 0c e2 4b 3f ae e6 2a 3f b6 2e 13 3f db 8d 16 3f
       0.79641795 0.6675824 0.5749315 0.58810204
0000a0 f9 c0 9e 3e 8b 10 a1 3d 8e cb 4d 3a f3 97 c0 3e
       0.310066 0.078644834 0.00078504614 0.37615928
0000b0 d8 18 e9 b9 ce a0 e9 3e ef 5d 46 3f d1 5e 97 3f
       -0.00044459733 0.45630497 0.7748708 1.1825811
0000c0 9b f2 a5 3e ab d6 e5 3c 76 bc 2a 3f 20 23 fb 3e
       0.32411656 0.028056463 0.6669382 0.49050236
0000d0 63 b1 0c 3f 3e 54 77 3f 7a 59 1d 3f 1c d6 08 3f
       0.5495817 0.9661292 0.61464655 0.53451705
0000e0 cb 82 71 3f fe 52 fb 3e 34 be a7 3e 2b ba 09 3f
       0.943402 0.49086756 0.327623 0.53799695
0000f0 23 60 5c 3e db ef 28 3f 27 82 fd 3e 57 7a de 3e
       0.21521048 0.6599099 0.4951336 0.43452713
000100 84 2c 40 3f e2 ce ab 3e f4 90 16 3f 7b db 8d 3e
       0.75067925 0.33556277 0.5881493 0.27706513
000110 f4 e0 36 3f 3c 24 28 3f 4c 86 f4 3e 71 42 c8 3e
       0.71437 0.6568029 0.4775871 0.3911319
000120 82 2b 6b 3e 89 ec 48 3f 0b ad 3d 3f 17 9c 8f 3e
       0.22965816 0.78485924 0.7409217 0.28048775
000130 68 78 47 3f d1 0d 83 3e c2 c2 e1 3e d2 f0 08 3f
       0.779181 0.2559648 0.440939 0.5349246
000140 4a e7 0f 3f 68 3e 42 3e 95 69 b1 3e 03 4b 1f 3f
       0.56212294 0.18969119 0.34650865 0.62223834
000150 1a 45 d4 3e 07 e6 37 3f c9 5f 2f 3f ea 30 8c 3e
       0.4145897 0.7183537 0.6850553 0.27381068
000160 aa 8e 43 3f 50 b7 17 3f 3d 2c 0e 3f d5 2b 1a 3f
       0.76389563 0.5926409 0.5553625 0.6022313
000170 2c a2 fd 3e c7 d6 ff 3e ae ec 91 3e f4 5a 05 3f
       0.4953779 0.4996855 0.28500885 0.5209191
000180 0e 0f 34 3e 8d da 45 3e 7f e4 9c 3e c5 7c 32 3e
       0.17583868 0.19321652 0.3064308 0.17430408
000190 ab 61 a0 3e 54 7f 1d 3e 54 8d 2b 3e 5f e3 53 3f
       0.31324515 0.15380603 0.16753131 0.82768816
0001a0 14 39 49 3f 8b 8b 31 3e c3 08 10 3f 05 98 03 3f
       0.7860272 0.17338388 0.5626337 0.5140384
0001b0 35 7a 1c 3f af 57 8f 3e 2c bf a7 3e 10 a1 4e 3d
       0.61123973 0.27996585 0.3276304 0.05044657
0001c0 14 68 21 3f 4a 96 a3 3e 01 6c 98 3f 84 9a 1d 3f
       0.63049436 0.319506 1.190796 0.615639
0001d0 fc f9 60 3e 99 8a 9f 3e be ee 76 3f d9 ec 35 3f
       0.21970361 0.3116043 0.9645804 0.71064526
0001e0 75 38 cb 3e 4d 30 ee 3e 71 cc 64 3f 57 9d 2a 3f
       0.3969151 0.46521226 0.8937445 0.6664633
0001f0 d4 4e 79 3e 69 fc 3d 3f 3e fa ea 3e f3 9c 0b 3f
       0.24346477 0.7421327 0.45894045 0.5453636
000200 dc 47 53 3f 98 1d 95 3f bb a4 fc 3e af 6e 18 3f
       0.82531524 1.1649656 0.4934443 0.5954389
000210 c8 88 0c 3f 7a c5 8c 3f b3 94 db 3e 97 43 0d 3f
       0.5489621 1.0997765 0.42886886 0.5518126
000220 47 8d ac 3d ba 83 b0 3e 65 a5 4c 3f 4e f5 20 3f
       0.08425384 0.344755 0.7993987 0.62874305
000230 b0 2a 44 3a 40 06 20 3f 34 51 5b 3f 66 a8 5c 3f
       0.00074831676 0.62509537 0.8567078 0.86194456
000240 53 93 11 3f b8 de 00 3f e2 97 24 3f 88 61 4f 3f
       0.56865424 0.5033984 0.64294255 0.81008196
000250 37 39 ca 3e fd e9 1b 3f 08 7f cb 3e 14 68 ad 3e
       0.39496776 0.6090391 0.39745355 0.33868468
000260 e8 d5 04 3f ba 64 02 3f c9 75 d3 3e ba 55 1e 3f
       0.51888895 0.50934947 0.413008 0.6184956
000270 2e f9 b8 3f f9 0b f0 3e fe ff 59 3f 59 b8 91 3e
       1.4451044 0.46884134 0.8515624 0.2846096
000280 ac f2 40 3e 12 0c 0c 3e 7b 7c 0f 3f 4b 08 40 3f
       0.18842572 0.1367648 0.5604932 0.75012654
000290 14 8b e3 3e 10 e6 8f 3f 47 d1 30 3f c2 9d 0f 3f
       0.44442046 1.1242085 0.6906933 0.56100094
0002a0 d0 e6 77 3f f7 f1 1f 3f 90 1b 73 3e d4 87 a3 3f
       0.96836567 0.62478584 0.23740983 1.2775826
0002b0 8b a5 ca 3e bf f6 46 3f 51 5b 1a 3d db a3 0d 3f
       0.39579424 0.77720255 0.037684742 0.5532815
0002c0 27 ed c7 3e 41 63 69 3e c8 a2 89 3f 3d 86 df 3e
       0.3904812 0.22791769 1.0752802 0.43657103
0002d0 a8 b6 9b 3f 1a 29 87 3f 99 a6 b3 3e 6d 8f 7c 3f
       1.2165117 1.0559418 0.3508804 0.9865635
0002e0 2a a2 86 3c 40 d4 0e 3f bc 4f 05 3f 81 3f 2c 3f
       0.016434748 0.5579262 0.5207479 0.672844
0002f0 e5 15 79 3f f6 bf db 3e 3d 79 95 3f b1 fc 16 3f
       0.97299033 0.42919892 1.1677624 0.58979326
000300 2d 13 37 3f cb 4e 24 3f 29 0f e4 3e f7 4d b8 3e
       0.71513635 0.6418273 0.44542816 0.35996982
000310 39 50 3d 3e 6a 9a fe 3e ee 4d 4f 3f 89 5b 2d 3f
       0.18487634 0.49727184 0.80978286 0.67717797
000320 14 b3 6f 3f d7 cc 6f 3e bb dd 82 3e 6e ad 35 3e
       0.93632627 0.23417984 0.25559792 0.1774194
000330 c8 cd 65 3f 25 f3 27 3f f5 f4 bd 39 39 26 8c 3e
       0.8976712 0.65605384 0.00036231396 0.27372912
000340 f6 71 44 3f f6 9e f9 3e e5 d8 a0 3e 81 f6 85 3f
       0.7673639 0.4875409 0.31415477 1.0465852
000350 d0 73 be 3e 5d 47 18 3f e2 45 7b 3f 51 79 0b 3f
       0.37197733 0.5948389 0.9815351 0.5448199
000360 ac be 37 3f 08 85 ba 3e 79 e5 a5 3e e1 06 8a 3f
       0.7177532 0.3642962 0.32401636 1.0783349
000370 b1 87 19 3f 81 35 6c 3f 67 bf 57 3f 5f 08 02 3f
       0.59972674 0.9226914 0.8427643 0.50794023
000380 a9 53 30 3f 4f da 86 3e c3 2a a5 3e 0c 19 a8 3e
       0.68877655 0.2633843 0.32259187 0.3283161
000390 f8 65 41 3f 25 64 1d 3e 33 a9 9c 3e 47 c4 6b 3f
       0.75546217 0.15370233 0.3059784 0.9209637
0003a0 5d a6 94 3e 9c de 26 3d 42 60 27 3f 6b 41 70 3f
       0.29033175 0.04073964 0.6538125 0.9384982
0003b0 3f 4a 38 3f e5 d3 ca 3e 17 89 ba 3e 4d d8 2b 3f
       0.7198829 0.39614788 0.36432716 0.67126924
0003c0 e5 c2 5d 3f 7b 2c 03 3f a3 f5 38 3f 0a ec 9a ba
       0.8662551 0.51239747 0.7224981 -0.0011819613
0003d0 96 0d 29 3f dc 40 ea 3e c8 1b 36 3f f7 66 56 3e
       0.66036355 0.4575261 0.7113614 0.20937715
0003e0 05 c7 40 3f 31 55 46 3f fc 6d 1f 3f 83 b2 d2 3e
       0.7530368 0.7747374 0.622772 0.4115182
0003f0 49 dc 1d 3e fc 6b a9 3e f2 f0 5b 3f da a6 ad 3e
       0.15416063 0.33090198 0.8591453 0.3391636

bn1.bias f4 [600]
000000 c9 f8 6c be 5b ef cf 3d d8 08 91 bd 8b 24 d3 3d
       -0.23141779 0.10153075 -0.07081765 0.103097044
000010 13 86 5d be 6e 05 00 bf a7 f9 84 bb c9 f8 d9 be
       -0.21633177 -0.50008285 -0.004058081 -0.4257262
000020 d8 41 f9 bd 7e af 06 3f 79 f6 8e be da 86 84 3e
       -0.12170762 0.5261153 -0.2792242 0.25884134
000030 84 5a 39 3d e5 72 4b 3e 74 e0 4a 3e 4f b4 50 be
       0.045252338 0.19868048 0.19812185 -0.20381282
000040 35 af 64 be b9 c9 0b be e0 fd ac be 99 df c9 be
       -0.22332461 -0.1365117 -0.3378744 -0.39428404
000050 bf 32 05 bd c1 1b af 3d 07 be e5 be 80 ff 53 be
       -0.0325191 0.085502155 -0.44871542 -0.20702934
000060 bd 57 f5 bc 7f 4b ee 3b 49 b4 0a be 59 0e 73 be
       -0.029949063 0.0072721834 -0.13545336 -0.23735942
000070 60 ad c7 be b0 ff a3 be ba 08 0b 3f ba 0c 00 be
       -0.38999462 -0.32031012 0.5431019 -0.12504855
000080 c9 68 a4 be ff 59 ba 3d 19 e8 24 3d 31 7f 88 bd
       -0.32111195 0.09099197 0.040260408 -0.06664885
000090 bd 9b 09 bf c4 d3 e4 bd 4a 96 4d be 74 7c 57 be
       -0.5375326 -0.111732036 -0.20076862 -0.21043569
0000a0 b6 85 9e 3e ac 39 8f 3d c1 b9 84 3e 34 f9 91 3c
       0.30961388 0.06993422 0.2592297 0.017819025
0000b0 95 96 0d bc 86 a5 3e 3e bb 52 e9 3d 80 fb 21 bb
       -0.008641859 0.1861783 0.11392733 -0.0024716556
0000c0 b8 ed b8 be 54 7e 53 3e 98 9f ca be 4a 6b 5b be
       -0.36118865 0.20653659 -0.39574885 -0.21427646
0000d0 26 b8 b8 3e 36 f1 bf be 78 72 00 3d 37 e7 91 be
       0.36077994 -0.37488717 0.031359166 -0.28496715
0000e0 e6 16 9f be 6c e3 0e be a7 4f 8b be 8b 31 e5 be
       -0.31072158 -0.13953942 -0.27209207 -0.4476436
0000f0 de d3 bc bd c9 53 6a be 8a 75 fe be 1c 01 01 be
       -0.09220098 -0.22883524 -0.4969905 -0.1259808
000100 c3 1e 8b be ed 89 66 be 0a e9 f7 bc dd f6 49 be
       -0.27171907 -0.22513552 -0.030262489 -0.19723077
000110 3e 7a b8 bd cc b0 e1 be 53 2b 87 3e 73 b8 fb 3e
       -0.09007691 -0.44080198 0.2640024 0.4916416
000120 88 ba 12 bf 8a 3a 3d bf c7 0a 72 be ef ad 28 be
       -0.57315874 -0.7391745 -0.23636924 -0.164726
000130 23 0a 0e bf 40 c3 68 3d 22 28 aa be ba cf 64 be
       -0.5548422 0.05682683 -0.33233744 -0.22344866
000140 f1 fb fd be ef 1d 87 3e 73 f1 c1 be a1 f3 dd be
       -0.4960628 0.26390025 -0.37879524 -0.43349937
000150 13 05 96 be 2f 13 69 be 85 e9 8c 3d d9 a4 0d be
       -0.29300746 -0.22761224 0.06880478 -0.13832416
000160 13 18 c7 be 13 6c 5a be f3 9f 75 be 45 15 d0 be
       -0.38885555 -0.2133029 -0.23986797 -0.40641227
000170 d2 be 5b be d3 5e 08 bf c9 9a a1 be 8f 97 42 be
       -0.21459511 -0.5326969 -0.31563404 -0.19003128
000180 0c 53 18 be 9e dc 89 bd 00 53 a9 be 66 27 99 be
       -0.1487543 -0.067315325 -0.33071136 -0.2991287
000190 8d 84 a5 3e 72 0e 03 3e a3 e8 48 be 67 59 57 be
       0.3232769 0.12798479 -0.19619994 -0.21030198
0001a0 e0 26 aa be 75 ef 92 be c8 69 03 bc aa e0 0a bf
       -0.33232784 -0.28698316 -0.008020826 -0.5424906
0001b0 3b 04 6a bf bb 01 57 be f7 1e 4b 3e 2a 64 9d 3e
       -0.91412705 -0.20996754 0.19836031 0.30740482
0001c0 fc 73 39 be 43 18 be be da 92 a6 3c 95 2a af be
       -0.18110651 -0.37127885 0.020333696 -0.34212175
0001d0 76 b3 98 be 69 bd 55 be 9a a5 99 be db 3d 17 bf
       -0.29824418 -0.20873035 -0.30009156 -0.5907876
0001e0 e1 5c 10 be e4 26 86 be a9 ed ea be f5 7c 2c be
       -0.1409793 -0.26201546 -0.45884445 -0.16844542
0001f0 38 ee 62 3d 07 f6 9a be f0 32 01 bf c1 2f 0a be
       0.055402964 -0.3026583 -0.5046835 -0.13494779
000200 52 1d a2 be 4c 4f a3 be d3 3a 9d be 44 44 ea be
       -0.31662995 -0.31896436 -0.30708942 -0.45755208
000210 e1 b3 4f be 47 1d 76 3e 57 fe b9 bd 49 3f f9 3d
       -0.20283462 0.24034606 -0.090817146 0.12170274
000220 8b 7b 1c 3d 4f 68 99 3e 2a 37 b1 be 8e 9b 49 be
       0.038203757 0.29962394 -0.346124 -0.19688246
000230 bb ae 20 3d a7 20 f3 bd 47 62 c0 be bb ac fd 3d
       0.039229136 -0.11871462 -0.3757498 0.12386461
000240 f2 26 ad be d8 35 a1 be bb 02 5f 3e 64 3e 91 bd
       -0.33818775 -0.31486392 0.21778385 -0.07091978
000250 ed 66 e6 3d 6d cd bd bd 58 b9 94 be 42 f1 bc be
       0.112501 -0.092676975 -0.29047656 -0.36902815
000260 93 62 85 be c7 27 8c 3e 28 36 6a be 38 48 90 bd
       -0.2605177 0.27374098 -0.22872221 -0.07045025
000270 56 92 c7 3d 99 ac 88 be ad 57 c2 bd a0 c8 a1 be
       0.09744708 -0.26694182 -0.09489379 -0.31598377
000280 c0 c9 b1 be f0 56 5b 3e a5 5e 76 be 71 19 fa be
       -0.34724236 0.21419883 -0.24059542 -0.48847535
000290 ff 0c 97 be 11 9b 2e be fd 1e 89 be 94 2c cf be
       -0.29502103 -0.1705134 -0.26781455 -0.40463698
0002a0 aa 38 bb bd ab 7c 82 be 59 a2 10 3e e1 f7 9f 3d
       -0.09141667 -0.2548574 0.1412443 0.07810951
0002b0 4a 65 a1 be 0d 0a 68 be df df 61 3e e6 db a7 be
       -0.3152259 -0.22660084 0.22058056 -0.32784957
0002c0 bb 28 25 3e 9d 77 9a be 89 9b ea 3e de c0 30 3e
       0.16128819 -0.30169383 0.4582179 0.17261073
0002d0 bd 08 8e be 23 52 c3 be 14 88 bf 3c ae e5 f1 bd
       -0.27741042 -0.38148603 0.023380317 -0.11811386
0002e0 e1 89 00 3f 32 3f 20 3e fe 61 c8 be db d4 8a bf
       0.50210387 0.15649107 -0.39137262 -1.0846208
0002f0 de da 8d be 40 73 b4 bd 5d 6e e2 be d4 ae ab be
       -0.27706045 -0.08811045 -0.44224826 -0.3353182
000300 bf ec 8b bc 5e 5c 5a be d5 82 1c 3e 33 3e bd bd
       -0.017080663 -0.21324298 0.15284283 -0.09240379
000310 1b 15 82 be 9b 8f d5 be 7a aa b0 bd 41 4f b0 be
       -0.25406727 -0.41711125 -0.08626266 -0.34435466
000320 0b 26 56 be ca 3e 25 bd c7 4b 37 3e f6 bb d8 3b
       -0.2091295 -0.040343083 0.179 0.0066142036
000330 6c 34 84 be 5e 33 40 bc c2 1a cb 3b 29 02 ba 3d
       -0.25821245 -0.011730997 0.006198258 0.09082443
000340 81 0f 1d be 3b 08 13 3e b8 23 63 3d e6 77 c3 bd
       -0.15337946 0.14358608 0.055453986 -0.09544353
000350 a2 f4 9d be 01 e4 ae bd e7 4f 82 be a7 f7 16 be
       -0.30850703 -0.08539582 -0.25451586 -0.1474291
000360 1b 44 e2 be a6 fd b2 be 0f e5 6e be e9 37 20 be
       -0.44192585 -0.34959143 -0.23329566 -0.15646328
000370 3c 5f 6b 3e 0f 73 20 3e c0 f3 c9 bd cc ba 94 3e
       0.22985548 0.15668891 -0.09860945 0.29048765
000380 7a 22 8a bd 5a 8d d9 3e 24 d7 6b be 2c 46 40 be
       -0.06744857 0.42490655 -0.23031288 -0.18776768
000390 46 89 7a be 29 9c 62 3e f1 9d cc bd 18 89 c3 be
       -0.24466428 0.22129883 -0.099910624 -0.38190532
0003a0 61 2c 21 bd 2d 3f 8e 3d 51 88 1b be a8 ce 3a 3e
       -0.039348964 0.069456436 -0.1518872 0.18242896
0003b0 47 40 40 3e 6e 5c 9e be c0 3b 6d be 51 e2 8f be
       0.1877452 -0.30929893 -0.23167324 -0.28102353
0003c0 26 37 3c be 44 cf fc bc 80 94 20 bf 42 bd 8a 3e
       -0.18380412 -0.03086055 -0.62726593 0.27097517
0003d0 97 ce da be 23 e3 8f be 7d 44 52 be a7 7f 36 3b
       -0.4273574 -0.2810298 -0.20533939 0.0027847083
0003e0 47 d6 71 be 48 be 8f be 2c 0d 00 be cc 3f 1a bf
       -0.23616897 -0.2807486 -0.12505025 -0.60253596
0003f0 0b 00 95 be cf 8a 62 be f2 60 ec bd 8e fc 54 3d
       -0.29101595 -0.22123264 -0.11541928 0.051998667

bn1.running_mean f4 [600]
000000 89 5b af be 8e de f6 3e 0a 80 c1 3e ac 28 ef 3e
       -0.34249523 0.4821667 0.37793 0.46710718
000010 44 9d 28 bd 83 55 92 bf 0c b6 c6 3f df ad 16 3f
       -0.041165605 -1.1432346 1.5524306 0.58859056
000020 7d 23 2e 3f 54 21 9d 3f cf f9 8b 3e 3d 73 c5 be
       0.680229 1.2275796 0.27339026 -0.38564482
000030 9a 90 5d be 63 15 8c 3e c8 86 1f be 6f a5 34 bf
       -0.21637192 0.27360067 -0.15578759 -0.7056493
000040 dc 09 f5 be 07 93 88 bf 48 c5 3c 3f de ec f4 bf
       -0.47859085 -1.0669869 0.7373853 -1.9134786
000050 de 58 3a bf 6c 8b b7 3e 02 99 ac 3f 1c 57 ac 3f
       -0.7279185 0.35848558 1.3484194 1.3464084
000060 c2 37 4c bf d5 b8 19 3e 62 f2 89 3f 6d da 1e bf
       -0.7977258 0.15011914 1.0777094 -0.6205204
000070 a5 fd 08 3f de 59 50 be a8 11 87 3c 8e 96 48 3e
       0.5351203 -0.20346782 0.016487911 0.19588682
000080 cf 08 d8 3d 35 80 dc 3e 18 e2 74 bf a7 e4 94 3f
       0.10548555 0.43066564 -0.9565749 1.1632279
000090 4c d9 b2 be a3 dc 7f 3f 9c 42 cd 3e 87 8d c0 3e
       -0.3493141 0.9994604 0.4008988 0.37607977
0000a0 54 7d 41 bd 7e cf ca 3d 8a 4a f1 3c 50 a3 86 3e
       -0.047238663 0.09902857 0.029454488 0.26296473
0000b0 37 e1 23 b5 9c 45 2d bf de 07 a7 3e 6a c2 c1 3e
       -6.104996e-07 -0.6768434 0.3262319 0.3784364
0000c0 92 6a 17 3d 03 11 93 be 4c 1e 09 3e a3 61 71 bf
       0.036966868 -0.28723916 0.13390464 -0.94289607
0000d0 38 0b 8b bf 88 92 a1 3d ba fe 59 be 40 08 c7 bd
       -1.0862799 0.07889277 -0.21288577 -0.097183704
0000e0 50 3b 81 3e d2 52 30 3f 84 bf b7 3d c8 05 8f 3f
       0.25240564 0.68876374 0.089720756 1.1173639
0000f0 a0 3a 45 3f f6 1e b8 3e 58 f9 4f bf bf f2 82 bf
       0.7704258 0.3596112 -0.81239843 -1.023033
000100 f2 83 7b 3d a5 6d 97 be 43 25 8a 3f da 84 37 bf
       0.06140513 -0.2957584 1.0792621 -0.7168709
000110 5c 58 84 bd 2b 80 71 be e1 58 22 bf 2c c5 8d bd
       -0.06462166 -0.23584048 -0.6341687 -0.06922373
000120 3e 10 cf bd 32 6b 82 be 4d db 93 3e d4 82 4e bd
       -0.1011052 -0.2547241 0.2887825 -0.050417736
000130 ed 95 77 bf 8c 38 77 be 2a 63 4a be b5 c4 00 be
       -0.96713144 -0.24142665 -0.1976439 -0.12575038
000140 a1 db 2f 3f 0f 7d f7 3e 7f da d7 be 01 fa 3e bf
       0.686945 0.483376 -0.42158887 -0.74600226
000150 56 5e 3e be 8b 63 54 bf cc 11 36 bf 24 5a 13 3f
       -0.18590674 -0.8296439 -0.71120906 0.5755942
000160 0c 5a 9b bf 60 fb 8e 3e 3d 00 ee 3e 3b 17 da 3e
       -1.2136855 0.2792616 0.46484557 0.42595848
000170 fe 94 e9 3e c6 c2 15 3f 3c ec 6e 3f 28 8c c7 3e
       0.45621485 0.58500326 0.93329215 0.38974118
000180 92 a9 54 3f a8 9d 26 3f 6c 95 14 bf 9c e0 96 be
       0.83071244 0.65084314 -0.580405 -0.29468238
000190 6b 4e 01 3e 6e d1 37 3f 03 05 5b 3e d1 70 62 bf
       0.1262757 0.7180394 0.2138863 -0.88453394
0001a0 b0 dd f8 be 2f a1 bb 3d ff da df be dd 43 02 40
       -0.48606634 0.09161603 -0.43721768 2.035392
0001b0 90 08 c1 bf 4f ed 91 be 74 6e d4 be 97 c7 60 3f
       -1.5080738 -0.28501365 -0.4149052 0.8780455
0001c0 db 5b 0b be b7 1d 4e be 41 93 6e be cf 83 1e bf
       -0.13609259 -0.20128523 -0.2329836 -0.61919874
0001d0 9c cb 6d 3e 97 07 dc 3e 29 3f f2 bf 0b fb 7a bf
       0.23222202 0.4297454 -1.8925525 -0.9803931
0001e0 1b 21 a4 be 11 79 f5 3e 54 08 cd be a2 12 dd bf
       -0.32056507 0.4794393 -0.40045416 -1.7271311
0001f0 cb b2 7f 3f 02 26 d5 3f 41 54 56 3e fd 01 a4 be
       0.9988219 1.6652224 0.20930578 -0.32032767
000200 ff 2a 92 bf 00 0e cb 3e 7a 57 c7 3d eb ff 54 3e
       -1.1419371 0.3965912 0.09733482 0.2080075
000210 63 2c 64 3f e9 04 24 3f 02 28 98 3f 79 0e f6 bd
       0.8913023 0.6406999 1.188721 -0.12014479
000220 a6 83 b4 be e0 df 89 3d c8 c8 84 bf f2 63 d3 3e
       -0.3525669 0.06732154 -1.0373774 0.4128719
000230 c2 63 43 3d 3d 47 3c be 7f 2f 9f 3f 1c 32 fb 3f
       0.04770256 -0.1838655 1.243637 1.9624667
000240 56 a0 99 3e 4f 09 34 3f bf f8 55 3d 48 8b ac 3f
       0.3000514 0.70326704 0.052239176 1.3480005
000250 b7 45 3d 3f 0d 85 a5 be 90 9f be 3e d8 b6 11 be
       0.739345 -0.32328072 0.37231112 -0.14229906
000260 fe 13 10 3e 09 85 17 be 98 e5 c3 3e db 40 28 3c
       0.14070126 -0.14796843 0.38261104 0.010269369
000270 af 6a 87 3e c8 58 46 bf 22 19 05 3e 2f 20 48 bf
       0.2644858 -0.7747922 0.12997869 -0.7817411
000280 ac 58 90 be e4 60 d6 be ac 3c 52 3e 2c b2 15 bf
       -0.2819265 -0.41870797 0.20530957 -0.58474994
000290 ca 0c c0 3e 03 cc 8b 3f 79 92 a7 3e 97 3b 0d bf
       0.37509757 1.0921634 0.32728937 -0.5516905
0002a0 ac 5a c1 3f 77 e4 00 3f 8f 89 82 3d ce 65 ea 3e
       1.5105796 0.5034861 0.063738935 0.45780796
0002b0 8d 41 7d be ef fe 3a bf f6 91 ca be fa 5d 6e 3f
       -0.24732037 -0.7304525 -0.39564484 0.93112147
0002c0 54 ee 55 3d cc 12 32 be a4 15 b6 be cc e7 ed 3d
       0.05222924 -0.17389983 -0.35563385 0.11616477
0002d0 a0 34 c9 bf 64 ea 87 be 3f 25 e5 3d 46 46 98 3f
       -1.5719185 -0.26546013 0.11188745 1.1896446
0002e0 f1 df d1 be 3a 1a a1 be d0 d0 36 3e 04 81 fc bf
       -0.40991166 -0.31465322 0.17853093 -1.9726872
0002f0 d1 d1 8f 3e 85 ef 94 be 77 93 92 3f 9e 6d 25 3f
       0.28089765 -0.2908899 1.1451253 0.6462039
000300 8f ce 27 bd 69 22 70 3f c6 65 2d 3f dc ae a2 be
       -0.040968474 0.93802506 0.6773342 -0.31774032
000310 77 98 f2 3e de 3f 48 3e 5c 08 f6 be db 26 2a be
       0.47381946 0.19555613 -0.48053253 -0.16616385
000320 c9 d1 a3 3f a8 07 06 bf 9a 2e fd be e0 27 1f 3e
       1.2798396 -0.5235543 -0.49449617 0.15542555
000330 18 3a 14 3f 72 37 14 bf 08 3c 33 3d 76 8e 88 3f
       0.57901144 -0.578971 0.043758422 1.0668476
000340 5a 68 00 be a8 e1 0a 3f f3 01 2b be ea a0 a4 bf
       -0.12539807 0.54250574 -0.16699962 -1.2861607
000350 38 aa 9d 3d 47 f2 1e 3f 06 22 72 be 15 f3 60 3e
       0.07698482 0.62088436 -0.23645791 0.21967728
000360 40 62 1e 3f 05 8d c3 3d d1 74 16 3f b2 33 f3 be
       0.6186867 0.09548382 0.58772 -0.47500378
000370 59 e6 6f bf 85 7c a5 bf cc 5f 2d 3f d2 eb 28 bf
       -0.9371086 -1.2928625 0.677243 -0.65984833
000380 e5 22 76 3f ee 2e 94 bd e2 21 62 3e df 84 c4 3e
       0.96146995 -0.07235514 0.22083238 0.38382623
000390 bc 2a e9 bd 50 70 1b be 1e 3b 1f 3f 70 b8 57 3f
       -0.11385104 -0.15179563 0.6219958 0.84265804
0003a0 b5 f6 68 3f ab c0 7f 3e 11 3e ae 3f 74 88 a0 bf
       0.91001445 0.24975841 1.3612691 -1.2541642
0003b0 a6 86 e0 3e 3d 13 1c 3f 40 4d dd 3e f8 e3 58 3f
       0.4385273 0.60966855 0.43223 0.8472285
0003c0 e6 4a b3 bf 98 b8 40 bf fe 94 a1 3e b6 b7 28 bd
       -1.4007232 -0.7528167 0.31558985 -0.041190825
0003d0 30 5e a0 3f 32 40 3c 3f 52 b9 99 3f b2 e6 27 3f
       1.2528744 0.73535454 1.200968 0.6558639
0003e0 f4 64 84 3f aa 2f 21 3f 84 c3 52 3f 42 a7 5f 3f
       1.0343308 0.62963355 0.82329583 0.8736459
0003f0 e3 47 a5 bd 00 2c be 3d 75 0d a3 3e 9a ab 6f bf
       -0.08070352 0.09285736 0.31846204 -0.9362122

bn1.running_var f4 [600]
000000 18 e2 e6 3c 91 4b 6b 3d 19 38 70 3d a6 d8 0c 3d
       0.028183982 0.057445113 0.05864725 0.0343863
000010 75 55 41 3e 06 cb 79 3b 88 0a 25 3d db 0c c6 3c
       0.18880256 0.0038115396 0.040293247 0.024176052
000020 fc ba a5 3c b6 87 63 3d 37 92 1f 3e 87 70 45 3d
       0.020230763 0.055549346 0.1558312 0.048203018
000030 71 64 04 3d 4d 06 c9 3d 0e 77 36 3d 76 52 94 3d
       0.03232235 0.09815655 0.044547133 0.07242291
000040 22 df be 3c ff 92 85 3c f8 49 75 3d 44 cf 09 3d
       0.023299757 0.016305445 0.059884995 0.03364493
000050 b0 4a d4 3d 04 9b 1b 3d f6 3c 57 3d f8 28 35 3d
       0.10365808 0.03798963 0.05254837 0.044228524
000060 71 84 f4 3b 68 27 3f 3d a8 55 48 3d af f7 8b 3c
       0.0074620773 0.04666844 0.048909813 0.017085878
000070 f2 c0 99 3d 21 33 90 3d 34 fe 7d 3d 1c f3 a5 3d
       0.075075045 0.07041002 0.062010005 0.0810301
000080 b3 b3 ac 3d 0a 9f 2e 3d a1 b1 33 3e 42 fb 58 3d
       0.084327124 0.04263214 0.17548229 0.052973993
000090 45 60 f2 3c 95 d7 2c 3d b5 60 00 3d 3e 1c 0b 3d
       0.02958692 0.042197783 0.031342227 0.03396248
0000a0 c6 46 d8 3d 33 97 84 3d 00 3e 09 3c e5 7e 9d 3d
       0.10560374 0.064741515 0.008376598 0.07690219
0000b0 f6 93 87 2b 28 5f 22 3e 03 0f 6e 3e 44 08 88 3d
       9.633394e-13 0.15856612 0.23247914 0.066422015
0000c0 e2 58 74 3e fe 60 ac 3d ce a5 bb 3d ed bd 18 3d
       0.23862031 0.08416937 0.09162484 0.037290502
0000d0 be e6 eb 3d 93 cd 8d 3c c5 82 d5 3c ab bd dc 3d
       0.1151862 0.01730994 0.026063332 0.10778364
0000e0 36 9a 05 3d 8a ab 09 3d c3 ab 33 3d 4b 27 51 3d
       0.03261777 0.033610858 0.043864977 0.051062863
0000f0 af ac d7 3c c7 4b da 3c 4c ca 10 3d c7 f7 32 3e
       0.02632746 0.026647462 0.035349175 0.17477332
000100 2a 76 0d 3d 19 4e 2e 3d fa d5 57 3d 50 c0 a3 3d
       0.03453652 0.04255495 0.0526943 0.07995665
000110 81 1e 12 3e 10 bf 30 3e 30 c4 96 3d 0f ac 48 3d
       0.14269449 0.17260385 0.073616385 0.048992213
000120 d3 40 f5 3c 3c b1 8d 3c 10 b6 2d 3d 47 4c 90 3d
       0.029938137 0.017296426 0.042409956 0.07045799
000130 71 46 c9 3c ae e3 40 3d 0d b5 c7 3d 2b 6a 13 3d
       0.024569722 0.047092132 0.097513296 0.03598992
000140 de 4e bb 3d 46 13 93 3d 6d 44 79 3d bc a6 c4 3c
       0.09145902 0.071814105 0.06085627 0.024005286
000150 7c 3b 5c 3d 97 73 c8 3b 10 ad d3 3d 04 2f 33 3e
       0.053767666 0.006117295 0.103357434 0.17498404
000160 6d 22 e3 3c 6f d5 1b 3d 65 ef 7b 3d 12 65 fb 3c
       0.027726376 0.038045343 0.0615076 0.030687843
000170 ed ea 8f 3d 52 b7 02 3e 11 d4 00 3d 7f 67 0b 3e
       0.070272304 0.12765244 0.031452242 0.136137
000180 e0 e4 ee 3c 97 40 3d 3d 54 cf a0 3d 37 81 da 3d
       0.02916187 0.046204176 0.07852045 0.10669177
000190 0f 0f b4 3d bc d1 67 3d bc 66 55 3d 6e 60 20 3d
       0.08791935 0.056596503 0.05209993 0.039154463
0001a0 ae 8e 1d 3d f3 37 3e 3d 29 61 9f 3d 4a 22 b1 3c
       0.038466148 0.046440076 0.07782204 0.021622796
0001b0 34 21 fe 3c e7 d5 a9 3d a8 4a 94 3d 95 62 7f 3d
       0.031021692 0.08292752 0.07240802 0.062349875
0001c0 e5 be 1d 3d 88 0a 19 3e 7a 24 6c 3c 46 9f 40 3d
       0.03851213 0.14945424 0.014412994 0.047026895
0001d0 da e6 37 3d 73 3e 13 3d bf 29 cb 3c 0e 7b 71 3d
       0.04489789 0.035948228 0.02480018 0.058955245
0001e0 53 13 85 3d 2f 5d fd 3c b8 f7 b2 3c 03 74 bb 3c
       0.064978264 0.030928222 0.021846637 0.022882467
0001f0 64 6a 47 3d 22 aa f9 3c 5b 93 ec 3d 1d a6 49 3d
       0.048685446 0.030476633 0.11551543 0.049230684
000200 51 99 31 3d a1 e5 9a 3d 97 c3 34 3d b7 8f 8e 3d
       0.043359105 0.075633295 0.04413184 0.06961005
000210 df fc ba 3d 07 cc 97 3d 23 e8 58 3d 07 1d 1e 3e
       0.091302626 0.07411962 0.052955758 0.1544076
000220 6b a4 99 3d dc 70 69 3d 98 31 cc 3c 43 56 95 3d
       0.07502063 0.056992397 0.024925992 0.07291844
000230 53 e4 a4 3b 1d 5b 22 3d f6 61 38 3d 86 3f b9 3d
       0.005032101 0.039637674 0.045015298 0.09045319
000240 bb 67 a4 3c 25 c9 c0 3d d9 b3 ba 3d 3e 24 9a 3d
       0.020068994 0.09413365 0.091163345 0.07526444
000250 3b fb 17 3d bf ed bd 3c 1d 4e 32 3d d1 ef 17 3d
       0.037104826 0.023184655 0.043531526 0.03709394
000260 5d ae 89 3d 30 6b b2 3c 83 a9 81 3d 2a 79 67 3e
       0.0672271 0.021779627 0.0633116 0.22604814
000270 d9 2b fc 3c b9 d2 8b 3c 80 e2 f0 3c ef 33 0f 3d
       0.030782627 0.017068254 0.029404879 0.034961637
000280 0d 62 80 3d 06 25 95 3d 46 49 37 3d 33 e9 6e 3c
       0.06268702 0.07282452 0.044747613 0.014581966
000290 f5 20 a1 3d 1e 76 a9 3d a6 cc 64 3d fb 56 75 3d
       0.07867614 0.08274482 0.05585923 0.059897404
0002a0 71 55 46 3d 0a 33 86 3d e4 6d a5 3d 36 cd 1e 3d
       0.048421327 0.06552704 0.080776006 0.038769923
0002b0 06 b1 04 3d fe e3 16 3d 9d 6e fc 3d a3 63 1a 3e
       0.032395385 0.036838524 0.12325785 0.15077071
0002c0 8d e9 d5 3d 81 19 60 3d 43 73 0d 3d 76 4d 2b 3d
       0.10444937 0.054711822 0.03453375 0.04182192
0002d0 00 b0 1c 3c 30 97 48 3d 15 fc 03 3e 0c e4 ef 3c
       0.009563446 0.04897231 0.1288913 0.029283546
0002e0 11 55 b2 3d c6 14 34 3e fc 59 84 3d 1d 25 09 3c
       0.087076314 0.1758605 0.06462476 0.008370665
0002f0 c2 c7 b3 3d 3e 7b d7 3c 35 87 6e 3d 89 8f b4 3c
       0.08778335 0.026303884 0.058234412 0.0220411
000300 28 ff 41 3d aa 8a 7d 3d 22 4b f8 3c 21 4b 0f 3d
       0.047362477 0.06189982 0.030309264 0.034983758
000310 c2 f5 a5 3d d7 74 54 3d 04 55 81 3e 70 86 99 3d
       0.08103515 0.05186924 0.25260174 0.07496345
000320 f3 2a ff 3c d1 1f fc 3d c3 3d 2b 3e 1c 07 60 3d
       0.03114841 0.12310756 0.16722779 0.05469428
000330 3b f7 53 3d da a3 19 3c 37 79 83 3b 50 f3 63 3d
       0.05174945 0.009377444 0.0040122527 0.055651963
000340 18 44 25 3c 61 58 e0 3d fd df 69 3d 01 10 25 3d
       0.010087036 0.10954357 0.057098377 0.040298466
000350 89 f7 ac 3c e6 37 70 3c f3 0a 86 3d ac 10 8e 3e
       0.021114128 0.014661765 0.06545057 0.27747095
000360 7c 37 99 3d ee cd e0 3c dc 29 3f 3e f0 01 b9 3b
       0.07481286 0.027441945 0.18668312 0.005645983
000370 6a 8d c9 3d bf c1 54 3e d8 cc bb 3c 43 ef a4 3d
       0.09841426 0.20777033 0.022924826 0.08053448
000380 df b6 23 3d ff f8 e1 3d 06 87 81 3d c1 55 0f 3e
       0.03996932 0.1103382 0.06324582 0.13997556
000390 73 bd 60 3c d4 b5 a7 3d 90 6c 1c 3d a1 44 8c 3d
       0.013717043 0.08188978 0.03818947 0.068490274
0003a0 30 1e 10 3d 86 e1 8a 3d e5 81 3f 3d 7d 11 84 3e
       0.03518504 0.067812964 0.046754736 0.25794592
0003b0 ab 0b 3a 3d 91 a1 1f 3d 51 ca 81 3d 6b 09 33 3d
       0.045421284 0.03897244 0.06337417 0.043710154
0003c0 71 41 15 3c 9a cc e4 3c 55 e7 9a 3d da 51 10 3c
       0.009109841 0.027929593 0.07563654 0.008808577
0003d0 a9 16 7c 3d ca 1d 85 3d e6 13 74 3d 3d 03 41 3d
       0.061545048 0.064998224 0.05958929 0.04712223
0003e0 66 13 6c 3c 03 5e a4 3d 7e d0 6f 3d d6 de 2c 3e
       0.014408922 0.08025744 0.058548443 0.1688188
0003f0 26 18 7e 3d 76 bd b0 3c fd 37 1b 3d dd b5 e7 3d
       0.06203475 0.021574717 0.03789519 0.113139845

fc2.weight f4 [300, 604]
000000 fe 1d 64 bd 5d a3 d5 bd e3 eb ef 3c 9d a5 47 bc
       -0.055692665 -0.1043155 0.029287284 -0.012185481
000010 4c b7 29 be 5b a7 b0 3d f7 3c 55 bc 19 d2 8d bd
       -0.16573828 0.086256705 -0.013015023 -0.069248386
000020 80 da 4b 3d e2 ca 00 3e 9f 57 8b 3d ca ac 22 3d
       0.049768925 0.12577394 0.06803822 0.039715566
000030 69 fd 43 be b9 fb 24 be e5 ab 95 bc cb bd e7 bb
       -0.19139637 -0.1611165 -0.018270442 -0.0070721856
000040 f5 6a c5 bd f6 36 20 bd 89 b0 26 be 58 41 34 be
       -0.09639541 -0.039114915 -0.1627828 -0.17603052
000050 a3 ac 44 3d fd 3e 79 3d 4e c3 83 3c 6f df 05 3d
       0.0480162 0.060851086 0.01608434 0.032683786
000060 91 33 83 bc 6e e9 8d bd e0 3a 71 3c 22 3d 1e be
       -0.0160158 -0.06929289 0.01472351 -0.15453008
000070 9c ca 58 bb af 20 db bc fe ca 8c be c6 7f 19 be
       -0.003307975 -0.026748983 -0.2749862 -0.14990148
000080 6e b5 e2 3c d1 37 f4 bd c3 41 c7 3d 07 8f 63 bd
       0.027674403 -0.11924709 0.0972934 -0.055556323
000090 44 d7 32 3e 47 0c f8 bd ef 94 3c be da 26 08 3e
       0.1746493 -0.12111717 -0.18416189 0.1329607
0000a0 26 ad ee bd f6 eb e6 ba e0 55 cf 3d fc 7e 69 3b
       -0.11654119 -0.0017617929 0.10123801 0.0035628667
0000b0 49 c3 60 80 e4 52 4a 3d 03 ca 4e be 2e 38 9e be
       -8.886263e-39 0.049395457 -0.20194249 -0.30902237
0000c0 37 c8 51 3e 60 dd 18 3d 21 aa ad 3a 16 85 df bc
       0.20486532 0.037320495 0.0013249555 -0.02728514
0000d0 08 64 48 3d d4 11 08 3d 75 2f a6 bd 86 d2 f3 bd
       0.048923522 0.033220127 -0.081145205 -0.119053885
0000e0 df 01 1f 3d e2 b3 8d 3d 43 b3 ed bc 8d 30 36 3d
       0.038820144 0.069190755 -0.029016143 0.044479895
0000f0 a2 7b 72 bd 72 59 96 bd 67 c3 e2 bc 36 a1 ca 3d
       -0.059199937 -0.07341279 -0.027681066 0.0989403
000100 eb 85 c2 be 28 78 62 3e 41 3a c6 bd 67 ab c6 3d
       -0.37992796 0.22116148 -0.0967908 0.09700661
000110 ab b8 b3 3d 21 f9 38 bd 7e 19 f7 3c 71 40 95 be
       0.08775457 -0.045159463 0.030163523 -0.29150727
000120 7b 2c c4 be aa 1c ac bc c6 51 bf 3c 2f 35 c7 bc
       -0.38315186 -0.021009762 0.023354422 -0.024317352
000130 48 94 cd be ab c3 70 bc 2d 25 10 3d 22 5b f9 3c
       -0.40152192 -0.014695088 0.035191704 0.030438963
000140 86 35 0b bb 32 d7 9b bd 4d 1c 2b be cf c0 cb 3b
       -0.002124162 -0.076094046 -0.16710015 0.006218053
000150 1f 82 9f bd 01 ee 20 3e 0c b9 f1 3c 80 8f 25 bc
       -0.077884905 0.15715791 0.029507183 -0.010105014
000160 0d 32 0d be 5b 94 5e 3c 52 38 3c be af 1e 43 3d
       -0.13788624 0.013585175 -0.1838086 0.047636684
000170 c0 b7 66 bd bc ec 13 3e dd 04 85 bd 58 18 09 bc
       -0.05632758 0.14445776 -0.06495068 -0.00836762
000180 b4 3b 69 00 3b 82 c3 bd c5 79 84 bd 59 ac 2a 3c
       9.664145e-39 -0.09546324 -0.06468538 0.010417067
000190 42 f3 ac bc d1 c8 81 bd c1 7e b8 bd f6 32 0b 3d
       -0.021112088 -0.06337131 -0.090085514 0.033984147
0001a0 d3 4f 99 3d d2 a9 2c bc 0a 39 f2 3d 90 fe 97 3a
       0.074859284 -0.010538535 0.118272856 0.0011596251
0001b0 d2 d6 65 80 23 07 ca 3c c3 2c 9a 3d 52 ff d5 3d
       -9.352448e-39 0.024661606 0.07528069 0.10449089
0001c0 56 f7 68 bd 45 52 de 3d 25 74 4b bd 47 da 0d 3d
       -0.056876503 0.108555354 -0.04967131 0.034631994
0001d0 2f 5a 2f bd b6 3a 07 bd 15 86 4a 3d 61 81 52 bc
       -0.042810615 -0.033014975 0.049444277 -0.012848229
0001e0 a1 c1 19 3d 0f 63 92 bd 61 af 2f 3d d3 c2 88 be
       0.037538175 -0.071478 0.042891864 -0.2671114
0001f0 fb 68 33 be 31 e4 b9 3a b8 0a a4 3d ab 56 f5 3d
       -0.17520516 0.0014182386 0.08009857 0.11979421
000200 4e 10 78 3d 48 2f 94 be f7 4e a3 3d 1f 91 95 bd
       0.060562424 -0.28942323 0.07974046 -0.0730307
000210 47 ba 9f b9 d0 77 54 80 78 78 18 bd aa 63 fe 3d
       -0.0003046563 -7.757162e-39 -0.037224263 0.12421353
000220 bc a3 80 3d 2d d8 97 9b b1 52 30 3d 2d 55 c0 bd
       0.0628123 -2.5120555e-22 0.04304761 -0.09391246
000230 de 33 e9 3c 5a ff 87 3d ef 94 78 3d b8 f8 34 bc
       0.028467115 0.06640501 0.06068891 -0.011045627
000240 3c 88 9e 3d ee 53 47 be c2 e4 da bc 71 ee 01 be
       0.077408284 -0.1946561 -0.026720408 -0.12688614
000250 f0 a2 ed bd a7 1a e4 3d 08 8d ea 3d 79 c9 81 3e
       -0.116033435 0.11137896 0.11452681 0.25349024
000260 19 a2 dd bd 60 0e 41 be 28 08 a6 bd d1 68 2f 3c
       -0.10821933 -0.1885314 -0.081070244 0.0107061425
000270 b9 14 8c bd 88 f0 c8 bd ca bb 8b be b6 36 0e be
       -0.0683989 -0.09811503 -0.2729171 -0.13888058
000280 ec fe d0 bc 9c a9 1d 3d f6 87 b1 bd 46 35 0b bd
       -0.025512181 0.03849183 -0.086685106 -0.033986352
000290 a1 a0 9a 3d a9 d7 db bd cc 9e 56 be e9 5f 61 3d
       0.07550169 -0.10734493 -0.20959014 0.055023108
0002a0 b5 74 23 be 0a 17 88 3d d5 bf 7a bc 1a e5 32 bd
       -0.15962489 0.06645019 -0.015304525 -0.04367552
0002b0 80 15 5d 00 64 7b 12 be bb ef bb 3d 00 f5 2f 3a
       8.548414e-39 -0.14304882 0.09176584 0.0006712228
0002c0 57 6f f5 bd ba b9 31 3d 05 c6 b0 be 5c 8d 86 3c
       -0.11984127 0.043390013 -0.34526077 0.016424827
0002d0 fa d7 5b 3d af 93 47 80 a0 70 ca 3d 77 a6 c3 bd
       0.05367277 -6.573299e-39 0.09884763 -0.09553235
0002e0 1e 48 ff 3d 35 b7 04 bc c1 92 14 3d b1 c6 c5 3d
       0.12464927 -0.008100321 0.036272768 0.09657038
0002f0 dd 6b 17 be a9 df 8f ba 40 c8 09 3c 4f 6c 2d bd
       -0.1478724 -0.001097669 0.00840956 -0.04233962
000300 4c e7 0e 3e 29 6c 0f 3e 5d 79 b2 bb ff 8b 5c bd
       0.1395542 0.14006104 -0.0054465965 -0.05384445
000310 08 c9 8e 3d 4a a9 98 bd 25 8e d7 3d e6 dd 06 3e
       0.069719374 -0.07454164 0.10525159 0.13170585
000320 be b0 bc bd 97 ef c4 3c 16 4b d0 3d c8 49 c9 bc
       -0.092133984 0.024040027 0.101705715 -0.024571314
000330 62 0d d9 3d cb f9 ca bd d0 0e 47 3b 0f b7 ed ba
       0.10598256 -0.099109255 0.003037382 -0.0018136221
000340 b2 5b 12 3e ef a0 d3 bc c5 98 ce 3c 05 83 cf 3c
       0.14292791 -0.025833575 0.02521933 0.02533103
000350 04 68 58 3e 37 83 43 bb a3 a9 97 3b 7c 05 63 bd
       0.21133429 -0.0029832849 0.0046283766 -0.055425152
000360 cc 5e 4d 3d c0 af ad 3d 7b 6e a5 3c ac fd 3f 3c
       0.050139233 0.08480787 0.020194283 0.011718195
000370 34 00 e1 3d 65 c3 40 3e ff a0 4e be 77 30 2b 3c
       0.10986367 0.18824537 -0.20178603 0.010448567
000380 c9 65 04 bc dd 2e bc 3d 24 e2 16 bb c0 df 92 bc
       -0.008080908 0.09188626 -0.0023022974 -0.017928958
000390 bb 06 2f be 52 7c e2 3c 24 01 08 bd 91 30 87 be
       -0.17092411 0.027647171 -0.033204213 -0.2640424
0003a0 71 43 a4 3b be f7 55 bd 81 81 83 3e eb bb 49 3e
       0.0050129225 -0.05223822 0.2568474 0.19700591
0003b0 0a b9 08 3d 87 39 57 3d ad 6f 04 be 20 12 8c be
       0.033379592 0.052545097 -0.12933226 -0.27357578
0003c0 63 5c 2b 3e c4 9a b2 bd f0 2c 34 bd 3c 50 28 3d
       0.16734461 -0.087209255 -0.04398817 0.041092142
0003d0 6a 55 a6 3b 9e f1 a8 bd 8e 0a 0a be 8c 95 d4 bd
       0.0050761 -0.0824921 -0.13480589 -0.10380086
0003e0 d5 91 11 3e b9 7b a0 3c e7 2a b1 bd 8b c1 81 bd
       0.14215787 0.019590246 -0.08650761 -0.063357435
0003f0 04 2b 2e 39 17 f3 30 3e bc a4 0f be c4 ef 9c bc
       0.00016609958 0.17280231 -0.14027685 -0.019157298
