bipedal_walker/bipedal_critic.pt (torch_old, 403677 bytes, 9 tensors)

fc1.weight f4 [300, 24]
00000000: e8b9 bd3d 0b39 3b3e 2fa2 f13d 8b4c 973c
00000010: 90cb 25bc 28b2 8cbc d7d7 73bd ac83 d8bb
00000020: 41be e3bd 5eb4 b03c 79da 3dbd 4ea9 873d
00000030: 1bc1 163c 289a 7e3d 84c4 8ebd 82b8 3bbd
00000040: 4868 b13b b132 a5bc b8b2 56bd 26c0 f2bc
00000050: 0927 e83b f860 c0bc cbed 08be fa00 a5be
00000060: a03d fc3d 510c ff3e b138 afbe 4ac4 eb3d
00000070: 94db a93c 362e bdbc 772d 94bc 8c89 c8bb
00000080: 4259 583d c052 dc3d a481 b93d fb60 92bb
00000090: f420 61bc 3706 ffbc f6d5 ef3c edbc 51bd
000000a0: 7cc6 623c 3bfb 7ebc b25e 64bd 8349 453c
000000b0: 7790 7abd 2436 92bd 6485 9fbd 35d7 40be
000000c0: d395 1c3e e41e a53e 5961 123d 76d7 84be
000000d0: 8ab2 1d3e cb03 8a3b 7440 8a3d 53e0 433a
000000e0: 5eb2 e03c a735 953d c742 1e3c 7038 103d
000000f0: 6996 ba3c 3bd1 2dbd 0b27 81bc 3159 1dbd
00000100: 8071 d33c e224 78bc 5664 7fbc ed85 e43c
00000110: 7225 04bd f272 fa3c 8464 803d fb19 ba3d
00000120: d5ab b43d fe19 d83d c6d3 c53c 320c e9bc
00000130: 3173 063e 1cbe b03c 0690 983c 2cfc c4bb
00000140: d5f3 65bc 1777 42bd 7ad9 55bc 7320 cabd
00000150: 24cc 9cbd 0c81 dfba f16f 60bd 372f 72bc
00000160: 0d12 423d 4358 b8bb 8444 523c d214 443d
00000170: f0e4 35bd 86c5 443d 528f af3c a924 c13e
00000180: 2b9d f53d a407 303f f1b2 0abe ba41 a2bd
00000190: 38ef b23d 3467 fa3c 2807 e53c 2fe7 aaba
000001a0: c936 1abc 5b39 a639 dddb 9c3c d3bb 2f3d
000001b0: fb0d 363d 3fbd 8cbb 52a2 3fbb d6c8 893d
000001c0: 489f 773c d78a 153d 00bf 9e3d b3ff a9bc
000001d0: 82d1 aebc 7ea2 7f3d 76cd 253d 0115 cdbe
000001e0: 34a6 123d c733 e23d 8047 17bd ea4e 75be
000001f0: b564 253d 1bc5 cd3d 5487 e6bd ce1e 49bd
00000200: dd23 59bd 8e28 17bd bcae 84bd a3d3 ff3c
00000210: a403 abbc 48dd 7fbd 814c 0abd d972 99bd
00000220: 081e 6cbd bbec 7cbc 845f a7bc 7256 e03c
00000230: 16c3 89bd 3d55 96bd d0e8 fc3c 1976 aebe
00000240: e924 d5bc 94ff ee3e 0cb3 97be 5ee6 913e
00000250: c9ab b8bc 7c59 003d b12c 23be cce5 2e3d
00000260: 0ccb db3d 8b47 3ebd 89cb d3bb 0651 80bd
00000270: c374 8d3c 9649 d6bc 0782 c13d f17a 873d
00000280: 0f37 f63c e467 133d e010 93b9 2836 bd3d
00000290: f4f7 1e3c 2161 873d d5bb 063d 087a 8abc
000002a0: b3c3 0cbd cdf7 80be b5ad 35bd 40f4 b53d
000002b0: c658 1e3e a13a fa3c 6aec 9fbd 435d 16bc
000002c0: 3b30 ab3d 36e9 b83d 2eff 733d 27b3 6b3d
000002d0: c32e 353d 9b53 e9bd e06c a13d b89d da3c
000002e0: 41bd d23c 6b1c 853c c24b aa3d b11d d4bc
000002f0: de66 cfbc d60f 3e3d 489d 283d e44b 253e
00000300: f473 c6bd 69a5 113d a8d4 ef3c 4238 62be
00000310: eb5e 74bd 608f 98bd ee7e 863d 05a2 17bd
00000320: d51b 153e e339 61bc ca3a 8c3d c4ca b93b
00000330: 950e 99bc dabb 4c3d 4ff9 b03b 31c9 92bc
00000340: 197a 6ebc 5aba b13c 5499 71bd afe6 9abd
00000350: b621 efbc dc0f db3c 6eb6 84bc ca02 3b3e
00000360: 0478 40bd bf29 253e 4617 c53d 261f 48be
00000370: 393b 1bbd 7cbb 08bc c130 f0bb 9760 44ba
00000380: df8e 6ebd 4ede cabd 40c6 453d 77f1 253c
00000390: bc46 00bb 714b aa3d 710a 27bd d852 a7bd
000003a0: 0d15 d4bd 1d8e b3bd f61f ffbc 269c a2bd
000003b0: 65d8 57bd 4ddb dfbd 355c 213e 4a66 8d3d
000003c0: 626a 8fbd 8d0c a0be e11f a23c 2247 dbba
000003d0: 0ae2 8d3c 222d a1bd c67a 0d3d a587 08bb
000003e0: fcf6 80be 7b26 9e3c 09b6 08bc ee72 543d
000003f0: d7d8 36bc 9766 f03d 04b7 573d a159 ab3d
0.092639744 0.18283479 0.11798512 0.018469116 -0.010119334 -0.017174795 -0.059532013 -0.0066074934
-0.111202724 0.02157038 -0.04635093 0.06624089 0.009201313 0.062158734 -0.06971076 -0.045830257
0.0054140426 -0.020165773 -0.052416533 -0.02963264 0.0070847315 -0.023483738 -0.13371961 -0.32227308
0.123164415 0.49814084 -0.3422294 0.115120485 0.020734586 -0.023093324 -0.018088086 -0.0061199125
0.052819498 0.10757971 0.0905793 -0.0044671274 -0.013740767 -0.031130893 0.02927683 -0.051205564
0.013841268 -0.015562828 -0.05575437 0.012041452 -0.06117293 -0.07139233 -0.07789114 -0.18832095
0.15291528 0.3225013 0.03573737 -0.25945634 0.15400138 0.004211878 0.06750575 0.00074720866
0.027428802 0.07285624 0.009659476 0.035210073 0.0227768 -0.042435866 -0.015765687 -0.038415138
0.025810957 -0.015145512 -0.015587887 0.027895892 -0.032262273 0.030572388 0.06269172 0.09086987
0.08821837 0.105518326 0.024148833 -0.028448198 0.1312988 0.021575026 0.018623363 -0.0060115065
-0.014035185 -0.047476854 -0.013052339 -0.098694704 -0.07656124 -0.0017052009 -0.054794256 -0.014781765
0.047380496 -0.005625756 0.012833718 0.04787142 -0.044407785 0.048039936 0.021430645 0.37723282
0.11992868 0.6876166 -0.13544823 -0.079226926 0.087370336 0.03056679 0.027957514 -0.0013038869
-0.009412476 0.0003170472 0.019147808 0.042903733 0.044446927 -0.004295021 -0.0029241038 0.067277595
0.015113659 0.03650936 0.07751274 -0.02075181 -0.021340135 0.062410824 0.040479146 -0.40055087
0.035803035 0.11045032 -0.036933422 -0.23955885 0.040379245 0.100473605 -0.112562805 -0.049101643
-0.053012718 -0.03690391 -0.064786404 0.031228846 -0.02087576 -0.06246689 -0.033764366 -0.074926086
-0.057645828 -0.0154373 -0.020431288 0.02738497 -0.06726663 -0.07340477 0.030872732 -0.34074476
-0.026018577 0.46679366 -0.2962879 0.2849607 -0.022542851 0.03133534 -0.15935017 0.04269962
0.107320875 -0.046454947 -0.0064634723 -0.06265454 0.01726759 -0.026158135 0.09448629 0.06615246
0.03005555 0.03598775 -0.00028050598 0.09238845 0.009702671 0.06610323 0.032893974 -0.016903892
-0.03436632 -0.25189057 -0.044355113 0.088844776 0.15463552 0.030545535 -0.07808764 -0.009177509
0.083588086 0.090288565 0.05956953 0.0575439 0.04423405 -0.113928996 0.078820944 0.026686534
0.025725009 0.016248902 0.08315231 -0.025893064 -0.025317606 0.04640182 0.04116562 0.16142231
-0.09690085 0.035558138 0.029276207 -0.22091773 -0.059660833 -0.074492216 0.06567179 -0.03701975
0.14561398 -0.013746711 0.068471506 0.0056699235 -0.018683711 0.049983837 0.0054008137 -0.017918201
-0.014555478 0.021695305 -0.058984116 -0.07563531 -0.02919088 0.02674096 -0.01620027 0.18262783
-0.046989456 0.16129206 0.0962358 -0.19543132 -0.037898276 -0.008345481 -0.0073300307 -0.00074911996
-0.05824172 -0.099056825 0.04828477 0.0101283705 -0.001957341 0.083151706 -0.040781442 -0.08170098
-0.103555776 -0.0876734 -0.03114317 -0.07939939 -0.052696604 -0.109305 0.1575783 0.06904276
-0.07002713 -0.31259575 0.019790592 -0.0016729573 0.017319698 -0.078699365 0.034540914 -0.0020832804
-0.25188434 0.019305458 -0.008344182 0.051867418 -0.011160097 0.117383175 0.05266477 0.08366705

fc1.bias f4 [300]
00000000: 6286 d7bb bcb8 0f3e d97c 003d f63d d93d
00000010: ccfd a6bc 3fb6 4abd bff7 92bd 2108 c43d
00000020: 055f 42be 159c 16bc 189b 303e e552 31be
00000030: 4bd7 1a3e 558f 2fbe d983 3c3e c9ef 38be
00000040: 0017 093e 5822 3a3e 54db 29be 4bd2 42be
00000050: 6767 c23d 7800 c4bd 4352 cd3d 77ef dcbd
00000060: 63e0 683d c08a e73c de9d b8bd 5f36 d03a
00000070: 7df1 153e 29a8 843d 2879 e7bd d956 4abe
00000080: 4994 173d 7c8b 173e a0c4 ec3d 6c36 12be
00000090: 4e6b 55bd 2fb8 0cbe b7f8 25bd 4f93 af3d
000000a0: 9938 17be 3a19 8f3c 0c30 b33c c8e1 933d
000000b0: 998d 6cbc 82fc d6bd a46a 2a3e 09b8 a4bd
000000c0: 80df febd 69ee 69bd ced5 923d aa4f 01be
000000d0: 6aaa 223e a40e 78bd 8f37 ad3d 4628 233e
000000e0: 794a 31be e046 233e fe69 20bd 99c5 053e
000000f0: 6abc 2f3d c50c 05bd af3e a5bd 0085 e93c
00000100: f90e ed3d 0351 363e 606b 233e bb4a 2a3e
00000110: c246 54be 705d 863e 08f9 503d 25f4 2abe
00000120: 7baf 2bbe a1ae 3b3e a051 d2bd 5b65 423d
00000130: e11e d8bd e5aa 4fbe 8cbb f03d dccc 41be
00000140: 0454 943c b915 573e e68b 2e3e 212f 613d
00000150: 4ecf d0bd 966b 20be f619 f1bd 95f8 a0bd
00000160: 06dd 4c3e 71be aabd 5a1e 3dbe 1b42 883c
00000170: 0418 28be 7374 7e3d 128b cebd 87c0 233e
00000180: 69e0 edbd f246 00bd c292 463e 0301 0c3e
00000190: 54b6 e13c 2e27 45be 6acf 013d 9312 3a3e
000001a0: 4f32 193e 2872 fabd 1dc3 49be 4c35 d2bd
000001b0: eedc 37be 6a15 223e 3730 f9bd f8a0 553d
000001c0: d09e 2e3e 1972 673d 1c13 27be 98aa 763a
000001d0: d549 423e f88f 403d 84fe 3dbd 2fd2 393e
000001e0: 772f 39be 5655 7dbd ea4d 8f3c c90d 153e
000001f0: 675f d8bd 4c84 08be f7a1 46be af93 34be
00000200: f293 cf3d 2669 c5bd d1cb cd3c 7f1b 773d
00000210: ba58 773d 577c 52be cba9 cc3d 35b6 9dbd
00000220: 0589 8ebd 39b3 aebc 2b59 4fbe a186 26bd
00000230: 73be 013d 6d0b 63be 86a2 c0bd a746 24be
00000240: 3a0a 08be fc8b e2bd 6bad 1b3e a52a 4e3d
00000250: 05fd be3d 2fad 39be efdd 99bd 6f00 30be
00000260: 70bf de3d 8264 46be 8c6b 05be bc0e 26bd
00000270: 2432 7a3d 5133 833d 7cd8 d9bc 1a63 a73c
00000280: 1dc8 883c 3ad2 b43d 7023 33bd 0e80 f03d
00000290: c730 693b 6753 e03d 6f35 123d 0f89 f2bd
000002a0: 002b bcbd f88f 02be 49dc ccbc 6bd0 3d3c
000002b0: 0d84 d93c a0ea 123e 379c 3f3e b622 cd3c
000002c0: a5db b83c b027 1bbe 0daf 053e 3f8b 97bd
000002d0: 053d 28be 4503 013e ea8e e33d cdac d13d
000002e0: 3b99 543d 92bc dabd 7754 013e 99b5 483e
000002f0: 242d d13d d214 8d3d a443 62bd 29fd a73d
00000300: 9d31 a5bd e070 54bd f380 9d3d 96f1 a03d
00000310: 4730 c23d 048a 40bc b67a 1ebd e350 483d
00000320: 1874 7b3d 41f2 f23c f2e8 eabd 3d12 4e3e
00000330: c8e1 9c3d 0618 663d ccbf 2dbd 636e 4a3e
00000340: 8985 c2b7 6fa7 bfbc d0cf 6c3d fb83 c4bc
00000350: 0e11 193d fd19 08bd edfe 023d 397c ccbc
00000360: 3384 ffbd 6361 51bd 3877 283e 2f5c 0a3e
00000370: 2952 51bd ecc9 e33c 4549 04be e872 2e3e
00000380: 86b2 4dbe da30 b93d 257b 073e c1ad e63c
00000390: 37f5 b53d b1c8 27be 8820 9fbd 8408 e3bd
000003a0: 8f1e 8d3d 0992 30be 77e9 4ebe 5cb0 ae3d
000003b0: 0a8a 3c3d 5f8c 58be 5168 263e 734d b83d
000003c0: 3d80 f03a 2ef8 d33b 8cbe ccbd 060d 52be
000003d0: 5139 29be 29e0 19be 1594 0bbe 1aa5 debd
000003e0: 82c6 6b3e cf7d 5bbe 3ab1 3f3e 039c 2c3e
000003f0: c970 de3c 76e7 6b3c f5d5 1a3a 644d 143c
-0.006577299 0.14035314 0.031369064 0.10607521 -0.020384692 -0.04949021 -0.0717616 0.09571863
-0.1898156 -0.009192486 0.17246664 -0.17316778 0.1512119 -0.1714452 0.18409671 -0.18060221
0.1338768 0.18177164 -0.16587573 -0.19025533 0.09492379 -0.09570402 0.10025456 -0.10787862
0.056854617 0.028264403 -0.09014486 0.0015885344 0.14642902 0.064773865 -0.113024056 -0.19759692
0.03700665 0.14799303 0.11560941 -0.14278573 -0.052104287 -0.13742135 -0.040520396 0.08573019
-0.14767684 0.017468084 0.021873496 0.07220799 -0.014438056 -0.10497381 0.16642243 -0.080429144
-0.12444973 -0.05711213 0.07169686 -0.12628046 0.1588532 -0.060560837 0.084578626 0.15933332
-0.17313565 0.15945005 -0.039163582 0.13063659 0.042904295 -0.03248288 -0.080685966 0.028505802
0.115751214 0.17804341 0.15958929 0.1663007 -0.20730117 0.26243162 0.051018745 -0.16694696
-0.16766159 0.18328334 -0.10269475 0.04745994 -0.10552765 -0.20280035 0.11754522 -0.18925804
0.018106468 0.2100438 0.17045555 0.054976586 -0.1019579 -0.15666041 -0.1177253 -0.07859913
0.20006189 -0.08337105 -0.1846861 0.016633084 -0.16415411 0.062122773 -0.10085119 0.15991412
-0.116150685 -0.03131766 0.19391921 0.13672261 0.027552761 -0.19253227 0.031691946 0.18171148
0.14960597 -0.12228805 -0.19703336 -0.10264072 -0.17955372 0.15828481 -0.121673994 0.052155465
0.1705277 0.056505296 -0.16315883 0.0009409576 0.18973477 0.0470123 -0.046385303 0.18146585
-0.18084513 -0.06184896 0.017493207 0.1455604 -0.105650716 -0.13331717 -0.19397722 -0.17634462
0.1013564 -0.09639196 0.025121601 0.060328957 0.06038735 -0.20555244 0.09993323 -0.07700769
-0.06959728 -0.021325694 -0.20248859 -0.040655736 0.031675767 -0.22172327 -0.09405999 -0.16042577
-0.13285151 -0.11061856 0.15202872 0.050333638 0.093256034 -0.1813247 -0.075130336 -0.17187665
0.108763576 -0.19374278 -0.13029307 -0.040541396 0.061082974 0.06406272 -0.026592486 0.020432997
0.016696984 0.0882916 -0.043734968 0.117431745 0.0035582052 0.10953408 0.03569549 -0.11842548
-0.09187889 -0.12750232 -0.025007384 0.011585335 0.026552225 0.14347315 0.18711935 0.025040966
0.022565672 -0.15151858 0.13055058 -0.07399606 -0.16429527 0.12598903 0.11111243 0.10238037
0.051903944 -0.10680498 0.12629877 0.19600524 0.10213688 0.06888737 -0.05524029 0.08202583
-0.080661036 -0.05186546 0.07690611 0.07858579 0.094818644 -0.0117516555 -0.038691245 0.048905265
0.061390013 0.029656531 -0.11470212 0.20124145 0.07660252 0.056175254 -0.04241924 0.19768672
-2.3188784e-05 -0.023395268 0.057815373 -0.023988714 0.03736978 -0.03322791 0.031981397 -0.024961578
-0.12476387 -0.051118266 0.16451728 0.13511728 -0.051103745 0.027806245 -0.12918575 0.17036021
-0.20087633 0.09042521 0.1323057 0.028159024 0.08884662 -0.16385151 -0.07769877 -0.110856086
0.06890594 -0.17243208 -0.20206247 0.08529732 0.04603008 -0.21147297 0.16250731 0.08999147
0.0018348765 0.0064687943 -0.099972814 -0.2051278 -0.1652577 -0.15026917 -0.13630708 -0.108713344
0.23024943 -0.21434711 0.1871995 0.16856389 0.02715339 0.014398446 0.0005906516 0.0090516545

bn1.weight f4 [300]
00000000: 98d2 8b3f 1af1 a03f 0771 ab3f a02b 953f
00000010: 0d38 ae3f 2ce3 803f 828e a53f 9d63 763f
00000020: 0470 713f eb80 683f 096c 733f 719e 673f
00000030: 673b 863f f0ab 3d3f 92a3 823f e18b 9b3f
00000040: 602d 7c3f 2bf2 633f 64b0 a13f 93fc 7e3f
00000050: 64c2 793f 6c4e a13f d4c2 613f a05b 883f
00000060: 4d77 8f3f f5bd 803f 38f9 7b3f f06c 9f3f
00000070: 1cf6 883f 1c82 713f e84a 8c3f e8fe 6b3f
00000080: 3e43 943f 044c 8e3f d83e 993f 13c6 a23f
00000090: de19 ab3f bb22 723f 9bda b13f 189b 803f
000000a0: 39e7 7a3f ba8f 903f 3c94 a33f 7f0a 903f
000000b0: f1ce 913f 8805 ab3f fe03 993f e3b2 f33f
000000c0: 8059 833f ae05 b93f 1584 8f3f 5838 6e3f
000000d0: 637d 893f 25c8 873f dcba 8d3f a91c 843f
000000e0: 6e49 923f 6c6e 7a3f eeb5 7e3f 0589 913f
000000f0: 0277 8c3f 8a68 893f 595b 8e3f 2089 6b3f
00000100: 1f1d 773f bade a03f 5202 963f b9bd 833f
00000110: c823 bd3f 8b88 863f 74c1 9e3f aacd 8c3f
00000120: 8fdb 883f c9e9 953f 3b95 8b3f e596 9d3f
00000130: 85b8 803f da91 683f 5f7b 9b3f 44ac a13f
00000140: 6803 843f 1f4d 963f 6c27 983f 9be5 773f
00000150: 1aa2 853f e7e6 963f 2d0f a63f adb5 893f
00000160: 2703 6c3f 9dab 753f 8dcf 833f 1ff7 a23f
00000170: dfea a23f 027a 803f fd2a 793f 26e7 973f
00000180: ac67 853f b97e a43f 074c 733f cca3 903f
00000190: 61f6 a23f 0970 913f c2b1 373f 0f8a 7e3f
000001a0: 1484 913f 0590 523f c1ef ac3f 67f0 6b3f
000001b0: 8c5f 943f ae7e 873f 6f35 953f ddce a83f
000001c0: 34c6 913f 1d98 8e3f 6fb9 903f ce05 793f
000001d0: 44b3 703f 656c 6f3f 05fb 8a3f 4e64 b23f
000001e0: cf59 8f3f 6bd6 a73f 0642 8d3f 8a3b 7c3f
000001f0: e25c 843f 1d63 993f dd63 5f3f b020 873f
00000200: fd61 783f 3383 9a3f f6ef 953f b055 af3f
00000210: 7beb 813f dcb2 823f df55 a53f b9e3 8d3f
00000220: c42d 7b3f 01b0 8c3f 5ff4 663f 298a 853f
00000230: 3f75 8c3f 5582 c53f 6a35 773f 5972 8c3f
00000240: 32d9 7b3f 08bb 903f c3d5 783f 07aa 843f
00000250: 88ec 693f 19d0 c03f e27a 7b3f fbcb 7a3f
00000260: c86d b53f b94b 923f c3bf 933f fec6 c13f
00000270: 6cc3 c23f f707 9a3f f1c3 7a3f e54b 603f
00000280: 95eb 673f 8dce 9f3f f5d0 8f3f 7a2d 903f
00000290: da6b 7c3f e828 8d3f 3136 9b3f a0fb 653f
000002a0: c31a 7f3f 4065 893f 3ec0 7a3f 8180 6e3f
000002b0: 8dcc 8a3f 27a2 7f3f 71de 6d3f 8bdc aa3f
000002c0: dcc1 b13f 637a 823f 3217 6e3f 4ef7 9f3f
000002d0: 8432 8d3f b150 a83f 8e95 a03f c814 ad3f
000002e0: a3fd aa3f 066f 5b3f 7f78 953f 787c 953f
000002f0: 6e5d ba3f d967 aa3f 6e3d 963f 439b 9f3f
00000300: 1fa0 833f 5e2b 7e3f 52c1 6f3f 3f35 7d3f
00000310: 093e 703f eb88 983f 9e12 943f e70b 993f
00000320: 95d5 813f 0af2 853f 32c7 933f d207 983f
00000330: 1688 743f cfa6 a63f fb6c 853f 74ba 743f
00000340: da45 993f e9dd 8d3f 2716 793f 75d8 6c3f
00000350: 9fd6 663f f5bd 7c3f 382d 6f3f 44f7 b93f
00000360: 7f2e a33f 62bf 8f3f 8430 9a3f 542e 823f
00000370: 14fc 863f a3a2 8a3f d3a2 963f fd12 893f
00000380: 4320 723f a6bc 763f 1946 8c3f 225e 883f
00000390: 0953 823f 23cc b23f ca3e 7b3f 99ff 803f
000003a0: 02ed 723f b094 9a3f 3364 7f3f 5006 923f
000003b0: 8b51 773f f6e2 993f 667b 9a3f caa6 933f
000003c0: 49f1 9e3f 8f92 8b3f 33cb ae3f 389f 983f
000003d0: 1053 693f dfe8 913f 1d13 9c3f 94dc 843f
000003e0: efbb 833f 72d0 913f 1501 9b3f 6564 7e3f
000003f0: b9fc 9f3f 9027 b53f 43bf b43f 262c 9f3f
1.0923643 1.2573578 1.3393868 1.1653938 1.3610855 1.0069327 1.2934115 0.9624575
0.9431155 0.90821713 0.95086724 0.9047614 1.0486878 0.7409048 1.0206168 1.2152063
0.98506737 0.89041394 1.2631955 0.9960415 0.9756224 1.2602057 0.8818791 1.0652962
1.1208283 1.005797 0.9842715 1.245512 1.0700107 0.94339156 1.096036 0.9218583
1.1583021 1.1116948 1.1972303 1.2716697 1.3367269 0.94584244 1.3894838 1.0047331
0.9800907 1.1293862 1.2779613 1.1253203 1.1391279 1.3361063 1.1954343 1.9038967
1.0261688 1.4454858 1.1212183 0.93054724 1.074139 1.0607954 1.107265 1.0321246
1.1428659 0.9782474 0.9949635 1.136994 1.0973818 1.0735028 1.1121627 0.9200611
0.9652881 1.2567971 1.1719458 1.0292274 1.4776545 1.051042 1.2402787 1.1000264
1.0692004 1.171197 1.0904917 1.2311674 1.0056311 0.9084755 1.2147025 1.2630696
1.031354 1.1742285 1.1887031 0.96834725 1.0440094 1.1789216 1.2973381 1.0758568
0.9219231 0.95964986 1.0297714 1.2731665 1.2727927 1.0037234 0.9733122 1.1867416
1.0422263 1.2851173 0.95037884 1.1299987 1.2731439 1.1362315 0.7175561 0.9942941
1.1368432 0.82251006 1.3510667 0.921637 1.1591659 1.0585535 1.1656932 1.318813
1.1388612 1.1140171 1.130659 0.9727448 0.9402354 0.9352477 1.0857855 1.393686
1.1199282 1.311231 1.1035774 0.9852835 1.0340846 1.1983372 0.87261754 1.055685
0.9702452 1.2071289 1.1713855 1.3698025 1.0149988 1.0210834 1.2916831 1.108512
0.9811671 1.0991212 0.9021663 1.0432788 1.0973281 1.5430399 0.9656588 1.0972396
0.9837829 1.1307077 0.97201174 1.0364388 0.91376543 1.5063506 0.9823438 0.979675
1.4174128 1.1429359 1.1542896 1.5138853 1.5215888 1.2033681 0.9795523 0.87615806
0.90593845 1.2484909 1.1235644 1.1263878 0.9860207 1.1028109 1.2125913 0.89837074
0.9965021 1.0734024 0.9794959 0.9316483 1.0843674 0.998568 0.92917544 1.3348554
1.3887286 1.01936 0.93004143 1.2497346 1.1031041 1.3149625 1.254564 1.3521967
1.3358654 0.85716283 1.1677397 1.167861 1.4559762 1.3312942 1.1737497 1.2469257
1.028324 0.99284923 0.9365436 0.9890937 0.9384466 1.1916784 1.1568182 1.1956757
1.0143305 1.046449 1.1545165 1.1877387 0.9552015 1.3019656 1.0423883 0.95597005
1.1974442 1.1083347 0.97299427 0.9251779 0.90171236 0.9872735 0.93428373 1.4528584
1.2748564 1.123028 1.2046056 1.0170388 1.0545678 1.0830883 1.176844 1.070892
0.9458048 0.96381605 1.0958892 1.0653727 1.018159 1.3968548 0.98142684 1.0078002
0.94892895 1.2076626 0.99762267 1.1408176 0.966088 1.2022388 1.2068908 1.1535275
1.2417384 1.0904101 1.3655761 1.192359 0.9114237 1.1399192 1.2193333 1.0379815
1.0291728 1.1391737 1.2109705 0.9937194 1.2499 1.4152699 1.4120868 1.2435348

bn1.bias f4 [300]
00000000: 009c 80be c140 29be 41bd a13d e883 613d
00000010: 4f2e 4dbc 5535 5f3b 540a cfbd 7009 213e
00000020: 2447 3e3e 6cba 1b3f f365 b83e b979 bf3e
00000030: 5956 e03d fc74 883e 6b7e 313e 648f 0b3e
00000040: 68a5 b93d 26a0 363f 3c84 143e e4c8 9e3d
00000050: 0e79 8c3e 0665 c7bd 590c fa3e 7cfa 67bd
00000060: 9974 843e af18 de3e b616 073f 5a35 73bc
00000070: a401 5f3d e2d3 ab3e 73bc c13c 4940 de3e
00000080: 060f 03be 8154 d13b e347 053e 6b40 96bd
00000090: e769 3d3d 5920 ba3c 8dd9 ab3d d800 ac3e
000000a0: 7ec6 ab3e 90e1 99bb cd4d 20bc 5046 fb3d
000000b0: c12d 0bbe e718 1b3e 88f2 523e b5b4 3dbd
000000c0: c439 563e b212 5e3d c69d 88be 8cac b53e
000000d0: 3d12 a4be bb38 a3be e99e a6bd c2b2 683e
000000e0: ae02 8e3c 7c41 a83e 1fa9 813e 71b9 eebc
000000f0: 5690 98be 55d3 a7be a9f2 0abe 1a89 473e
00000100: 95fb f23c 0baf 763e 07e4 9f3d 0fce df3d
00000110: e53d 4a3e 81de 32bd 2108 133a 326d 5d3c
00000120: 9b95 653e fa1a aa3d 5d13 0fbe 7f99 e3bd
00000130: 0fc2 983e f1a5 b73e 355d df3d 2090 3a3e
00000140: 4951 dd3c 641c 86bd e1f0 183c fd38 74be
00000150: 4045 b23e 4cb4 c8bc 24a7 9c3d 57bc 33be
00000160: 44a0 1e3f 0f23 8d3e 4f08 853e 01a9 91be
00000170: d1c8 f5bd 3663 8f3e 9865 e13e d05e 6b3b
00000180: 59d7 bdbe 9074 f0bd 239c f43e 3602 4cbe
00000190: a984 773d 4ffa f9bc 3631 363f 6f6d 983e
000001a0: 0e2f 1b3d 2640 283f c1da 1cbe f87d 293e
000001b0: d0ba 0d3e dcd7 cd3e d2ca bfbc 4784 9bbe
000001c0: a272 e5bd a6c3 e13d c20a dcbc 1055 223e
000001d0: df4b 9d3e 0ba7 71bd 9e5f e6be 10ae 1f3e
000001e0: fa0a 9e3d ff5a 72be 5d4c 903c a459 5b3e
000001f0: 70e6 c33d 508e 8b3d 21e6 40be e1a4 f03d
00000200: 45ea ec3d ea8d 91be d3e5 a13d 9b27 d93d
00000210: 5c38 323e c7c3 c03d 8d53 363e 41a4 36bc
00000220: 6214 9a3e 7fc7 973e b495 9c3e 2aea 493e
00000230: f34a e0bb 2630 e3bd b38f 473e 6436 353e
00000240: 388d ac3e af48 e1be 407f 4c3e ab62 9c3e
00000250: 5bf6 c93e 469d db3c 8d3c eb3e b518 3b3e
00000260: 56b8 e1bd 7dee 10bc f849 cebe 8523 23bc
00000270: 3a89 f3bd 9452 ae3d e2df b43e 8e91 0e3f
00000280: 04e9 7ebd f5cb 22be b665 5fba 7cda 983e
00000290: a1e6 643e f5e3 143d d244 e5bd d25b c03e
000002a0: f249 e7be 4ced 483e 44b4 953e 1115 b93e
000002b0: 30db c33d 1986 8d3e 494d a93e f3de 59bd
000002c0: 8298 67bd b5ab 6b3e 22db b93e cd38 573e
000002d0: 605e 593c 4042 43bd fd2c a23d 179f ddbd
000002e0: 6e5f f5bd 72ea ce3e 47ce d1be ad55 16bd
000002f0: 2ca9 50bd 338b b4bc 1797 b93e d45f 84bc
00000300: b9e8 263e d14f 453e 6745 1c3e 7e77 8c3e
00000310: 34cb f43e 2d49 683c 5386 ea3d 21fb b73d
00000320: 38e9 6c3c 3af8 5f3e e745 cfbc 78ac 06be
00000330: 9bd5 743e 8169 763d fe5d b5be b709 bf3e
00000340: e1be 08bb 29af e1be b14c 173e 655b c33e
00000350: d92d e93e 66fb 893e 9702 4bbe 2c7d a0bc
00000360: 5760 d93d 4928 023e a45c cdbc fa06 503d
00000370: 909e 9d3d e1ae 0cbf 4eb4 34bd a52e 673d
00000380: 60e8 bb3e 5f08 fe3e 42a9 633e eb3c 6b3d
00000390: 55f0 893d d6a6 c63d eee4 873e 4001 983d
000003a0: d547 a63e f880 10bc 5a91 833e cb76 e2bd
000003b0: b05a 923e b423 91bd f242 f23d e322 d7bd
000003c0: 8938 bc3d b0c0 04bd 7e95 093e 87ae ad3d
000003d0: 72d0 fc3e bc0b 2f3d 0ad1 6bbd 2be2 cb3e
000003e0: bff8 323d 6733 2fbe fb69 7abc d947 803e
000003f0: 7132 d03d b172 0b3e 34c4 5abe 195b 8ebd
-0.2511902 -0.16528608 0.078974254 0.055057436 -0.012523248 0.0034058888 -0.10109392 0.15726256
0.18581825 0.6083133 0.3601528 0.37397555 0.109539695 0.26651752 0.17333381 0.13628918
0.09064752 0.7133812 0.14503568 0.077531606 0.27436107 -0.097360656 0.48837546 -0.056635365
0.25870207 0.43378207 0.5276903 -0.014844263 0.054444924 0.3356009 0.02364943 0.4340842
-0.127987 0.0063882475 0.13015704 -0.073365055 0.046243574 0.022720503 0.08391104 0.33594394
0.33549875 -0.0046960786 -0.009784174 0.122692704 -0.13591672 0.15146218 0.20600331 -0.046314914
0.20920473 0.054217048 -0.26682872 0.35483205 -0.32045165 -0.3187922 -0.081357785 0.2272444
0.017335262 0.3286246 0.25324342 -0.02914116 -0.2979762 -0.3277842 -0.1356913 0.19485894
0.02966098 0.24090211 0.07807165 0.109279744 0.19750173 -0.043669228 0.0005608816 0.013514804
0.22420351 0.083059266 -0.1397223 -0.111132614 0.29835555 0.3586879 0.1090645 0.18219042
0.027016299 -0.06548384 0.009334774 -0.23849864 0.3481846 -0.024500035 0.07649067 -0.17552315
0.61963296 0.2756581 0.259829 -0.28449252 -0.12001193 0.2800538 0.44022822 0.0035914667
-0.3707836 -0.117409825 0.47775373 -0.19922718 0.06042925 -0.030514864 0.7116884 0.2977099
0.03788667 0.6572288 -0.15317823 0.1655196 0.13840795 0.4020375 -0.023412142 -0.30374357
-0.11203505 0.11023645 -0.026860598 0.15852761 0.30721948 -0.058997195 -0.44994825 0.15593743
0.07716937 -0.23667525 0.017614538 0.21420914 0.09565437 0.06814253 -0.18837787 0.11750198
0.11568121 -0.28428584 0.079051636 0.10603257 0.17404312 0.094123416 0.1780531 -0.01114756
0.30093676 0.2964439 0.30582964 0.19718233 -0.006844872 -0.11093168 0.1948841 0.1769653
0.3370149 -0.44000766 0.19970417 0.30544028 0.39445767 0.026808392 0.45944634 0.18271144
-0.110214874 -0.008845923 -0.4029081 -0.009957199 -0.11891408 0.08511844 0.3532706 0.5569085
-0.06223394 -0.15898116 -0.0008521931 0.2985419 0.22353603 0.03635021 -0.11194767 0.37570053
-0.45173603 0.19621772 0.29239094 0.36148885 0.09563291 0.2764137 0.33066776 -0.053191137
-0.056541927 0.2301472 0.36299998 0.21017762 0.01326713 -0.047670603 0.07918737 -0.108213596
-0.119810924 0.40413243 -0.4097769 -0.0367028 -0.050942585 -0.022039032 0.36248085 -0.016158976
0.16299714 0.19268729 0.1526085 0.27434915 0.47811282 0.014177603 0.114514016 0.08983446
0.014459901 0.21872035 -0.025301887 -0.13151729 0.23909609 0.06015921 -0.35423273 0.373121
-0.0020865726 -0.4407895 0.14775349 0.38155666 0.4554279 0.26949614 -0.19825207 -0.019590937
0.106140785 0.1271068 -0.025068589 0.050787903 0.07696259 -0.54954344 -0.044117264 0.056440968
0.36700726 0.49615762 0.22232535 0.057431143 0.06735293 0.0969979 0.26541847 0.074221134
0.32476678 -0.008819811 0.25696832 -0.11057814 0.28584814 -0.07086888 0.11829175 -0.10504701
0.09190471 -0.032410324 0.13435933 0.08480554 0.4937778 0.0427358 -0.057572402 0.3982099
0.043694254 -0.17109452 -0.015284057 0.25054815 0.10165871 0.1361797 -0.21363908 -0.06950969

bn1.running_mean f4 [300]
00000000: 76ca 04bf e512 15be 35fe 7e3e 1eee 353f
00000010: e751 78be 6ef0 eabe 3221 813e 099d d43e
00000020: d5d5 1abd b1e5 a1bc 46f1 4e3e 8485 1a3f
00000030: a7a2 b63f 17b2 343e 8f6d 0d3f 9897 443f
00000040: 2e67 81be 96d6 a5bd 718e 893f 5576 f33e
00000050: a089 103f f09d 6fbe 4577 babe 99c2 1b3f
00000060: 5b3b 9c3e 83c5 05be fe92 04bf 355e e5be
00000070: 1cbe 803f e3ce 023e a611 1e3f 2aae f3be
00000080: 5c84 af3f d8bb 753f 2607 5a3f c302 6cbe
00000090: d24a ee3e bb55 ac3c 36e2 a63e 5bc3 563e
000000a0: 09a9 64bd 68ca 153e 57ac 013f 846e ba3e
000000b0: f70c 2bbf ba61 553d c9c0 753f 9236 0a3d
000000c0: 039b 183e 5ca4 25bf 205b 183f 6291 3c3e
000000d0: 83ca 09bf ba01 98bd b568 353f ed56 b0be
000000e0: b4a9 91bd 2926 6e3e a6d1 4fbe 1ab9 113f
000000f0: 7103 7a3e ced2 dfbe d367 80be ece0 843e
00000100: 776e 3f3f 82c3 973f ee16 20bd 5c91 623e
00000110: 4433 d9ba 6a75 8c3f 4c9b fc3e 42d3 953e
00000120: ee43 843e fa4d f13e 09d1 253f 5adf 7a3e
00000130: 54d2 6c3f 4ede 4c3e 1eab 853f 0c87 413f
00000140: 2baa c6be dbb9 04be 651e 403f 6aec 86be
00000150: 2803 23bf 3e96 253f d401 4f3f d46d babd
00000160: 84e3 acbd 8fa1 343f 7f34 7ebf 2efa 3d3f
00000170: 30dc 383d 8bcc a83f 7645 47be c954 173f
00000180: 077c 53be 2a3d 62be 08a5 e53e 1a24 c43f
00000190: 5f20 4d3f dba0 9abd 96dc 18be 37be d23e
000001a0: bca8 823f cf26 85bf 3942 cabe dbf6 9dbe
000001b0: c733 853f 1fa7 16bf c689 6a3e 233a d23e
000001c0: 3ae9 6d3e e852 d43e 9714 023f dcf3 a53d
000001d0: 51c1 8b3e 8c40 ac3e de8c e1be b63e 1d3f
000001e0: ddd5 0d3f d56b 1dbf a921 cd3e d60a 903d
000001f0: 9856 003f 7acd 033f 378d 60bd 63b0 00bf
00000200: 0278 733d c84e 2140 66c2 993e 9de0 123f
00000210: 54e2 6e3e efbb 9d3f c55c fa3e cd93 883e
00000220: fcf1 80be 5af2 efbe 9000 773e 0f43 d4be
00000230: ed0f 243f bde2 1fbe ed40 693e 7caf f03d
00000240: 6d57 65be 71ea 19bf ac90 5a3f dc50 e13e
00000250: 35ad c5be 332d a23e 0633 ba3e 2ca9 3c3e
00000260: 4aba 1b3f eb25 463e e370 bebe 319a c2be
00000270: a798 a13c e768 703f 0851 adbc 7b35 f6be
00000280: 90e9 98bd 36e6 113e a24c db3e 8f35 153f
00000290: c857 ca3c d198 3e3e 3f0a f33d 4bf8 793d
000002a0: 77a4 7bbe 61b8 513f 6750 13bf 089b 1a3f
000002b0: 75e9 703f e66a e13e be70 bb3e b8f0 453f
000002c0: ab82 b2bd a8c4 29bf a06b ddbe 3a94 983f
000002d0: 6796 2f3f 5a67 013f c403 203f 9234 733e
000002e0: d4cb c63c b936 fc3e b6ed 23bf cc32 5a3f
000002f0: d642 abbe 1058 1a3f e164 9e3e ce8c 8ebc
00000300: 7215 af3d c720 bd3c 93d8 fc3e 6674 173f
00000310: 0327 093e 2e45 f43e 14bb f33e 2a4d 613f
00000320: a5ff ca3e ec37 24bf 15f3 01bf 5573 ae3e
00000330: 9ce5 163f 8e54 483f f37a 36bd 94ae 53bd
00000340: 2ab5 913e 01f7 48bf abc8 803f 6d17 d53e
00000350: c092 c6bd 56b3 233f 2c15 48bf d842 093f
00000360: ff12 b8be e46f 583f 28ca 01be 1ada 213f
00000370: a6b0 8b3e 82f0 88be 7481 033f 86db 523f
00000380: 3d7c 10bf 8cc0 9bbe 687d fdbe 0943 953f
00000390: 1e37 363f d842 cb3d 51ec bd3e 9f09 e63e
000003a0: 0610 5b3e 7bcb 8d3e d999 023f d928 093e
000003b0: d4b9 0bbe 60dd 8a3e e737 683f 848f 003f
000003c0: a77c b83e 16aa 703e f670 f53e 71dd 94be
000003d0: 9e86 1fbf 402b 3f3e 8555 afbe d1dc b03d
000003e0: 4ba8 943f d016 2dbf d49f 7f3f d07b ab3e
000003f0: c3f6 e63e 4031 0ebc d9b1 a23e d293 ef3e
-0.5187143 -0.14557989 0.2490166 0.71066463 -0.24249993 -0.45886558 0.2522064 0.41526058
-0.037801582 -0.019762846 0.20209226 0.6035998 1.4268388 0.17646061 0.552453 0.76793814
-0.25274032 -0.0809757 1.0746595 0.47551218 0.5646 -0.23400092 -0.3641912 0.6084381
0.30514035 -0.13063626 -0.5178679 -0.44798437 1.0058017 0.12774234 0.6174568 -0.47593814
1.3712268 0.9598975 0.8516716 -0.23047929 0.46541458 0.021036973 0.3259446 0.2097296
-0.055825267 0.14627993 0.50653595 0.36412442 -0.6681666 0.052095152 0.9599729 0.03374345
0.14902882 -0.6470392 0.59514046 0.18414834 -0.53824633 -0.07422204 0.70862895 -0.3444132
-0.071124464 0.23256744 -0.20294818 0.5692307 0.24415375 -0.4371552 -0.25079212 0.25952852
0.7477793 1.1856539 -0.039084367 0.22125763 -0.0016571064 1.0973332 0.49337232 0.2926274
0.25833076 0.47129804 0.6477209 0.24499264 0.92508435 0.20006678 1.0442846 0.7559669
-0.38801703 -0.12961523 0.7504638 -0.26352245 -0.6367669 0.64682376 0.80862164 -0.09102979
-0.08441833 0.7055902 -0.9929885 0.7420987 0.045131862 1.3187422 -0.19460091 0.59113747
-0.20652781 -0.22093645 0.4485247 1.5323517 0.8012752 -0.07550212 -0.14927897 0.41160747
1.0207744 -1.0402468 -0.3950365 -0.30852398 1.0406426 -0.58848757 0.22904119 0.4105998
0.232335 0.41469502 0.5081267 0.08103153 0.27295926 0.33642995 -0.44052786 0.61423814
0.55404454 -0.61492664 0.40064743 0.07033317 0.5013213 0.5148541 -0.054822173 -0.50269145
0.05944062 2.5204334 0.30031127 0.5737398 0.23328525 1.2322978 0.48898903 0.26675263
-0.2518462 -0.46864587 0.24121308 -0.41457412 0.640868 -0.15613838 0.22778673 0.11752221
-0.22396632 -0.60123354 0.85377 0.44007003 -0.3860871 0.3167511 0.36367053 0.18423909
0.6083113 0.19350402 -0.371955 -0.38008264 0.01972611 0.9391007 -0.021156803 -0.48087677
-0.074664235 0.14247975 0.42831904 0.5828485 0.02470006 0.18612982 0.11867189 0.061027806
-0.24574457 0.81921965 -0.5754456 0.6039281 0.9410623 0.4402687 0.36609453 0.7732043
-0.08716329 -0.663157 -0.43246174 1.1920235 0.6858887 0.50548327 0.62505746 0.23750523
0.024267115 0.492605 -0.64034593 0.8523376 -0.3344943 0.6029062 0.3093634 -0.017401125
0.08549012 0.023086919 0.49383983 0.59161985 0.13393788 0.4770903 0.47603667 0.8800837
0.39648166 -0.6414783 -0.5076154 0.34072366 0.58944106 0.7825402 -0.044550847 -0.051680163
0.2845853 -0.785019 1.0061239 0.41619435 -0.09695959 0.6394552 -0.78157306 0.5361762
-0.35951993 0.8454573 -0.12674773 0.6322342 0.2728321 -0.26745993 0.51369405 0.82366216
-0.5643957 -0.3042034 -0.4950974 1.1661083 0.7117785 0.09924859 0.37094358 0.44929215
0.21392831 0.27694306 0.51016 0.13394488 -0.13645107 0.2712202 0.907103 0.5021899
0.36032602 0.23502383 0.47937745 -0.29075196 -0.62314785 0.18668842 -0.34244934 0.086358674
1.1613859 -0.67612934 0.99853253 0.334929 0.4511014 -0.008678734 0.31776312 0.46792465

bn1.running_var f4 [300]
00000000: cde0 633b 412e 113c 927f 9c3b f957 b23c
00000010: 6ffe b73b 7678 ac3b e130 c13b a1f3 f13b
00000020: a176 e43b 0c48 8e3b d916 6d3c 9062 db3d
00000030: 2852 323b 3bf5 a63d ca4a 1c3c ad25 893c
00000040: f1ac 293b d996 553b 89b7 5a3c 4e93 ce3b
00000050: c295 043c 3a6d 873b 1dee 2f3c 201a 013c
00000060: 583a fb3c 571d 493c e7b0 fe3b 9030 803b
00000070: 5de4 053c 4acf f03c 7dd5 a03b 9e29 063c
00000080: 844c 903b 262a a53c b289 963b 2066 413c
00000090: 69e0 b53b 261b 563c 7471 713b d40c 883c
000000a0: 10c2 623c 9314 803b f6a5 b83b 632d 0f3c
000000b0: b5a1 763b 776c eb3d 730c 423d 4dbb e33a
000000c0: 943d 9a3b 61de 273b 9f14 7e3b 5016 1f3c
000000d0: b344 683c 5e6a 6a3c c35f d83b 69ec e53b
000000e0: aae6 f63b e6e1 bf3c d704 3f3c 17ed 9a3c
000000f0: 3949 583b 076c e83b 964e 293b 06b2 093c
00000100: 0a10 123c f92c d03c 0c63 513d 811d a33b
00000110: deee 8e3b 488b d33a 372d 993b f975 c93b
00000120: 4836 183d b42c 853b e208 853b 39d1 be3c
00000130: c8d5 9f3d b5b5 5f3d f89e 883c cf15 253d
00000140: 8b92 d23c 7796 673c bdd7 143c 8999 9b3b
00000150: ecef 093d 5101 b33b 678c a13d 4bef fc3a
00000160: 8fa2 ad3b 4750 913d cb55 5a3c eeae b93b
00000170: 1002 ed3b ffa0 723c 6fcb 063c 77ab 693c
00000180: 2c32 2d3c 0a5b d43a 8cf6 033d 3901 4e3a
00000190: ee9b 243c a8b2 473c 5866 c13b 6236 ce3b
000001a0: 19a1 1d3c b63f 3d3c 7882 573b f434 233c
000001b0: 394b 5e3d ece0 483c 762d ce3c 00db ac3a
000001c0: d428 e63b 26e1 403c b363 d43b f80f 8d3c
000001d0: b98d 773c f994 243c 8420 c53c a7a9 ad3c
000001e0: b849 ae3d 239c 223a 67c3 963c f92f 8e3c
000001f0: 7d8f 2a3b abd2 ad3b 850b 823c 0527 3b3c
00000200: b1a7 5e3c 1aca 8b3a 0781 b43c da87 033d
00000210: 902e 813b 0a1d 273c 8200 183d 8268 123c
00000220: b03d 2d3c 94b5 923c 10f6 913d 883d 0c3c
00000230: ba86 703a 49fc 133c 020c 163c 77db 153d
00000240: e708 1f3c 2166 3b3c a36c 0f3c 0596 9a3b
00000250: 562e bc3c 3c59 593b 4d10 b13a 9d40 a53b
00000260: 856a 513b 3f88 b03c d587 d73b 35b2 8b3b
00000270: 9346 a53b acc7 8f3c 231a 8c3b c98c 143c
00000280: f075 cf3b f363 233c fafc b53b 0b46 203d
00000290: fd53 953c 2b6d 9e3c 5a93 ba3b b6e8 053d
000002a0: c3e7 b73b 1fcf b73b 2857 913c 2f2e f93b
000002b0: b8ee 153c 349d 023c 09d5 1c3d 3bb9 8a3c
000002c0: 927d 823b 1f9b be3c 506e 243d 56d0 ff3b
000002d0: 3edf 313c 7b34 d83b b3ec 553c 7033 f93b
000002e0: 140c 5d3b 5bca 173d 1e53 933a b241 6d3c
000002f0: 62ca 393c 9c44 983b c620 dd3c 0cfa f33c
00000300: e7a9 483d 6a45 083c eb8a ee3b e4f7 e03b
00000310: cbf3 1e3c be0f ef3b 5378 c13b f4da 4f3c
00000320: b303 6a3b 9e0c 2a3c f387 323c b1fe 073c
00000330: 392e 573c 41c1 dd3a b101 903c 7b85 7b3c
00000340: 45a7 373c 41e1 0c3c a0f0 b33b 08a5 d73c
00000350: 967e 133c b557 143c f007 cf3b c121 463b
00000360: f13f 9c3c 747c 693b 9a64 ad3b 4b1e d13a
00000370: 910c 2c3c f815 983c 5b5c 9d3c 4e4f 573c
00000380: 2fd4 343d ca7d 9b3b 214a 593b 6b97 d83a
00000390: 458c 053b e7e3 8a3c 7262 cb3c 2687 993b
000003a0: 7f13 9e3c 6403 193b 9817 0e3c 4a3d 983b
000003b0: 5207 b63b 3480 f43b 3cd8 a03c f3b2 a13b
000003c0: e195 0e3b 5c1f 623c d8e3 e93a 3ce5 153d
000003d0: b8b3 a73c 41a4 f13b e167 303b f982 743b
000003e0: 0adc 483c 8069 383c 32a1 f43b 6a35 1a3c
000003f0: 908f d03c 857e 933b 3ad2 393c 277a c13b
0.0034771443 0.008861125 0.0047759498 0.021770464 0.0056150476 0.0052633835 0.0058957194 0.007383779
0.0069721495 0.0043420848 0.014470779 0.10712159 0.0027209613 0.08152243 0.0095393155 0.016741598
0.0025890435 0.0032591133 0.013349422 0.006304181 0.008092346 0.004132894 0.010737923 0.007879764
0.030667469 0.012275062 0.0077725532 0.003912039 0.008172122 0.029395718 0.0049082623 0.008188633
0.0044036526 0.0201617 0.0045940513 0.011804134 0.0055504334 0.013067996 0.0036841305 0.01660768
0.013840213 0.0039087026 0.0056350185 0.008738848 0.0037633006 0.114952974 0.047375154 0.0017374546
0.0047070477 0.0025614726 0.0038769615 0.00970991 0.014176535 0.0143075865 0.0066032126 0.0070167077
0.0075348215 0.023423146 0.011658869 0.018911881 0.0033002628 0.007092956 0.0025834194 0.0084042605
0.008914957 0.02541207 0.05111985 0.0049778824 0.0043619713 0.0016139532 0.0046745795 0.0061480966
0.03716114 0.004064167 0.004059897 0.023293125 0.078044474 0.05461665 0.016677365 0.040304
0.025704643 0.014134995 0.009084639 0.0047485274 0.033676073 0.0054628034 0.07888108 0.0019297389
0.0052989195 0.0709539 0.013326119 0.005666605 0.007232912 0.014808892 0.008227213 0.014262072
0.010571044 0.0016201448 0.032217547 0.00078584586 0.010046942 0.012188591 0.005902093 0.006293104
0.009620928 0.011550834 0.0032884162 0.0099613555 0.054270957 0.012260657 0.025168162 0.0013187826
0.00702391 0.01177243 0.0064816116 0.017219529 0.015109473 0.0100452835 0.024063356 0.02119906
0.085101545 0.0006203076 0.018403722 0.01735686 0.0026025467 0.0053046546 0.015874634 0.011422877
0.013589785 0.0010665089 0.022034181 0.03211198 0.0039423183 0.010199795 0.03710986 0.008936049
0.0105737895 0.017908849 0.07127011 0.008559592 0.0009175349 0.009032317 0.009158136 0.03658625
0.009706712 0.011437924 0.008753928 0.0047175908 0.022971313 0.003316476 0.0013508886 0.005043103
0.003195436 0.021549342 0.0065774717 0.0042631873 0.0050438135 0.017551266 0.0042755767 0.009066769
0.006331198 0.00997256 0.005553839 0.0391293 0.018228525 0.019339165 0.005693835 0.032692634
0.005612345 0.0056094076 0.017741755 0.0076043825 0.009151153 0.00797205 0.038289104 0.016934028
0.0039822543 0.023267327 0.040144265 0.007806818 0.010856448 0.006598053 0.013056922 0.007605009
0.0033729123 0.037058216 0.0011239981 0.014480995 0.011339756 0.0046468507 0.026993167 0.029782318
0.048990157 0.008317331 0.007279744 0.0068654884 0.009701679 0.007295578 0.0059042363 0.01268648
0.0035707771 0.010378985 0.010896671 0.008300469 0.013133579 0.0016918556 0.017578932 0.015351648
0.011209314 0.008598627 0.005491331 0.02632381 0.009002348 0.009054114 0.006318085 0.0030232521
0.019073458 0.0035627158 0.0052915337 0.0015954463 0.010501043 0.018565163 0.019209078 0.013141466
0.044147667 0.00474522 0.0033155757 0.0016524618 0.0020377797 0.016954375 0.024827216 0.0046853004
0.019296406 0.0023347968 0.008672617 0.004645978 0.005555072 0.007461572 0.019634359 0.0049346625
0.0021756815 0.013801422 0.0017844392 0.036595568 0.020471439 0.007374317 0.0026917385 0.003730951
0.012259493 0.011255622 0.007465505 0.009412149 0.025459081 0.0045011663 0.011341626 0.0059044543

fc2.weight f4 [300, 304]
00000000: 9b9f 47bd 23b3 07bd f52b b83c 7ee4 a93d
00000010: b9ed 4fbd fcd4 243d 1e29 fcbc d465 aebd
00000020: 3eee 20bd 48b2 c2bd 8b72 1d3d a137 a73d
00000030: bdf5 bd3c 92ca 2f3d bf21 4cbd f680 78bc
00000040: e5ee 053d 303b 8ebd 2eed dc3d 7c3a 9ebd
00000050: 2992 8d39 a500 6ebd 36e2 7e3d 3f83 3a3d
00000060: 5f0e 24bc 0725 513d 2c73 27bc c8de 9f3c
00000070: 5288 183d c7a7 92bd 8e1a 8a3c 251b ae3d
00000080: 829d e1bc 36dd 883d 5e53 363d f7c5 19bd
00000090: 62cd 1fbb 5b5a 833c 2817 be3c 73c5 c73b
000000a0: e739 883c 5b92 813d 9ecc b3bc 12f6 1a3d
000000b0: 3297 d6bd 9cdc 23bd 5422 ca3d 536a b03b
000000c0: 9d0a b1bc 1c44 7abc 85d4 ee3d 2991 ae3c
000000d0: cf56 3a3e e1b3 20be a37c d0bc b81e c9bd
000000e0: 858a 0a3d da00 e13d d2bf a63c 2769 af3d
000000f0: da13 233d 81ff 46bd 0bbe d9bd a3ab 53bd
00000100: c6de 5a3c db8c 493d a998 22be 37e8 173d
00000110: 6345 163d 18b8 02be 8ddc 983c ebd0 87ba
00000120: 9ca2 053c c35d a8bb b2e7 053e 7ae2 98bd
00000130: 2124 e7ba 8962 35bd 4310 ea3d b130 153e
00000140: 4b14 acbb 2842 24bc 131d 2d3d 69c8 aebd
00000150: e555 6c3d a265 14bd 7c22 1f3e 9db3 f33c
00000160: b487 9bbd 78b8 a73d 2c3e 13be d4b5 383d
00000170: 8ca4 483d 0a1a aa3d 0e77 cfbc 156b 993b
00000180: 2a8f 03be 2941 27bd a2ba ba3d 5691 d2bd
00000190: 73da af3c cf44 65bd 4cbf ab3d abf0 583d
000001a0: 81e7 dc3d 983e 8c3d f5f3 17bd aa6b 93bd
000001b0: ee1b 4c3d c341 acbc a389 59bd 3994 693c
000001c0: f7e3 c33d 22cc 183d cc26 89bd 3d73 16ba
000001d0: 39a4 7a3d 3def 0e3d d354 cb3d 45c5 bfbb
000001e0: 32a0 963d b00b ebbc a09b c53c 4f2d c93b
000001f0: 6419 07bd 27d9 9a3c d30a 103d 7186 aabd
00000200: df61 593c 00e8 82bc 872c 0a3d 891d 083e
00000210: 6b21 a6bd 62b6 e03c ccb1 913d 8e3a 913d
00000220: fb27 943d 0c36 ffbc 78af 4a3d 2dc6 f0bd
00000230: a361 98bd f444 db3c ca97 b9bc 1c9e 7c3d
00000240: 2a4a 2c3c 9ed2 40be 39f5 65bc f936 31bd
00000250: 54eb 433d 71a1 2c3d 17f9 7c3d 6d50 a03d
00000260: 14da a43d 1b84 1b3d 868a c6bc 79b2 883d
00000270: ff5a e4bb 9ea9 023d 2314 86bc 68cf 23bd
00000280: 9e86 9fbc c23c 813d 9468 1a3d 7e91 dd3d
00000290: b943 233e c67d fd3d 208c 8fbc 3984 cf3d
000002a0: 6fb0 883c 06da 263d 1e6d c0bc 3454 023e
000002b0: e283 413d dda9 babd 930a 9abc 496f 34bc
000002c0: 0750 9c3c fffa 81bd c97d 883b a878 903d
000002d0: c324 c73d 03a0 e4bc 08a4 1a3d e7d5 303d
000002e0: 2147 583d 657b 293d ba96 5cbe 5c80 30bc
000002f0: 2c0d 69bd 4a97 9e3c 5781 d73c 8b8f 9fbb
00000300: 3357 713b e656 4a3d a78f 963c 5760 60bd
00000310: b5dc 1b3d b969 2d3d bc8d a33c bb25 393d
00000320: c4f9 c53d 6808 3fbe c2cc 3cbd 4a63 72bd
00000330: e474 f23c 70a3 8bba 8077 64bd e697 96bc
00000340: cd54 803d 688c b5bd 847e 0f3d c480 ad3d
00000350: 5812 a83d dd7c 0a3d e1dd 3b3b dddc 803d
00000360: afb7 0dbd 0f0e 8abc 1197 b9bc 44a8 a4bd
00000370: 90cd 373d 626e 2bbe e1c0 7bbd ef43 8cbd
00000380: 82f7 953d 9db9 88bc cbba 92bd e4f5 a13c
00000390: 0913 a03c ddb7 d73d ae6b 88bd 2451 093d
000003a0: f785 883d a291 a13c d059 8ebc 9211 d7bc
000003b0: 3564 d83d 44b3 633b 7542 863d 9979 afbc
000003c0: 04ea fb3d 7705 45bc 36d5 a03d ce85 05be
000003d0: a970 bb3d c93a dd3c 4227 723d f419 b93d
000003e0: 9d43 88bc c500 78bd a105 633d 77d0 013e
000003f0: b211 1d3e 4a82 d2bd a238 473c f5bf 3fbd
-0.048736196 -0.033129822 0.022481898 0.082955346 -0.05076382 0.04024218 -0.030781325 -0.08515516
-0.039289705 -0.09506661 0.038439315 0.08164907 0.023188466 0.042917795 -0.04983687 -0.015167465
0.03269853 -0.06944883 0.10787426 -0.07725999 0.00027002514 -0.058106083 0.06222745 0.045535322
-0.010013192 0.051060703 -0.01022033 0.01951541 0.03723938 -0.07160907 0.016858365 0.08501271
-0.027540926 0.06682818 0.0445131 -0.03754231 -0.0024383892 0.016034296 0.023204401 0.006096536
0.016629172 0.06326743 -0.021948155 0.037832327 -0.10478057 -0.04000531 0.09869829 0.0053837686
-0.021611506 -0.015275028 0.11661629 0.021309452 0.18197177 -0.15693618 -0.025450056 -0.09820312
0.03382351 0.109864905 0.020355139 0.08564978 0.039813854 -0.04858351 -0.10631951 -0.051677357
0.013358777 0.049206596 -0.15878548 0.03708669 0.036687266 -0.12765539 0.018659854 -0.0010361945
0.008156445 -0.0051381304 0.13076666 -0.07465072 -0.0017634669 -0.044283424 0.11428883 0.14569356
-0.0052514425 -0.0100255385 0.042264055 -0.08534319 0.057699103 -0.036229737 0.15540498 0.029748732
-0.07594243 0.081894815 -0.14379185 0.04509528 0.04898505 0.08305748 -0.025325324 0.0046819546
-0.12847582 -0.040833626 0.09117629 -0.10281627 0.02146647 -0.055973824 0.08386096 0.052963894
0.10786343 0.06847876 -0.03709789 -0.0719827 0.049831323 -0.021027451 -0.053109776 0.01425653
0.09564965 0.03730405 -0.06696853 -0.0005739218 0.06119177 0.034896124 0.09928288 -0.005852374
0.073547736 -0.028692096 0.02412206 0.0061394344 -0.0329832 0.018902374 0.035166573 -0.08326424
0.013267963 -0.015979767 0.03373387 0.13292517 -0.08111843 0.027430717 0.0711399 0.070912465
0.07234188 -0.031153701 0.049483746 -0.11756549 -0.07440498 0.026766278 -0.022655386 0.061674222
0.010515729 -0.18830344 -0.014035516 -0.043265317 0.04783185 0.04214615 0.061760988 0.0782784
0.080494076 0.037967782 -0.024235975 0.06674666 -0.0069688554 0.03190004 -0.016367024 -0.03999272
-0.01947337 0.06310417 0.03769739 0.10818766 0.15943803 0.12377505 -0.017522871 0.10132641
0.016685693 0.040735267 -0.023489531 0.12727433 0.047244914 -0.0911443 -0.01880387 -0.011012861
0.019081129 -0.06346702 0.0041653854 0.07054263 0.097238086 -0.02790833 0.03775409 0.043172743
0.05280221 0.041377444 -0.21541873 -0.010772791 -0.056897327 0.01935925 0.026306791 -0.0048694066
0.0036825656 0.04939928 0.018379046 -0.054779377 0.03805228 0.042337153 0.019965045 0.045202
0.0966678 -0.1865555 -0.04609371 -0.05917672 0.029596753 -0.0010653567 -0.055778027 -0.018382978
0.062661745 -0.08864671 0.035032764 0.08471826 0.08206624 0.033810485 0.0028666186 0.06292126
-0.034599002 -0.016852407 -0.022655042 -0.080399066 0.044873774 -0.16741326 -0.06146324 -0.06848895
0.07322599 -0.01669007 -0.07164534 0.01977057 0.019540327 0.10533116 -0.06661163 0.033524647
0.06666177 0.019722763 -0.01737681 -0.026253495 0.10565988 0.0034744302 0.065556444 -0.021420287
0.12300494 -0.012025229 0.07853167 -0.13039324 0.091523476 0.02700557 0.05911947 0.09038153
-0.016633803 -0.06054761 0.05542529 0.1267718 0.15338781 -0.10278757 0.012159498 -0.046813924

fc2.bias f4 [300]
00000000: 6756 a53d 937d d03e 3b5e 7c3d 05bd 9b3d
00000010: b9fc c33e 7c49 cf3d 66f7 343d e8e2 333d
00000020: e46f c53e e23f 073e 3aa3 a83c bae8 a33e
00000030: 6f6a c83e 6361 c53e 7e24 873e 6000 0e3f
00000040: 43cb 683e 7e80 973e e393 be3d 488a 2c3e
00000050: 20b0 743e 5d34 c93e 587d e73d 29d7 ad3e
00000060: a9ca c93e f165 a63e 0bf2 d63d 528d 903d
00000070: c631 bd3e 507f d33e 8db9 a93d 68f1 3e3d
00000080: 7d57 8f3e 353c d33e aedf ba3e d8f2 b53e
00000090: f0dd 843e ef97 ad3e 9923 363e 3360 a43e
000000a0: 0709 933e ed5a b53e 4160 803e 2b90 d73e
000000b0: 78b5 c13e aeba ba3e 98fc fe3d 6fa1 19bd
000000c0: f6f3 9b3e 204c ad3e b858 c03e a9d1 1c3c
000000d0: ef44 2b3e cb01 e13e 0717 c63e 89c4 07bd
000000e0: 488e d73d 6c90 b23e 52fc b13e 9b05 be3e
000000f0: 0b12 093e 15a3 4b3e 7b0c db3c 9667 c83e
00000100: f97b d23e 2d72 923e 13d0 d23d 3886 b63e
00000110: 1bc6 cb3d 0303 b23e 0f9f 7d3e 5630 913e
00000120: 4b5a 863e a598 8a3e 8aa2 743e 7947 aa3e
00000130: ce56 d93e 4bef e93c b88d b93d aa36 a33d
00000140: 63a0 7e3e fb1d 033f ba80 753e a44c 2f3e
00000150: 76dd db3e 0186 483e 3e8c 8c3d ec99 913e
00000160: 6502 ce3e c494 07be 20bc 59bc 756e 873b
00000170: 368b f33e 8dde b03e 6e5d cd3e b9ec bd3e
00000180: 3bf9 c03e b1c9 3c3d 6883 ad3c b4f8 b93e
00000190: d58e 7e3e e41c ef3e 4f9a a73e 5c15 8a3e
000001a0: dc8e c13d 9f82 50be 7d6a d83e 33f5 ab3e
000001b0: 40e3 bb3e 95d5 be3c 7653 8e3e 1b82 853e
000001c0: f621 b73e 83fb 51bd b513 bf3e 5663 a33c
000001d0: 9dc8 b83e ed29 b13e b8fe d93d 1deb 0abe
000001e0: 6632 dc3d 156b 353e b9d1 b43e 9085 73bd
000001f0: 9bd3 d53e 91f7 983e 0262 fc3e 8493 8d3e
00000200: 4ea0 aa3e 9808 ea3d 955f 1f3e 123c b43e
00000210: 0af5 cd3e cbce a73e 1190 ef3e 2c51 353c
00000220: f22b 313e ccb2 943e c54c 19bd d4e4 ef3e
00000230: 2438 d53b 2c85 403d ad04 893d d788 553d
00000240: 6500 cf3e 8d96 8b3d 8b04 b83d 2cef ce3e
00000250: 473c b83e b3be f83d 0315 cb3e 2696 1fbd
00000260: 1c49 3c3e 58cd b23d ecd0 ca3e b5b6 323e
00000270: 05b5 c13e c39d e33e 706c 893d a44c b73e
00000280: dbc2 913d 52ef c53e 9d5e b53e 5991 173e
00000290: 31c5 a93e 3655 183d 9167 953e 8b35 9e3d
000002a0: 7207 833e 298c 3a3c 1d5e bcbc c2a3 723e
000002b0: a545 c63e 379c c73e 1ead c13e 7cd7 ce3d
000002c0: 8a98 cd3e 8169 be3d 7a60 b53e e2f6 c43e
000002d0: a147 863e 4e62 ac3e 6b64 d53e 171d be3d
000002e0: 49fc 813c 4d29 963e 1c7a a03e 83eb a53b
000002f0: 288a 8e3d 9cfa 7abc 5145 ce3e d959 b23e
00000300: 9cd7 1a3e ab74 ca3e bd1f a93d 0a31 ba3c
00000310: 6140 d73e 1886 593d 7f87 f6bd 6aa1 b43e
00000320: 076c 2b3e 537d cb3d dd11 dc3e 19f4 ba3d
00000330: 1b10 ea3e a51d 1bbc 9a50 b03e 5c9b a93e
00000340: e1b2 a23e 73cd 09be 7db6 233e 389c 323d
00000350: 1a10 ae3c db07 e13e 4481 503d c44d af3e
00000360: c411 803e 811b a13e 0a74 9d3e cf5b c43e
00000370: 49fb 0b3e 93c8 4b3e 5c1e 31bc 9dee 063f
00000380: 0273 32be 13a0 0b3e 1e82 ba3e 4f42 3ebc
00000390: c0f8 673d b34d 773e fe42 db3e ef51 b33e
000003a0: 75e1 ae3e 1637 bb3d 636d 413e 7bf5 013d
000003b0: c32c d03e 6b9f ba3b c652 aa3e 2202 6d3d
000003c0: ae1a 493e e6d1 0a3d 246e ab3e 9365 223e
000003d0: 6e71 f03e 8094 66bc 3661 373d 28a7 d03e
000003e0: 1194 e03d 6aee 963e ef9e b93e 80d8 363e
000003f0: 4e32 c03d cd60 803e 626a e73c 2760 933e
0.080731206 0.40720806 0.061613303 0.07604412 0.3827875 0.10121438 0.04418125 0.043917567
0.38561928 0.13207963 0.020585645 0.32013494 0.39143702 0.38550863 0.2639503 0.5546932
0.22733788 0.2959022 0.09305551 0.16849625 0.23895311 0.39297763 0.11303204 0.33953217
0.3941243 0.3249965 0.10495385 0.07058205 0.36952037 0.4130807 0.08287344 0.04661694
0.27996436 0.41256872 0.3649878 0.35536838 0.25950575 0.3390498 0.17787017 0.32104644
0.28717825 0.35420933 0.25073436 0.4210218 0.37833762 0.3647055 0.12450522 -0.03750747
0.30459565 0.3384714 0.37567687 0.009571471 0.16725515 0.4394668 0.38689443 -0.033146415
0.10525185 0.3487581 0.34762818 0.37113652 0.13385789 0.1988643 0.02673935 0.3914153
0.4111021 0.28602734 0.10293593 0.35649276 0.09949895 0.34767923 0.24767707 0.2835719
0.26240763 0.27069584 0.23890129 0.33257654 0.4244904 0.028556487 0.09060234 0.07969411
0.2486587 0.5121762 0.23974887 0.1711908 0.429424 0.19582368 0.068626866 0.28437746
0.40236202 -0.13240343 -0.013289481 0.0041330406 0.47567147 0.34544793 0.40110344 0.37094668
0.37690148 0.046090785 0.021180823 0.36322558 0.24859174 0.4670173 0.32734916 0.2696942
0.094510764 -0.20362328 0.42268744 0.3358551 0.36696815 0.023295203 0.2779805 0.26075825
0.35768098 -0.05126525 0.37319723 0.019944828 0.36090556 0.346023 0.10644287 -0.13566251
0.107518 0.1771663 0.35316256 -0.059453547 0.41763005 0.29876378 0.49293524 0.27651608
0.33325428 0.114274204 0.15563805 0.3520208 0.40226012 0.32774958 0.467896 0.011066716
0.1730192 0.2904266 -0.03742673 0.4685427 0.0065069366 0.047002003 0.06690345 0.052132454
0.40429989 0.06815825 0.089852415 0.4041685 0.35983488 0.12145748 0.39664468 -0.038961552
0.18387264 0.087305725 0.3961252 0.1745251 0.3783342 0.444563 0.06710136 0.3580066
0.07117244 0.3865915 0.35423747 0.1480154 0.33158258 0.03719064 0.29180577 0.07725056
0.25591618 0.011385956 -0.022994095 0.23695281 0.3872501 0.3898637 0.3782739 0.10099694
0.4015544 0.09297467 0.35425168 0.38469607 0.26226524 0.3366875 0.41678175 0.09282892
0.01586737 0.29328385 0.31343162 0.0050634756 0.06959945 -0.015318539 0.4028726 0.34834173
0.15121311 0.39542136 0.08258007 0.022728462 0.42041305 0.053106397 -0.120375626 0.352794
0.16740428 0.09936013 0.4298238 0.09128589 0.45715412 -0.009467517 0.34436494 0.33126342
0.317771 -0.13457279 0.15987583 0.043606013 0.021247912 0.43951306 0.050904527 0.34239018
0.25013554 0.31466296 0.30752593 0.38351294 0.13670076 0.19900732 -0.010810461 0.52707845
-0.17426684 0.13635282 0.36427397 -0.011612489 0.05663371 0.24150734 0.42824548 0.35023448
0.34156385 0.09141366 0.18889384 0.03172825 0.4065915 0.0056952736 0.33266276 0.057863362
0.19639084 0.03389158 0.33482468 0.1585906 0.4696154 -0.014073491 0.044770442 0.4075253
0.109657414 0.2947877 0.3625407 0.17856026 0.09384595 0.25073853 0.02824897 0.28784296
