bipedal_walker/bipedal_critic.pt (torch_old, 403677 bytes, 9 tensors)

fc1.weight f4 [300, 24]
000000 58 36 e0 38 c0 f1 9a be 1f a5 29 be 5d 28 db bd
       0.00010691275 -0.30262566 -0.16566895 -0.10701058
000010 01 36 98 bc df a5 c4 3c f7 62 93 bd 4b 06 27 3c
       -0.018580439 0.024004875 -0.071966104 0.010194371
000020 7d 8a db bd bb 5c 89 3b 45 1d 00 be e7 51 91 3e
       -0.10719774 0.0041919625 -0.12511165 0.283828
000030 0d eb 0b 3c 06 9d be 3a 3a f7 f1 bc f5 cf c9 bb
       0.008539927 0.0014542646 -0.029536832 -0.0061588236
000040 79 70 3d 3d fa cd a1 3c 2f 15 75 bc 00 1c 1f 3b
       0.04624984 0.019751538 -0.014958664 0.0024278164
000050 20 7d 44 3d c0 db 18 3d d3 bf 4e bd 93 bf f0 3d
       0.04797089 0.037318945 -0.050475907 0.1175529
000060 ef 26 7c bd 6e c3 08 bd 1a f9 33 3d 32 01 71 3e
       -0.061560567 -0.0333895 0.043938734 0.23535612
000070 b7 e6 06 3e 0e 29 82 3d 35 16 1c 3d 4d 3b 57 bc
       0.13173948 0.06355487 0.038107116 -0.013136697
000080 59 d8 08 bc 72 3a 00 be 3b 24 bf bc 3f a4 18 3d
       -0.008352363 -0.12522295 -0.023332706 0.037266012
000090 63 62 06 3b 63 0f a2 3d e2 60 50 3d 0c d0 d0 bc
       0.002050542 0.07913091 0.050873645 -0.02548983
0000a0 77 a6 32 3d 44 04 90 3c 5d 3e c6 bc 16 f6 17 3d
       0.043615784 0.017580159 -0.024199659 0.03709992
0000b0 4e 56 4a bd 06 60 98 bd 06 aa 18 3e 9f d1 62 be
       -0.049398713 -0.0744019 0.14908609 -0.22150277
0000c0 00 dd 8c bb f0 75 85 bc db d6 4d 3d 01 58 0c 3e
       -0.004298806 -0.016291589 0.05025373 0.13705446
0000d0 dc 99 20 3d c7 95 f1 bb 5e 71 c3 bd 58 66 b2 ba
       0.03920923 -0.007372591 -0.095431075 -0.0013610823
0000e0 40 b2 6f 3d f2 01 b2 3d 49 fa 2d 3c e7 78 6b 3b
       0.0585196 0.08691777 0.010618755 0.0035930218
0000f0 58 cb 99 bc da 9a 6b 3d 51 92 a4 3d 3f 01 35 3d
       -0.01877372 0.057520725 0.0803572 0.04419064
000100 05 fa c0 3d 6e 37 33 3d 05 9b 14 3d 50 f7 9d 3d
       0.094226874 0.043754034 0.03628065 0.07713187
000110 cc c9 6d 3c f4 91 d9 3d f0 d2 0b 3e 81 eb c4 3f
       0.014513444 0.106235415 0.13654685 1.538437
000120 5c e8 6d bd f6 29 88 bd 9d ba 65 3e 10 8f 9d 3e
       -0.058082923 -0.066486284 0.22434469 0.3077321
000130 f7 36 52 bd 4d d6 36 bd cf 14 ba ba e2 ec 8a bc
       -0.05132195 -0.044637967 -0.0014196875 -0.016958658
000140 98 a1 4a 3d dc b0 87 bc a5 72 b5 bb a7 d3 54 bc
       0.049470514 -0.016563825 -0.0055373483 -0.012989915
000150 bd d3 1c 3c ed 62 f0 3d 6f a6 5b 3d 6f 70 b1 3d
       0.009571967 0.117376186 0.05362552 0.08664023
000160 87 99 16 3e ff 5b c1 3d ad dc e7 3d b7 88 17 3e
       0.14707004 0.09441375 0.113213874 0.14798246
000170 38 26 2d 3d c0 20 0d 3e a9 5e ca 3d 86 6d a0 3c
       0.042272776 0.13782024 0.09881336 0.019583475
000180 7b 85 3f ba 46 bf 29 be a6 e7 c2 bd 82 c9 5f ba
       -0.0007305962 -0.16576871 -0.0951684 -0.0008536802
000190 29 a4 d5 bc ed c0 5f 3c 1b 42 63 be 8e c1 29 be
       -0.026079254 0.013656837 -0.22193186 -0.16577742
0001a0 53 75 f1 bd 77 dd 9d 3c d4 e6 cf 3c 5e b6 72 bd
       -0.11789956 0.019270642 0.025378622 -0.05925595
0001b0 82 af bc bc 85 8d 11 bd ad 6c 2a be 5b 97 8e bd
       -0.023032907 -0.035535354 -0.16643019 -0.069624625
0001c0 e5 9d bf bd 66 6f 3c bd 8e 7e 57 3c ce 56 9c bd
       -0.09356288 -0.046004675 0.013152732 -0.07633744
0001d0 e9 9e 8a bd 92 6a c5 3c d4 d5 00 3d ee ff d1 3e
       -0.06768591 0.024098668 0.031453922 0.4101557
0001e0 9f 08 69 3c 6c 78 28 ba 5c 00 8d be e1 d7 9a be
       0.014223247 -0.00064266357 -0.27539337 -0.30242828
0001f0 98 0f 40 3d 94 2a ee 3c 4e ff 0c 3d 9c 18 83 bb
       0.04688987 0.029073037 0.034423165 -0.0040007364
000200 85 36 7a bd a8 61 1c bc 68 28 cb bd 6f 7f b9 3d
       -0.06108715 -0.009544767 -0.09919816 0.09057509
000210 bb 3c 5e bc 79 d9 5a 3d c2 a9 d7 bd ee 0b 19 be
       -0.013564284 0.053430054 -0.105304256 -0.14945957
000220 d1 e9 08 be 1e 26 c4 bd 02 68 d9 bd 94 bd 6a bd
       -0.13370444 -0.09577583 -0.10615541 -0.057309702
000230 ae c2 08 be 49 01 c2 bd 9a c1 1b 3c cf fb 8e 3c
       -0.13355514 -0.094729014 0.009506607 0.017454056
000240 5f 95 f7 3d ff 91 4d 3e 21 38 b4 3d dd e6 ea 3d
       0.12089037 0.20075224 0.08799768 0.11469815
000250 0f 50 b1 bd c5 1e 64 3b 17 80 a1 3d 9f ad f2 3c
       -0.08657848 0.003480838 0.07885759 0.029623805
000260 1c c1 8b ba 63 71 78 3d ea f3 8b bc 75 c4 42 3d
       -0.001066241 0.06065501 -0.01708408 0.047550637
000270 d1 9b cc 3c 94 d1 0c bc 96 4a 12 3e 43 17 da 3d
       0.024976643 -0.008594889 0.14286265 0.10648968
000280 72 4d 83 3d ce 89 85 3d 1d 62 b4 3c 5a 2d e0 3d
       0.06411256 0.06520425 0.02201944 0.1094615
000290 59 14 96 3c d5 7c a0 3d b5 87 a6 3d ea 89 92 be
       0.01832025 0.0783631 0.08131353 -0.28620845
0002a0 bd e9 1d bd 14 32 96 bd 2d d8 d0 bd 2b 58 f4 be
       -0.03855299 -0.073337704 -0.10197482 -0.47723517
0002b0 cf 5b ba 3d 1e 61 0c bc f5 ab 94 3d 30 53 35 bc
       0.09099542 -0.008568076 0.07259361 -0.011067197
0002c0 65 d5 dc bc 09 2f 32 3d 6f 60 50 3d a4 a6 25 3d
       -0.026957223 0.043501887 0.050873216 0.040442124
0002d0 bd 38 d1 bb ce c4 8a bd c9 68 a5 bd 88 65 f7 bd
       -0.0063849376 -0.06775819 -0.08076627 -0.120799124
0002e0 08 a2 dd bd dd 07 d3 bd 00 c2 bc bc e1 fe f2 bd
       -0.10821921 -0.10304234 -0.023041725 -0.118650205
0002f0 9b c2 d7 bd 19 de 79 bc 10 7b 99 3c 08 86 d9 bd
       -0.10535165 -0.015250706 0.018735439 -0.106212676
000300 ce ea f9 bd 7c b5 a7 bc 5a 74 6a 3e 12 84 6a bd
       -0.122029886 -0.02047228 0.22895947 -0.05725486
000310 46 b7 09 be d5 a9 7a bc 19 4f 5e bd 94 f7 0e bb
       -0.1344882 -0.01529928 -0.054274652 -0.0021815049
000320 b6 ee e3 3a e2 de 88 bd c9 7e 2d bd f1 e5 f4 3d
       0.0017389867 -0.066831365 -0.04235724 0.1195792
000330 01 d5 63 bc ca 69 b3 bb fb f0 d9 3d 8e 4a 99 3d
       -0.013905765 -0.0054752575 0.106416665 0.07484923
000340 83 b3 91 3d 36 23 cb 3d 10 f2 f3 3b 1f 25 ed bc
       0.07114317 0.09918825 0.0074446276 -0.028948365
000350 42 11 56 3c aa ec b0 3d 17 81 4e 3d 2a dc 06 3e
       0.013065638 0.0863889 0.05041608 0.13169923
000360 eb df ad 3a 98 62 06 3e bd 5a 07 be 92 ca a2 be
       0.0013265585 0.13123548 -0.13218208 -0.31795174
000370 4d 03 f4 bd 7b fc b1 3c 38 60 1a 3d 5d 2d 5c 3c
       -0.11914692 0.021726837 0.037689418 0.01343855
000380 a9 14 23 bc f1 23 5d 3c 6d 98 30 3c f1 42 b6 bd
       -0.009953656 0.013497339 0.010778529 -0.08899487
000390 44 d1 d3 bc 9b d2 46 3e bc cc 9e bc 7a 3d 84 bd
       -0.025856622 0.19416277 -0.019384734 -0.06457038
0003a0 1e f2 b5 bd 4e 8d 95 bd f7 72 7d bc 46 09 87 bd
       -0.08884071 -0.07302342 -0.015469304 -0.06593566
0003b0 9f d9 26 bd 7c 2f e2 bd 5a d9 e5 3d c4 44 2b be
       -0.040734883 -0.11044213 0.11223097 -0.16725451
0003c0 d9 aa dc 3c dc c7 88 3d c0 89 52 3e 88 8b b3 bd
       0.026936935 0.06678745 0.2056036 -0.08766848
0003d0 af 40 25 be 70 ea aa bd be cd d2 3d 20 f0 e6 3c
       -0.16137956 -0.08345497 0.102931485 0.028190672
0003e0 d5 36 ef 3d 48 27 17 bc 10 33 e4 3d 43 c1 ee 3c
       0.1168038 -0.009225674 0.11142552 0.029144889
0003f0 96 1b 14 bc 61 d1 56 3d de 68 64 bd cd 03 54 bc
       -0.00903978 0.052445773 -0.05576407 -0.012940359

fc1.bias f4 [300]
000000 ba 7e a0 bc ab 18 36 3e 16 5f 25 bb 50 95 bf 3d
       -0.019591678 0.17782848 -0.0025233678 0.09354651
000010 f7 a3 7a bc 37 89 23 bd bf 39 35 bd 98 f3 c2 3d
       -0.015297881 -0.03992578 -0.044244524 0.09519118
000020 f2 ca 57 be 6d 3a 36 3c ec 42 47 3e 90 57 31 be
       -0.21073511 0.011122328 0.19459122 -0.17318559
000030 bb fd 17 3e 9a da 2c be 3e cc 4a 3e 03 92 28 be
       0.14842884 -0.16880265 0.19804475 -0.16461949
000040 d1 7e 26 3e a1 dc 21 3e a2 6d 0a be 5d 85 68 be
       0.16259314 0.1580682 -0.13518384 -0.22707124
000050 b9 23 31 3d a8 cf 65 bd 85 b6 ec 3d 22 c5 b0 bd
       0.04324696 -0.05610624 0.1155825 -0.0863135
000060 c0 38 d1 3c 20 41 fe 3c 53 56 a6 bd ce 1f c9 ba
       0.025539756 0.031036913 -0.08121934 -0.0015344562
000070 04 49 fd 3d ed 0c 48 3d 17 1d bd bd d1 7c 48 be
       0.12367442 0.048840452 -0.09234064 -0.19578864
000080 b0 e7 db 3c d8 59 1a 3e 61 2e c3 3d 59 8e 2b be
       0.026843876 0.15073335 0.095303304 -0.1675352
000090 69 16 ed bc 45 53 f6 bd 25 fb 92 bd a5 8a bd 3d
       -0.02894135 -0.12027601 -0.07176808 0.0925496
0000a0 e1 da 21 be 7e 57 90 bc c9 e5 34 bd e0 1e 59 3d
       -0.15806152 -0.017619845 -0.044164453 0.05300796
0000b0 a7 f1 45 bd 71 9a c9 bd 79 f4 fb 3d 5e 91 90 bd
       -0.04832616 -0.098439105 0.12302489 -0.070589766
0000c0 af 60 b6 bd 06 c0 03 bd 99 a0 c6 3d a8 5c df bd
       -0.0890516 -0.03216555 0.096986 -0.10906345
0000d0 5c 65 2e 3e 2f 88 6f bd 20 a8 be 3d 21 8f fc 3d
       0.17030853 -0.058479484 0.09309411 0.12331987
0000e0 d7 09 3a be e1 37 2e 3e 1d 33 1d bd cf 99 3a 3e
       -0.18167816 0.17013504 -0.038378824 0.18222736
0000f0 de 2a 90 3d b6 51 45 3c 8d 1d d3 bd bf 93 17 3d
       0.07039426 0.012043407 -0.10308371 0.037006136
000100 f0 be a5 3d e6 3d 15 3e 18 20 2b 3e 2f 0b 41 3e
       0.08093059 0.14574394 0.16711462 0.18851922
000110 8a 0e 3e be 7f 76 48 3e da 61 2b 3d 22 3f 0e be
       -0.18560234 0.19576453 0.041841365 -0.13891271
000120 cd 49 29 be 9b 30 47 3e 35 4b 0f be e8 d8 50 3d
       -0.16532059 0.19452135 -0.13993533 0.050988108
000130 9c c8 fd bd 26 06 4f be 46 61 ea 3d f2 e5 03 be
       -0.12391779 -0.20217189 0.11444335 -0.12880686
000140 71 3e b1 3c 79 9e 57 3e 4c 5f 26 3e 68 26 50 3d
       0.02163622 0.21056546 0.1624729 0.050817877
000150 0f 17 d2 bd 98 58 48 be 3e 69 a1 bd 4f a8 94 bd
       -0.10258304 -0.19565046 -0.078814015 -0.07258665
000160 70 21 3e 3e 50 e3 ab bd 4b 6f 60 be d9 fa 21 bc
       0.18567443 -0.08392966 -0.21917455 -0.009886467
000170 e9 4d 1e be ed ee c2 bc 4a b1 ed bd de 6d 29 3e
       -0.15459408 -0.02379557 -0.11606081 0.16545817
000180 ec 40 9b bd dd 61 99 bd 8b ea 46 3e 84 83 0d 3e
       -0.07580742 -0.07489369 0.19425409 0.138197
000190 63 00 24 bd 2e a8 30 be 0f c7 88 3d 3d d1 14 3e
       -0.04003943 -0.17251655 0.066785924 0.14532943
0001a0 9e 61 07 3e 4a e1 d1 bd 83 2f 43 be a2 72 d3 bd
       0.13220832 -0.102480486 -0.19061093 -0.10324599
0001b0 d5 39 3b be 5e cb f7 3d bd 0f f1 bd b7 67 c6 3c
       -0.1828378 0.12099336 -0.1177058 0.024219377
0001c0 6f 5a 3c 3e e0 29 ad 3d 7e cf 31 be b4 c6 c9 3c
       0.18393873 0.08455253 -0.17364308 0.024630882
0001d0 4a a6 72 3e 6a 47 96 3c a6 9f ad bc 0f c5 35 3e
       0.23696247 0.0183446 -0.02119429 0.17750953
0001e0 1a 2f 3d be 9b 13 c2 bd 4e b7 81 3d c7 17 1a 3e
       -0.18474999 -0.09476396 0.06333791 0.15048133
0001f0 f6 d3 8e bd ee 7f 05 be 3c c6 4c be d8 ea 39 be
       -0.06974022 -0.13037083 -0.19997495 -0.18155992
000200 3f a4 e1 3d 12 31 e7 bd 1a bd 5d bc d8 79 84 3d
       0.110176556 -0.11288656 -0.013533855 0.06468552
000210 fd 25 90 3d 46 f7 4d be 0f ed e7 3c c0 29 9e bd
       0.07038496 -0.20113859 0.02831128 -0.07722807
000220 d2 25 8b bd d1 0e 34 bd 38 bb 33 be be a2 45 bd
       -0.06794323 -0.043959443 -0.17551887 -0.048250906
000230 d4 de 70 3d cd 6c 41 be 06 4d 04 be a6 b5 00 be
       0.058806255 -0.1888916 -0.12920007 -0.12569293
000240 15 f9 02 be a1 b7 e3 bd 0d a1 28 3e de e8 4e 3d
       -0.1279033 -0.11119009 0.16467686 0.05051505
000250 db e5 b3 3d a7 21 1e be d1 61 af bd 6b a4 0e be
       0.08784076 -0.15442525 -0.08563579 -0.13929908
000260 53 db 01 3e f2 bd 46 be ea 72 50 be 7c 50 19 bc
       0.12681322 -0.19408396 -0.20356336 -0.009357568
000270 1a 49 70 3d 09 91 cd 3d 70 62 06 bd 1b a6 2b 3d
       0.058663465 0.10037429 -0.03280872 0.041906457
000280 9b f6 08 3d 45 2f b7 3c 5f 56 9c bd da aa 03 3e
       0.033438306 0.022361407 -0.076336615 0.12858143
000290 85 21 b0 3b 20 b5 93 3d 1b 70 aa ba 56 8d fc bd
       0.0053750896 0.07212281 -0.0013003381 -0.12331645
0002a0 25 50 c0 bd 72 b5 fe bd 44 e8 ce bc 1c 21 2a 3d
       -0.09390286 -0.12436952 -0.025257237 0.04153548
0002b0 d6 fa de ba c6 1b 26 3e ce d1 33 3e 43 89 86 3d
       -0.0017012011 0.16221532 0.17560503 0.06569149
0002c0 96 f8 6a bd a7 4c 08 be 13 2b 90 3d 18 fc b9 bd
       -0.057365976 -0.1331049 0.07039466 -0.09081286
0002d0 d4 9e 3a be 3f 7c 95 3d e9 ae f0 3d 05 20 87 3d
       -0.1822465 0.07299089 0.117521115 0.06597904
0002e0 f4 59 a3 3d d6 f9 9f bd 3d 79 cd 3d 70 0e 3f 3e
       0.079761416 -0.07811324 0.1003289 0.18657851
0002f0 8d 61 9f 3d 4a 3e aa 3d 7d 91 d6 bd 77 5a bb 3d
       0.07782278 0.08312662 -0.104769684 0.09148114
000300 95 34 c6 bd f1 d9 37 bd ad 92 ae 3d 02 46 7e 3d
       -0.09677998 -0.04488558 0.0852407 0.062078483
000310 b8 bb b5 3d 05 3d 9d bd 96 63 b0 bd c7 28 a4 3c
       0.08873695 -0.07677654 -0.086127445 0.020038975
000320 4d 12 d5 3d c4 5f f7 3c 16 da 1b be 02 7a 45 3e
       0.10403881 0.030197032 -0.15219912 0.19284824
000330 b3 ae be 3d dc c6 9b 3d 67 08 b4 bd 5d ee 3f 3e
       0.09310665 0.07606289 -0.08790665 0.18743272
000340 b2 0b fc bb fb 74 3d bd d9 70 5b 3d 17 c2 05 bc
       -0.007691824 -0.04625414 0.053574417 -0.00816395
000350 a5 e7 f4 3d 46 df 1c bc fa ee 3e 3d cc 28 2b 3c
       0.11958245 -0.009574717 0.046614625 0.010446738
000360 f8 73 c0 bd 52 ca 1c bd 9f 2d 47 3e 8b cc 19 3e
       -0.09397119 -0.038278885 0.19450997 0.15019433
000370 3a d8 d5 bc da 24 66 3d 0d ee 01 be b1 a2 0c 3e
       -0.026104081 0.05618749 -0.12688465 0.13733937
000380 e1 ab 25 be ff 2c c4 3d c4 8d 14 3e b3 8c 55 3d
       -0.16178848 0.09578895 0.14507204 0.052136134
000390 47 6d ca 3d 76 1d 59 bd c7 1a 6f bd c3 e2 e5 bd
       0.09884124 -0.05300661 -0.058375146 -0.11224892
0003a0 85 04 b1 3d 9f 98 23 be c9 d3 02 be 34 1c a0 3d
       0.0864344 -0.15976189 -0.12776102 0.07817879
0003b0 ee 1f a9 3d 3a bd 3e be 59 61 27 3e 26 61 fc 3d
       0.08258043 -0.18626872 0.16345729 0.12323217
0003c0 13 d1 27 3d 92 73 1c bb db 77 3b be ad 11 56 be
       0.040970873 -0.0023872596 -0.1830744 -0.2090518
0003d0 df 8d 29 be ea 80 01 be f8 eb ee bd d0 1f c9 bd
       -0.16558026 -0.12646833 -0.11666101 -0.09820521
0003e0 5e 2b 5f 3e 8d 6b 46 be 91 58 26 3e 5c 1f 31 3e
       0.21793887 -0.19376965 0.16244723 0.17297119
0003f0 b8 12 3a 3d c8 3f 6e 3c 97 e3 c9 3d 15 d2 66 3c
       0.045428008 0.014541574 0.098578624 0.014088173

bn1.weight f4 [300]
000000 80 1b 7c 3f 11 a6 84 3f e0 78 91 3f fb 8d 7b 3f
       0.9847946 1.036318 1.1365013 0.9826352
000010 19 22 66 3f 39 3b 77 3f 5d ac a4 3f 28 f5 80 3f
       0.8989578 0.9657474 1.2865101 1.0074816
000020 97 ac 88 3f 17 2d 83 3f 3b e3 88 3f 36 b2 6e 3f
       1.067767 1.0248135 1.0694345 0.9324068
000030 80 55 8d 3f f9 77 6d 3f 50 10 85 3f df ed 91 3f
       1.1041718 0.9276119 1.0395603 1.1400717
000040 fa ae 80 3f 34 27 5f 3f af 9a a1 3f fa 89 80 3f
       1.0053399 0.87169194 1.2625331 1.0042107
000050 6d 16 90 3f 18 2e 8c 3f 7f 0d 84 3f 51 8a 97 3f
       1.1256844 1.0951567 1.0316619 1.1839086
000060 4e 18 95 3f db 15 80 3f b4 8f 57 3f 9a f1 95 3f
       1.1648042 1.000667 0.8420365 1.1714356
000070 6f 9a b1 3f e5 78 8b 3f b9 7e 9d 3f c4 90 4f 3f
       1.3875254 1.0896269 1.2304298 0.8108027
000080 cf c2 a9 3f 80 86 80 3f 3e 57 77 3f ed 9b 81 3f
       1.3262576 1.0041046 0.96617496 1.012571
000090 fe f0 94 3f 13 14 87 3f 99 15 8e 3f 71 73 94 3f
       1.1636045 1.0553001 1.1100341 1.159773
0000a0 0b 6e 90 3f fb b2 75 3f 13 09 c1 3f 57 cd 98 3f
       1.1283582 0.9597623 1.5080894 1.1937665
0000b0 15 fa 90 3f e5 60 80 3f ae 27 ff 3f af d8 a3 3f
       1.1326319 1.002957 1.9933984 1.2800502
0000c0 23 94 9a 3f 18 f6 af 3f 1a e6 9f 3f 42 0e 89 3f
       1.2076458 1.3746977 1.2492096 1.0707476
0000d0 4b ae a4 3f 0d 90 93 3f 63 f4 6c 3f 57 05 93 3f
       1.286569 1.1528336 0.92560405 1.1486005
0000e0 1f 24 8a 3f 2c 6e 84 3f 89 89 8c 3f 7e 67 91 3f
       1.0792273 1.0346122 1.0979472 1.1359708
0000f0 ff 4f 83 3f 64 72 93 3f 2c da 7f 3f 00 1d 84 3f
       1.0258788 1.1519284 0.9994228 1.032135
000100 ea ce a2 3f 64 f8 89 3f 27 7a 8a 3f 1b 2d b1 3f
       1.2719395 1.0778928 1.0818528 1.384189
000110 d8 3d 91 3f 6f c8 72 3f 3a b0 6e 3f da 3e 9d 3f
       1.1346998 0.9483709 0.9323765 1.2284806
000120 86 00 81 3f f8 59 a8 3f fc ed b3 3f 18 ea be 3f
       1.0078285 1.3152456 1.4057002 1.491519
000130 39 83 8b 3f c6 b4 64 3f 55 46 82 3f 5d de 80 3f
       1.0899421 0.8933834 1.0177714 1.006786
000140 7f 1c 72 3f c3 1e 7e 3f cf c5 93 3f 90 90 7f 3f
       0.9457473 0.9926569 1.1544741 0.9982996
000150 16 75 95 3f 2c f7 91 3f ac 0a b9 3f 31 88 d3 3f
       1.1676357 1.1403556 1.4456382 1.6525937
000160 36 58 81 3f cc 19 55 3f e3 36 7e 3f 16 b2 8d 3f
       1.0105045 0.8324249 0.993025 1.1069973
000170 2f ea b7 3f 87 35 7e 3f 1a 4e 4c 3f 3a 3e 9f 3f
       1.4368342 0.99300426 0.79806674 1.2440865
000180 bc b0 84 3f 0e 09 79 3f 06 21 77 3f 7f af 8b 3f
       1.0366435 0.9727944 0.96534765 1.0912932
000190 32 8a 95 3f ea 7a a1 3f e3 fb 7f 3f 46 32 90 3f
       1.1682799 1.2615635 0.99993724 1.1265342
0001a0 15 0a 8d 3f 2c 3b 72 3f f7 0d 89 3f 77 c3 ab 3f
       1.1018702 0.9462154 1.0707387 1.3419026
0001b0 10 06 89 3f 2a a6 85 3f be 55 8b 3f ac 8b 7f 3f
       1.0704975 1.0441334 1.0885541 0.998225
0001c0 4c 0c 7b 3f 51 4f 93 3f dc 0c 8d 3f 22 3f 91 3f
       0.9806564 1.150858 1.1019549 1.1347392
0001d0 da 23 98 3f b7 9a 87 3f 29 d3 c0 3f 6b e7 9b 3f
       1.1885941 1.059409 1.5064441 1.2179998
0001e0 07 e8 86 3f bf 02 88 3f c9 18 a7 3f 18 8a 77 3f
       1.0539559 1.0625838 1.3054439 0.9669509
0001f0 4f 86 96 3f b9 b3 7a 3f 74 4d 83 3f 41 a0 8d 3f
       1.1759738 0.97930485 1.0258012 1.1064531
000200 c3 98 6b 3f fa 55 7c 3f a1 f5 84 3f c4 77 68 3f
       0.9202997 0.9856869 1.038746 0.9080775
000210 53 43 7c 3f ae e9 9b 3f 6a d1 b4 3f b7 5d 89 3f
       0.9854023 1.2180688 1.4126408 1.0731725
000220 e9 e2 7a 3f 1b 81 83 3f 8e f5 81 3f 9c 9b 86 3f
       0.9800249 1.0273775 1.0153062 1.0516238
000230 af a5 8e 3f f4 7a 95 3f 1c 45 ad 3f 18 f4 88 3f
       1.1144313 1.1678147 1.3536716 1.0699492
000240 16 47 85 3f d4 34 62 3f c4 31 90 3f fe 14 9b 3f
       1.0412319 0.8836186 1.1265187 1.2115781
000250 c7 59 89 3f 5b ce 99 3f 0a 1b 84 3f ae 86 8f 3f
       1.0730523 1.20161 1.0320752 1.1212976
000260 e1 67 82 3f c7 f1 6d 3f 63 82 85 3f 21 38 5f 3f
       1.0187951 0.9294705 1.0430416 0.8719502
000270 a2 4f 6c 3f bf a3 c5 3f 9c a5 6a 3f 6b 52 83 3f
       0.9230901 1.5440596 0.9165895 1.0259527
000280 e0 7d 84 3f 4a a4 9c 3f b4 59 92 3f 38 a2 80 3f
       1.0350914 1.2237637 1.1433625 1.0049505
000290 e7 c5 72 3f 14 17 85 3f 00 e2 9b 3f 07 55 8f 3f
       0.94833225 1.0397668 1.2178345 1.1197823
0002a0 2d ed 72 3f 93 8b 85 3f f0 96 6d 3f 54 3f 90 3f
       0.9489315 1.043322 0.9280844 1.1269326
0002b0 98 db 87 3f 1b f0 80 3f 83 1c 88 3f df be 6f 3f
       1.061389 1.0073274 1.0633701 0.9365062
0002c0 5c 0c 8a 3f 3e 77 75 3f d9 72 aa 3f 15 ac 83 3f
       1.0785022 0.95885074 1.3316299 1.028689
0002d0 87 a5 a6 3f c0 7b 83 3f db 9a 81 3f cc 37 ac 3f
       1.3019265 1.027214 1.0125383 1.3454528
0002e0 54 84 94 3f f3 0b 78 3f 02 53 86 3f 1c 83 7e 3f
       1.1602883 0.96893233 1.0494082 0.9941881
0002f0 fe e2 9e 3f b5 cf 8f 3f 4a fd 88 3f 02 2c 62 3f
       1.2413023 1.1235262 1.0702298 0.883484
000300 3a 67 6c 3f f3 a3 5b 3f 3a 2d 83 3f e4 c8 6d 3f
       0.9234501 0.8579704 1.0248177 0.9288466
000310 7f a1 85 3f 4d 29 92 3f 3a 2c 87 3f 09 6a a1 3f
       1.043991 1.1418854 1.0560372 1.2610484
000320 2b c4 88 3f 8f 32 97 3f 2c 83 8e 3f 5f bf 67 3f
       1.0684866 1.1812304 1.113378 0.90526384
000330 a8 4a 83 3f 3c ed a1 3f f6 90 88 3f 4f 7c 7f 3f
       1.0257158 1.2650523 1.0669239 0.99799055
000340 8e 98 8c 3f 67 28 d0 3f 75 7a a5 3f 0b ac 85 3f
       1.0984056 1.626233 1.2927996 1.0443128
000350 0d 26 8c 3f 1f fb 8b 3f 14 a3 69 3f f9 28 a1 3f
       1.0949112 1.0936011 0.9126446 1.2590629
000360 94 03 97 3f 9c a6 7f 3f 25 ea ab 3f bb e5 8d 3f
       1.1797967 0.998636 1.343083 1.1085733
000370 d6 74 80 3f c9 17 a6 3f a6 63 95 3f 5b 53 8f 3f
       1.0035655 1.2976009 1.1671035 1.1197313
000380 2f b7 98 3f b7 7f 80 3f a7 d7 41 3f 8a 0a 9b 3f
       1.1930903 1.0038975 0.75719684 1.2112591
000390 d8 a6 71 3f 8f 56 93 3f f8 94 81 3f 73 c6 7e 3f
       0.9439521 1.151079 1.0123587 0.9952156
0003a0 a9 a3 99 3f 5b af 83 3f 4b 41 95 3f 09 f3 80 3f
       1.200307 1.0287889 1.1660551 1.0074168
0003b0 29 38 94 3f 9b 7f a3 3f 48 b3 8a 3f d7 68 90 3f
       1.1579639 1.2773317 1.0835962 1.1281995
0003c0 85 a1 a4 3f b3 d6 90 3f f2 25 86 3f 3e dd 8f 3f
       1.2861792 1.1315521 1.048033 1.1239393
0003d0 34 3a 80 3f ce 8f 9f 3f ab 36 97 3f 12 eb 89 3f
       1.0017762 1.2465761 1.1813558 1.0774863
0003e0 d4 45 74 3f ec 53 b8 3f 5d 9d 86 3f c6 1b 53 3f
       0.9541905 1.4400611 1.0516773 0.82464254
0003f0 00 da 94 3f 8f 34 84 3f d7 39 c4 3f f7 3d 83 3f
       1.1629028 1.032854 1.5330151 1.0253285

bn1.bias f4 [300]
000000 0d 1e 02 bd 12 2b 36 be d6 7c 2d be fa 45 1d be
       -0.03176694 -0.17789868 -0.16942152 -0.15358725
000010 e0 2d cf be 69 26 58 3d 79 6f ba 3e 67 d2 26 3e
       -0.40464687 0.052771006 0.36413172 0.162912
000020 c0 2f e6 bb 77 db 51 3c ad 7c b6 3e 6f 55 00 bc
       -0.007024735 0.012808672 0.35641995 -0.007832869
000030 90 14 71 3d d0 a4 64 be dd 22 17 bd ec 08 85 bd
       0.0588575 -0.22328496 -0.036898483 -0.06495842
000040 a7 32 90 3e 16 ec c7 3e 28 57 21 3e 62 ff 5b bd
       0.28163645 0.39047307 0.15755904 -0.05371035
000050 42 9c 54 3e ca 42 de 3b 03 0b 57 be 95 f8 35 bd
       0.20762733 0.006782864 -0.21000294 -0.04442652
000060 f7 4b 5f be 7d 73 8d 3e 56 79 0d bf 4d 6b 92 be
       -0.21806322 0.27627173 -0.5526327 -0.2859749
000070 2f c5 0c 3f 0d a1 dd 3e dd c3 15 be 2c 68 e2 3d
       0.5498838 0.43286934 -0.14625497 0.110550255
000080 fa 63 ab 3e f4 63 1c 3e c2 b6 bc be 13 2f ff bd
       0.33474714 0.15272504 -0.36858183 -0.124601506
000090 dd 7c ac 3e 1b 96 aa 3d 8d 90 1f be 71 75 04 3e
       0.33689013 0.083294116 -0.15582485 0.12935425
0000a0 ab a0 43 be 96 09 a8 3d 7a 7f b0 3e e4 db 2a be
       -0.19104259 0.08204953 0.34472257 -0.16685444
0000b0 c4 4f 48 be cb 62 fe 3d 6f 1c fb 3e 63 df bf be
       -0.19561678 0.12421187 0.4904513 -0.37475118
0000c0 67 c5 ab bd 4a 1e e6 3d 86 7e 85 3e 2b e6 cd 3d
       -0.08387261 0.11236246 0.26073092 0.10053667
0000d0 cd 47 09 3f c4 e1 99 be 5f 35 fd bb 8d 79 00 bc
       0.53625184 -0.30055058 -0.0077273096 -0.00784148
0000e0 61 9c 10 3e bf a0 0f be 4b a1 d0 3d 71 57 85 3e
       0.14122154 -0.14026164 0.10187014 0.26043275
0000f0 4c d3 05 3b 2e 8b 83 bc 4e d2 f4 3d be 4e 26 bd
       0.0020420132 -0.016057577 0.11954175 -0.04060244
000100 d7 df 95 3e 7a 5e 75 be 77 ba 32 3e 2d 39 74 3d
       0.2927234 -0.23961821 0.17453943 0.05962484
000110 07 24 be be e7 c7 44 3d bd 8e 84 be 2d 55 a2 bc
       -0.37136862 0.048042204 -0.2589015 -0.019816006
000120 05 a1 9c 3d 18 94 67 3d 79 62 ca 3e 62 cc ff 3d
       0.076478995 0.056537718 0.39528254 0.12490155
000130 90 d1 2a be c9 7c 04 3f 1f 40 a4 3e c3 d6 c9 3d
       -0.16681504 0.5175291 0.3208017 0.09855416
000140 47 a4 0b 3e cc 9c 80 bd 4a ed 3e be b2 9e a4 be
       0.13636886 -0.06279907 -0.18645206 -0.32152325
000150 fe ee 65 3e 44 c3 01 3d 5e c7 e2 3e 14 7d 2a 3e
       0.2245445 0.03168036 0.4429273 0.16649276
000160 dc 65 0b be c0 f7 7f 3d 8e fc 03 be 9a 83 b2 bd
       -0.13613075 0.062492132 -0.1288931 -0.08716507
000170 0c ab a0 3e f3 d6 77 bd 2e d3 d0 3d 9b 7b d6 bc
       0.31380498 -0.060507726 0.10196529 -0.026181987
000180 7c 52 6a be fd 64 7c 3c 3a f7 2c 3d 66 91 82 be
       -0.22883028 0.015404937 0.04222796 -0.25501555
000190 b5 4c 2d be 04 8e 0c 3f c6 d4 e3 bc 08 5a 4f 3e
       -0.16923793 0.549042 -0.02781142 0.20249188
0001a0 dc e4 04 3d 48 44 80 3e 72 14 72 3e a8 01 ce 3c
       0.03244482 0.25052094 0.23640612 0.025147274
0001b0 94 7b b3 be b8 18 97 3d 2f 00 24 3e 8f af 0c bd
       -0.3505522 0.073777616 0.16015695 -0.034347113
0001c0 5c 23 07 3e e7 b0 3e 3f 4e fc 3d be 58 05 66 3e
       0.13197082 0.7448868 -0.18553278 0.22462976
0001d0 c1 e5 8a bd 2e 3a 14 3e 4d af 62 3e e3 20 fe 3c
       -0.06782103 0.14475319 0.22137184 0.031021541
0001e0 5e 00 f6 bd 59 82 cc be 6c c5 fb bd e1 28 9d bd
       -0.12011789 -0.39943197 -0.122935146 -0.07673813
0001f0 ef f5 61 3e 5f 3b fd bc 36 83 e1 bd 02 51 2e be
       0.22066472 -0.0309121 -0.110113546 -0.1702309
000200 66 6a f5 3c a3 dc 1c be 41 31 dc be 85 1d d1 be
       0.029957961 -0.15318541 -0.43006328 -0.40842834
000210 04 0c b1 bd ae bf 89 3e d3 d4 e9 be 40 9c e4 bd
       -0.0864487 0.26904052 -0.45670184 -0.11162615
000220 2d 7a fb 3d 8c f5 8f 3d 81 7c ec 3d 85 f4 01 be
       0.122791626 0.07029256 0.11547185 -0.12690933
000230 9d a8 7c 3e 26 31 fa bd b2 bd a9 3d 4a 44 ca bd
       0.24673696 -0.122164056 0.08288135 -0.09876306
000240 b8 3f 7e 3e 83 83 06 3f 15 b2 b9 3d 2b 39 c2 be
       0.24828994 0.5254442 0.090671696 -0.3793424
000250 db 8a aa 3e f0 8d 5a be ea d0 a3 be c8 51 11 3e
       0.33309063 -0.21343207 -0.31995326 0.14191353
000260 f7 a4 fc bd 9a 7f 56 be f4 5a 95 be a8 d8 9a 3e
       -0.12336152 -0.20947114 -0.29170954 0.3024342
000270 ab 05 ce be 48 be bf 3e cb ec 7c 3e 5f 5f 37 3e
       -0.402387 0.3744986 0.24699704 0.17907475
000280 24 fd 47 be 80 34 48 be 11 40 bf bd 04 8c 4e 3e
       -0.19530159 -0.19551277 -0.093383916 0.20170599
000290 b3 3b 3d be bd 61 86 bd 7f 1a c7 be 1b ad 87 3d
       -0.18479805 -0.06561611 -0.38887402 0.06624814
0002a0 43 4f 51 be 53 d6 07 be a4 fb 03 bf 94 17 a7 3e
       -0.20440392 -0.13265352 -0.5155585 0.32635176
0002b0 dc 8d c7 be 29 92 1f bf 1d 04 10 be 8e aa a7 bd
       -0.38975418 -0.623324 -0.14064069 -0.081868276
0002c0 2e d0 18 3e ff 8a 06 3f c9 64 70 be 66 dd 01 be
       0.14923164 0.5255584 -0.23475946 -0.12682113
0002d0 8b 9b 83 be 82 80 62 be eb 09 01 bf 40 41 ce 3e
       -0.25704607 -0.22119334 -0.5040576 0.40284157
0002e0 36 eb 54 be c8 1e 6f 3e 1e 9f 0c be d2 53 bb 3e
       -0.20792851 0.23351586 -0.13732573 0.36587387
0002f0 52 ed d8 3d 76 da 8b be 2e fc b5 3e e6 1c 60 3b
       0.1059214 -0.2731511 0.3554396 0.0034196912
000300 4d a2 d8 bd 71 36 df 3e fe 5a a3 3c 03 46 89 3d
       -0.105778314 0.43596223 0.01994085 0.06702807
000310 21 76 bc bc 2b ce 03 bf ed 68 94 be 34 26 eb 3c
       -0.023005547 -0.5148646 -0.28986302 0.02870474
000320 13 fe 67 be 2c 52 3a 3e d5 c9 e3 bd 10 e2 b0 be
       -0.22655515 0.18195409 -0.11122481 -0.34547472
000330 54 87 f7 3e e6 4e 70 3e 91 43 51 be e5 c4 55 3e
       0.48345435 0.23467597 -0.20435931 0.2087589
000340 79 cb 5b 3d a6 25 88 3c 13 b2 aa ba ba 90 10 3e
       0.053660844 0.016619515 -0.0013023041 0.14117709
000350 fb 8f 9a bd 0a 17 5d be d3 d9 dc 3d 81 ad dc 3e
       -0.07546993 -0.2159082 0.10783734 0.43101123
000360 70 02 60 be a2 35 a5 be c2 9a 3d 3e 74 7f 0a 3e
       -0.2187593 -0.3226748 0.18516067 0.13525182
000370 85 8f bb 3d eb 11 29 3e 19 f7 0b 3e 95 f6 d3 bd
       0.091582336 0.16510741 0.13668479 -0.10349766
000380 c3 82 8e 3e 15 8f 10 be b5 fb a3 3e c1 03 8c bb
       0.27834138 -0.14117081 0.32027975 -0.0042729084
000390 96 90 0e be 89 8c 84 be 4f d9 30 be b1 b6 b2 3e
       -0.13922343 -0.2588847 -0.17270397 0.34905007
0003a0 68 63 85 bd ac 30 b3 be aa 32 1d 3e a2 ab cb 3d
       -0.06513101 -0.3499807 0.15351358 0.09944846
0003b0 8a 89 36 3e 00 93 ba bd 87 c7 1b 3d 68 84 eb 3e
       0.17825904 -0.09110069 0.03803208 0.45999455
0003c0 39 58 e1 3e 86 39 99 be 7f d8 d3 bd b0 8e 0b 3d
       0.4401262 -0.299267 -0.10344028 0.034071624
0003d0 36 2b a0 3d 0a 49 53 3e f2 9e d6 3e df 4a 7d 3c
       0.07820742 0.20633331 0.4191814 0.015459745
0003e0 21 cd 73 3d 7a 38 82 3e bc cd 8a bd 3c 48 15 3f
       0.059521798 0.25433713 -0.06777522 0.58313346
0003f0 bf 0d 9b be 58 9b f7 be bd 23 42 3f 31 c8 8d bd
       -0.30283925 -0.48360705 0.7583578 -0.06922949

bn1.running_mean f4 [300]
000000 72 d1 8c 3e 57 09 81 bd f5 60 02 40 7c 3a 23 3f
       0.27503544 -0.063006096 2.0371678 0.63761115
000010 3a 33 4a 3e 88 e0 d4 be 3e 22 f6 3d db c4 89 be
       0.19746104 -0.41577554 0.1201825 -0.26908
000020 1b 4d 77 3e 2c c7 9f be 13 16 9b 3e ed 26 36 bf
       0.24150507 -0.31206644 0.3029028 -0.71153146
000030 18 09 b2 3f b0 45 ff be 8c 35 9b be 47 59 00 bf
       1.3909025 -0.49857855 -0.3031429 -0.50136226
000040 53 82 b0 bd 8d 60 85 be 84 86 d2 3f c2 15 c2 3d
       -0.08618607 -0.26050225 1.6447301 0.09476806
000050 69 ab 43 3e d6 25 b7 3f f1 0f 71 be 01 8e 55 3f
       0.19108357 1.4308422 -0.23541237 0.83419806
000060 d4 dc a1 3f d9 f0 96 3f 09 86 ab bd ea d0 15 3e
       1.2645516 1.1792251 -0.083751746 0.14630476
000070 8c 43 7a 3e 7e a4 9d 3e e6 71 7d 3e 22 a8 2a bf
       0.2443983 0.3078956 0.2475048 -0.666628
000080 2e 01 41 3e 4f dd 2d 3e c2 38 6a 3f 50 84 a1 3f
       0.18848106 0.16978954 0.91492856 1.2618504
000090 27 75 83 bf 79 ac 0a bf 04 e9 f7 3f 36 f1 3c 3c
       -1.0270127 -0.5416942 1.9367986 0.011532119
0000a0 4b 00 9c be e3 c3 f6 bd 2e c4 16 be b1 98 9f 3e
       -0.30468974 -0.12049081 -0.14723274 0.31171182
0000b0 68 95 55 be 01 73 39 bf a9 cc 28 3f 7d f9 3d bd
       -0.20857775 -0.7244111 0.65937287 -0.04638051
0000c0 52 e7 a0 be f9 25 85 bd 84 02 73 3c 48 16 dc be
       -0.31426483 -0.06501383 0.014832143 -0.4298575
0000d0 81 e6 92 3e 15 fc 01 bf a4 dd e1 bd 87 21 b3 3d
       0.28691486 -0.5077527 -0.11028603 0.08746629
0000e0 30 e5 64 3e cb 91 56 3e f9 46 4b be b9 69 5e 3f
       0.22353053 0.20954053 -0.19851293 0.8688007
0000f0 00 ef 0f 3f d6 2e 94 be 42 f3 1f bf 28 a1 77 3b
       0.5622406 -0.28941983 -0.62480557 0.0037785266
000100 71 ef 71 be 0f 0f 17 3f b6 ac d9 3e 67 d6 83 bd
       -0.23626496 0.5900735 0.4251458 -0.064373784
000110 c2 27 a7 3f db f7 8d 3d 36 ce 26 3d 57 6d 9f 3e
       1.3059008 0.0693204 0.040724 0.31138107
000120 8c 75 f7 be 54 ab 0c 3f db 92 ab bd c7 4b 39 3f
       -0.4833187 0.54948926 -0.0837762 0.7238125
000130 19 c8 fb be 32 74 39 bf 73 04 c5 3f 77 5d b0 be
       -0.491761 -0.72442925 1.5391983 -0.34446308
000140 b2 41 4f bd f8 42 1a 3f e7 d2 ca 3e 22 24 bd 3e
       -0.05059976 0.60258436 0.3961403 0.3694163
000150 b5 25 82 3d 32 ab 03 be 73 f1 c6 3c 60 59 87 3e
       0.06354848 -0.12858275 0.024285054 0.26435375
000160 6e e9 20 3e 80 9b 49 3d c7 2c 68 bf c5 ad a2 3f
       0.15714046 0.049220562 -0.90693325 1.270928
000170 50 54 ad 3e 86 aa b9 be f5 79 ca be 0b 2b 5f 3f
       0.33853388 -0.36262912 -0.3954617 0.87175053
000180 7e a9 1e be 24 89 a0 3e 1a f8 ad bc e1 86 80 3e
       -0.15494344 0.3135463 -0.021236468 0.25102904
000190 f5 54 4c 3f 2c 8c 25 3f 85 19 45 3d 81 af 20 3e
       0.79817134 0.6466701 0.04812004 0.1569195
0001a0 8b 17 cd 3e ac 1a 0b bf d6 21 a4 3f 41 60 6c 3e
       0.40057024 -0.54337573 1.2822826 0.23083593
0001b0 67 fe 8f be 25 59 2d 3e 2e 30 e0 be 2f 02 bd bd
       -0.2812378 0.16928537 -0.43786758 -0.09228932
0001c0 27 d7 8c 3f dc c4 12 3f a6 a6 f6 be b1 5c 5a 3f
       1.1003159 0.57331634 -0.48174018 0.85297686
0001d0 f7 10 3f 3e f8 4c 15 3f 0c 71 98 3d 3a ac 3e be
       0.18658815 0.5832057 0.07443437 -0.18620387
0001e0 5d 7d a7 3e 5b ed 57 3e 92 e7 01 3e 3e 6f 43 3e
       0.32712832 0.21086638 0.12685993 0.19085404
0001f0 c8 39 98 be cb 11 a5 3d fb aa 12 bf 51 d4 e0 3e
       -0.29731584 0.08060034 -0.57292145 0.43911985
000200 d7 3a 43 be 69 15 1e 3e da 38 e2 3f 86 c0 9d bb
       -0.19065414 0.15437855 1.76736 -0.0048142103
000210 d8 c9 f0 3e 84 2d d1 3f a6 1f aa 3f 1e c3 cd bc
       0.47028995 1.6342015 1.3290908 -0.025117453
000220 f4 77 12 3e eb 76 63 be 50 b2 80 3c e4 de 91 be
       0.14303571 -0.22213332 0.015710026 -0.28490365
000230 e6 99 1b 3f 92 66 1d 3f 52 01 c5 be 4d d9 af bf
       0.60781705 0.61484635 -0.3847757 -1.373819
000240 d1 d0 dd 3e b4 a0 d7 bd c8 68 db 3d 1d 61 d8 be
       0.43323377 -0.105286986 0.10713345 -0.42261592
000250 b5 a1 29 bf 45 b6 0a bf 2d 99 7c be d7 39 93 be
       -0.6626237 -0.5418437 -0.24667807 -0.28755066
000260 da 1d 93 3d df cb c7 3f 56 f8 0d 3e 1a e6 a8 be
       0.07183428 1.5609092 0.13864264 -0.32988054
000270 6c 2a 71 3c 3d e6 17 3f 53 1a 01 bf 85 85 5d 3f
       0.014719587 0.5933569 -0.5043079 0.8653186
000280 4a 54 30 3e fd f4 ea 3e a4 df 3b 3e 6a b3 e1 3e
       0.17219654 0.45890036 0.18347031 0.44082195
000290 dd 35 8b 3d 73 5b ae 3f ec 09 8a 3f 6c c1 30 bf
       0.06797383 1.3621658 1.0784278 -0.6904514
0002a0 75 d0 b3 be 4f 03 ed 3d 6e 58 50 3f 07 f3 b6 be
       -0.35119978 0.11572897 0.81384933 -0.3573229
0002b0 6d 3b e4 be c8 bb 0c 3f 5a 7a 27 3e 30 8a 1b 3f
       -0.44576588 0.5497403 0.16355267 0.6075773
0002c0 5f 67 92 3e 26 71 94 3d c4 38 ea be 97 1a 84 3e
       0.2859449 0.07248144 -0.45746434 0.25801536
0002d0 8e ab f1 be 67 87 e9 3e 7b fc 83 be 46 ef 6f 3d
       -0.47201198 0.45611116 -0.25778565 0.0585778
0002e0 96 70 a1 3f fd 45 83 be 1a 27 94 3e a2 c6 25 3f
       1.2612484 -0.25639334 0.28936082 0.64756215
0002f0 ab d4 0b 3f fd ec 0b 3e e3 41 0f be bd 2c 3b 3f
       0.5462138 0.13664623 -0.13989978 0.7311514
000300 b6 bf da 3d 3e 8e bd be 2d 3f 05 bf 9e 35 f4 3e
       0.10681097 -0.37022585 -0.52049524 0.47697157
000310 09 8a 06 bf f6 a0 41 3f 20 d6 d6 3e 28 4a d8 be
       -0.52554375 0.7563623 0.4196024 -0.42244077
000320 48 b1 b1 be e0 c7 bc be 16 4a 80 be c0 87 0f 3f
       -0.34705567 -0.36871243 -0.25056523 0.56066513
000330 27 15 38 3f 96 8f b9 3e cc 93 d3 bc 37 3c 4b be
       0.71907276 0.3624236 -0.025827311 -0.19847189
000340 d7 4e c5 3e 9a 76 4b be b9 1b c8 3c 61 6b 22 3e
       0.38536713 -0.19869462 0.024427282 0.15861274
000350 81 0b 83 3f 32 e0 28 3f 35 ee 75 be 72 47 ca 3e
       1.0237886 0.65967095 -0.2401665 0.39507633
000360 eb e6 e4 be 81 ee 84 3f 4f 94 6a 3f cd 93 8d 3e
       -0.44707426 1.0385286 0.9163255 0.27651826
000370 92 af 94 3d ee 77 f3 3f 2d 87 68 be 3f 89 fe be
       0.0726005 1.9020975 -0.22707815 -0.49714085
000380 6a ab e2 bc 8d 9b 64 3e c4 4d f6 3d 46 94 19 bd
       -0.027669627 0.22324963 0.12026551 -0.03749492
000390 22 1a 23 be 0a a8 d9 3f 4c 23 af 3e 2e b3 4e 3f
       -0.15927938 1.7004406 0.34206617 0.80742157
0003a0 71 fa c3 3d 1c 79 c9 3f fa b8 cf be e7 45 7d 3e
       0.09569252 1.5740085 -0.40570813 0.24733697
0003b0 31 69 61 3f 28 cf 67 be b0 cf 5a 3f 28 ed af 3e
       0.88051134 -0.22637618 0.85473156 0.34360623
0003c0 a9 d5 b1 3e f7 9a 4e 3e 22 19 23 bf 75 9e f7 3d
       0.34733322 0.20176302 -0.63710225 0.1209077
0003d0 5e 6a 13 3e 89 e5 02 3f 6c 66 2c 3e 41 5b 6a be
       0.14396045 0.5113149 0.16835946 -0.22886373
0003e0 49 de 45 3f 72 aa 4b 3f 98 f7 e7 3d 5d 5b 8d 3d
       0.77292305 0.79556954 0.11326522 0.06902192
0003f0 23 bb 34 3f 8f 83 b5 be 62 73 ae 3d 08 43 00 3f
       0.7059805 -0.35451934 0.08518101 0.5010228

bn1.running_var f4 [300]
000000 86 bd 7f 3c 8f c8 56 3c 55 ab f5 3b 73 ba ec 3b
       0.015609151 0.01310934 0.007497231 0.007224375
000010 dd 54 1e 3d 6c ab 48 3c 98 bf ee 3b 61 ff 33 3b
       0.03865515 0.012247901 0.0072860233 0.002746545
000020 a3 9d 88 3b 3f 5b b1 3c 55 cd 10 3d 25 b4 e6 3c
       0.0041691824 0.021649955 0.03535207 0.028162071
000030 8d f6 fd 3b 62 43 69 3c a6 6e 08 3b 80 6d 06 3c
       0.0077503384 0.014237257 0.0020817905 0.008204818
000040 16 5e 55 3c b1 b1 f8 3c 40 e0 d0 3b 0e 1d 27 3c
       0.01302292 0.030358167 0.006374389 0.010199798
000050 09 76 a8 3b 3d f3 de 3b 5e ff 39 3b 86 6e 54 3c
       0.005141024 0.0068038986 0.002838097 0.012965804
000060 a8 4b 05 3c c1 3c d5 3c b1 c2 fa 3c 59 a1 00 3c
       0.008135714 0.026029946 0.030610414 0.007850968
000070 c7 2e 3f 3c 46 cc 6e 3c fd 31 04 3c 65 6e da 3c
       0.011668867 0.01457507 0.008068559 0.026663968
000080 97 af fc 3b e3 cf f3 3c 2c 5d e0 3c 3a f0 67 3c
       0.0077113616 0.029762214 0.027388178 0.014156396
000090 fe f4 cc 3b f1 75 ac 3b a8 70 ba 3b 27 52 70 3c
       0.0062547913 0.005263083 0.005689699 0.014668024
0000a0 16 ac 54 3b 68 c9 b2 3c 0d c9 af 3b d7 b8 22 3c
       0.0032451204 0.021824554 0.0053645433 0.009931765
0000b0 9b c6 2e 3c 81 d4 d6 3c 8a c5 af 3b 9f 14 cb 3b
       0.010667468 0.026224377 0.0053641247 0.0061975266
0000c0 85 35 a6 3b e2 34 ae 3b 2f e4 67 3c a7 ad af 3b
       0.005072298 0.0053163627 0.014153524 0.005361277
0000d0 61 07 09 3c ee 31 4d 3c 7c 24 49 3c 47 55 ab 3c
       0.008363576 0.012524111 0.012276765 0.020914687
0000e0 46 d3 6e 3c 6a 90 dd 3b 25 e2 85 3c e5 95 d7 3b
       0.014576739 0.0067616003 0.016343186 0.006579148
0000f0 a3 05 0a 3c ae 84 02 3c 72 da 3c 3c 35 1e 93 3b
       0.008424195 0.007966204 0.011526691 0.004489685
000100 ce 76 9e 3b 8f b9 96 3c 3f 5e ca 3b 6b f5 d6 3b
       0.00483594 0.018399028 0.006175786 0.006560018
000110 1f e6 ae 3b 8d 29 95 3c 3c 29 16 3d 43 7b 11 3c
       0.005337491 0.01820829 0.036660418 0.008879486
000120 92 50 fd 3b e6 c0 52 3c 50 20 b1 3b db c3 38 3b
       0.007730552 0.012863373 0.0054054633 0.002819291
000130 73 c3 ee 3b cf 19 63 3c 77 bd 3d 3c 3b f4 22 3c
       0.007286483 0.013861134 0.0115808165 0.009945924
000140 eb c2 a0 3c fe 8a 2a 3d 82 43 58 3c 4a bf c2 3c
       0.019624194 0.04163646 0.013199689 0.023772854
000150 e0 ac 9c 3b 7b f2 eb 3b 9b 84 47 3c 05 7d 31 3c
       0.0047813505 0.007200537 0.012177612 0.01083303
000160 89 7b 94 3c 68 33 ab 3c 81 d5 a1 3b 68 1b cc 3c
       0.018125312 0.020898536 0.0049387817 0.024915412
000170 57 52 03 3c 82 2a bd 3c 88 93 86 3c e8 67 8b 3c
       0.008015237 0.023091558 0.01642777 0.01701732
000180 d3 82 e4 3b fb e4 0b 3d 5d e3 2c 3c 2b ac 10 3d
       0.0069736033 0.03415392 0.0105522545 0.035320442
000190 b3 e7 ce 3b b5 09 8d 3b 1c 92 e7 3b f2 9e 09 3d
       0.006314242 0.0043041357 0.007066978 0.033598848
0001a0 4b 2b db 3c 01 88 bf 3b 01 f2 9b 3b f9 59 8e 3b
       0.026754042 0.0058450704 0.0047590737 0.0043442217
0001b0 35 b3 b2 3b 19 4e f6 3b 90 73 10 3d 9d 83 05 3c
       0.005453492 0.007516634 0.03526646 0.008149055
0001c0 54 eb 09 3c 94 13 6b 3b 59 e1 58 3c 35 83 91 3b
       0.008417923 0.0035869824 0.013237321 0.00444069
0001d0 2c 92 a4 3b 61 50 c1 3b 5f 76 b1 3c 88 1a 15 3b
       0.005022308 0.0058994745 0.021662889 0.002275141
0001e0 aa 0d 08 3c dc 2f 0c 3b ae 52 b7 3b f6 e2 67 3c
       0.008304039 0.002139083 0.005594573 0.014153233
0001f0 4a 7c 5d 3c 76 70 3d 3c 9f d2 32 3c 52 7e c8 3b
       0.013518402 0.011562457 0.010914474 0.006118574
000200 4e 38 1b 3d 6b 5b 0c 3c f7 d1 f5 3b a9 89 b2 3c
       0.037895493 0.008566718 0.0075018364 0.021794157
000210 1f 88 ea 3b 21 4c d5 3b 56 a7 9d 3b 14 6e 06 3d
       0.00715734 0.0065093194 0.0048112078 0.032819822
000220 23 39 f5 3c 3e aa 8d 3c 7d 21 9c 3c 9c 0e 65 3c
       0.029934471 0.017293092 0.019058937 0.013980534
000230 ca a8 3b 3b 0b cd 9a 3b 92 c8 a9 3b 63 9d e9 3b
       0.0028634542 0.00472415 0.0051813805 0.0071293577
000240 a6 ea af 3b cb 30 c8 3b 86 be b6 3b b3 47 80 3c
       0.0053685484 0.006109332 0.0055769114 0.015659189
000250 5c e3 1a 3d f1 5d 6b 3b 0f a2 8f 3b 2c ab 48 3b
       0.037814483 0.0035914148 0.0043833326 0.0030619605
000260 4f e8 91 3c 6d 03 2c 3d 36 b5 a9 3b a5 fd 95 3c
       0.017810969 0.041995455 0.0051790727 0.018309424
000270 cb 22 1b 3d ef 2f a4 3c 63 a6 16 3c bc 51 69 3b
       0.037874978 0.020042388 0.009194943 0.0035601696
000280 13 6e 9a 3c 08 c5 e9 3b 56 fb b1 3b a9 40 20 3d
       0.018851316 0.0071340837 0.005431573 0.039124165
000290 7f 8e 8e 3c 94 6a 5e 3c c0 c3 75 3b 30 a5 2c 3c
       0.017401932 0.013575215 0.003750071 0.010537431
0002a0 0a 88 76 3c 38 d1 00 3c 09 33 fd 3b 68 be 85 3c
       0.015047083 0.007862382 0.007727031 0.016326144
0002b0 35 e8 88 3c 82 0e fd 3b b7 43 5d 3c 26 ff 68 3c
       0.016712287 0.0077226767 0.013504914 0.014220988
0002c0 0d 05 0a 3c e9 62 11 3d 0c 45 ae 3b 5f 08 65 3c
       0.008424056 0.03549472 0.0053182896 0.013979047
0002d0 ab 07 0c 3c 35 96 48 3d 62 c7 26 3c 1e 55 20 3c
       0.00854675 0.048971374 0.0101793725 0.0097859185
0002e0 d7 da e3 3b fb 1f ac 3c ef 5a d7 3b 35 0c 75 3c
       0.006953578 0.021011343 0.0065721194 0.014956524
0002f0 fa 1f 01 3c f2 a6 5a 3b 4c ac 90 3b e5 0c 62 3c
       0.007881159 0.0033363667 0.0044150706 0.01379702
000300 aa 69 4c 3c ca b5 d5 3c b3 b7 23 3d ed 32 9a 3c
       0.012476364 0.02608766 0.03997011 0.018823111
000310 4d 09 95 3b b1 ce af 3b 6f de 20 3c 52 56 89 3b
       0.004548228 0.0053652157 0.009818657 0.0041911984
000320 24 8d bd 3c 49 0b a3 3c 5e 23 0f 3c fa 6b 26 3c
       0.02313859 0.019902842 0.00873646 0.01015758
000330 d9 f9 c2 3b 8d 5b ba 3c 34 ef 08 3c 0e 49 d9 3c
       0.0059501943 0.022748733 0.008357812 0.026524093
000340 14 21 12 3c f8 9e 95 3a e7 32 96 3b de 6c 19 3c
       0.008919019 0.0011415174 0.0045837048 0.009364335
000350 37 84 b6 3b fa 26 2d 3c 7a 87 c6 3c 21 2e 83 3c
       0.0055699605 0.010568375 0.024234522 0.016013207
000360 99 16 80 3b a3 0e 84 3c 24 f5 75 3c 3f c3 12 3c
       0.003908944 0.01612026 0.015012059 0.008957683
000370 dd 30 05 3d 26 65 cc 3b 8d b0 e4 3c 25 74 38 3c
       0.032517303 0.006237644 0.027916217 0.01125816
000380 d8 1d f2 3b 9a 5e 13 3c 5d 36 7d 3c 42 2a 1c 3c
       0.0073888116 0.008994723 0.015454856 0.009531559
000390 c3 ec 98 3c ba e6 b8 3b 0e 10 58 3c 28 09 dd 3b
       0.018667584 0.005642739 0.0131874215 0.0067454763
0003a0 6b b1 97 3b 0d 76 e8 3b 28 73 86 3c c4 0c 05 3c
       0.004629304 0.007094151 0.016412333 0.008120719
0003b0 f9 9f 68 3b ae 28 9e 3b 28 53 33 3c fc ff ca 3b
       0.0035495742 0.0048266267 0.010945119 0.0061950665
0003c0 10 47 b9 3b 75 5c c0 3b c9 e3 33 3c 27 7a b0 3b
       0.0056542233 0.0058703967 0.010979601 0.0053856554
0003d0 90 f4 bd 3b 96 ac c3 3b 38 7b 11 3c 94 bc 53 3c
       0.0057969764 0.0059715016 0.008879475 0.0129233785
0003e0 96 97 f7 3b 19 35 27 3c ea 3c 07 3c 15 6f af 3c
       0.0075559122 0.010205531 0.008254269 0.021415273
0003f0 78 59 82 3c a1 79 e0 3b ae 00 42 3c 43 3b 72 3c
       0.015911803 0.006850437 0.011840982 0.014784637

fc2.weight f4 [300, 304]
000000 f6 22 98 bd a9 0e 0b 3e c4 d4 22 bd ee 5f 11 3c
       -0.07428543 0.13579811 -0.03975369 0.008872969
000010 9e fc 5c be 7f 70 d4 3c 44 41 43 bd 08 aa 16 bd
       -0.21580741 0.025932549 -0.047669664 -0.03678325
000020 d1 86 4b 3c d7 c0 a1 bc e2 25 b2 3d c7 08 21 3d
       0.012422279 -0.019745274 0.08698632 0.03931501
000030 8f 40 42 3d c4 bf 8e 3c 69 04 8d bd 27 ae 4b be
       0.04742485 0.017425425 -0.06885607 -0.19890653
000040 5e 62 ae 3d 4e 07 9d 3c 37 8d ad 3d a2 d6 9c bc
       0.08514856 0.019168522 0.084742 -0.019145314
000050 dd eb 6e 3e fe 6b 62 3d cf 25 0f 3d 9f d2 a3 be
       0.23332162 0.05527877 0.034948166 -0.3199663
000060 ab d1 ea 3c d8 20 1c 3e 70 40 11 be fd 9a 20 3d
       0.02866443 0.15246904 -0.14184737 0.03921031
000070 36 30 7b 3d ea 92 fd 3d 22 17 14 3e 19 5e 9a bc
       0.061325274 0.12381537 0.1446195 -0.018843697
000080 fd e2 f3 3c 66 e1 e5 3c 2a eb 0e bc 78 b4 c9 3c
       0.029771322 0.02806158 -0.00872306 0.024622187
000090 a6 45 2c 3e 99 c0 da 3d 4f ed dc bd 3c 2e c2 bc
       0.16823444 0.10681266 -0.107874505 -0.023703687
0000a0 c0 44 e3 bc 3d 72 6c 3d ab 79 c0 bd 39 f3 81 3d
       -0.027742743 0.057726134 -0.09398206 0.06345219
0000b0 ec dd 8d be 58 16 c5 3d 1b 6b ae 3c 33 14 18 bd
       -0.27708375 0.09623402 0.021291306 -0.03712864
0000c0 6d 68 95 ba 10 ef 92 3c 56 ee bf 3c 87 25 7f 3c
       -0.0011398919 0.01793626 0.023429077 0.015572912
0000d0 fc 8a 91 3d 52 3e ad bd 72 9c 24 bd fc 1e 81 3e
       0.07106587 -0.08459152 -0.04018826 0.25218952
0000e0 fd e7 3c 3c 9d 0a 12 3d c9 c5 43 3d 38 2b 5c 3d
       0.01152992 0.035654653 0.047796044 0.053752154
0000f0 13 ea 1a bb 01 b0 04 be e0 03 b6 3d 01 b5 46 3d
       -0.0023638054 -0.12957765 0.08887458 0.048512463
000100 2b d2 88 3e af b6 ac bd 19 38 4e 3d 32 62 af 3e
       0.26722845 -0.08433282 0.050346468 0.34254605
000110 00 c5 32 be ef 94 3b bd bf 27 f0 bd 0d ee 0c be
       -0.17457962 -0.04579633 -0.11726331 -0.13762684
000120 6a f1 53 3e 96 a4 92 bd d0 b3 ca 3d 5d b8 82 3c
       0.20697561 -0.071602985 0.09897578 0.015957052
000130 47 28 c9 bd 96 71 ae bb d3 6f 71 3c 2f fd be 3d
       -0.098221354 -0.005323599 0.014736134 0.09325635
000140 a2 bb 88 3d ad 61 aa 3b cd 6a 12 bc 7c c1 e4 3c
       0.06676413 0.005199632 -0.008936596 0.027924292
000150 c3 87 92 3e 27 86 a6 3d 45 e0 e1 3c 14 2e 32 bd
       0.28619203 0.08131056 0.02757276 -0.043500975
000160 9f 1b b6 bd 39 7a 6d 3b d5 9e 2d 3e 7c 58 1b 3d
       -0.08891987 0.003623618 0.16955121 0.037926182
000170 2b 3e d4 3d 4d 36 52 bd ff 4e 3b bd 6b b7 c4 3d
       0.1036342 -0.051321317 -0.045729633 0.09605297
000180 1b d5 02 bb 05 67 b0 3c 5c 46 18 3e 98 21 9f 3d
       -0.0019963447 0.021533499 0.1487059 0.077700794
000190 83 ff a6 3d 75 38 63 3c 5b 9d 89 3c 16 c2 1a 3d
       0.08154204 0.013868441 0.016798666 0.03778275
0001a0 66 3a 3e 3d 8f 00 33 3d f5 df 2a 3e 90 19 52 3d
       0.04644241 0.043701705 0.16686995 0.05129391
0001b0 75 c0 02 3d ba 01 b0 3d 66 e9 b2 3c 62 6b ca 3d
       0.031921823 0.08594079 0.021839809 0.09883763
0001c0 2e b5 db 3d 18 88 57 3d 14 9e bc bc fd f3 23 3e
       0.10727917 0.052620023 -0.023024596 0.16011043
0001d0 7e d5 29 3e 67 84 0f 3e 01 a8 ad bd 00 28 20 be
       0.16585347 0.14015351 -0.0847931 -0.15640259
0001e0 52 d1 df be bd bc a4 bc ca 00 26 3e 95 5d bb bd
       -0.43714386 -0.020109529 0.16211239 -0.09148709
0001f0 8b 9f 27 3e 2e 96 33 be 79 fc 79 3d 3a 23 97 be
       0.16369455 -0.17537758 0.061031792 -0.29519063
000200 7c b1 b2 3d fa af 73 3d bc 56 4e 3e c4 30 7c be
       0.08725259 0.059493996 0.20150274 -0.24627978
000210 d4 3c 23 3d e2 35 8c 3c dd 51 fa bd cd 8a 2d 3d
       0.039852932 0.017115537 -0.122226454 0.0423687
000220 c4 92 7b 3d ef ab bd bd d1 bc 9b 3c 72 bc 9a 3c
       0.061419263 -0.09261309 0.019010933 0.018888686
000230 3e 37 f2 bd b8 93 a8 bc a9 bd 80 3e f0 3f 08 3c
       -0.11826943 -0.02057825 0.251447 0.008316025
000240 a7 2a 73 3e fc a4 26 be 95 9e 42 3e ee 64 0d 3d
       0.2374674 -0.16273874 0.19005807 0.034520082
000250 4f 9a bd ba 91 f0 15 be 8a 26 84 3c 86 c1 3e 3e
       -0.0014465543 -0.1464255 0.016131658 0.18628511
000260 fd a3 56 3c 3e 3c 53 bd 7d ff c7 3c 74 41 fb 3d
       0.013100621 -0.051571123 0.024413818 0.122683436
000270 01 d4 06 be 0a b2 64 3a 74 60 48 3d c0 65 97 3c
       -0.1316681 0.00087240397 0.04892011 0.018481135
000280 8b db 51 3d 17 3b e5 3d 8c 4c 96 3c ac b6 02 bd
       0.051234763 0.11192911 0.018347047 -0.03191249
000290 1b 68 37 3c f0 f4 b3 3d 20 0d 3b bd ba 4d 2c 3e
       0.011194254 0.087869525 -0.045666814 0.16826525
0002a0 93 4d ce bc a7 07 ce bd fd fe 09 be 47 eb 93 bc
       -0.025183475 -0.10060053 -0.13476177 -0.018056525
0002b0 79 75 10 be 8e 7a 48 be 02 03 8f 3d 0f 07 0b be
       -0.14107312 -0.19578001 0.069829956 -0.13576911
0002c0 52 f5 93 3e a9 07 01 3e 59 ec a6 3c 37 95 20 bd
       0.28898102 0.12600578 0.020376371 -0.039204802
0002d0 de e3 d8 bd 04 8f fe 3d d9 48 50 be 7c b2 fe bb
       -0.10590337 0.12429622 -0.20340289 -0.007772742
0002e0 a0 b4 39 3d 89 b0 1f be 55 29 fa bd 80 48 99 bd
       0.045338273 -0.15594687 -0.12214915 -0.074845314
0002f0 70 87 ce bd 6c ba 2e 3d 8a cc a6 3e b0 e2 6f be
       -0.100844264 0.042658255 0.32577926 -0.23426318
000300 e2 c6 56 bd cb 53 57 3d 67 b7 26 bc 45 b8 8a 3d
       -0.052435763 0.052570146 -0.010175562 0.06773428
000310 14 a5 93 bd b0 c4 8a bd 7c 7b b8 3c 6a 55 4e bc
       -0.072092205 -0.067757964 0.02251982 -0.0125936065
000320 16 59 54 bc dc d3 c5 3c da c7 34 bd fc 7f 0a 3e
       -0.012960693 0.024148874 -0.044135906 0.13525385
000330 de 79 63 3e 51 6b bb bc 4d be d6 3c 1a 12 0c 3c
       0.22214457 -0.02287832 0.02621379 0.008549238
000340 30 ce 38 3c 6f 1d 4d bb ca 1e 81 3e 35 de e7 bc
       0.011279628 -0.0031298061 0.25218803 -0.028304199
000350 d6 b6 1a be d5 5c 85 bc 37 99 99 3d 1e 50 d9 3d
       -0.15108809 -0.016279617 0.074999265 0.10610984
000360 4f 1a 25 be eb 52 88 3c 80 35 92 bd 85 bc 22 3e
       -0.16123317 0.0166411 -0.071391106 0.15892227
000370 b5 15 62 bd 84 8d 25 3e 44 3b 86 bd 85 c3 c8 bd
       -0.055196483 0.16167265 -0.06554273 -0.098029174
000380 9e bc 71 3e 3a 97 af bd c3 57 88 3d f0 ca bd bc
       0.23607108 -0.08573766 0.06657364 -0.023168057
000390 49 2a c1 3d de ab e0 3d 1e d0 3e bd 09 18 2c 3e
       0.094318934 0.10970281 -0.046585195 0.16806044
0003a0 41 0b 84 3e 58 e2 e4 3d c8 57 d5 3c 27 a2 6c bd
       0.25789836 0.11175984 0.026042834 -0.057771828
0003b0 d4 75 01 3e 53 7a 3c bc a6 50 24 bd 4e 30 ef 3d
       0.12642604 -0.011503774 -0.040115975 0.11679135
0003c0 af db 22 3d ec 15 03 be 7e 39 b9 bc 2f f6 fc bd
       0.039760288 -0.12801331 -0.022610422 -0.12351643
0003d0 89 54 3c 3e 56 6e 14 bd 48 65 31 3c 42 5c a1 bd
       0.18391623 -0.036238037 0.01082737 -0.07878925
0003e0 ab 86 95 3d 2f 3d c9 3d 61 aa 1d be 18 13 d2 3d
       0.073010765 0.09826123 -0.15397026 0.10257548
0003f0 ab 14 8b bd e7 58 84 bd 02 0a e1 3d f1 cd 05 be
       -0.067910515 -0.06462269 0.10988237 -0.13066842
