bipedal_walker/bipedal_critic.pt (torch_old, 403677 bytes, 9 tensors)

fc1.weight f4 [300, 24]
00000000: 5104 313c b5bd 303d d475 8e3a b9fc 1e3c
00000010: ce94 193d 47d2 113d 5a7d c1bc b706 223b
00000020: 68a4 5abd 4213 25bd 188d 533c 86d2 243d
00000030: acfd 50bb fa59 c2bc ad57 dcbc 9784 46bb
00000040: 6bac 453d cfde ba3c 0f1f 1cbc 5946 583c
00000050: df0c 4c3d 9c4d 973c 35ad 0e3c 1621 7f3d
00000060: 2860 873d aba0 813b b187 813d 8a1f ecbc
00000070: 45bf 383c de63 253c 2596 1f3d 6c7e a43b
00000080: c491 33bb bea2 933c 4a96 84bc 6ab8 0bbd
00000090: 14e0 3b3b fa93 2fbb 49d3 1a3d 65d5 2ebd
000000a0: 1f32 b73c 49d2 e6bb dc6b 41bd 80f3 a83c
000000b0: 8e58 56bd 4868 7dbd 2411 bc3a 9dda 81bd
000000c0: 87c3 003d 37ff ce3c b31d b43c 18ed 33bd
000000d0: 13c0 263d 9b58 163d 24ec bc3c 0d76 833d
000000e0: 58b0 983c 808e 2f3c 034c 13bb cd04 d5bc
000000f0: 6b9b 3abd de21 893b 542b 09bd a81a 66bd
00000100: eb21 043c aa1c 07bd e81d 07bd e38d 3a3c
00000110: 6899 41bd 4783 8e3c e6a9 183c 8bc7 223d
00000120: 28ba ce3b 1a97 763b bf9d c53d 4d55 d0bb
00000130: ee4e a33b 8d99 e83c c4c5 663a 853b 38bc
00000140: 04b8 4b3c 0670 aebc c812 8dbc 577f 67bc
00000150: f1ab baba 41d1 09bd 1fcc 4abd e9ad 1cbc
00000160: ee2a 573d 505d 14ba 9c47 973c cad3 5d3d
00000170: 2110 17bd 37cc 603d d079 383c f721 6a3d
00000180: b37a 1a3d 1f87 cd3b abf8 9a3d 54d7 02bd
00000190: 38c6 533d 79df 613d 66f3 e8bc 4a6b cfbb
000001a0: 6f3f 6ebd a409 9ebc a9e8 cf3c 7df0 3ebc
000001b0: f064 88bb f521 653b 7c00 d8bc c474 333d
000001c0: 9f1d 08bc 08cb 563c c644 5e3d fb7a 31bd
000001d0: c5cb 32bd a4eb 253d f45d 563d 2b47 273c
000001e0: c01c f23b 3344 c1bc 9fc2 51bd a57c 93bd
000001f0: 4c53 cf3c c792 c8bc 375a 073d a1dd c1bc
00000200: 9cf3 ed3b 67c2 03bd 6614 453c 3656 1c3b
00000210: 95c6 803c 3c0d 873c afb5 00bd f595 94bd
00000220: fa47 62bd c891 54bc 0766 94bc f4d3 f23c
00000230: bd94 85bd 74d9 90bd afb8 abbc 1fae d9bd
00000240: 02a0 7b3d 68a6 9d3d 0004 e93b ced1 1d3d
00000250: 5d05 15bd 60c7 d1b6 b4b6 b23c c384 eaba
00000260: 2709 2dbd dbad f4bb 8e5f 51bc 16a9 563d
00000270: 50d7 2c3c 7742 2dbd a98c 963d 4de0 383d
00000280: 2f01 153c 6e16 753c f82b aebc c54c 923d
00000290: d04a 2cbc 635b 3b3d 18df 443d 341e 3bbd
000002a0: 351d 6abc 1812 c5bc 5b26 48bd c7a8 6dbc
000002b0: e7dd 2f3c 20d6 94bd 3ada cb3c 61d2 01bb
000002c0: 1422 db3c 4ed2 55bc 5794 583d 5da1 803b
000002d0: 59b5 05bd aa34 8e3c 2f23 f23c 13d6 b8bc
000002e0: ccf9 c0bc 626b 07bd 7eec 093d 26e3 9abd
000002f0: 47b5 99bd 8317 3fbb 7646 2cbd 3e1a a1bd
00000300: a89c 69bd 1be3 403d 4433 5dbd ab33 29bd
00000310: 1f8b 37bc 2bff ebbc 8971 143d 96f2 d0bc
00000320: 545e 3a3d 0a63 17bd 77a0 073d 0cd8 d9bb
00000330: b257 cebc e107 033c e0cd e13b 1899 86bc
00000340: e0b9 56bc 1ef8 bd3c 86c6 6bbd e3f0 98bd
00000350: dff2 ecbc 008b e53c 649b abbd ce7c 0dbd
00000360: 66e6 27bd ba3f 553d b3f1 efbc e39d 62bd
00000370: 199d e63c b7ec 3bbb 8f23 893c 9ed3 49bc
00000380: 312d 5f3b f6fa 1fbd 541a 0bbd 1263 75bc
00000390: 5b1c 9e3c 02ce 333d 9288 103c 5e83 03bd
000003a0: c239 5dbd db35 1cbd 6417 943c bd34 fbbc
000003b0: 88ad 96bb f39c 6fbd 3133 06bc b7c4 b8bd
000003c0: 62b9 9abc 073c 64bc 94b0 ba3c 0c83 38bd
000003d0: 2a5c ebbc 8afe c1bc 10c4 143c 2397 b9bb
000003e0: 3bd0 d5bc 88f5 a33c b18f 263d 52d0 103c
000003f0: e60d 723c 988c f83c a019 83bc d67b 753c
0.010804252 0.04314967 0.0010868856 0.009703808 0.037495427 0.035600927 -0.023619343 0.002472324
-0.053379446 -0.04030157 0.012912057 0.040239833 -0.0031889481 -0.023724545 -0.026897276 -0.0030291432
0.048260134 0.022811322 -0.009528889 0.013200366 0.049816962 0.018469624 0.008708288 0.062287413
0.06610137 0.0039559207 0.06324709 -0.028823633 0.011276071 0.010094611 0.03896155 0.0050199535
-0.0027400116 0.018021937 -0.016184945 -0.034111418 0.0028667497 -0.0026791082 0.037799153 -0.042683978
0.022362767 -0.007044111 -0.047222003 0.020623922 -0.052330546 -0.06186703 0.001434837 -0.06340525
0.03143647 0.02526818 0.021986818 -0.043927282 0.04071052 0.036705595 0.02306182 0.06419001
0.018638775 0.010715127 -0.0022475726 -0.026003266 -0.045558374 0.0041849455 -0.033488587 -0.056177765
0.008064727 -0.03298632 -0.032987505 0.0113863675 -0.04726544 0.017396582 0.009317851 0.03974108
0.0063088126 0.0037626685 0.09649228 -0.006357825 0.0049837744 0.028393531 0.0008803273 -0.011244659
0.012434009 -0.021293651 -0.01722087 -0.014129481 -0.0014241916 -0.033646826 -0.04951107 -0.009562948
0.052531175 -0.00056596566 0.018466763 0.054157056 -0.036880616 0.054882254 0.011259511 0.057161298
0.03771467 0.006272211 0.07566961 -0.031943634 0.051702708 0.05514476 -0.028436374 -0.0063299285
-0.058165964 -0.019291706 0.025379496 -0.011654017 -0.0041624233 0.0034962867 -0.026367418 0.04381253
-0.0083078435 0.01310993 0.054264806 -0.043330174 -0.04365136 0.040507928 0.052335694 0.010209839
0.007388681 -0.02359209 -0.051210996 -0.072015084 0.025308274 -0.024484051 0.03304502 -0.023665251
0.0072617065 -0.03216782 0.012028789 0.0023855097 0.015719691 0.016485803 -0.031423267 -0.072551645
-0.055244423 -0.01297421 -0.018115057 0.029642083 -0.0652251 -0.07072726 -0.020962087 -0.10628914
0.061431892 0.07697755 0.0071110725 0.038530163 -0.036382068 -6.2518957e-06 0.021815635 -0.0017892349
-0.042245056 -0.0074670142 -0.01277913 0.052407347 0.010549381 -0.042299714 0.073510475 0.045135785
0.0090945205 0.014958961 -0.0212612 0.07143549 -0.010515884 0.04574145 0.04806432 -0.0456831
-0.01428919 -0.02405648 -0.048864704 -0.014505572 0.010734058 -0.072674036 0.024884332 -0.0019809233
0.026749648 -0.013050629 0.052875843 0.003925486 -0.03264365 0.017359097 0.029557792 -0.022563016
-0.023556612 -0.033061393 0.033672802 -0.075628564 -0.07505279 -0.0029158301 -0.042059384 -0.078663334
-0.057034165 0.047091585 -0.05400397 -0.04130904 -0.011202603 -0.028808197 0.036241088 -0.025506299
0.045500115 -0.036959685 0.033112016 -0.0066480692 -0.0251883 0.007997484 0.0068909973 -0.016430423
-0.0131058395 0.0231896 -0.057562374 -0.074678205 -0.028924404 0.028020382 -0.08379248 -0.03454285
-0.04099121 0.052062728 -0.029290056 -0.055326354 0.028151082 -0.0028675029 0.016740588 -0.01231852
0.0034054036 -0.039057694 -0.033960655 -0.0149772335 0.01930063 0.043897636 0.008821623 -0.032107703
-0.05401016 -0.038137298 0.01807756 -0.030664796 -0.0045983233 -0.058499288 -0.008190916 -0.090218954
-0.018887226 -0.013930327 0.022789277 -0.04504685 -0.02873047 -0.023680944 0.009079948 -0.005663769
-0.026100269 0.02001454 0.04066438 0.00883873 0.014773821 0.030340478 -0.01600343 0.014983138

fc1.bias f4 [300]
00000000: 4874 cbbc 1faa 0d3e 1f07 b1ba 6945 af3d
00000010: 1f6d 84bc 80fa bdbc 98fc 7fbd 7c2e d63d
00000020: 2b22 3bbe 2762 093c 2776 363e 3043 3cbe
00000030: e806 003e 5aa0 33be c390 1a3e bf3c 32be
00000040: b669 193e 207b 253e c58b 33be 80b5 49be
00000050: 5659 a23d 3301 afbd c8de db3d d80d e3bd
00000060: 1d91 2d3d c912 0e3d 1104 b4bd fc04 b2b9
00000070: 68a7 fe3d 94ef 613d 7e20 eabd ed1b 4bbe
00000080: 2b87 243d 6e1d 1d3e b5ea cd3d 5c2c 24be
00000090: 4de3 1ebd 107a 05be 6f6a 5abc 639c e83d
000000a0: abbc 17be e963 30bc 9864 47bc 9868 6c3d
000000b0: 3f8d 10bd 4e13 9fbd b7a1 243e bb4a b1bd
000000c0: 66e7 e8bd 71d0 09bd 5118 d33d a228 e7bd
000000d0: 934d 303e 91d4 37bd 04c0 be3d b729 253e
000000e0: 1e50 34be 497c 203e 68c7 6dbd 3236 fe3d
000000f0: befb 783d 51d2 26bd 300c e3bd 3a80 043d
00000100: d71e d63d f2d8 0f3e cc1d 1c3e 7a55 203e
00000110: 0536 47be 6b6b 493e 7935 363d 53f3 04be
00000120: 2e4c 37be 44ce 4f3e 2e1f dcbd c517 5c3d
00000130: 9f03 dfbd b42d 4bbe 0157 ec3d 8778 1fbe
00000140: 0b4d e13c b5c7 4d3e ecec 2e3e c281 573d
00000150: 9da4 c8bd 270c 3dbe 2872 c9bd ef42 b5bd
00000160: 6147 4b3e 4df2 9abd 9c10 50be 9083 dbbb
00000170: 7724 2bbe 0a60 85bc 683c f0bd 333b 1e3e
00000180: 5778 a9bd c48f 9bbd 3935 493e 6015 153e
00000190: 7145 6bbb 75d5 31be 05df 5f3d 4e85 223e
000001a0: 2c50 183e c1c6 e3bd 0810 43be b77e ecbd
000001b0: ae8e 3bbe bd49 ff3d 0c16 fcbd a369 e03c
000001c0: b11c 353e 847d 7f3d a943 2bbe 864f c4bb
000001d0: 8f09 413e 47b3 133d 8df9 b8bc 1382 2a3e
000001e0: 1b12 39be b41a cbbd ca75 e53c e01d 1f3e
000001f0: 7ae8 90bd 7978 febd eb45 43be 6e6a 3bbe
00000200: d432 db3d 5d3c f4bd 5ad6 d03c 0dc7 873d
00000210: f2d1 9d3d e664 49be f729 c13d 4ccd 88bd
00000220: b63f 84bd a2ca 17bd f52b 3dbe 5b81 05bd
00000230: aa56 5c3d 4ba6 49be 4f5d d8bd 040a 13be
00000240: 3a93 00be ab82 e8bd 7895 213e 65a8 6d3d
00000250: 33bc b83d 11c3 2bbe 8e9b cbbd 6829 2cbe
00000260: 7866 fe3d 38b3 53be ef18 3ebe 0ab3 4bbc
00000270: 1a5a 5d3d 8280 8a3d 8648 fcbc 2b04 cf3c
00000280: 1233 d73c 9f5b 303d 9495 77bd 8af0 0d3e
00000290: 2c55 043c 7d9e d33d 50de 683d 102f edbd
000002a0: cdb3 cdbd 0062 fdbd a8d3 fbbc f73f 523c
000002b0: 47be 37bc 8a62 313e 2c20 343e 886e 3c3d
000002c0: 59f3 8f3c 711f ffbd 0a43 073e 4251 b7bd
000002d0: bb66 2dbe 03f6 c83d 227e ff3d 5f2f bf3d
000002e0: c561 a83c 06e7 d2bd 13af 053e f2e9 403e
000002f0: 9e96 cf3d ebdb ea3d 9c54 dbbd 200f a73d
00000300: 569e ccbd 47ae 66bd eb2f a43d acbd 8e3d
00000310: c748 f23d 5492 d4bc e261 52bd 6a9e 413d
00000320: eb37 d13d 59ee 043d d088 16be 77a9 3a3e
00000330: 6647 b33d 69e7 913d ae31 18bd aa52 393e
00000340: e769 7e3b 6721 9abb c4c8 b33d 5325 8bbb
00000350: d8c1 223d 31ab b339 0210 433d 0bd7 ad3b
00000360: 2aac 03be dc01 78bd 5c49 363e c7fe 063e
00000370: be4b b4bc 8be2 853c 0ac2 06be 0f03 183e
00000380: 9d43 59be bf27 d33d 06f9 0c3e 8a75 333d
00000390: ba2b b83d 1970 3bbe 559e 60bd 7d9b c2bd
000003a0: dfca b03d d0f4 36be 8cbb 00be 973b a63d
000003b0: 318d 503d 9ef8 43be 59c1 193e 00fc f53d
000003c0: f94a 153d 12ff 433c e71a 2abe 1af5 48be
000003d0: 1c33 20be 7da6 14be 5912 07be 01fc dabd
000003e0: 3fa0 443e 7bfd 4dbe 0ea8 333e 92ce 323e
000003f0: 4ca6 f33c 89c3 243c ae99 8e3d 48c0 cd3c
-0.02483572 0.13834427 -0.001350615 0.08558161 -0.016165314 -0.023190737 -0.06249675 0.10458085
-0.18274753 0.008385218 0.17818509 -0.18385005 0.12502635 -0.17541638 0.15094285 -0.17405985
0.14981732 0.1616025 -0.17533787 -0.19698143 0.07927196 -0.085451506 0.107358515 -0.11086625
0.04237472 0.034685884 -0.08789838 -0.0003395452 0.12434274 0.05516012 -0.11431979 -0.19834872
0.04016797 0.15343258 0.100545324 -0.16032547 -0.03879099 -0.13034844 -0.01333104 0.113579534
-0.14818065 -0.010766008 -0.0121699795 0.057716936 -0.035290953 -0.07767354 0.16077314 -0.08656832
-0.11372261 -0.03364605 0.10307372 -0.11287047 0.17217092 -0.044880453 0.09313968 0.16129194
-0.17608687 0.15672411 -0.058051497 0.12412681 0.060786955 -0.040727917 -0.11086309 0.03234885
0.10455101 0.14047602 0.15245742 0.15657607 -0.194542 0.19669883 0.04448459 -0.12983446
-0.17900154 0.20293528 -0.107481346 0.053733606 -0.108893625 -0.19841653 0.11540032 -0.15573321
0.027502557 0.20095713 0.17082566 0.05261398 -0.097970225 -0.18461667 -0.09836227 -0.08850657
0.19851448 -0.075657465 -0.20318836 -0.006699033 -0.16713129 -0.016281147 -0.117302716 0.1545227
-0.08274906 -0.075957805 0.19649209 0.14558935 -0.0035899545 -0.17366584 0.054656047 0.15871164
0.14874333 -0.11121894 -0.19049084 -0.115476064 -0.18316147 0.12465236 -0.123088926 0.027394122
0.17686726 0.06237556 -0.16725029 -0.0059909252 0.18851303 0.036059644 -0.022579933 0.16651182
-0.18073313 -0.099172026 0.028010268 0.1553874 -0.070755914 -0.12425322 -0.1906964 -0.18302318
0.10703054 -0.11925576 0.025492836 0.06629763 0.077060595 -0.19667396 0.09431832 -0.06679782
-0.064574644 -0.03705848 -0.184738 -0.032594066 0.053793587 -0.19692342 -0.10564672 -0.1435929
-0.12556162 -0.11353048 0.15779674 0.05802192 0.09020271 -0.1677363 -0.09941779 -0.1681267
0.12421888 -0.20673835 -0.18564199 -0.012432823 0.054041006 0.06762792 -0.0307963 0.025270542
0.02626947 0.043056127 -0.060445383 0.1386129 0.008076947 0.103329636 0.05685264 -0.11581242
-0.1004406 -0.12372208 -0.030740574 0.012832633 -0.011214799 0.17322746 0.17590398 0.04600385
0.017572092 -0.12457169 0.13209167 -0.089510456 -0.1693372 0.09812548 0.1247523 0.09335207
0.020554433 -0.102979705 0.13055067 0.18839243 0.1013615 0.11467727 -0.10709497 0.08157182
-0.09991138 -0.056318548 0.08016952 0.06969771 0.118302874 -0.025948681 -0.05136288 0.047270216
0.10215744 0.03245387 -0.14700627 0.18228708 0.087538525 0.07124216 -0.037156753 0.1809794
0.0038820447 -0.004703689 0.087785274 -0.0042463928 0.039735645 0.00034269088 0.047622688 0.005305176
-0.12858644 -0.06054865 0.17801422 0.13183127 -0.022008773 0.016343376 -0.13159958 0.14844917
-0.21217199 0.10310315 0.1376687 0.043813266 0.08992715 -0.1830448 -0.054838497 -0.09502313
0.086324446 -0.17866826 -0.12571543 0.081168346 0.0509159 -0.19137809 0.15015163 0.12010956
0.036448453 0.011962669 -0.16611825 -0.19624749 -0.15644497 -0.14516635 -0.13190593 -0.10692597
0.19201754 -0.20116226 0.17544577 0.17461613 0.029742382 0.010056385 0.06962906 0.0251161

bn1.weight f4 [300]
00000000: f94a 903f 40b5 833f 44e6 833f 8797 893f
00000010: b22d 893f 7a5f 873f 467f 823f fa7f 833f
00000020: 4007 853f 525a 843f 727a 833f 451b 853f
00000030: ad22 833f f3d6 853f 5e49 833f 6704 963f
00000040: 5f99 863f d770 823f 11b6 803f d95b 8a3f
00000050: 3051 863f 5f6f 843f b93c 853f 9842 863f
00000060: cdf8 823f 5b1d 853f a373 833f 8c99 823f
00000070: 5fbd 873f 5f90 843f eb93 833f 31f8 813f
00000080: 76c4 883f 1a9c 853f 091e 893f 4ec0 813f
00000090: b5e7 853f 6806 843f 97c8 8b3f 10c0 883f
000000a0: 92aa 7f3f 9087 833f 41e4 8a3f 5f0b 883f
000000b0: a262 853f 7eb0 873f 1b07 813f 65ae 8f3f
000000c0: d5c7 833f 0a09 8d3f 2e27 823f 5359 853f
000000d0: 4d14 8b3f db00 863f 3ebc 833f ede6 843f
000000e0: 3be2 843f cd34 833f 43a9 853f 4dea 883f
000000f0: 4a98 853f 5613 853f 220e 823f f995 823f
00000100: ee95 853f 5296 853f 0e28 873f 3fc0 853f
00000110: 85bf 853f 7a0d 843f 342e 813f c233 8d3f
00000120: 65dd 853f 4433 823f 6b9c 893f b1bb 7f3f
00000130: 013d 843f 7d8f 853f 337e 883f d123 893f
00000140: 910c 853f a637 833f 98de 8b3f a2bb 843f
00000150: 001f 853f d575 823f 02f6 883f 21b4 883f
00000160: 8df1 833f 5eb8 853f 93f4 893f cc6f 803f
00000170: e2e4 833f bd0d 843f 8a5d 843f 8d10 8c3f
00000180: 1add 8f3f 0124 843f 1516 833f 0d1f 823f
00000190: 75a3 883f 4c70 8c3f 1b6a 863f 9016 843f
000001a0: d56b 823f 6185 843f 94ca 823f 7b47 853f
000001b0: df71 863f aad0 873f 3c86 8a3f 9046 863f
000001c0: 3960 8d3f 01f0 893f 903a 833f fc15 833f
000001d0: 29e6 823f 5909 863f 2c24 843f 89a9 843f
000001e0: d6a2 813f 5aa5 903f aff0 843f 9232 863f
000001f0: cd67 823f 6c74 8f3f 0d63 833f 95c5 863f
00000200: 751a 853f 3aa9 843f 4662 813f 1dfa 853f
00000210: cb77 843f 7ee5 843f 5282 893f d930 873f
00000220: bf56 833f b9c6 853f 6dd3 843f 6a5a 833f
00000230: 193d 8e3f d455 893f 230e 873f fef9 823f
00000240: dfa9 833f 2b1e 803f 7301 823f 6e6e 863f
00000250: e84e 833f 766e 8a3f f206 863f 71e6 833f
00000260: 0d2e 8c3f 1086 893f d64e 883f 1985 863f
00000270: d78d 8c3f d882 8c3f c1ca 833f f8ec 823f
00000280: 1330 823f 99f8 883f 75ee 8b3f e53e 843f
00000290: e54f 823f d48f 873f 402c 893f 1ed3 823f
000002a0: 8ac3 833f 712f 813f e36c 843f 82bf 833f
000002b0: 5fa5 883f 2070 8b3f d2d5 853f 3872 823f
000002c0: bcb1 903f 6df8 833f f43e 823f c916 843f
000002d0: 1452 893f d04f 843f 9543 8e3f 5ec8 833f
000002e0: 4560 893f 0337 853f e3e5 8f3f 0601 833f
000002f0: d50c 8e3f 4461 813f 94f9 873f 1d6a 853f
00000300: fa65 883f 5448 843f 294c 843f 1ced 833f
00000310: cef9 833f eafc 8f3f 5d91 833f 6fc8 873f
00000320: 22b7 833f 4199 853f 1527 903f 2c78 843f
00000330: 132a 843f 1721 803f 9917 853f a1bd 863f
00000340: 07b9 833f a4aa 863f 46e8 843f 73fc 843f
00000350: dce4 843f db56 8e3f 203d 853f cf27 883f
00000360: 8353 883f 5592 8a3f acb2 813f b064 833f
00000370: d119 833f ff35 873f 5784 8b3f 11c5 833f
00000380: 13be 833f fd3b 843f 37a5 8a3f 853a 853f
00000390: 3302 883f 3d39 843f 4ee2 833f cbe7 7e3f
000003a0: b4be 833f 8daf 913f df2e 803f 9473 873f
000003b0: 7678 833f 6889 873f 458e 833f 76da 843f
000003c0: 051c 833f 96c8 873f 7bc6 813f 3a8e 843f
000003d0: 2c47 873f 9758 863f 8c86 8f3f 3931 823f
000003e0: 865d 843f 8884 853f c48f 8c3f bd40 843f
000003f0: 633d 8a3f 777a 863f 7a61 833f d762 833f
1.127288 1.0289688 1.0304646 1.0749367 1.071707 1.0576012 1.0195091 1.027343
1.0392838 1.0340064 1.0271742 1.0398947 1.0244957 1.0456222 1.0256765 1.1720093
1.0515555 1.0190686 1.0055562 1.080928 1.0493526 1.0346488 1.0409156 1.0489073
1.0232178 1.0399584 1.0269665 1.0203109 1.0604666 1.0356559 1.0279516 1.0153867
1.0684955 1.0438263 1.0712291 1.0136812 1.0461336 1.0314455 1.092059 1.0683613
0.99869645 1.0275745 1.0850908 1.062847 1.0420725 1.0600736 1.0080293 1.1225096
1.0295359 1.1018384 1.0168207 1.0417885 1.086557 1.0469011 1.0291822 1.0382973
1.038154 1.0250489 1.044228 1.0696503 1.04371 1.0396526 1.0160563 1.0202018
1.043638 1.0436499 1.0559099 1.0449294 1.0449072 1.0316613 1.0092225 1.103142
1.0458189 1.0171895 1.075086 0.9989577 1.0331117 1.0434414 1.0663513 1.0714055
1.039446 1.0251358 1.0927305 1.0369761 1.0400085 1.019221 1.0700076 1.0679971
1.030809 1.0446889 1.0777763 1.0034118 1.0304224 1.0316693 1.0341046 1.0942551
1.123935 1.0323488 1.0241114 1.0165726 1.0674883 1.097177 1.0501131 1.0319386
1.0189158 1.0353204 1.0218072 1.0412439 1.0503501 1.0610554 1.0822215 1.0490284
1.104499 1.0776368 1.0252247 1.0241084 1.0226489 1.0471603 1.0323539 1.0364238
1.0127819 1.1300461 1.0385951 1.0484183 1.0187927 1.1207404 1.0264603 1.0529047
1.0398699 1.0364144 1.0108116 1.0466954 1.0349058 1.0382535 1.0742896 1.0561782
1.0260848 1.045127 1.0377022 1.0261967 1.1112396 1.0729318 1.0551189 1.0232542
1.0286216 1.0009207 1.0156692 1.050245 1.0258455 1.081496 1.047087 1.03047
1.0951554 1.0744038 1.0649059 1.0509368 1.0980786 1.097743 1.029625 1.0228567
1.0170921 1.0700866 1.0932146 1.0331694 1.0180632 1.0590768 1.0716629 1.0220678
1.0294049 1.0092603 1.034573 1.0292819 1.0675467 1.0893593 1.0455878 1.0191107
1.130424 1.0310189 1.0175462 1.0319453 1.0728173 1.0336857 1.1114374 1.0295522
1.0732504 1.0407413 1.1242031 1.0234687 1.1097666 1.0107808 1.062304 1.0423008
1.0656121 1.0334573 1.0335742 1.0306735 1.0310609 1.1249058 1.0278736 1.0608042
1.0290263 1.0437394 1.1261927 1.0349174 1.032534 1.0010098 1.0397826 1.052662
1.0290841 1.0520825 1.0383384 1.0389541 1.0382342 1.1120256 1.0409279 1.0637149
1.0650486 1.0825907 1.0132651 1.0265102 1.0242254 1.0563353 1.0899762 1.0294515
1.0292381 1.0330807 1.083167 1.0408484 1.0625671 1.0329968 1.0303438 0.9957244
1.0292573 1.1381699 1.0014304 1.0582147 1.0271137 1.0588808 1.0277792 1.0379169
1.0242926 1.0608089 1.0138696 1.0355904 1.0568595 1.0495785 1.1212935 1.0171272
1.0341041 1.043107 1.0981374 1.0332257 1.0799984 1.0506123 1.0264122 1.0264539

bn1.bias f4 [300]
00000000: 71ee 8c3d c09f e4bc c7f0 553d e1d9 5f3d
00000010: 1017 6f3d a0a3 3abd 5b0f d2bb 5b5f 0bbd
00000020: 4644 17bd bd64 39bd 8881 e9bc 65f8 253d
00000030: 29c6 1dbd 967e 04bd e14a 07bd 19b5 a03d
00000040: 5d94 0cbd 4543 cabc 314b 8ebb a078 3e3d
00000050: 92fd 4fbd 1eaa 4e3d 76d8 2b3c 4911 213d
00000060: d15e 8f3c e370 22bd b073 ecbc df4b 333c
00000070: fec9 593d f983 38bd 28ad 3bbd 9114 2fbd
00000080: c843 2a3d 9075 0d3d b32e 1c3d 52e3 5bbb
00000090: 127d 463d 4487 4cbd 9f55 563d ef39 7c3d
000000a0: 93a0 753c e6ac 06bd 0b14 8b3d 4bb7 593d
000000b0: 82f5 8fbd 1954 17bd 0bf8 81bc 15e2 7b3d
000000c0: 8724 38bd 0bd6 6e3d f46b 95bc af45 1e3d
000000d0: b846 a53d bf40 bd3c 22af 293d ec51 4bbd
000000e0: 4a58 febc 832c 02bd ae69 8abd f95b 883d
000000f0: a065 5abd 6ec3 433d 814e b3bc 5285 0dbd
00000100: dc91 2fbd 5f73 4a3d 6483 65bd 98fb 0ebd
00000110: 202c d0bb 1ca0 263d a3f5 0b3c aa33 a83d
00000120: 0442 11bd 4b83 203c 75e5 80bd c776 74bc
00000130: 223f fabc 4586 46bd 3e39 823d 4a7b 733d
00000140: 60d9 11bd 8941 293d 092f 7f3d 51a7 33bd
00000150: c83f 06bd 586f b8bc 6cda 873d 9a0d 1e3d
00000160: ad8d 17bb 46e1 0ebd 7f9c 84bd 1467 8b3b
00000170: aa52 1dbd 5e22 14bd 7c7f bcbc a287 543d
00000180: 17a4 863d c339 d6bc 53b5 09bd 4356 efba
00000190: 5c2a 863d b401 ab3d 3889 24bd c7a0 90bc
000001a0: c124 03bd 975f 06bd 51db 18bd c5e1 eb3c
000001b0: f667 383d f058 2abd c193 833d 632d 2bbd
000001c0: 0fdc 833d 135b 7a3d 16e4 bebc 1bc5 363d
000001d0: 8d25 e4bb 6deb 04bd cba7 59bd 88ca 48bd
000001e0: c144 dbbc 79fe 8b3d 7489 1d3d 9c3b 10bd
000001f0: df1c 85bc ec79 4c3d 0f8f 01bd 8925 80bd
00000200: 5e65 0bbd 13ef 183d f5d3 803c 4814 61bc
00000210: 9760 1ebd 47ff 00bc 469a 703d 0897 4e3d
00000220: 74e1 a0bc 8a77 69bd 7c6d 0abd 7223 553d
00000230: e219 933d 8d31 5e3d 1e0b 5ebd 9eb3 ffbc
00000240: a31c 44bd 8e3d 7dbc 26cc 44bd 19a4 35bd
00000250: b23b 67bc de39 863d d44b 3abd 24c8 31bc
00000260: 3252 8f3d 0d8a 563d 7916 6d3d 6a51 a83c
00000270: 9b50 943d 2156 823d 5f1d 13bd fa18 2ebd
00000280: 75e8 0cbd b7b2 8a3d 623c 5f3d 24a5 27bd
00000290: 08b9 1fbd 302d 483d 743f 813d 8f2d 27bd
000002a0: 4643 35bd 41c0 083d b553 03bc c8c6 43bd
000002b0: 8ce8 833d 6c26 3d3d 4471 1abd 4a3a a03b
000002c0: 22e6 923d 0f8d 02bd 7051 d6bc 23e8 c7bc
000002d0: 38e2 533d aca7 4c3d b940 7d3d d324 12bd
000002e0: eb4d c93c b555 be3c 7128 893d dea1 f2bb
000002f0: 22db 883d e629 bdbc 5186 22bd 89f7 193d
00000300: 2e13 93bd 4718 88bb 09de 11bd cc68 7fbd
00000310: 1c7b 38bd 1756 843d cfaa 1bbd 9f7b 0a3d
00000320: 1761 29bd c052 06bd 59b7 8e3d f307 ce3c
00000330: ba50 43bd 05bf 083d 8c21 27bd 95af 2cbd
00000340: b4d9 953c 1ca5 b53d 3223 44bd 5c6c 08bd
00000350: 650a 21bd fe19 963d 98ee 553d 357c 8a3d
00000360: 95dc 003d d2af 8f3d 80c0 a8bb be39 adbc
00000370: af40 30bb 7090 3e3d 6d69 983d 4c99 7bbc
00000380: d842 0bbd 880c 18bd a3b2 31bd 68ad 6dbd
00000390: 8985 6c3d 3980 263d d0b0 03bd 59fd 93bc
000003a0: 1962 30bc 1c62 9b3d a3e5 fdbc a6a4 443d
000003b0: 8125 173d c6cf 123d ea06 8bbc cd81 04bd
000003c0: d380 bc3c b02f f03c 973c bfbc 2aa2 4abc
000003d0: b0a0 843c e676 46bd bbcd 853d 5af6 75bc
000003e0: 0c41 32bd 80de 28bd 9cde 693d ed61 04bd
000003f0: 5e44 8c3d 8e73 9b3d 625f c63c e0b2 82bc
0.068814166 -0.027908206 0.052231576 0.054651145 0.058371603 -0.0455662 -0.006410522 -0.034026485
-0.036930345 -0.045262087 -0.028504148 0.04052009 -0.03851906 -0.032347284 -0.033030394 0.07847042
-0.034321178 -0.02469028 -0.0043424596 0.046501756 -0.050778933 0.050455205 0.01048862 0.039323125
0.017501267 -0.03965844 -0.028863758 0.010943382 0.05317115 -0.045047734 -0.04581943 -0.042744223
0.041568547 0.034535944 0.038130473 -0.0033552242 0.04845912 -0.049933687 0.05232775 0.061578687
0.014991897 -0.032879733 0.06790932 0.053153317 -0.07029249 -0.036945436 -0.015865346 0.061494906
-0.04495671 0.058309596 -0.018239953 0.038640674 0.08070129 0.023102162 0.041426785 -0.049638674
-0.031047959 -0.03178073 -0.06758438 0.066581674 -0.053319573 0.0477938 -0.02188802 -0.034550972
-0.04286371 0.049426433 -0.056033507 -0.034907907 -0.0063529164 0.040680036 0.008542451 0.08212979
-0.035463348 0.009796928 -0.062937655 -0.014920897 -0.030547682 -0.048467893 0.06358574 0.05944375
-0.035607696 0.041322265 0.062300716 -0.043860737 -0.03277567 -0.02251403 0.066334575 0.03858719
-0.0023125217 -0.034882806 -0.06475162 0.004254231 -0.038408913 -0.036165588 -0.023010008 0.051887162
0.065742664 -0.02615059 -0.03362019 -0.0018259961 0.06551048 0.08349934 -0.040169924 -0.01765479
-0.032017473 -0.032806005 -0.03731853 0.028794179 0.04502102 -0.041588724 0.06424666 -0.04179133
0.06438457 0.06112201 -0.02330212 0.04462157 -0.006962484 -0.032451082 -0.053138535 -0.049021274
-0.026766183 0.06835646 0.038461164 -0.035213098 -0.016249118 0.04992096 -0.031630572 -0.06257159
-0.03403222 0.037337374 0.015726069 -0.013737746 -0.038666334 -0.007873363 0.058740877 0.050437003
-0.019638754 -0.056998767 -0.03379582 0.052035756 0.07182671 0.054246474 -0.05420982 -0.031213578
-0.047878873 -0.01545657 -0.048046254 -0.04434595 -0.014113354 0.06554006 -0.04548247 -0.01085094
0.069980994 0.05237775 0.05788276 0.020546634 0.07241937 0.06364084 -0.035916682 -0.04250429
-0.034401376 0.067723684 0.054500945 -0.040928975 -0.03899482 0.04887122 0.06310931 -0.040814932
-0.04425361 0.033386473 -0.008015563 -0.047796994 0.06440839 0.04617922 -0.037705675 0.004889761
0.071728006 -0.031872805 -0.02616188 -0.024402684 0.05172941 0.04996459 0.061829302 -0.03567965
0.024573287 0.023234228 0.06697167 -0.00740455 0.06682421 -0.023091268 -0.039678875 0.037589584
-0.071813926 -0.0041532847 -0.03561214 -0.0623558 -0.04503928 0.06461733 -0.038004693 0.0338093
-0.041352358 -0.03279376 0.069685645 0.025150275 -0.04768441 0.033385295 -0.040803477 -0.042159636
0.018292286 0.08869383 -0.047885127 -0.033306465 -0.039316554 0.07329176 0.052229494 0.06761972
0.031460363 0.07015957 -0.005149901 -0.021145698 -0.0026894023 0.046524465 0.07441983 -0.015356373
-0.033999294 -0.037121326 -0.043383252 -0.0580267 0.057744537 0.040649626 -0.032151043 -0.018065142
-0.010765576 0.07587072 -0.030993288 0.048008583 0.036901 0.03584268 -0.01697107 -0.03235035
0.023010647 0.029319614 -0.023344321 -0.0123677645 0.016189903 -0.048453234 0.065333806 -0.015012348
-0.043519065 -0.041227818 0.057097062 -0.03231995 0.068489775 0.075904 0.024215404 -0.015954435

bn1.running_mean f4 [300]
00000000: f456 1c3d 9ef3 153d 5efa 0fbc 1cfe 523e
00000010: 8f1a 173d ecb8 83be 08d6 09bc ead8 93bd
00000020: ffc9 a2be 61e7 1fbe 476a b1bc 1da2 8ebd
00000030: 0635 e23d 06e0 c3be c3a5 19bd ef6e a7bd
00000040: 2819 14bc 7f01 85bc 2680 67be f418 10bd
00000050: fc25 d93c c358 303c 66d4 87bd fde5 7bbd
00000060: 0b38 ea3c 0d89 66be 7b5f b2be aecb 8bbd
00000070: 2e4d 3d3e 859a 41be 3409 37be 87b8 a7be
00000080: 8a8f c23d aa82 2d3e cf9d 3b3e bf11 6cbe
00000090: 8368 f4bc 3ac2 6ebe df13 bc3c 3ce6 ef3d
000000a0: a38c 0b3d bfae 9cbe 1c82 173e 3662 e43d
000000b0: 2dc7 45be ffc1 6fbe 385f 213e 20fe 783d
000000c0: 5488 6bbe 0a7f 733d 3e8f 34bd bde4 6d3d
000000d0: 6a8a 773e e9ac 823c 103e e33d ea53 8ebd
000000e0: bad0 a3be 165c 1cbd c848 67be 7fa4 cb3d
000000f0: 61b9 493c fae2 7f3c f0ca ccbd be0a 63bd
00000100: 13b0 5e3c 5aa9 9d3e c289 b73c 839b 763d
00000110: b583 7abd 6700 533e 70cd 673c 3824 dfbd
00000120: 7f1a cfbe bc6f 773e f9d9 2cbe 9bd5 19bd
00000130: c9bc 88be f72c a9be 87e9 1e3e 6d7a f1bd
00000140: 3245 4fbe 15db 343e 80e4 4e3e fc45 67bd
00000150: 6c23 97be 4c62 7fbe e611 0abe 6d50 45bd
00000160: 1b31 323e 4e0d 65be d53c 82be d83e a13b
00000170: c5d8 cbbe 68a7 4bbe 9bc5 c1be da43 5a3e
00000180: 7d8c f13d 3b71 71be 2612 c5bd 9b90 743d
00000190: 5a96 9e3c d5b5 92bd c13d b5bc b767 a2bd
000001a0: fa84 71bd 7289 cbbe 877f a8be 1fa9 e5bc
000001b0: b9cc a2bc 410b 933b a1fe b93c 2e99 10be
000001c0: 8f15 883e 9951 d03d 806f c4be 0864 b93d
000001d0: 75cf a1bc 5e88 4abd 449d 5abe 1a25 dd3d
000001e0: eef7 2ebe 8369 b33c 4c62 58bd 4d06 96bd
000001f0: b97c a9be 596a 663c c6c2 ddbe 6542 a2be
00000200: d69f 99bd 28f2 573d c29f be3d a9f2 3cbd
00000210: 88a4 a9bb f8d4 dabe 0c0f 0d3e ead1 3a3a
00000220: 68e5 81be 23b9 d9bd 3be8 c9be 3afa 20be
00000230: 0cbf 3e3e 9c30 22be cd49 88be 1061 51be
00000240: c097 70be 0456 07be 6835 b3bd 3ac7 03be
00000250: 45ff 3abe 9811 86bc 2a6c 82be 67b0 77be
00000260: e294 8b3e 3b48 4ebe 9086 48be ebb1 b13b
00000270: 2720 2f3e d9a5 1e3e 6b25 8fbe 2c52 04be
00000280: 87f9 ffbd be3c 0d3e a06d a73d dcf4 a13d
00000290: 5dd0 3dbe 29b8 453e 4f8b 663e e71e a6be
000002a0: c685 26be c71a 0fbc 24f6 78be 0e4c 65bd
000002b0: daad d33d cb6e 8c3e 06d8 eb3c 5143 393e
000002c0: 3c17 5d3d ac1c d7be 2acb f03b 9eee bebe
000002d0: 8f6b b8bd aaa1 aa3d dbcb 3d3e dd9c 1abe
000002e0: 6d16 f93d f8c4 dcbd 5268 a03e 882d 253d
000002f0: 0567 423e 16df be3d dea1 88be ba8f 043e
00000300: 6446 3fbe 018a b6be 0f6f 07be 2fb7 373d
00000310: 3cab 38bc 0719 d73d 1be9 14be 6a14 073e
00000320: 8089 89bd 87b8 6bbe 9e32 18bd 46b6 6e3e
00000330: 0623 953d 93a9 093e 3f40 01be 68fa 0a3d
00000340: 34ff 8bbd 132d e9bc baa5 523d c6e4 87be
00000350: 881b c9bd 32d2 e53d 80e0 013e 9add e339
00000360: 3f3a 56be a454 a03c 5f6f 103e dc5b 923c
00000370: f0b8 6ebe 6ece 0ebc a779 01be 98b9 d3bd
00000380: 673d bcbe 4f6f 16be 4234 aa3d e3c7 1a3d
00000390: b2b7 573e 80f4 83be 6f3d 4dbe 7d0f 08be
000003a0: 212c 8ebd b010 efbc 183f d5bd d034 683d
000003b0: 4734 263e f8a8 5dbd 8b57 fb3c d790 e2bd
000003c0: 3b27 c3ba 0f5c b93c 3acc a0be c88b 03bf
000003d0: ff90 bcbe d1c8 aebe fc2f 3fbd a98d 1fbe
000003e0: ec3b a1bc 20e9 e2be f54e 2b3e 1e6a b33b
000003f0: 5882 f13d 50de b7bc 410a a63d 2e9a 8dbd
0.038168862 0.036609285 -0.0087877195 0.20604748 0.036890563 -0.25727022 -0.008412845 -0.072191074
-0.31794736 -0.15615608 -0.021657122 -0.069645144 0.1104527 -0.38256854 -0.0375116 -0.08175456
-0.009039201 -0.016236065 -0.22607478 -0.035180047 0.02650737 0.01076335 -0.06632309 -0.06149863
0.028591176 -0.22513218 -0.3483847 -0.06825958 0.18486473 -0.18906601 -0.17874604 -0.3275797
0.09500034 0.16944376 0.18321918 -0.23053645 -0.029834991 -0.23316279 0.022958694 0.117138356
0.03406967 -0.3060207 0.14795727 0.11151545 -0.19314261 -0.23413847 0.1575898 0.060789227
-0.23001224 0.059447326 -0.04408192 0.05807947 0.24173895 0.01595159 0.11095822 -0.06949599
-0.31995183 -0.038173757 -0.22586358 0.099434845 0.012312264 0.01561808 -0.09999645 -0.055430166
0.013591784 0.30793267 0.022404555 0.0602069 -0.061160762 0.20605622 0.014148101 -0.1089558
-0.40449902 0.24163717 -0.16880025 -0.037557226 -0.26706532 -0.33042118 0.15518771 -0.11790929
-0.2024124 0.17661698 0.20204353 -0.056463227 -0.29519212 -0.24939841 -0.1348339 -0.048172403
0.17401545 -0.22368357 -0.25437036 0.0049208216 -0.3981382 -0.19888079 -0.37846074 0.21314946
0.11794374 -0.2357835 -0.09622602 0.05970822 0.019358803 -0.07163588 -0.022124173 -0.07929938
-0.058964707 -0.397533 -0.32909796 -0.028034745 -0.01987301 0.0044874256 0.022704424 -0.14120933
0.26578948 0.101718135 -0.38366318 0.090522826 -0.019752244 -0.049446456 -0.21349055 0.10798092
-0.17086765 0.021900898 -0.05282812 -0.073254205 -0.33102968 0.014063441 -0.43312663 -0.3169128
-0.075011894 0.052721173 0.09307815 -0.046129856 -0.0051770844 -0.42740607 0.13775271 0.00071266165
-0.25370336 -0.10631015 -0.3943499 -0.15720454 0.18627566 -0.15838856 -0.26618806 -0.20447183
-0.23495388 -0.13216406 -0.08750421 -0.12868968 -0.1826144 -0.016365811 -0.25473148 -0.24188386
0.27262026 -0.20144741 -0.19582582 0.005422821 0.17102109 0.15492953 -0.27958235 -0.12921971
-0.124987654 0.13792703 0.08175206 0.07908031 -0.18536516 0.19308533 0.2251408 -0.32445452
-0.16261968 -0.008734412 -0.24312645 -0.055980735 0.10335894 0.27428278 0.028789531 0.18092085
0.053977236 -0.42014062 0.007348438 -0.37291425 -0.0900489 0.08331616 0.18534796 -0.15098901
0.121624805 -0.10779756 0.3132959 0.040326625 0.18984611 0.09319894 -0.26685995 0.12945452
-0.18679196 -0.35652164 -0.13225959 0.044852432 -0.011271294 0.105028205 -0.14542048 0.13191381
-0.06715679 -0.2301961 -0.037157647 0.2331172 0.07282071 0.13443594 -0.12622164 0.033930212
-0.068357855 -0.028463876 0.05142758 -0.26541728 -0.09819704 0.11221732 0.12683296 0.0004346192
-0.20920657 0.01957161 0.14104985 0.017866068 -0.23312736 -0.008716209 -0.12644063 -0.103381336
-0.36765596 -0.14690898 0.08310749 0.037788283 0.21066168 -0.25772476 -0.20042966 -0.13287158
-0.06942011 -0.029182762 -0.10412425 0.05669099 0.1623088 -0.05411622 0.030681392 -0.11062782
-0.0014889011 0.022626905 -0.31405813 -0.51385164 -0.36829373 -0.34137586 -0.04667662 -0.15581383
-0.019681893 -0.44318485 0.16729338 0.0054752966 0.11792439 -0.022444874 0.081074245 -0.06914173

bn1.running_var f4 [300]
00000000: cf68 883a db7b dd39 04ca 293a 3122 d739
00000010: 8d68 443a def6 4c3a 355b eb3a 6f2a 2c3a
00000020: 0659 bb3a 50eb 843a 57fc bf3a ab67 913a
00000030: 5261 293a c440 073a 7943 cc3a ce83 183a
00000040: 074e bc39 bb88 793a 1e0b 993a 6ba9 3b3a
00000050: c18e 443a 4d8a 7b3b 2695 d23a ed1f 8d3a
00000060: 67de cb3a f69e 0a3b c92d cc3a 9569 073b
00000070: f8d1 a63a d9ea a73a 38d4 523a f493 4f3b
00000080: 723f 3c3a 3f7f 103b 4c3f fe39 b8f8 913a
00000090: a429 5a3b e5a7 9e3a f473 1e3a 0e46 983a
000000a0: d13d 323b a12f 033b a889 4039 b9b6 b33a
000000b0: ddf3 063a b1ad af39 c28c ea39 2378 1d3a
000000c0: d2db 873a 0ace 293a 190e 4a3a ac1b b13a
000000d0: f4d1 e13a 0a06 253a b7cc 313b 9953 583a
000000e0: 6e82 5f3a cb0b b239 8086 fb39 ba90 3d3b
000000f0: b367 fa39 7003 1c3b 5a02 8a3a 234c 783a
00000100: e921 2b3a a8c3 353a a335 1b39 5346 433a
00000110: ce6d 9c3a 9f38 933a 9878 bb3a 57fe 4e3a
00000120: 9ba5 c03a 9456 343b 3b56 ad39 9f3b 013b
00000130: b43a 813a 5d01 263a 778a ac3a d4e4 013a
00000140: 53d0 6c3a e03d 403a 1743 9d3a dfe1 493a
00000150: 43ea 4d3a 4dde e33a 914a a63a 7271 2f3a
00000160: c0ec 0f3a 8ff6 513a 82cc e639 7082 f53a
00000170: 001d b43a 405d ec3a 07cb 5a3a e532 683a
00000180: cd92 5c3a fef2 1f3a 6116 1b3b 40ed ff3a
00000190: 9ee1 0f3b a23f 153b 7706 2439 d71d fc3a
000001a0: 5800 ad3a 55dd df3a 89bf 2d3a d091 8d3a
000001b0: 488e 853a 5c55 9c39 c868 1f3b 2b38 f639
000001c0: cf78 c33a 5094 0b3b 444a 593a f1ad db39
000001d0: 8750 4f3b 61fc 343a a179 3b3a 01a8 553a
000001e0: 1409 923a 1c18 383a 1976 cb3a b45d 303a
000001f0: ea0c 053b 995c 323a c20c 0a3b bb99 9039
00000200: ad98 aa3a 48bc 063a 99de 283b 155f 7a39
00000210: e6d9 a83a 25c2 ed3a b760 223a e543 4a3a
00000220: 437b 3e3a 0ff2 d539 beef 063a 1746 963a
00000230: 53b2 9b39 b48e fc39 f044 333a f23e 9a3a
00000240: 2ec6 5b3a 9e5b 2a3b 26f4 943b ef63 873a
00000250: 2d19 0c3b 3f24 ee3a 513e d339 e84b a63a
00000260: 0e85 133b a817 cb3a 4861 1a3b 5575 9a3a
00000270: 72dd 593a fd03 423a 3e08 273b fc51 4e3a
00000280: b4cb 613a 5c7e 5f3a 28f9 f439 d465 543a
00000290: 6b53 2d3b 2ebc d53a 70b6 233b d974 483a
000002a0: 2644 fb39 b0ff c93a a1bc ef3a 7d3d b53a
000002b0: 1d28 9939 6400 b139 3f6e 613a d7e0 7c3a
000002c0: 839a 6b3a 7af7 bd3a 6964 203a 1679 8e3a
000002d0: 107b 083a dcef df3a 4835 033a 3fc1 983a
000002e0: b8e0 7d3a fe48 263b 2345 863a c8b1 0b3b
000002f0: 166b 5839 d396 b13a 224c 6a39 0e04 bf3a
00000300: bdaf 0139 3f61 d13a 6040 953a d2ae 903a
00000310: d38b 033a 076d de39 4198 dd3a c543 e13a
00000320: c9f8 bd3a f3ab 613a 5892 3939 3d61 a13a
00000330: 50f5 303a 93fc 5e3a e0cc c139 295e 603a
00000340: f4ac 283a b277 283b db05 3f3a c97f 873a
00000350: eb96 ab39 1bdf 753a dab7 6c3a f59c b53a
00000360: 3c12 893a 835d 683a 5cd4 773a 51b5 2b3a
00000370: 6fd7 cc3a 9c82 b63a 31b9 d93a 5575 653a
00000380: 7c92 2b3a d45a 3b3b dc15 2039 e01e d739
00000390: c023 e039 c65a b93a c34c 8e3a c962 d63a
000003a0: dcab 2a3b 58ba 3c3a 8c8c fc3a 8ae8 4b3a
000003b0: 7234 213b 48b3 363a 18c2 813a 012f 923a
000003c0: e548 823a b46b 653a 269b 1a3b d3e4 fc3a
000003d0: 71a8 353b eed5 cc39 e040 553a 74a8 6f3a
000003e0: 63f1 833a cc5e 823a dd84 6e3a f725 973a
000003f0: 7a4f 723a 709d 193b 1f72 943a aabd 1a3a
0.0010407212 0.00042244684 0.0006476941 0.0004103347 0.0007492386 0.00078187685 0.0017956259 0.00065676024
0.0014293499 0.0010140929 0.0014647347 0.0011093518 0.000646134 0.0005159492 0.0015584073 0.000581798
0.0003591629 0.00095189706 0.0011676287 0.0007158729 0.00074980786 0.0038381994 0.0016066178 0.0010766961
0.0015553952 0.0021151877 0.001557761 0.0020662297 0.001272737 0.0012811079 0.00080424873 0.003167388
0.0007181085 0.00220485 0.00048493815 0.0011136746 0.003328898 0.001210448 0.00060445 0.0011617558
0.002719749 0.0020017403 0.00018361828 0.0013711072 0.0005148033 0.0003350801 0.0004473683 0.00060069765
0.0010365194 0.00064775406 0.0007707789 0.0013512275 0.0017228709 0.00062951504 0.0027130076 0.0008252203
0.00085262104 0.00033959592 0.0004797466 0.0028925375 0.00047760978 0.002380576 0.0010529265 0.00094717945
0.00065281853 0.0006933757 0.00014801933 0.0007449139 0.001193458 0.0011232084 0.0014302908 0.0007896176
0.0014697792 0.0027517425 0.00033061378 0.0019719375 0.0009859414 0.00063326006 0.0013163824 0.00049550575
0.0009033728 0.0007333439 0.0011998144 0.0007701199 0.0007855037 0.0017384976 0.0012687017 0.0006692625
0.00054902956 0.00080094574 0.0004402139 0.001873089 0.0013741553 0.0018033162 0.00083462935 0.00088576815
0.0008414209 0.00061015773 0.0023664462 0.0019525662 0.0021954547 0.0022773524 0.00015642667 0.0019234967
0.0013198955 0.0017079512 0.0006627967 0.0010800902 0.0010189498 0.00029818236 0.002432393 0.00046962625
0.0014913323 0.0021298118 0.00082889595 0.00041900532 0.0031633691 0.00069040625 0.0007151608 0.00081503397
0.0011141622 0.00070226355 0.0015522867 0.000672783 0.0020301887 0.0006803959 0.0021064733 0.00027580358
0.0013015472 0.00051397504 0.0025767444 0.00023877279 0.0012882322 0.0018139525 0.0006194221 0.00077158056
0.0007266292 0.00040806874 0.00051474187 0.001146498 0.00029696766 0.00048171508 0.00068385806 0.0011768027
0.0008383718 0.002599455 0.0045457063 0.0010329465 0.002137731 0.0018168761 0.00040291485 0.0012687417
0.0022509727 0.0015494721 0.002355652 0.0011784235 0.0008310891 0.0007401107 0.002548709 0.0007870493
0.0008613423 0.0008525604 0.00046724943 0.0008102332 0.0026447426 0.0016306692 0.0024980567 0.0007646806
0.00047925225 0.0015411284 0.0018290469 0.0013827529 0.0002921232 0.00033760362 0.0008599497 0.0009646541
0.00089875626 0.001449331 0.0006118478 0.0010869827 0.0005206326 0.0017085033 0.0005005193 0.0011654272
0.000968467 0.0025373097 0.0010243993 0.0021315683 0.00020639258 0.0013548977 0.0002234434 0.0014573352
0.00012367866 0.0015974416 0.0011386983 0.0011038429 0.0005018089 0.0004242437 0.0016906337 0.0017186335
0.00144937 0.0008608691 0.00017697492 0.0012312304 0.00067504216 0.00085062644 0.00036964472 0.0008558953
0.00064344634 0.002570611 0.00072869443 0.0010337766 0.00032728104 0.00093792536 0.00090300816 0.0013855981
0.0010457705 0.0008864032 0.0009453946 0.00065501506 0.0015628169 0.0013924423 0.0016610977 0.00087531406
0.000654496 0.0028588073 0.00015266932 0.00041031 0.00042751245 0.0014141432 0.0010856617 0.0016356345
0.0026042378 0.0007199398 0.001926796 0.00077784865 0.002459791 0.0006969464 0.0009899763 0.0011152924
0.0009939937 0.0008751706 0.002359101 0.0019294269 0.0027718807 0.00039069302 0.00081349723 0.0009142228
0.0010066446 0.0009946465 0.00090987777 0.00115317 0.00092434103 0.0023439787 0.0011325515 0.0005902896

fc2.weight f4 [300, 304]
00000000: f8bf 063d 9d3c 383c 58ef 7a3d 6b0b 483d
00000010: 0a45 453d 25f5 153d f6b0 28bd 0216 83bd
00000020: f980 84bd 751e 60bd b8e3 03bc bcf9 223d
00000030: 7d2e c5bc 88ab 67bc 2f9c 31bd 7e2c 37bc
00000040: 2e32 a13c f327 453b a103 1e3d 18f4 f8bb
00000050: 037f f03c 78be 85bd 77bb 2a3d 7616 fe3b
00000060: 4fef 92bc c446 dfbb ba01 04bd 92fa 383d
00000070: 1b32 893d 0be9 50bd a5dd 683d 7693 633d
00000080: 7d26 9bbc 1640 8c3c be60 083d b645 44bd
00000090: 5116 fabc 194d 3f3d ded4 40bc 7bdd 773d
000000a0: 8fe9 4f3c 5dca 5e3d 121d 453c 821a 873d
000000b0: e96b 69bd 2235 17b9 d192 723d ec8b 9a3d
000000c0: f2cc 74bd d06e e43c 16bc 6d3d bc14 973c
000000d0: f5e3 473d 0aee 85bd c7c6 66bd 46dd 28bd
000000e0: 178d 963c ac8f f33c b699 a03c 49ef 693d
000000f0: c4df e53c 3cad 1dbd dcd4 8eba d548 2cbd
00000100: 6e05 993c 11ec 1e3d 03da 79bd 2160 093d
00000110: e016 45bc 3d0b 05bd 7ddb 6d3d 0067 d33c
00000120: b305 2abc b57f 573b 8389 993c 5715 11bd
00000130: ee57 34bd c5e7 22bd 4314 983d df03 893d
00000140: 6ff0 bf3c e56c ef3c fe85 90bb 1f0f 36bc
00000150: 0dcc 223d e334 3bbd cedf 553d 3ad9 0bbd
00000160: 4830 54bd 0251 393d 184a c0bc a44b 803c
00000170: 84ac a93c 7ad6 ebbb 103e 2abd 02d5 ee3a
00000180: 01b4 f4bc b17b bfbc d4cb 3d3d fa68 51bd
00000190: 5c99 6ebd 0217 5e3c d72f c8bc 4487 70bc
000001a0: f3bc 35bc fca6 df3b 3afd 8a3c a892 683b
000001b0: c22d f23c e71c a23b a126 443d bdf7 ea3c
000001c0: 8d62 8f3d 6eba a23d e4ac 05bd 3804 3c3c
000001d0: 8747 373c 2680 bd3b 5aa9 78bc 36b6 b63c
000001e0: 37b3 0dbd fe1f db3c 68e8 10bc b0de 8bbc
000001f0: e5d6 9abc de56 b23b 5965 ac3c a413 a5bc
00000200: 5c28 c7bc 9106 c33c 887c fd3c 58a8 633d
00000210: c8fa 66bd ded5 e83c 3e15 d339 0bb3 f43c
00000220: 4bab 803c 11c6 703b 8b32 98bc f354 0dbd
00000230: bcbb e037 e0cf 213a 53b6 e6bc 7410 243d
00000240: e0b0 a83c 5c41 17bd 289f 2f3c 02bd 133c
00000250: 5439 b4bb 747a 4a3c 4882 35b9 df19 0a3d
00000260: 57ae bd3d fc65 0d3d dba5 42bd 9dc8 aa3c
00000270: 66be e33c cf23 693c 1a19 143d 0a7f 81bb
00000280: 3028 c9bb 0a3a a73d 9485 473d f9d3 77bc
00000290: 685d 0c3d 23ef 5d3d 2b20 893c 48ac d53c
000002a0: eb4b 31bd 117e 343d a3a1 7bbd 96de 0f3d
000002b0: da88 33bb e4d3 1cbd 188e 79bd 794a 80bd
000002c0: cecd 8a3d 4195 92bc 5c65 58bd 6d75 1e3d
000002d0: 21ae a4bb d496 453d f2d1 7ebc 8dc4 8e3c
000002e0: 46e2 d33c e161 62bc 29b5 e33c 0e24 bf3b
000002f0: 3c36 433d e271 f53c 85f6 8abb ecc3 ccbc
00000300: 62a9 bdbc 288e 5d3a eae8 28bc d1ca e3bb
00000310: 15f9 b2bc 2b14 243d d120 bfbc 7c34 67bc
00000320: 1e61 c83b 69d5 5ebd e158 323d aa69 b3bc
00000330: e9db 07bb 4a29 7c3c fac5 e7bc db53 e8bc
00000340: bedb c33b 2fe9 76bd b081 39bb 261d 013d
00000350: 093a 343c 6c89 353d cd5b 4b3d 4fdd 523c
00000360: 6877 37ba fcf8 92bc 4bb0 83bb d644 5dbd
00000370: f1a9 2b3b eeba e8bb 9224 86bc 0478 6ebd
00000380: 3665 8d3c 92cc debc 86f3 9d3a c2ad 1dbd
00000390: 0ac8 803d 59dc 7d3d 4468 efbc 51a0 c8bc
000003a0: 2205 903c 82d7 94bb b1dd 3d3b a49e 123d
000003b0: 9445 603d 164b 6bbc b04d 093c ef4f 20bc
000003c0: 8e2e 303d b491 323c f8aa 003d 5a6c 57bd
000003d0: ad3e de3c a4e9 aa3c 639d cb3d d5c5 b13b
000003e0: ddd4 bfbc 00e8 0ebd 30f9 6d3d 3a32 4c3d
000003f0: a266 bb3d bc6b 96bd 5937 1b3d 1aca efbc
0.03289792 0.01124492 0.061263412 0.048839014 0.048161544 0.03661074 -0.041184388 -0.06400682
-0.06469912 -0.054716546 -0.008049898 0.039788947 -0.024070019 -0.014140017 -0.04336184 -0.011180041
0.019677248 0.0030083626 0.03857768 -0.0075974576 0.029357439 -0.0653047 0.041682687 0.0077541424
-0.017936377 -0.006813856 -0.03222821 0.045160837 0.0669901 -0.051003497 0.056852 0.05556055
-0.018939251 0.017120402 0.033295386 -0.047918044 -0.03052822 0.046704385 -0.0117695015 0.060513955
0.012689962 0.054392207 0.012030857 0.06596853 -0.056987677 -0.00014420276 0.059222046 0.07546219
-0.059765764 0.02788487 0.0580407 0.018442504 0.04880138 -0.06539543 -0.056341913 -0.041226648
0.018377824 0.029731594 0.019604545 0.057112966 0.028060801 -0.038495287 -0.0010897177 -0.042061646
0.018679347 0.03879935 -0.060998928 0.03353894 -0.01202938 -0.03248142 0.05807065 0.02580595
-0.010377335 0.0032882516 0.018742329 -0.035420742 -0.04402917 -0.039771814 0.074257396 0.066901915
0.023430077 0.02922673 -0.0044105044 -0.011112004 0.03974538 -0.045704734 0.05221539 -0.03414271
-0.051803857 0.04524327 -0.02347283 0.015661068 0.020712145 -0.0071971985 -0.041563094 0.001822144
-0.029870989 -0.02337441 0.046336964 -0.051125504 -0.058251724 0.01355529 -0.024436874 -0.014680687
-0.011092412 0.006825326 0.016966451 0.0035487805 0.029562835 0.004947293 0.047888402 0.028682584
0.07001219 0.07945715 -0.032635584 0.011475615 0.011186487 0.0057830987 -0.015177095 0.022303682
-0.03459474 0.026748654 -0.0088444725 -0.01707396 -0.018901298 0.0054424843 0.02104442 -0.020150967
-0.024311237 0.023806842 0.03094317 0.055580467 -0.056391507 0.028422292 0.00040260883 0.02987053
0.015706679 0.003673915 -0.018578788 -0.034504842 2.6790301e-05 0.00061726384 -0.02816311 0.040054753
0.020592153 -0.036927566 0.010719098 0.009017231 -0.005499998 0.012358297 -0.00017310039 0.03371608
0.09261768 0.034521088 -0.047521453 0.020847613 0.02780075 0.014229729 0.03615675 -0.003951912
-0.006138824 0.08165367 0.048711374 -0.015126222 0.034268767 0.054183137 0.016738972 0.026083127
-0.04328529 0.04406554 -0.061433446 0.035124384 -0.0027394802 -0.038288012 -0.060926527 -0.062642045
0.067775354 -0.017893435 -0.05283104 0.038686205 -0.0050256406 0.048239544 -0.015552985 0.017427707
0.025864732 -0.013817281 0.027796345 0.0058331555 0.047659144 0.02996153 -0.004240813 -0.024995767
-0.023152057 0.0008451664 -0.010309437 -0.006951668 -0.021847287 0.040058296 -0.023331078 -0.014111634
0.006115093 -0.054402743 0.043541793 -0.02190097 -0.0020730442 0.015390703 -0.028292645 -0.028360298
0.005977123 -0.060280975 -0.002830606 0.03152194 0.011000165 0.04432051 0.049648095 0.012870147
-0.0006998689 -0.01794099 -0.0040188185 -0.054020725 0.0026193822 -0.007102362 -0.01637486 -0.058219925
0.017260175 -0.027197156 0.0012050725 -0.038495786 0.062881544 0.061977718 -0.029224522 -0.024490507
0.017580573 -0.004542292 0.002897125 0.035795823 0.054753855 -0.014361164 0.008380339 -0.009784683
0.043013148 0.010898996 0.03141305 -0.052593566 0.027129496 0.020863362 0.099421285 0.0054251947
-0.02341693 -0.03488922 0.05809897 0.049852587 0.09150435 -0.073447675 0.03789458 -0.029271174
