bipedal_walker/bipedal_actor.pt (torch_old, 84591 bytes, 10 tensors)

fc1.weight f4 [128, 24]
00000000: f84d 343e 690a ea3e 04fd 3a3e 6ab9 4fbe
00000010: 77f3 e7bd c0a0 bc3e 3af8 91be 0146 a23d
00000020: ff23 84be e249 323d 495e a4bd bf05 e33d
00000030: 6c7a 9b3d c358 0cbe 739a 383d dbfb 993d
00000040: 4b67 5ebd c28f 82bd 9f43 623d 2636 5bbd
00000050: 44c9 f03c 9d0c dbbc 72b7 eb3d dcc8 78bf
00000060: de2a 603c dd52 2a3e 29f4 953d fbe3 773f
00000070: 1ac8 6dbd d614 a5bd 7c4a 13be 0081 3e3e
00000080: 013a 7cbe 32d9 813d 62a2 093c 959b a73e
00000090: fbfb ae3d ca02 33be 3b19 9b3d e3d9 d33d
000000a0: 8541 9f3d 9f73 993d 4031 f83d dce2 e33d
000000b0: 630e 3a3e a08e 443e ea74 0f3e beaf 463f
000000c0: d1f9 79be 2d2a aa3d 4a32 c6be 3f37 73be
000000d0: e5b9 033d d9da bfbd 2301 e83d 7d1d 1fbe
000000e0: f74f bdbd 5159 1a3e 6a2e 0c3e fa7b 703d
000000f0: 17b3 743e 370e 5dbe 4462 903d 9a47 09bd
00000100: b298 903d 0f7c 87bc 8cfe b0bc 8dba 41bd
00000110: 5928 303c ec42 c23d ab93 ae3d 7e85 b9bf
00000120: fd3d 6f3e 2710 a7bd 8ef8 c53e bca6 e73d
00000130: bf3c 7dbd ab19 883d 79ac 393d 698a a23c
00000140: 1cb4 83be 53b1 623d cf67 5e3d 54d1 983d
00000150: aacf 2e3e b8a4 d9be 1457 e0bc 77bf ad3c
00000160: 3bfa 9cbd d30f c7bd 59d7 e8bb 8793 7b3d
00000170: 8fb3 f73b 90a6 48bc 9999 ba3e eb71 773d
00000180: dcbb 12be a367 6bbe c9d3 6fbf 2716 cbbe
00000190: 630a 5d3d b8d1 b13d 4a54 89bd 5c69 9a3e
000001a0: 1838 453e d783 d43d 4410 e93d 4665 3bbd
000001b0: 21e2 85bd de35 b33d fc6a a33d c810 543c
000001c0: c8a1 da3d 1b3d 313e a0a3 b23d 9d59 293e
000001d0: ae3d 0d3e d549 d53d e56d c43d 5219 8abf
000001e0: 645c 023e c888 61be 41eb 363f 6661 343f
000001f0: 06ac 58bc b230 46bd 9303 db3a 641f 803c
00000200: b24f 10be 02ca 843e 40f8 973d b6eb b13b
00000210: 2cb9 da3c 3296 bbbc a711 393c c38e 2c3e
00000220: e5bb 803d 8231 463d de51 303e a3dc 023e
00000230: 4a1f ad3d ed55 143e 0726 b43e 12ac f53f
00000240: 0c1b 293e 7d75 4bbe 62c4 993e 1695 8b3e
00000250: dd31 81be 0402 57bd d2c6 1b3e 5eb6 7b3e
00000260: 545f d6bd b307 f6bc fc4b ff3d 8819 34be
00000270: 5e00 213e a78f 97bc 8730 313e 9a42 153e
00000280: a490 2e3e ee0d 2c3e 0ade 863d e860 173e
00000290: 7c77 493d 52c9 b23d 529f 3b3e 4942 653f
000002a0: 2e71 29be 714e 4c3d 140f 77be 8f00 dcbe
000002b0: 4d00 e7bd 8f5d 02be a86a c33c 707b 3abe
000002c0: c1c2 67bd dd51 323d a7a8 2a3e c60c 653d
000002d0: 05a2 0cbd 4f47 b6bb 378d a9be fe6a a6be
000002e0: c450 95be 56ba 98be 0d04 8cbe 7c90 87be
000002f0: ae9f 96be cda0 d1be 98ab d2be 265d 02bf
00000300: 5a9c b03d 1355 d5bd 59f1 c23e 7405 0c3f
00000310: 12df 0fbd f4ee 14be 6096 ddbd 8e36 503d
00000320: ca7e 3a3d 7c75 643e e795 f33d 78a3 d93c
00000330: 2557 b73e 5458 62bd a35d 583e 337f 843e
00000340: 2af0 723e 0c5f a13e a466 3a3e 6a20 843e
00000350: 78db 293e 7bef 843e 2877 8f3e df0e 353f
00000360: 0edd 85be 2bb8 67bf edc0 00be f5b6 08bf
00000370: 0e6f dfbd 210a 43bd 4609 1d3e 873e e43d
00000380: 399c b1bd 0ab8 a4bc 805d 583e 3936 64bc
00000390: f975 143e 4e0c e1be 3bc6 32bd ebf6 0fbd
000003a0: 4c52 183d 5b43 e73c c726 32bc 963f 81bd
000003b0: d675 843c 92c6 9cbd ecdf 9eba d562 e7bc
000003c0: bc7d 193e 30c3 07bd a85a 0e3f 1fc0 093f
000003d0: b198 30be 5938 db3d abca 9bbe 0bb0 e23d
000003e0: 7ca9 2f3d 5855 4ebb 691e b2bd 351e 183e
000003f0: 1407 15be d98d 0fbe 3af4 fa3c b08f 203d
0.17607868 0.45711067 0.1826058 -0.20285574 -0.11325734 0.36841393 -0.28509694 0.079235084
-0.25808713 0.04352749 -0.08025796 0.1108508 0.075917095 -0.13705735 0.04506917 0.07518741
-0.054297727 -0.06375076 0.05524027 -0.053518437 0.029392846 -0.026739413 0.11509599 -0.9718149
0.013682095 0.16633172 0.073219605 0.96832246 -0.05805216 -0.08060615 -0.14383882 0.18603897
-0.24631502 0.06340255 0.0084005315 0.32735887 0.08544155 -0.17481533 0.07573172 0.10344293
0.07776169 0.07492756 0.12118769 0.11127254 0.1816955 0.19195032 0.14009443 0.7761191
-0.24411704 0.08308826 -0.38710243 -0.23751543 0.032159705 -0.09367914 0.11328342 -0.15538593
-0.09243768 0.15073134 0.1368958 0.058711983 0.23896442 -0.21587454 0.07049993 -0.03351555
0.07060374 -0.016538648 -0.021605752 -0.04729705 0.010751807 0.094854206 0.08524259 -1.4493864
0.2336349 -0.08157378 0.38666195 0.11311099 -0.06182551 0.06645521 0.0453305 0.01984139
-0.2572335 0.05534489 0.05429822 0.07461801 0.17071405 -0.42508483 -0.027385272 0.021209462
-0.07664915 -0.09719815 -0.0071057496 0.06141999 0.007559247 -0.012246743 0.3644531 0.060411375
-0.14329475 -0.22988753 -0.93682534 -0.39665338 0.053964984 0.08682579 -0.0670553 0.30158508
0.1925968 0.10376709 0.113800555 -0.04575088 -0.06537271 0.08750509 0.0797939 0.012943454
0.106753886 0.17308466 0.08722615 0.16538091 0.1379306 0.10414473 0.09591273 -1.0788977
0.12730557 -0.22024834 0.7145272 0.7046112 -0.013224607 -0.048386283 0.0016709439 0.015639968
-0.14092901 0.2593537 0.07420397 0.0054297103 0.026699625 -0.022898767 0.011295713 0.16851334
0.06285838 0.048387058 0.1721873 0.12779479 0.084532335 0.14485903 0.35185263 1.9193137
0.16514224 -0.19869037 0.3003264 0.2726218 -0.25233355 -0.052492157 0.15212563 0.24581286
-0.10467401 -0.030032968 0.12465665 -0.17587864 0.15722796 -0.018501116 0.17303668 0.14576188
0.17047364 0.16802189 0.06585319 0.1478306 0.049186215 0.08729805 0.18322495 0.8955427
-0.16547081 0.049879495 -0.24126846 -0.42969176 -0.11279354 -0.12731002 0.023854569 -0.1821115
-0.056582216 0.043535102 0.16665898 0.055920385 -0.0343342 -0.0055627 -0.3311555 -0.32503504
-0.29163182 -0.29829663 -0.2734684 -0.2647742 -0.294187 -0.40942994 -0.4114654 -0.50923383
0.08623572 -0.10416617 0.3807476 0.5469582 -0.035124846 -0.14544278 -0.108196974 0.050833277
0.04553107 0.22310442 0.11893826 0.026567206 0.35808674 -0.055260018 0.2112947 0.25878295
0.23724428 0.31517828 0.18203217 0.2580598 0.16587627 0.2596396 0.28020597 0.70725816
-0.26145214 -0.90515393 -0.12573595 -0.5340417 -0.10909854 -0.04761708 0.15335569 0.11144739
-0.08672375 -0.020107288 0.21129417 -0.013928943 0.14498128 -0.439547 -0.04364608 -0.03514759
0.03718786 0.02823036 -0.010873503 -0.06310956 0.01616947 -0.07655062 -0.0012121177 -0.028245369
0.1498937 -0.03314513 0.5560708 0.5380878 -0.17245747 0.10704107 -0.3042806 0.11068734
0.042886242 -0.0031483974 -0.086972065 0.14855273 -0.14553481 -0.14018954 0.030634034 0.03919953

fc1.bias f4 [128]
00000000: 64c9 0b3e 59b6 42be 23fd 0dbe 64de 673d
00000010: 9da3 9a3b a3b2 f03d 8f9b b43d 3f54 3c3c
00000020: 8d1c 003d 7e08 183e 5ee7 44be ed37 90bd
00000030: 26f7 073e 8f70 23be 9c7a ca3d 4f6f 073e
00000040: f372 863d fcda 08be ae19 eabd 4e13 423d
00000050: 8cfb c0bd 4d26 a03d 3f47 723d f985 103d
00000060: 7ecb 3d3e ba25 49be 0cdc 47be ae3d 0d3e
00000070: 39d1 8cbd 597b 49be 80ca 8dbd 9bf5 1e3e
00000080: a85a f3bc 5f98 c83d 0120 f23d 93cf 7ebd
00000090: 1dd9 d73d f664 7e3d 1c8c 06be 96ad 2cbd
000000a0: 9775 f93d 64b0 a53d cb13 ee3c 0931 c8bc
000000b0: 2969 14be 343a 96bd 3456 093e 71c8 35bc
000000c0: 6874 ffbd 0bc3 dc3c fb0b 2bbe 24c4 d7bc
000000d0: 236c 16bc 41a3 45be e005 0bbe b612 0dbe
000000e0: 46f4 14be e348 2a3e 63d5 a23d b83f 13be
000000f0: a91b b6bd 6dc0 173e f2c9 343e 06b2 1a3c
00000100: 8465 223b 4ad3 1dbe ae89 f73d a4df 6fbd
00000110: 254c 973c 2ca2 2abd 6bc0 903d f89b 4f3d
00000120: f748 37bd 12d0 07bd f156 743a dc54 27be
00000130: 1446 6dbc 485f 1dbe 314a 213e 9348 e33d
00000140: 3cb2 e8bc 7c6c 0b3e f08c 903c 9bbc 413e
00000150: 1fc0 253d ae70 c23d 5c43 0a3d da56 eebd
00000160: ac80 44be f68f a1bd 62d2 233e 9dda d33d
00000170: 17eb 87bd 0bcb 01be 8ba0 493e 5d32 a73c
00000180: fb03 33be d7c8 97bd 51ea 333c 60ad 9fbc
00000190: 7f06 a2bd 4207 773d 137d 0ebe 5c50 b13d
000001a0: 4fff 0cbe 6fbf 253e 3666 2b3e 664e 4f3e
000001b0: e02c 4ebe f185 9abd b330 25bd 2d89 41be
000001c0: 4ef8 ba3d 4cbf a8bd c1d3 85bb be9b c83d
000001d0: e5b2 23be 476d f33c d675 b3bd c4c1 113e
000001e0: dbd7 373e 6c11 48bd f76f 05be a2a9 f33d
000001f0: 3de5 10be 0047 453e b164 273e 755e b43d
0.13651043 -0.19014873 -0.13866095 0.056608573 0.0047192113 0.11752822 0.08818733 0.011494695
0.03127723 0.1484699 -0.19228885 -0.07041917 0.13277873 -0.15960906 0.09886667 0.13226055
0.065648936 -0.13364786 -0.11430679 0.04738169 -0.09422979 0.07819805 0.059149977 0.035284016
0.18534657 -0.19643298 -0.19517535 0.1379306 -0.068758436 -0.1967596 -0.069233894 0.15523379
-0.029706314 0.097946875 0.118225105 -0.062209677 0.10539458 0.062108003 -0.13139385 -0.042157732
0.121806316 0.080902845 0.029062172 -0.024437444 -0.1449324 -0.0733532 0.1341179 -0.011095152
-0.124733746 0.026948472 -0.16703789 -0.026338644 -0.009181055 -0.19300558 -0.1357646 -0.13776669
-0.14546308 0.16629367 0.079508565 -0.14379776 -0.088919945 0.14819498 0.17655161 0.009441858
0.0024779746 -0.15412632 0.12086807 -0.05856289 0.018468926 -0.041658565 0.07067951 0.050685853
-0.04474732 -0.033157416 0.00093208166 -0.16340965 -0.01448204 -0.15368378 0.15750958 0.11097827
-0.028405301 0.13615602 0.01764533 0.18919604 0.040466424 0.09494148 0.033755645 -0.11637659
-0.1918971 -0.078887865 0.15998223 0.103444315 -0.06636637 -0.12675111 0.19690149 0.020409757
-0.17481987 -0.07411354 0.010981158 -0.019491851 -0.07911395 0.060309656 -0.139149 0.086579055
-0.13769267 0.16186307 0.16738209 0.2024475 -0.20134306 -0.075450785 -0.040329646 -0.18899985
0.091293916 -0.08239612 -0.004084081 0.097953305 -0.15986212 0.029715193 -0.0876271 0.14234072
0.17953436 -0.04884474 -0.13030992 0.11897589 -0.14149947 0.19265366 0.16347004 0.08807079

bn1.weight f4 [128]
00000000: d25a 853f 80e2 743f 0046 9f3f a5dd 8f3f
00000010: 849e 853f 1802 ba3f d302 7e3f a701 653f
00000020: 409a 983f 2120 8d3f ac87 8d3f 1c8c 813f
00000030: e0ed 573f d3f5 633f fa06 5b3f 1aba 633f
00000040: 1a3b 843f b94a 843f 32e2 9d3f 6743 973f
00000050: e547 9f3f f246 883f 5d75 8d3f e5ce 7d3f
00000060: 24b6 823f 3d58 863f e18d 863f 23a5 823f
00000070: 2478 783f 445a 883f cf13 7a3f be06 893f
00000080: 8f1b 983f 8015 853f 4158 8b3f 0a11 7d3f
00000090: 323f 943f 6084 883f cbe8 a13f 1af1 bb3f
000000a0: df76 803f a7af ac3f 03f6 943f 199c 673f
000000b0: b617 b03f 667b ad3f e560 943f e225 a03f
000000c0: 70fd af3f 1348 803f 5f88 8c3f 1079 8e3f
000000d0: 2f22 553f eb57 773f 2fec 873f aee4 9d3f
000000e0: da78 8f3f 9a06 823f 9e33 923f 2f4e 8a3f
000000f0: e77d ae3f fb1b 7a3f 1b30 813f 4122 993f
00000100: f269 6f3f 82a5 7d3f 273d 963f cc33 813f
00000110: e4ae 9a3f 6ebe 7a3f eb92 8b3f e43c b33f
00000120: b51e 843f f0fc 8e3f 3396 893f 215a 933f
00000130: 6f43 813f 243c 9f3f 7b23 9f3f f62c 9d3f
00000140: 562b 853f 693a 853f d295 463f 8f69 b33f
00000150: 1002 473f 4ed9 963f 9bb5 ce3f cc57 563f
00000160: a854 923f 1fd4 8b3f 9804 9f3f 6ed2 8d3f
00000170: d515 933f f31a a03f 3428 d53f aa96 bb3f
00000180: cfe7 a23f 0cee 983f a250 8e3f d75b a23f
00000190: cae9 643f 3059 a13f 89ad 8c3f e76d 9b3f
000001a0: 5fcf a03f ac74 b03f 5942 833f a6ca 773f
000001b0: ebc7 a13f fabd 6a3f 3289 8f3f d529 7d3f
000001c0: 957d 813f 7922 8f3f 0622 a53f 5e44 cd3f
000001d0: 05d0 a63f b5a5 c03f 3f67 913f ea6d 673f
000001e0: 67ea 8c3f c14a aa3f e6bc 8b3f dbf6 673f
000001f0: f9cf 583f accd a13f 12f8 993f 3e96 9d3f
1.0418341 0.9565811 1.2443237 1.1239516 1.0439 1.4531889 0.9922306 0.89455646
1.1922073 1.102543 1.1057029 1.0120883 0.84347343 0.89046973 0.8555752 0.88955843
1.0330536 1.0335304 1.2334654 1.1817445 1.2443815 1.0646651 1.1051441 0.9914382
1.0211835 1.0495678 1.0512048 1.0206646 0.9705832 1.0652547 0.97686476 1.0705183
1.188341 1.0397186 1.0886308 0.98854125 1.1581786 1.0665398 1.2649168 1.4682953
1.0036277 1.3491105 1.1637577 0.9047256 1.3757236 1.3553283 1.159207 1.2511561
1.3749218 1.0021995 1.0979117 1.1130695 0.83255285 0.9661853 1.0618953 1.2335413
1.1208756 1.0158265 1.1422002 1.080511 1.3632172 0.97698945 1.0092806 1.1963578
0.93521035 0.9908067 1.1737412 1.0093932 1.2084622 0.9794682 1.0904211 1.4002957
1.0321871 1.117094 1.0748962 1.151188 1.0098704 1.2440228 1.2432703 1.2279346
1.040385 1.040845 0.7757236 1.4016589 0.7773752 1.1785066 1.6149172 0.8372772
1.1432085 1.0924109 1.2423277 1.1079843 1.1491038 1.2508224 1.6652894 1.4655354
1.2726992 1.1947646 1.1118357 1.2684277 0.89419234 1.2605343 1.0990459 1.2142915
1.2563285 1.3785605 1.0254623 0.9679359 1.2639135 0.9169613 1.1213744 0.98891956
1.011645 1.1182395 1.2901008 1.6036489 1.3032233 1.505057 1.1359633 0.9040209
1.1009034 1.3304063 1.0917022 0.90611047 0.8469234 1.2640891 1.202883 1.2311475

bn1.bias f4 [128]
00000000: ee73 fcbd 9b20 5bbe 6e70 05be 9f07 b23d
00000010: e30e f13c c04d a63c f5e6 5f3d fe92 bcbe
00000020: a5d7 b2be af5e dabd a97c febc 7474 a6be
00000030: fb36 58bd 1b8b 70bd 61be 09bf 687f 9dbe
00000040: 33de 42be 0186 96be 98e2 e53d 3986 83be
00000050: e1aa 01be 58ad 61be 94e8 9ebe ef26 70be
00000060: e8fe abbe 3a6f d4bd 1804 133d 7dc4 88be
00000070: fe0d 0cbc 1531 bcbe a403 12bf 8bca c8bd
00000080: d05b 3cbe f1e7 a4be c353 99bc 8543 bbbe
00000090: 768c 123e 1c0f 96bd 09aa 22be ebcc d43a
000000a0: 84a6 46be 5630 503d 7c17 48be eb16 1fbe
000000b0: a7a2 1dbe 216b 0b3e adb0 88be 29e2 583d
000000c0: 1148 ed3d 7e1b 403d 0922 89be ac4e 81be
000000d0: 8a1b b3be 1e0e 86be ca7b c8bd 62e8 113e
000000e0: 9068 6abe c0ae 0dbe 2f02 c1bd 5c95 30be
000000f0: aece db3d 1911 c53c 8bfe 67be 6c20 6dbe
00000100: 7181 4dbe f8db 20bd 8566 24be 2b0d 80be
00000110: f129 06be 4f63 79be f301 c7be 3079 8e3e
00000120: b0db 43be 03f5 63be 9da9 d33d 296e f3bd
00000130: 22f3 6dbe e22e bebd b462 a1be 44f7 a4be
00000140: 91fb ddbe 0cf4 7ebe 0857 2bbe fb86 d73d
00000150: 1db5 32be 7864 7dbe 5e50 403e 9961 93be
00000160: 2de2 14bd 768f 38bd 2c33 d5be 0b10 a8bc
00000170: 4465 9dbe 97be 7e3d 9d18 6b3e 5862 663e
00000180: c05e c13a 2d5a 31be bcbe 6bbe 1c00 723e
00000190: 867f c9be 3153 cbbe 5d8d 66be 74d8 523e
000001a0: 4823 8fbd bec7 2d3e 94fd 28bc ba37 83be
000001b0: 25da c53d 93d9 c9bd dc62 32bd 1dc0 473d
000001c0: 33e8 58be e313 12bd 8527 503c 3acc 373c
000001d0: 1ceb 84be 9077 483b cb63 c6bc b49c cbbe
000001e0: 2524 c6be 0705 463d d593 37be 6d31 8ebe
000001f0: 43e5 efbe 7a15 1dbe 497e e03d 7f62 8cbd
-0.12326799 -0.21399157 -0.1303117 0.0869286 0.029426044 0.020300746 0.054663617 -0.36830896
-0.3493015 -0.10662591 -0.031065302 -0.32510722 -0.05278681 -0.05872641 -0.5380612 -0.30761266
-0.19030075 -0.29399112 0.1122486 -0.2568834 -0.12662841 -0.22038782 -0.31036818 -0.23452352
-0.33592916 -0.10372777 0.035892576 -0.2671241 -0.008548258 -0.36756197 -0.57036805 -0.09804257
-0.18394399 -0.32208207 -0.018716699 -0.3657495 0.14311394 -0.07327101 -0.15885176 0.0016235387
-0.19399458 0.050827347 -0.19540209 -0.15536086 -0.15394078 0.13615085 -0.26697293 0.052950058
0.11586011 0.04690122 -0.2678378 -0.25255334 -0.34981948 -0.26182646 -0.09789236 0.14248803
-0.2289145 -0.13836193 -0.094242446 -0.17244476 0.107327804 0.024056004 -0.22655694 -0.23156899
-0.20068909 -0.03927228 -0.16054733 -0.25010046 -0.13101937 -0.2435429 -0.38868675 0.27826834
-0.19126773 -0.22261433 0.103350855 -0.11886246 -0.23237279 -0.09286286 -0.31520617 -0.322199
-0.43355992 -0.24897784 -0.16732419 0.10523792 -0.17451902 -0.24745357 0.18780658 -0.287854
-0.03634851 -0.04505869 -0.41640604 -0.020515462 -0.30741322 0.06219348 0.22958608 0.22498453
0.0014752969 -0.17319556 -0.23021978 0.23632854 -0.39355105 -0.39711908 -0.22514863 0.20590383
-0.06989151 0.16970727 -0.010314364 -0.25628453 0.096607484 -0.09855952 -0.04355131 0.048767198
-0.21182327 -0.035663497 0.012704735 0.011218125 -0.25960624 0.0030588843 -0.024217507 -0.39767992
-0.3869945 0.04834464 -0.17927487 -0.27772084 -0.468546 -0.15340224 0.10961587 -0.06854724

bn1.running_mean f4 [128]
00000000: 9b2f 86bf c63e 433f a389 c4bf dcd0 cc3d
00000010: 3eef 05bf 7d04 2640 bf4e c63f df63 02c0
00000020: b92a db3f f64a 49bc 2f68 9b3f 91d4 b83f
00000030: 6a5b 6e3f 15d0 1f3f 9ead c1bf 97e4 eabf
00000040: 1dfc 2e3e 0790 ea3e d679 c0bd e7c8 dcbf
00000050: d224 94be 7617 b1bf e0f7 6fbf 9f79 b3bf
00000060: b647 2cbf 9d79 0e3f 04be c53f 1738 31bf
00000070: 6c9f d63f 955f c9bf 1a4f 74bf 3e3d 903e
00000080: 9b49 b43f d562 87bf c627 f13e f243 a3bf
00000090: 3a98 5dbf 9002 153f e975 1bbe 6146 493e
000000a0: 7a95 84be adb4 f33f a377 073e e45c 22bf
000000b0: 87be 743e 48d4 b03e b1f1 4bbf a22f 913f
000000c0: 8bb6 4f3f a7ac a43f 1553 abbf de6a 14bf
000000d0: 4302 cbbd 78c4 46bf eb4f fabe 0b1b 343e
000000e0: 05c9 a4bf 36e2 fcbe 91e7 653e b660 45bf
000000f0: 21eb b53f a953 523f 3409 4dbd 66f6 a8bf
00000100: 8c17 273f cf0a d13f 8039 efbf 68f2 a23d
00000110: 9a74 b63e ba2e 263f 53c9 bfbf 482c 933f
00000120: 9e7c 93be d47f 9abc 3634 9a3f 0209 a9be
00000130: 42c6 a4bf c43a 6ebd 04d7 31bf 684b 9bbf
00000140: fa21 12bf 7c44 aabf aec3 cd3f 2c73 f73f
00000150: f974 393f 0d86 2a3e f43a 293f f7bc 4d3f
00000160: f8de 953e 2024 ec3f fc6e d8bf 78c3 5b3f
00000170: b6d6 27be f8a5 86be 691e 833f f388 b73f
00000180: f157 143f fd93 be3c 2b6b 88be 8720 a63f
00000190: 99bf f1bf 1cc5 abbd 8651 c23d a6eb 943e
000001a0: 74f4 d13e 81a0 2640 de5d 0b40 d8d6 803f
000001b0: a37b 923f 6e81 103f 8ca9 19bf 8214 e83f
000001c0: 7b77 db3f f747 e23e df45 0740 b389 0240
000001d0: c342 6e3c fcf6 e2be 8a45 e9bf 689b 1abf
000001e0: 5d5c 8fbf 5505 0c3f 0a3c fabf 9af9 3abb
000001f0: 94ab e8bf b0c3 fa3e 9f40 483e ccbb 233e
-1.0483278 0.7626766 -1.5354503 0.10000774 -0.5231818 2.594024 1.5492781 -2.0373456
1.7122413 -0.0122859385 1.2141169 1.443987 0.93108237 0.62426883 -1.5131109 -1.835101
0.17088361 0.4581301 -0.09398238 -1.724881 -0.28934342 -1.3835285 -0.937376 -1.4021491
-0.6729692 0.5565432 1.5448613 -0.6922621 1.6767402 -1.5732294 -0.954332 0.28171724
1.4084963 -1.0577036 0.47100657 -1.275511 -0.86560404 0.58207035 -0.15181698 0.19655754
-0.25895292 1.9039513 0.13229232 -0.6342299 0.23900805 0.34536958 -0.79665667 1.1342661
0.81137913 1.2865189 -1.338473 -0.57975566 -0.09912541 -0.7764354 -0.48889098 0.17588441
-1.2873846 -0.49391335 0.22451617 -0.77100694 1.4212381 0.82158905 -0.050057605 -1.3200195
0.65270305 1.6331424 -1.8689423 0.079563916 0.35635835 0.6491505 -1.4983314 1.1497889
-0.28806013 -0.018859781 1.2047184 -0.33014685 -1.2873003 -0.058161512 -0.6946871 -1.2132387
-0.57083094 -1.330215 1.6075342 1.9332023 0.7244411 0.16652699 0.6610558 0.8036646
0.29271674 1.8448524 -1.690887 0.85845137 -0.163905 -0.262985 1.0243655 1.4338669
0.5794669 0.023263926 -0.26644263 1.2978677 -1.8886596 -0.08387205 0.094882056 0.29086035
0.41006815 2.6035464 2.1776042 1.0065565 1.1443981 0.56447494 -0.60024333 1.8131258
1.7145838 0.4419553 2.1136396 2.0396545 0.014542284 -0.4432906 -1.8224347 -0.6039338
-1.1200062 0.54695636 -1.9549572 -0.0028530122 -1.8177361 0.48977423 0.19555901 0.15989608

bn1.running_var f4 [128]
00000000: 22cd db3d 117a a23d b923 073e 814c c83d
00000010: 7012 b43d 6c7b ba3d bf18 5b3e 4aea 4f3e
00000020: c327 e23d 4dac 563e 8e38 db3d 566f 0b3e
00000030: 462d 0d3e 346c 203e c80d 503e 624d 883e
00000040: d114 e83d 6d82 ae3d 3940 9c3d 4f58 873d
00000050: 770f f63d 50f3 da3d 661b d33d d17c 5f3e
00000060: d81b 4f3d a1fc 293e a514 3f3e 1059 0d3e
00000070: 5465 2a3e 3163 783e 1ec7 fa3d 4dd3 c63d
00000080: f49f 1b3e 0083 513e 89b5 e73d e9f9 073e
00000090: 9aeb 3a3e 2c44 0b3e 4bb1 323e e707 3c3d
000000a0: 3999 d93d 8a5c 033e db69 033e 8b52 e03d
000000b0: 00d2 873d 1ff9 963d c3c0 423e 0182 6c3e
000000c0: ef29 b03d a910 0a3e d610 243e 5cba e03d
000000d0: 1ae9 393e 72c1 303e 42b5 cb3d 6b66 883d
000000e0: 64cb 1b3e 017a 013e 4231 413e 4f37 8e3d
000000f0: e6af b33d cfad 503e 753d 113e cb4b 013e
00000100: 46bd 043e 150d 373e b14c bd3d 66ba 303e
00000110: eb95 263e 1751 c93d 29ff 463e 880c 0e3e
00000120: de2e 2a3e 6674 1a3e 74ff 0b3e 0ff6 3f3e
00000130: c258 2e3e ac44 f83d ceb0 023e 5179 823e
00000140: 66c0 e63d 2b06 463e 6a0e a03e 6c91 e83d
00000150: fd56 dc3d e6c8 d23d 089e 1f3e 1d75 cb3d
00000160: 740b 473e 9cfd 4a3e e2fd 623d 9a2d 363e
00000170: 00ad 3d3e ae36 ad3d 4d98 af3d f6ba 253e
00000180: 0f72 f23d bb88 033e f156 073e dcb8 d23d
00000190: 8b5a 343e aef1 8e3d f0b8 063e 4809 e73d
000001a0: 2c6c 553e 1a27 193e 2acc 463e d704 3d3e
000001b0: 6baf 273e 1b07 563e f9b3 f93d 2506 0d3e
000001c0: 698b bf3d 5420 213e ab3d 173e ec14 a33d
000001d0: 5c00 103e 2571 bf3d bdb9 7a3e d125 123e
000001e0: dab0 363e 1ef5 eb3d bfe0 363e 9ed6 033e
000001f0: cd5f 813e ed01 1a3e f3a9 b83d f23b 913d
0.10732485 0.079334386 0.13197221 0.09780217 0.08792579 0.09105572 0.21396159 0.20304218
0.1104274 0.20964165 0.10704146 0.1361669 0.13786802 0.15666276 0.20317757 0.26621538
0.113320954 0.085209705 0.07629437 0.066086404 0.120146684 0.106909394 0.1030796 0.21824957
0.050563663 0.16600277 0.18660219 0.13803506 0.16640216 0.24256589 0.1224501 0.09708271
0.15197736 0.20460129 0.11313922 0.13278927 0.18253937 0.13600224 0.17450444 0.045905974
0.10624928 0.1282827 0.1283335 0.10953244 0.06631851 0.07371735 0.19018845 0.23096468
0.08601748 0.13482918 0.16022047 0.10973045 0.18155327 0.17261294 0.099466816 0.0666016
0.15214306 0.12644197 0.18866447 0.06944143 0.08773784 0.20378803 0.141836 0.12626569
0.12962827 0.17876084 0.09243143 0.17258605 0.16268127 0.0982992 0.19433273 0.13871968
0.16619441 0.15083465 0.13671666 0.18746208 0.17026046 0.12122473 0.12762758 0.25483182
0.11267166 0.1933829 0.31260997 0.11355862 0.10758779 0.102922246 0.15587628 0.09934447
0.19437963 0.19823307 0.055417903 0.17790833 0.18523026 0.08457695 0.08573971 0.16184601
0.11838161 0.12845127 0.1321676 0.102891654 0.17612664 0.069796905 0.13156486 0.11281067
0.20842046 0.14956322 0.1941382 0.18458878 0.1637551 0.20901148 0.1219253 0.13771875
0.09352762 0.15734988 0.14769618 0.07962975 0.14062637 0.093477525 0.24484916 0.14272238
0.17840901 0.11521362 0.17859171 0.12874839 0.25268403 0.15039797 0.0901679 0.07091512

fc2.weight f4 [128, 128]
00000000: d38a 3ebd 63aa 95bd 610f 2bbe 8b7b a5bd
00000010: beec b7bd d350 273d 3bc2 6ebd 4172 acbd
00000020: d83a e3bd 84a0 a4bd a126 00bd 655b 0a3c
00000030: f019 303d 160b 4f3c 6915 88bd 0fed 9ebd
00000040: 945d cebb f30c b43c e699 c5bd 5177 8cbb
00000050: 75f8 adbd 3d80 8a3d 7351 9cbd a999 91bc
00000060: 948e f13c d556 27bd 87c9 783d c35a 11bd
00000070: a7c9 7ebd 5e55 72bd 9080 4c3d 9b47 183d
00000080: ef8c 12bc 2641 173c bc1a ebbc 2d80 c8bc
00000090: 88d2 c53b 4995 7e3c 2bb7 9bbd 97b6 393d
000000a0: 970a cbbc 4739 143a d03d 75bc 20f0 64bd
000000b0: 3c4c 9cbd f529 b4bc 6499 42bd 6b82 dcbd
000000c0: 7da9 0ebe 0358 85bd 36bd 90bd 14d7 55bc
000000d0: 3512 acbd e0e2 99bb a658 87bd 050a 44bd
000000e0: 7eb5 923c ab6c 3abd 93b2 61bb 5bbc ad3c
000000f0: 3d4d 23bd b6ee 88bd 1359 473d 758f 68bd
00000100: 0b3b 643d ee50 90bc 139e 3c3d cf55 c6bd
00000110: 944a a5bd 72d8 493c fbb0 2b3d 4da7 f13c
00000120: 3b8a 2c3d e168 fcbd e272 90bd 1603 2bbd
00000130: bb47 ecbd 51e1 e2bd 3f69 80bd 345e 1bbd
00000140: 5e8a 8d3d 72dc 9d3a 9d91 64bd efb9 313d
00000150: 4b8f 833d 1e3b eabd fdf3 25bc b737 0b3d
00000160: 3cd9 a5ba acd0 d0ba 546d c0bd bcfd 03bd
00000170: e307 133d 686b debd 5e93 4cbb 3a93 86bd
00000180: 3449 d03d dbe3 45bd 9832 28bd 6b25 f7bc
00000190: 7eb0 10be 1967 32bd fd2d 8f3c 2c3e c53c
000001a0: 0f17 babc 31e3 2abd 2c14 30bc fbbf 50bc
000001b0: 2ac6 1cbd d558 d1bd 3846 6bbd 5a6f 6fbc
000001c0: b502 433c 0bcf 8fbc d20c e6bc c633 85bd
000001d0: eb8d 54ba ab3b 563d c29c 81bd b90a 6f3c
000001e0: 3b46 6dbc d27a 143d 3c74 183d d8f3 8cbd
000001f0: 910e b6bc 93b3 9fbd 044a b23a e081 97bd
00000200: b5c0 90bd 51a4 f2be ca96 083e 3af5 b6bb
00000210: f973 0a3e b6d4 cbbe cc1b 7bbd 313b ee3d
00000220: 8ee5 353e 9640 0d3e 6520 85be 8bb7 7abd
00000230: f4c5 a1be 9374 88be 4b22 8d3c 8f8c 8fbb
00000240: fbc9 223e 1d76 f4bd 0615 60be 3159 8b3e
00000250: fb96 d43e 4b0b bc3d c2d7 af3d a1f2 04be
00000260: 96a0 9b3e 8e6b 61be 07ca 8c3b e1b8 903e
00000270: e51e edbd 5bc0 2b3b 907d c6bd 146f 9cbe
00000280: 383c a7bc 8159 9e3d 3b61 c8be 70ec 8b3e
00000290: 755e 5c3d 7782 a7be 56bc 5c3e c010 863e
000002a0: 1893 963e d210 b9be 8f48 f83d 3508 f7bc
000002b0: 90fb a43e 92cf 513c 4914 afbc 4613 41be
000002c0: dc59 05bf 7117 46be 7bad bcbc d759 de3d
000002d0: c9f3 29be c388 913d beb5 fe3d 0f73 2ebe
000002e0: d83b cc3d fff8 373e bfca 5d3e 18f0 f53d
000002f0: 9006 41be 1c4e e5bd dbe3 253e fdf6 063c
00000300: a5a6 18be 4f77 37be ea08 76bc 801f a03e
00000310: 2df3 b83e 7770 a63e ad11 e63c 527e cdbe
00000320: e4ee 0c3e c3f1 77be f5d1 52be 313f cf3e
00000330: eb5c ce3d 8db1 863d 709c b93e 96a0 7ebe
00000340: 4cf6 c93d 8709 863b cc8b 12bc 6a7d 6dbe
00000350: a45a 3abe 61fd 513d 55cf 64bf 3966 053e
00000360: 3eb6 bfbe 6b92 e63b daa1 953e 1ed6 cbbe
00000370: a8c1 ac3e 2b63 07be 91c0 9bbe 5715 17bf
00000380: c885 a63e 609d b9bc 6fb4 183e ca8a 9abe
00000390: af9d 4dbd f464 593e 1893 0cbd ddf1 94be
000003a0: 2f00 d6bd f2b2 5dbe 2cf1 c4bd a6f1 c4bd
000003b0: 7997 0ebe 19be 3ebd 1807 843e b6a7 07be
000003c0: c468 a0bd adad 613d 1289 98be 622b e8be
000003d0: 3dc3 4e3e 3e26 b8be 449b d93d b922 3c3e
000003e0: bab3 0bbe b30a 94be 5e38 c43e f4e9 793e
000003f0: 4aec 8d3c 8670 fb3e 214b ddbe 3f50 a33e
-0.04651911 -0.07307889 -0.16705085 -0.080802046 -0.08980702 0.040848564 -0.0582907 -0.0842023
-0.11095208 -0.080384284 -0.03128684 0.008444642 0.042993486 0.01263692 -0.06644709 -0.07760059
-0.0062977765 0.02197883 -0.096484944 -0.0042866846 -0.08494655 0.06762741 -0.07632723 -0.017773466
0.029486932 -0.040854294 0.060739066 -0.035486948 -0.06220403 -0.059163444 0.049927294 0.037177663
-0.008944734 0.009231841 -0.028699271 -0.024475181 0.00603706 0.015538522 -0.07603296 0.045340147
-0.024785323 0.0005654287 -0.0149683505 -0.055893064 -0.07631728 -0.021992663 -0.047509566 -0.10767063
-0.13931842 -0.065109275 -0.07067339 -0.013051767 -0.0840191 -0.004696235 -0.06608705 -0.047861118
0.017908808 -0.04551379 -0.0034438714 0.021207979 -0.039868582 -0.066861555 0.048668932 -0.056777436
0.05572037 -0.017616715 0.04604919 -0.096843354 -0.08070865 0.012319671 0.04191683 0.02949872
0.042124014 -0.123246916 -0.07053162 -0.04175099 -0.11537119 -0.11078132 -0.06270074 -0.037931636
0.06911157 0.0012043847 -0.05580293 0.04339021 0.06423815 -0.11437057 -0.010128972 0.03398868
-0.0012653242 -0.001593133 -0.09395853 -0.0322244 0.035896193 -0.1086033 -0.0031215767 -0.0657105
0.101702124 -0.048313003 -0.041063875 -0.03016921 -0.14129826 -0.043555353 0.017477984 0.024077497
-0.022716073 -0.041720573 -0.010746997 -0.012741084 -0.03827492 -0.102220215 -0.057440013 -0.014613951
0.011902501 -0.01755478 -0.028082285 -0.065040156 -0.00081083056 0.052302998 -0.06328727 0.014589959
-0.014482076 0.036249943 0.037220225 -0.06882447 -0.022223743 -0.07797923 0.0013602381 -0.073978186
-0.07068006 -0.47390988 0.13338771 -0.0055834325 0.13520803 -0.39810723 -0.061305806 0.116323836
0.1776335 0.13794169 -0.26001278 -0.061210196 -0.3159634 -0.2665144 0.017228266 -0.0043807696
0.15897362 -0.11936591 -0.2188302 0.27216485 0.4152144 0.091818415 0.085860744 -0.1298318
0.30395955 -0.22013685 0.0042965445 0.2826605 -0.11578158 0.0026207182 -0.09691918 -0.30553496
-0.020414457 0.07731915 -0.3913668 0.27328825 0.05380102 -0.32716724 0.2155622 0.26184654
0.294091 -0.36145645 0.121232145 -0.03015528 0.32223177 0.012805836 -0.021371977 -0.18855008
-0.5209024 -0.1934488 -0.02303194 0.10856979 -0.16596903 0.07106163 0.12437008 -0.17036079
0.09972352 0.17966078 0.21659373 0.12008685 -0.1885016 -0.11196539 0.16200201 0.0082375975
-0.1490732 -0.17916606 -0.015016774 0.31274033 0.36123028 0.3250768 0.0280846 -0.40135437
0.13763005 -0.24213319 -0.20587905 0.404779 0.100763164 0.06576834 0.36252165 -0.24865946
0.098614305 0.004090491 -0.008944463 -0.23192373 -0.18198639 0.05126703 -0.89378864 0.13027276
-0.37443727 0.0070364974 0.29225045 -0.39811796 0.33741498 -0.13221423 -0.30420354 -0.59016937
0.32523942 -0.02265805 0.1491258 -0.30184013 -0.050199207 0.21229917 -0.034319967 -0.29090777
-0.10449254 -0.21650293 -0.096163124 -0.09616403 -0.1392497 -0.04656801 0.25786662 -0.1324757
-0.078324825 0.05509727 -0.29792076 -0.45345598 0.20191665 -0.35966676 0.10625318 0.1837262
-0.13642779 -0.28914413 0.38324255 0.24405652 0.017324585 0.49109286 -0.4322138 0.3189716

fc2.bias f4 [128]
00000000: ce50 ed3c 3d2c 62be fc00 00be 5a23 29be
00000010: 4843 cdbd 41db 79bd fa5c 653e d2aa 463e
00000020: efaa ef3d 4fd3 523e 1ddf 213c 1651 fa3d
00000030: 7c22 e63b 132e 1fbe 2e7c 4cbe db38 70be
00000040: ac8d 293c 591a 8ebe 15b8 e43c 0863 ed3b
00000050: 8ca9 92be b5e1 89bd f74a 403d a8e9 66bb
00000060: f1f0 9ebc a4c4 9ebe faf3 bd3c 1320 013e
00000070: ac4b a13e 4219 b3bc 7a0e 8a3d 6abf 39be
00000080: db69 52be 9d4b 36bd df99 6d3a 6529 d3bd
00000090: 6d31 8b3e 3ef7 173e eb5e 06be 99bb 913e
000000a0: 0735 74be 1009 eb3c 5342 733c e141 41be
000000b0: cae1 613d 9945 52bd 379f 60be e51d 95bd
000000c0: a849 76be c4e8 24be d041 d2bc d663 df3d
000000d0: cf31 3fbd eaf8 01be a58e 24be d1d6 2a3e
000000e0: c671 88be eef4 72be 74ec 3ebe a932 b93d
000000f0: 403a 80be 6ed9 73be 7c10 83be b716 07be
00000100: 76eb cc3e 6865 56be a6b7 48bb 5987 6a3d
00000110: 56c6 263d 0012 e13c 0166 04bd ed41 ee3d
00000120: 760f 9e3e 5f3d f8bd 9697 323d 61bc e8bd
00000130: 9b1e 323e 48cf 59be a1b1 2bbe 3cb5 4dbe
00000140: 7af4 55be b9cf 1dbe ad8d 083e a28f f8bd
00000150: c03a 07be b406 81be 7f11 6cbe 3bff 493d
00000160: 2d17 423d 7711 2cbd 7dd0 423e bd47 25be
00000170: 25b9 873d 844d d5bd 2fd1 113e 5fd6 403e
00000180: 5ccf efbc 9ad0 fb3d 7ae5 52bb 23c8 73bd
00000190: d909 9e3d ec4b 0ebe 81db 11be acd8 ecbc
000001a0: 194a e1bd 746a 86be bebf c53c d4aa 43be
000001b0: 9c15 fe3c 8e09 a0bd ba42 89bc 1843 313e
000001c0: bc5a 043e 9bf4 483d 09f4 0b3e 1f80 96bd
000001d0: 9c3d afbc 8723 da3c ee38 adbe bdef cfbd
000001e0: 13e2 8abe 4e31 a9bd aa9e a4bd 043b 6cbd
000001f0: 0f84 0f3e 1037 62be 8daf 8f3e 5b31 21be
0.028969195 -0.22087188 -0.12500376 -0.16517392 -0.100225985 -0.061000112 0.22398749 0.194011
0.11702525 0.2058842 0.0098798545 0.12222497 0.007023154 -0.1554492 -0.19969246 -0.23459189
0.010348719 -0.27754477 0.027919808 0.0072444715 -0.2864498 -0.06732503 0.046946492 -0.0035234485
-0.019402 -0.310094 0.023187626 0.12609892 0.31503046 -0.02186263 0.067410424 -0.18139425
-0.20548193 -0.044505704 0.0009063761 -0.1031063 0.27186146 0.14840409 -0.13122146 0.28463438
-0.23848353 0.028690845 0.014847356 -0.18872787 0.05514697 -0.051335905 -0.21935736 -0.072810926
-0.24051535 -0.16104418 -0.025666147 0.10907714 -0.04667836 -0.1269261 -0.1607004 0.16683508
-0.26649302 -0.23726246 -0.18644887 0.09042866 -0.2504444 -0.23813412 -0.25598514 -0.13192259
0.40023392 -0.20937121 -0.003062704 0.057257984 0.04071649 0.027474403 -0.03232384 0.11633668
0.3087117 -0.121210806 0.043601595 -0.113640554 0.17394488 -0.21270478 -0.16766979 -0.20088667
-0.20894042 -0.15411271 0.13335295 -0.12136771 -0.13206005 -0.25200427 -0.23053549 0.049315672
0.047385383 -0.042008843 0.19024844 -0.16140647 0.066271104 -0.104151756 0.14239953 0.18831776
-0.029273681 0.12295647 -0.0032180236 -0.059517037 0.07716722 -0.1389615 -0.1424389 -0.028911911
-0.11000461 -0.26253092 0.024139281 -0.19108135 0.031016164 -0.078143224 -0.01675545 0.1731075
0.12925237 0.0490614 0.13667311 -0.07348656 -0.021391682 0.026628269 -0.33832496 -0.10153148
-0.27125606 -0.08261357 -0.08038075 -0.05767347 0.1401522 -0.22091317 0.28063622 -0.15741484

fc3.weight f4 [4, 128]
00000000: 20f1 2bbc 3a07 7abe 5bab 9ebe 9d58 b5be
00000010: 79cb 03bb 2935 133e 02e7 8b3e 9111 353e
00000020: 0f0f f4bd 2cbd b93e 6ecc a73e 981c a8be
00000030: 83f0 71be 11ed ea3d e7fe bbbc 4dca 5c3d
00000040: 0f27 e03d eec2 423e 0885 4ebd e0d2 8fbe
00000050: 21eb b43e 01f8 51bd d084 e03d ace1 b43b
00000060: ee90 e0bd 7e26 4abe f65d 0f3e 9d7e d7be
00000070: a835 4b3e 0368 d43b a674 813e 95da a13d
00000080: 64ce bd3e b659 e5be 45ca 8bbe c9a3 2dbb
00000090: 8634 193e ce7f ff3e beb0 0bbe 7283 493d
000000a0: 3c91 f93c 908b 8dbe 94ab b7be 14fe 04bd
000000b0: 45b1 46bf 0727 b73c 85d7 89be 202b 883c
000000c0: 072d 08be 3ecc 833d e337 78bb 1522 b0be
000000d0: f441 ccbe 7543 3e3e 6118 d2bd e4ae 3f3d
000000e0: c5c5 0ebe 789a 06bd bf0e cc3e 613b 283f
000000f0: e793 d1bd decb 45be 3f49 8ebd 8de4 8e3d
00000100: 4446 143e d292 b4bd 6695 58bd 8fe5 fd3e
00000110: f01a 513f 9491 f9bd c36c 3ebe 5de0 d9bc
00000120: 5e58 063e 3112 35be 7cb4 5cbe be4f 6cbc
00000130: 55bc 913e 6885 56bd ba23 e33d 1f9a 453e
00000140: c0ed c8bd 9c44 94be 9b81 be3d de4f 1d3e
00000150: 9f08 81be 6ef3 6dbe e5f4 abbd b182 11be
00000160: 3dc6 f43e 0328 5bbd d936 90be ad4e 8dbe
00000170: f132 cabd eb3a af3d 552e 28bf 7db3 e4be
00000180: 56cf a6be cf5e a53e b998 dbbb be49 1a3e
00000190: ae4a 5a3c 1696 9abe 3a91 cabe 6193 113e
000001a0: 361b 87bd 2db1 5b3e 50f4 413d ceca 0a3f
000001b0: 3703 9cbd 53fc b5be 6d45 55bc 32cc 02bf
000001c0: cd33 ff3d c8da 923e 4cc4 5cbd d2c8 6d3f
000001d0: ee96 a23e 5654 0b3c d48c e43d 70b5 ddbd
000001e0: 6fba dc3e 36a8 dbbd 365a 8cbd 1ab2 2e3f
000001f0: 101d 1f3e 5262 bdbe a824 233c 8da3 b73e
00000200: 4833 b9bc 9ba9 263e 72ce d2be b887 0fbe
00000210: 2719 50bc 122a 8e3c 00d3 9d3e 9e1e 813e
00000220: 7935 ac3e 4b27 a93d 6a6a 7e3d a176 85bd
00000230: 09d1 043d f2bc 9ebe a902 a0bd 52f6 22be
00000240: a737 f9be 8d54 bbbe 130e 123e 508d c6be
00000250: 7a18 1cbe 9de8 8dbe d093 e4be ab78 63bc
00000260: e069 d13c d218 fdbd ce0a 443e 3480 ae3d
00000270: 4450 da3e 1aa5 6cbc ca2c 173e 8488 d7be
00000280: dc68 70be e3b1 27be 4348 d0be a578 bdbc
00000290: 90a5 ac3e 2357 a03d e579 0dbd 751c 6c3e
000002a0: 74db 71be db12 7dbc 5322 9bbe 9621 793e
000002b0: 1420 d8be 5b17 c73d b9de 1ebe f867 91bd
000002c0: 5129 1b3d 61d3 283e 74a0 06bd 2c65 2e3e
000002d0: ffb5 bfbe 70d9 4fbe 1d50 03be 187d c63e
000002e0: d852 68bc 0abb 6abe 43f1 8fbe 7fbf a03e
000002f0: 9194 0abe b861 37be 98b2 c1bd 90a0 913e
00000300: 5d3c a03e 2c88 2fbf 65f3 e13c 3d2d 223f
00000310: 45ce c9be f253 1a3e c802 96be e985 cd3e
00000320: 81d5 893e a9f6 a63e a650 d9bd a371 9bbc
00000330: c473 a23e e1b1 913e 9be4 0cbf 8a6a 4abf
00000340: 1a8c 923d c347 803c 7a97 073e 08f5 56be
00000350: 2b21 17be 4c01 c1be 904a 05be 8f5c dd3e
00000360: bdec 22be 55c5 653e b466 e3bc b993 093d
00000370: e4e7 663e 90da 04be db8c 433e f872 12be
00000380: 9f07 83bb c7ac f83e 7b89 84bc 461d e43e
00000390: fcf1 6d3e dfe6 1f3f 01a0 ffbe 9438 9c3e
000003a0: b1c0 f63c 9167 cfbd e88e 1d3e cc5f 2cbf
000003b0: 93c1 28be e931 95bd c201 03be 4dcf 393e
000003c0: 71a0 0f3e 2e48 4c3d 44cb e33e 7461 5fbc
000003d0: 7b9b 63be 72fc 49bc f6c1 c03e 7640 973d
000003e0: fc39 5dbe 774e 01be 4232 bf3e 1a8a dabc
000003f0: 2d9b f7bd 7837 0d3f 50eb 8b3e 9415 fcbe
-0.0104945 -0.24416819 -0.3099011 -0.3541917 -0.0020110293 0.14375748 0.27324682 0.17682482
-0.11916935 0.3627714 0.32773155 -0.32834315 -0.23626904 0.11470998 -0.022948695 0.053903867
0.1094495 0.19019672 -0.050419837 -0.28090572 0.3533564 -0.051261906 0.10962832 0.0055200662
-0.10965143 -0.19741246 0.14000687 -0.42088786 0.19844687 0.0064821257 0.25284308 0.07903019
0.37071526 -0.44795007 -0.27302757 -0.0026495329 0.14961442 0.49902195 -0.1364164 0.04919762
0.030464761 -0.2764554 -0.3587309 -0.03246887 -0.7761424 0.022357477 -0.2692224 0.016622126
-0.13298427 0.064354405 -0.0037875108 -0.34401003 -0.39894068 0.1858042 -0.10258556 0.046797648
-0.1394263 -0.032862157 0.39855 0.65715605 -0.10233288 -0.1931605 -0.06947564 0.06977186
0.14479929 -0.08817066 -0.052876852 0.49589202 0.8168173 -0.1218597 -0.18596177 -0.026596243
0.13119647 -0.1768272 -0.21553224 -0.014423309 0.28463998 -0.05237332 0.11090799 0.19297074
-0.09810972 -0.28958595 0.09302064 0.15362498 -0.2520189 -0.23237392 -0.08396319 -0.14210011
0.47807494 -0.053504955 -0.28166845 -0.27599087 -0.098729976 0.085561596 -0.656957 -0.4466819
-0.3258006 0.32298896 -0.0067015556 0.15067193 0.013323469 -0.3019263 -0.39563924 0.14216377
-0.06596987 0.21454306 0.047352135 0.54215705 -0.07617801 -0.3554407 -0.013017041 -0.5109283
0.12461052 0.28682542 -0.05389814 0.9288455 0.31755775 0.008503994 0.11159673 -0.10825622
0.43110988 -0.10725443 -0.06853144 0.6824051 0.1553843 -0.36989075 0.00995747 0.35866967
-0.02260746 0.16275637 -0.4117313 -0.14016616 -0.012701309 0.017354045 0.30825043 0.25218672
0.33634546 0.08259448 0.062113203 -0.06516767 0.032425914 -0.3100353 -0.078130074 -0.15914276
-0.48675272 -0.36587945 0.14263181 -0.38779688 -0.15243712 -0.27716532 -0.44644022 -0.01388375
0.02556318 -0.1235825 0.19144747 0.085205466 0.42639363 -0.01444366 0.1476318 -0.4209634
-0.234775 -0.16376452 -0.4068013 -0.023128817 0.33720064 0.0782912 -0.034540076 0.2305773
-0.23618871 -0.01544639 -0.30299625 0.24329218 -0.42211974 0.097212516 -0.1551465 -0.070999086
0.0378812 0.16486885 -0.032867864 0.17030782 -0.3744354 -0.2029779 -0.1282353 0.38767314
-0.014179908 -0.22922912 -0.28113756 0.313961 -0.13533236 -0.1790837 -0.09457892 0.28442812
0.31296054 -0.68567157 0.02758188 0.6335028 -0.39415184 0.15071085 -0.29298997 0.40141228
0.26920703 0.32610062 -0.106110856 -0.018975085 0.31728947 0.28456023 -0.55036324 -0.79068816
0.071556285 0.015659219 0.13241377 -0.2099191 -0.14758746 -0.37696302 -0.13016725 0.4323468
-0.15910621 0.22438557 -0.027758934 0.033588145 0.22549397 -0.12974 0.19096701 -0.1430167
-0.0039987112 0.4856932 -0.016178837 0.44553584 0.23236841 0.62461656 -0.4992676 0.30511916
0.03012118 -0.101271756 0.15386546 -0.67333674 -0.16480093 -0.0728491 -0.1279364 0.18145485
0.14026047 0.049873523 0.44491017 -0.0136340745 -0.2222728 -0.012328254 0.3764798 0.07385342
-0.2160415 -0.12627588 0.3734303 -0.02667718 -0.12090144 0.55162764 0.27327967 -0.49235213

fc3.bias f4 [4]
00000000: b023 dc3d 143b bd3e 3005 8abd 379f 3e3e
0.10748994 0.36959136 -0.06739271 0.18615423
