bipedal_walker/bipedal_actor.pt (torch_old, 402489 bytes, 10 tensors)

fc1.weight f4 [300, 24]
-0.028615683 1.4312539 -2.3533673 3.8001013 -0.6121715 -0.2915444 0.2513724 0.2064273
0.3025391 0.64577836 -1.7198844 -0.084754996 -0.62337667 -0.6446553 0.03050998 0.15613827
0.18005763 0.18842274 0.25499523 0.32088667 0.3796938 0.48008135 0.53652984 -1.9062729
0.3624681 1.1161578 -1.1955591 -3.222709 -0.83696234 -1.376491 -0.5171552 -0.058002915
0.8902772 -0.13584802 -0.33307546 0.42687365 -0.07172071 0.13140404 -0.7062405 -0.652739
-0.59666735 -0.5564335 -0.44314373 -0.40734482 -0.34598747 -0.29373485 0.07294832 2.9651728
-0.4105832 -0.9570588 3.1762283 0.684041 -1.7368585 0.4657751 0.43746436 -0.28196645
0.42791995 -0.15970108 -0.09718299 -0.68734425 -0.27053025 -0.58345205 0.14577249 0.06594924
0.036625374 0.083658114 -0.032744456 -0.048804164 -0.021821465 0.10547414 0.07944267 2.2763827
0.14067039 0.6884817 0.094177656 0.47780588 2.3474348 -0.29931167 -0.81623626 0.12084047
1.0214965 0.59606344 0.22710165 -0.35884893 -0.026917007 -0.6438653 0.3679375 0.3019644
0.20789169 0.13466014 0.07161032 0.11695933 0.37613118 0.6820229 1.1249238 1.1460903
-2.3763607 -3.345978 1.3123333 -0.8166597 -1.2346766 -0.2435473 -0.97049516 0.08569984
0.18627137 0.20415606 0.22239469 0.14397492 -0.008541003 0.06302693 0.15285708 0.24435115
0.18605104 0.17797837 0.11196773 -0.029969994 -0.22536549 -0.22446299 0.99017376 1.729337
-1.4630545 4.9723926 -1.1791685 3.597709 -0.48705322 0.046234947 -0.035686664 0.06688614
0.10107087 0.7543633 0.038541757 0.5799608 -0.1554122 0.020696575 0.6870503 0.6773004
0.6909828 0.78916484 0.8206373 0.8487194 0.6620866 0.3842694 -0.10094876 1.5221713
-2.2876396 -0.46099716 0.20493978 -0.86273944 -1.786153 -0.1439019 -0.7290322 -0.46342516
-0.20828356 0.79588187 -0.2297529 -0.13916218 -0.3786568 0.036591202 -0.26352495 -0.14828719
-0.11527394 0.019213364 0.06806771 0.15312475 0.2272093 0.1740673 0.03770355 -0.44194996
-1.5283732 1.6291845 -1.3560231 0.6838193 0.39477053 -0.50281906 -0.22397321 -0.19065778
-0.8958537 0.6210819 0.4615883 -0.7667976 -1.4959098 0.75129884 0.22060534 0.23574087
0.34869078 0.30097058 0.3669959 0.24843675 0.18406878 0.16254623 0.6262389 -1.013256
-0.6259792 -4.5785832 0.9887744 -1.2229671 -0.15400319 1.1844295 -0.49242905 -0.59740055
-0.038235683 -0.49301177 0.19673412 0.10511154 0.29336128 0.8025961 -1.4310127 -1.2107459
-1.1569345 -0.9467707 -0.78533536 -0.5724397 -0.25640267 0.048952043 -0.25346234 2.1840985
-1.253596 2.817874 -0.8306898 3.3793805 1.363805 -0.225662 0.58526057 -0.07949364
-0.25101528 0.11989542 -0.05787798 -0.06829774 -0.42419118 0.3270377 -0.2747504 -0.39601204
-0.4532901 -0.46854064 -0.64562505 -0.7076286 -0.75554436 -0.7477891 -1.0828295 3.9045994
1.0270085 2.3905232 -0.6237363 -0.907229 0.39986223 0.28773177 -0.48501366 -1.3014171
0.1675627 -0.39544925 -0.59082806 -1.072998 0.70949084 0.35748053 0.056609526 0.091107965
00000000: 706b eabc 5433 b73f 929d 16c0 dc34 7340
00000010: 45b7 1cbf 4f45 95be e2b3 803e ae61 533e
00000020: 68e6 9a3e bb51 253f 2c25 dcbf 0794 adbd
00000030: 9d95 1fbf 2108 25bf 11f0 f93c b6e2 1f3e
00000040: 0761 383e e4f1 403e bc8e 823e 424b a43e
00000050: 3a67 c23e 39cd f53e 055a 093f c000 f4bf
00000060: 6b95 b93e 42de 8e3f 1508 99bf dd40 4ec0
00000070: 2a43 56bf db30 b0bf 4864 04bf 7794 6dbd
00000080: 35e9 633f be1b 0bbe de88 aabe 2f8f da3e
00000090: 4fe2 92bd c88e 063e 2dcc 34bf e719 27bf
000000a0: 31bf 18bf 6d72 0ebf bce3 e2be 808f d0be
000000b0: 4525 b1be 6a64 96be ee65 953d 64c5 3d40
000000c0: f637 d2be ce01 75bf 5347 4b40 501d 2f3f
000000d0: 6151 debf 137a ee3e 54fb df3e e85d 90be
000000e0: 5318 db3e ae88 23be e007 c7bd cbf5 2fbf
000000f0: f182 8abe 1d5d 15bf 6245 153e 6510 873d
00000100: 7d04 163d f254 ab3d 0d1f 06bd e0e6 47bd
00000110: eec2 b2bc d302 d83d d7b2 a23d 41b0 1140
00000120: e60b 103e 5640 303f 37e0 c03d f9a2 f43e
00000130: 5f3c 1640 613f 99be dcf4 50bf 357b f73d
00000140: 66c0 823f 9d97 183f 568d 683e 0cbb b7be
00000150: 0e81 dcbc 5bd4 24bf 4e62 bc3e 149b 9a3e
00000160: 8fe1 543e 59e4 093e 6ea8 923d 6088 ef3d
00000170: 4494 c03e 0e99 2e3f 81fd 8f3f 16b3 923f
00000180: 4b16 18c0 8124 56c0 8afa a73f 9c10 51bf
00000190: e209 9ebf 7764 79be 5f72 78bf 6683 af3d
000001a0: ecbd 3e3e 490e 513e 6fbb 633e 296e 133e
000001b0: 90ef 0bbc 4314 813d 9186 1c3e 3037 7a3e
000001c0: 2a84 3e3e f63f 363e 564f e53d a283 f5bc
000001d0: 36c6 66be a0d9 65be 077c 7d3f ea5a dd3f
000001e0: 5f45 bbbf d71d 9f40 feee 96bf dd40 6640
000001f0: 0a5f f9be db60 3d3d 2e2c 12bd 9afb 883d
00000200: 3ffe ce3d f41d 413f f6dd 1d3d 5078 143f
00000210: 6024 1fbe dd8b a93c 87e2 2f3f 8f63 2d3f
00000220: 40e4 303f b506 4a3f 4915 523f ad45 593f
00000230: 827e 293f f5be c43e 39be cebd 82d6 c23f
00000240: b068 12c0 d207 ecbe bcdb 513e 7edc 5cbf
00000250: a9a0 e4bf 055b 13be dba1 3abf 1046 edbe
00000260: 4948 55be eabe 4b3f 5844 6bbe 8880 0ebe
00000270: 4edf c1be a8e0 153d beec 86be 99d8 17be
00000280: be14 ecbd 5865 9d3c 1567 8b3d bccc 1c3e
00000290: 8ea9 683e b33e 323e 0a6f 1a3d 4447 e2be
000002a0: bca1 c3bf 1e89 d03f 2a92 adbf c80e 2f3f
000002b0: 5d1f ca3e c0b8 00bf 3c59 65be cb3b 43be
000002c0: ab56 65bf 39ff 1e3f 4d55 ec3e d94c 44bf
000002d0: f979 bfbf 1f55 403f 5ee6 613e 0e66 713e
000002e0: 9987 b23e d118 9a3e e3e6 bb3e 3466 7e3e
000002f0: 877c 3c3e 8572 263e 3151 203f 5fb2 81bf
00000300: 2c40 20bf c183 92c0 5220 7d3f 308a 9cbf
00000310: 03b3 1dbe 639b 973f a91f fcbe 3eef 18bf
00000320: 059d 1cbd 0a6c fcbe ab74 493e b844 d73d
00000330: 7333 963e f076 4d3f 6d2b b7bf b9f9 9abf
00000340: 6e16 94bf 915f 72bf bd0b 49bf 688b 12bf
00000350: 3647 83be f081 483d d1c5 81be 45c8 0b40
00000360: d575 a0bf 0c58 3440 16a8 54bf c547 5840
00000370: 2a91 ae3f f013 67be a3d3 153f 90cd a2bd
00000380: 1385 80be bb8b f53d 7611 6dbd afdf 8bbd
00000390: 962f d9be 7c71 a73e 16ac 8cbe 17c2 cabe
000003a0: a415 e8be 8fe4 efbe af47 25bf 2627 35bf
000003b0: 5b6b 41bf 1b6f 3fbf 289a 8abf f5e4 7940
000003c0: 0475 833f 55fe 1840 2fad 1fbf 2940 68bf
000003d0: beba cc3e 9451 933e b653 f8be d694 a6bf
000003e0: 8e95 2b3e 5378 cabe 8240 17bf 0058 89bf
000003f0: 31a1 353f b007 b73e 64df 673d d096 ba3d

fc1.bias f4 [300]
-0.013439832 0.13987449 0.002818693 0.12085561 0.069073334 -0.04909444 -0.08844619 0.11501587
-0.18503174 0.019858535 0.16850974 -0.22154063 0.12421153 -0.19667146 0.21686679 -0.15374959
0.06427498 0.16713454 -0.17877015 -0.18938942 0.08971287 -0.08526423 0.11293626 -0.110530905
0.029333336 0.02968384 -0.11080838 -0.006838144 0.12671416 0.059328794 -0.12129297 -0.21846375
0.021875065 0.1609709 0.13663971 -0.16043898 -0.0357085 -0.13020526 -0.0019180039 0.096546374
-0.14714795 -0.0055780965 0.036052465 0.03815544 -0.035834495 -0.08961077 0.1717094 -0.07607334
-0.09747146 0.017491914 0.11841802 -0.12096968 0.18428053 -0.03179165 0.08711321 0.15602094
-0.17261863 0.15280907 -0.03417434 0.14188142 0.050359506 -0.03074544 -0.08612823 0.037278183
0.09233831 0.5363816 0.14876823 0.14466187 -0.20660375 0.18242724 0.040321913 -0.14964683
-0.16902527 0.19611396 -0.090759635 0.038936913 -0.11180601 -0.21762918 -0.07141559 -0.16387823
0.035324734 0.24476436 0.14453183 0.051777687 -0.112642616 -0.21085168 -0.1042644 -0.105730675
0.122231744 -0.07526437 -0.20609976 0.022990251 -0.09846034 -0.033132557 -0.07477436 0.14778754
-0.065982215 -0.07054564 0.1805221 0.15384383 -0.044072784 -0.16532907 0.03288499 0.15999709
0.13760512 -0.1034372 -0.19399448 -0.123064004 -0.18034814 0.14922291 -0.11549796 0.03656096
0.18001615 0.090983614 -0.14159888 -0.025941735 0.16764961 0.02320342 -0.0038754067 0.12309214
-0.16986217 -0.13622603 0.0182209 0.15942247 -0.05529071 -0.075051636 -0.20034362 -0.2247321
0.05574286 -0.10267385 -0.016638787 0.06468413 0.08228072 -0.19443774 0.07787598 -0.06925584
-0.06778195 -0.046796884 -0.17970656 -0.03526396 0.050707296 -0.16578244 -0.07477657 -0.17073582
-0.13383983 -0.11519064 0.19048728 -0.023277856 0.15363708 -0.15679589 -0.09294147 -0.16366625
0.0988392 -0.21821335 -0.1397877 -0.045569457 0.054990057 0.07814423 -0.33687544 0.025049238
0.040803008 0.091940716 -0.03939943 -0.027958995 0.005977985 0.09671622 0.09526669 -0.12752984
-0.048113972 -0.106483206 -0.008188064 -0.011729098 -0.04978624 0.18870401 0.19033714 0.08653429
0.007189317 -0.11793824 0.13546301 -0.10635277 -0.094808534 0.07905879 0.12433931 0.061987225
0.03284933 -0.08923825 0.12259183 0.21841237 0.04823123 0.120801814 -0.0863704 0.06106795
-0.11106363 -0.054227076 0.076146275 0.08310017 0.10875659 -0.029688694 -0.05268458 0.017597588
0.10986545 0.026546905 -0.11389813 0.17999321 0.099701785 0.06492088 0.03209002 0.2400483
0.003160265 0.01423997 0.11537678 0.03673239 0.05578864 -0.0029104087 0.02473505 -0.0076148114
-0.14495009 -0.07093045 0.18092874 0.2048313 -0.0101745045 -0.00031543776 -0.105015874 0.13357507
-0.19935611 0.06517938 0.06724152 0.038040783 0.10670968 -0.20607328 -0.09171846 -0.10591893
0.08362036 -0.17817554 -0.13542353 0.07512925 0.04399477 -0.19026268 0.14600813 0.12761125
0.037792835 0.002482489 -0.17218849 -0.19472283 -0.17792207 -0.15197559 -0.14063065 -0.1055572
0.22256242 -0.17905304 0.19183527 0.17479028 -0.04238196 -0.06556927 0.07894083 0.004670647
00000000: be32 5cbc 423b 0f3e d2b9 383b 2583 f73d
00000010: 5276 8d3d 4017 49bd 4723 b5bd 718d eb3d
00000020: f678 3dbe 5eae a23c d18d 2c3e 8cdb 62be
00000030: 9d62 fe3d 3e64 49be 5412 5e3e 8870 1dbe
00000040: 9aa2 833d 5125 2b3e 860f 37be 4def 41be
00000050: 62bb b73d 039f aebd 204b e73d 075e e2bd
00000060: 774c f03c 862b f33c 81ef e2bd 8212 e0bb
00000070: 5bc1 013e c002 733d 7368 f8bd f6b4 5fbe
00000080: 5633 b33c 8ed5 243e 48eb 0b3e 1e4a 24be
00000090: 1343 12bd 8754 05be 8865 fbba 1bba c53d
000000a0: f4ad 16be 77c8 b6bb c0ab 133d e148 1c3d
000000b0: 31c7 12bd da85 b7bd 97d4 2f3e 57cc 9bbd
000000c0: 1e9f c7bd 344b 8f3c 2685 f23d f4be f7bd
000000d0: 09b4 3c3e f637 02bd 6968 b23d f4c3 1f3e
000000e0: f0c2 30be fb79 1c3e 65fa 0bbd 5d49 113e
000000f0: c545 4e3d dcdd fbbc ff63 b0bd 02b1 183d
00000100: de1b bd3d 4e50 093f b356 183e 3e22 143e
00000110: ef8f 53be 35ce 3a3e 9728 253d 053d 19be
00000120: f614 2dbe 19d2 483e 30e0 b9bd 507c 1f3d
00000130: 8dfa e4bd 2fda 5ebe 5642 92bd b2cf 27be
00000140: abb0 103d 82a3 7a3e 2700 143e d714 543d
00000150: 2cb1 e6bd 81e9 57be 9388 d5bd 5389 d8bd
00000160: a354 fa3d 3524 9abd d10b 53be 0d56 bc3c
00000170: 93a5 c9bd 01b6 07bd 4d23 99bd 9e55 173e
00000180: af21 87bd 3c7a 90bd c9da 383e 3d89 1d3e
00000190: aa85 34bd 064c 29be 69b2 063d 47d6 233e
000001a0: 5be8 0c3e e2d6 d3bd 7da6 46be fb08 fcbd
000001b0: 2fad 38be e4cd 183e 328a ecbd f2c0 153d
000001c0: 2756 383e 9e55 ba3d 4cff 10be c383 d4bc
000001d0: 57ac 2b3e 1915 be3c 89fa 7dbb bb17 fc3d
000001e0: 59f0 2dbe d67e 0bbe ff43 953c a53f 233e
000001f0: 8378 62bd acb4 99bd e126 4dbe 2c20 66be
00000200: a052 643d ab46 d2bd 114e 88bc 1d79 843d
00000210: cb82 a83d b01a 47be 717d 9f3d 01d6 8dbd
00000220: 43d1 8abd 17ae 3fbd ff04 38be f170 10bd
00000230: 74b2 4f3d dfc2 29be 7524 99bd 5fd5 2ebe
00000240: 4f0d 09be 12e9 ebbd 190f 433e 34b1 bebc
00000250: 0a53 1d3e 1a8f 20be 1958 bebd 2098 27be
00000260: 356c ca3d 5273 5fbe 8224 0fbe 0aa7 3abd
00000270: 413d 613d 150a a03d f07a acbe 0f34 cd3c
00000280: 0e21 273d 6a4b bc3d 4c61 21bd 430a e5bc
00000290: f9e2 c33b 2713 c63d 2f1b c33d 2f97 02be
000002a0: 2813 45bd de13 dabd 3b27 06bc 672b 40bc
000002b0: a8ec 4bbd a03b 413e bde7 423e e438 b13d
000002c0: 5d94 eb3b 9b89 f1bd d1b6 0a3e 7bcf d9bd
000002d0: fa2a c2bd 93e9 a13d 9ca5 fe3d 51e6 7d3d
000002e0: 058d 063d 8bc2 b6bd 6d11 fb3d 7ea7 5f3e
000002f0: 1c8e 453d f166 f73d f7e2 b0bd 6322 7a3d
00000300: 5475 e3bd 361d 5ebd 94f2 9b3d 6c30 aa3d
00000310: c6bb de3d b435 f3bc c9cb 57bd d128 903c
00000320: 2301 e13d e578 d93c 6c43 e9bd 2450 383e
00000330: 7330 cc3d 3df5 843d d370 033d 39cf 753e
00000340: 731c 4f3b c34e 693c a94a ec3d b474 163d
00000350: a182 643d 8ebc 3ebb 29a1 ca3c ab85 f9bb
00000360: cc6d 14be fc43 91bd 6245 393e 4cbf 513e
00000370: f7b2 26bc 5761 a5b9 9012 d7bd e7c7 083e
00000380: 0224 4cbe c47c 853d ecb5 893d a7d0 1b3d
00000390: 9b8a da3d e004 53be e3d6 bbbd 06ec d8bd
000003a0: 2741 ab3d a673 36be 77ac 0abe 5ddd 993d
000003b0: dc33 343d 38d4 42be 2883 153e 86ac 023e
000003c0: a9cc 1a3d 41b1 223b 2e52 30be 6c65 47be
000003d0: 3431 36be 7d9f 1bbe 7b01 10be 602e d8bd
000003e0: 67e7 633e ae59 37be 7770 443e 39fc 323e
000003f0: b598 2dbd 2e49 86bd bbab a13d 3a0c 993b

bn1.weight f4 [300]
0.8840697 1.0332868 1.1905481 0.78137344 1.4448473 1.3388519 0.84499985 0.8489021
1.0884225 0.9766084 0.79784083 1.0648164 1.2194237 1.3408011 1.6129209 0.9222586
1.3576158 0.99404293 1.6454706 0.51133186 0.94908726 1.0537345 0.77676547 1.4861465
0.8792304 0.9945625 1.351094 1.6397177 0.7764138 0.732976 1.0682698 0.74507004
0.81923205 0.7204777 0.9160026 1.3573476 0.7928323 0.46092752 0.644864 1.2191731
0.94525295 0.51049083 1.3096653 1.979659 1.1484228 0.90647423 1.7587836 0.766773
1.1334004 0.774491 0.81942457 0.40605924 1.5086226 1.2845653 0.8509187 0.79575944
0.31120083 0.7789165 1.3814123 1.2297198 1.2150013 0.74909884 0.51682955 1.4825125
1.0271975 1.7977991 0.48132592 1.2210488 1.3386275 0.84127283 0.42525283 1.3248241
0.5014048 0.862844 0.98926955 1.0909083 0.6122113 1.2370107 1.7065281 0.41608343
0.94799703 1.2587833 1.0417666 0.87072223 0.8032117 1.5842397 1.8584535 0.7859783
1.2991242 0.7262883 0.8191555 1.0316939 0.9308073 1.7238133 1.806328 1.2161175
0.7211149 0.5621285 0.57520413 0.8316156 0.8064446 0.9228629 1.3579199 1.1449444
0.66364855 1.2604067 1.2930467 0.5623834 1.1758964 0.8838145 1.2167603 0.88346875
1.1845269 1.2392827 1.475708 1.3032936 1.3356906 0.9108617 1.0306841 1.0124383
0.9473517 0.77699053 0.95886683 1.0024393 0.8990831 1.7630672 0.58538 0.63940656
1.3600928 0.8473737 1.4752051 0.87288934 0.76832265 0.8886955 0.78381383 0.6565148
0.7313276 0.8700203 1.6095513 0.78892046 0.8416271 1.2815769 1.5248295 0.88782746
1.8276255 0.17279877 0.7978745 1.603469 1.4555511 0.7592787 1.1321026 0.7420127
1.083689 0.83088887 0.97228336 1.2413477 0.93458164 1.5298446 0.5413784 0.17325395
1.0569504 0.70637596 0.84958285 0.8873974 1.1289344 0.8965116 1.2631323 0.600023
1.9752322 0.9592515 1.0056893 1.3236997 1.1444628 1.0614207 0.8508012 1.505349
0.48636234 1.4720203 1.3152975 0.9884979 1.6957253 1.3024025 0.9220823 1.4143313
0.9694747 0.8138623 1.3835176 0.9900482 1.357679 0.5480638 1.2190369 0.7336794
1.5940021 1.1032209 0.71278614 1.2009937 1.0263956 0.9194438 0.61427915 1.111409
0.5263834 1.3712896 1.1375252 0.82239205 1.2276722 0.85491985 1.7303321 0.820121
0.9467608 0.9135459 1.3289772 0.7803081 1.172775 0.92990005 0.88462716 1.3102868
1.070977 1.0261669 1.1151906 1.9600579 1.1907604 0.66793275 0.9785377 1.2793093
1.1689595 1.1650683 0.9351908 0.59730136 0.5310912 1.2784832 1.2572978 1.0685608
1.2451717 0.8529552 0.7971184 0.7794537 0.85989594 0.8428485 0.50743544 0.92701876
0.3250511 0.9416128 1.0309232 0.9378329 1.2846211 -0.008824505 1.0351031 0.77337044
1.7737507 1.8182812 1.1367981 0.7924112 1.3945154 1.2707576 0.9977192 1.013753
00000000: 6452 623f be42 843f e163 983f 1708 483f
00000010: c2f0 b83f 805f ab3f e951 583f a651 593f
00000020: 6e51 8b3f 0203 7a3f 4c3f 4c3f e74b 883f
00000030: 1316 9c3f 5f9f ab3f 3174 ce3f 2419 6c3f
00000040: 5bc6 ad3f 9979 7e3f c89e d23f a5e6 023f
00000050: 62f7 723f c6e0 863f 1ada 463f 0c3a be3f
00000060: 3e15 613f a69b 7e3f a6f0 ac3f 45e2 d13f
00000070: 0ec3 463f 51a4 3b3f 11bd 883f e9bc 3e3f
00000080: 31b9 513f 3a71 383f 257f 6a3f 91bd ad3f
00000090: 0ff7 4a3f b1fe eb3e cf15 253f dd0d 9c3f
000000a0: 19fc 713f 87af 023f 1da3 a73f 7765 fd3f
000000b0: 85ff 923f b20e 683f d21f e13f 3c4b 443f
000000c0: 4413 913f 0b45 463f cfc5 513f ffe6 cf3e
000000d0: 8c1a c13f a36c a43f cfd5 593f e4b6 4b3f
000000e0: b755 9f3e 1267 473f 1ed2 b03f 7567 9d3f
000000f0: 2a85 9b3f f1c4 3f3f f14e 043f f8c2 bd3f
00000100: 357b 833f 481e e63f 5a70 f63e 544b 9c3f
00000110: 2558 ab3f a85d 573f bdba d93e d693 a93f
00000120: 115c 003f 58e3 5c3f c540 7d3f e2a2 8b3f
00000130: e1b9 1c3f 5e56 9e3f 836f da3f e308 d53e
00000140: efaf 723f d01f a13f 9c58 853f a7e7 5e3f
00000150: 489f 4d3f 5ec8 ca3f cee1 ed3f e035 493f
00000160: b449 a63f 08ee 393f 2db4 513f 8c0e 843f
00000170: 6349 6e3f eaa5 dc3f c235 e73f bda9 9b3f
00000180: fc9a 383f a7e7 0f3f 9440 133f c3e4 543f
00000190: 2773 4e3f be40 6c3f 52d0 ad3f 8a8d 923f
000001a0: dfe4 293f 0255 a13f 8e82 a53f 5cf8 0f3f
000001b0: c683 963f ab41 623f cdbe 9b3f 022b 623f
000001c0: 949e 973f d1a0 9e3f 00e4 bc3f 53d2 a63f
000001d0: e9f7 aa3f 3b2e 693f 75ed 833f 9497 813f
000001e0: a485 723f dae8 463f 4c78 753f ee4f 803f
000001f0: 4f2a 663f 30ac e13f 77db 153f 26b0 233f
00000200: 8517 ae3f 7ced 583f 85d3 bc3f ad75 5f3f
00000210: cbb0 443f 8c81 633f 06a8 483f 5b11 283f
00000220: 4938 3b3f a6b9 5e3f c705 ce3f b1f6 493f
00000230: e074 573f b60a a43f 9d2d c33f a948 633f
00000240: a2ef e93f 29f2 303e 8141 4c3f 793e cd3f
00000250: 804f ba3f 1760 423f bde8 903f 8bf4 3d3f
00000260: 52b6 8a3f 22b5 543f 90e7 783f 7be4 9e3f
00000270: be40 6f3f f3d1 c33f c697 0a3f 7c69 313e
00000280: 274a 873f 0ed5 343f 437e 593f 7a2c 633f
00000290: ec80 903f c981 653f 52ae a13f 1b9b 193f
000002a0: 69d4 fc3f 8291 753f 6dba 803f fe6e a93f
000002b0: c27d 923f a2dc 873f 1cce 593f 47af c03f
000002c0: 7c04 f93e 296b bc3f ab5b a83f 330e 7d3f
000002d0: 870d d93f 20b5 a63f 960d 6c3f cf08 b53f
000002e0: 7e2f 783f 4859 503f 1b17 b13f cd73 7d3f
000002f0: 6dc8 ad3f e94d 0c3f 6709 9c3f 6ad2 3b3f
00000300: 4308 cc3f 5836 8d3f 2779 363f 29ba 993f
00000310: ee60 833f ab60 6b3f 6641 1d3f a642 8e3f
00000320: 10c1 063f 6b86 af3f 6d9a 913f 4988 523f
00000330: 5d24 9d3f 07dc 5a3f 867b dd3f 73f3 513f
00000340: ea5e 723f 25de 693f ed1b aa3f 46c2 473f
00000350: 7e1d 963f ee0d 6e3f ed76 623f 7ab7 a73f
00000360: c615 893f 7059 833f 91be 8e3f 2de3 fa3f
00000370: d66a 983f a4fd 2a3f 7281 7a3f 68c0 a33f
00000380: 77a0 953f f520 953f aa68 6f3f bee8 183f
00000390: 98f5 073f 56a5 a33f 22ef a03f 9ac6 883f
000003a0: c961 9f3f 465b 5a3f f40f 4c3f 478a 473f
000003b0: 2422 5c3f ebc4 573f 4ae7 013f 1a51 6d3f
000003c0: 196d a63e 890d 713f 4bf5 833f d115 703f
000003d0: 776e a43f a894 10bc 427e 843f 9bfb 453f
000003e0: 430a e33f 70bd e83f 9a82 913f 76db 4a3f
000003f0: 7b7f b23f 2fa8 a23f 876a 7f3f a9c2 813f

bn1.bias f4 [300]
-1.2619638 -0.8414628 -0.7885945 0.76047134 1.5161736 -0.61507195 -1.3787829 -0.52974176
-0.97848576 -0.8336703 -1.3247433 -0.7985775 -0.6341328 -0.8390051 0.42382425 -0.9066533
-0.9017667 -1.0123227 -0.66315717 -0.73500973 0.4629719 -0.31053868 -0.9665031 -0.64281356
-0.8684496 -0.87019396 0.0013595957 -0.3744842 -0.29815334 -0.9105946 -0.3712811 -0.7463324
0.46467558 0.06975746 -0.7469508 -0.85516334 -0.7018246 -0.16885886 -0.7354619 -0.9837874
-1.1381657 -1.1797515 0.3836865 -1.4652592 -0.96778363 -0.81878996 -0.6147469 0.09433756
-1.433949 -1.3528576 -1.0401592 -1.2713861 0.825692 -0.55944866 -0.504584 -0.73075134
-0.98688066 -1.0623115 -0.48355561 -1.0640018 -0.74943405 -1.0970803 -0.8676098 -0.33213413
-0.49154574 -0.90796316 -0.95267 -0.5693885 -1.7351921 -0.91683346 -1.060596 -0.4670835
-1.0337275 -1.1375719 -0.8634337 -0.44326735 -0.43983084 -0.25622082 -0.851977 -1.4788414
-0.53953373 -0.14879967 -1.0829573 -1.2206513 -0.570877 -0.073799625 0.051482446 -0.854318
-1.8312085 -0.40639776 -0.95224494 -0.7811434 -1.1290733 -0.043256488 -0.22848225 -1.0259356
-0.66809076 -1.4525875 -0.8384541 0.031003963 -0.93410766 -0.72778594 -0.44239396 -1.1694423
-0.47318536 -0.7527883 -0.7901085 -1.3990662 -1.1981078 -0.65619856 -1.5662094 -0.6139754
-0.63042206 -0.055487834 -0.33734617 -1.2238573 -0.115507804 -0.27309254 -0.21691065 -1.0725819
-0.7609903 -0.58132035 -1.562352 -0.9406061 -1.0006056 -0.2460161 -0.802506 -1.0808429
-1.0717899 0.52268 -0.89417434 -0.7694763 -0.44794148 -1.3395469 -0.7982058 -0.9305494
-0.77566373 -0.48126248 -0.7437873 -0.3551637 -0.85370696 -1.064624 -0.5024414 -0.66314805
0.8492914 -1.1277723 -1.3791189 -0.3660233 -0.5543734 -0.21043576 -0.63551605 -0.555173
-0.64077884 -1.0732511 -0.7417607 -0.6409111 0.25335056 -0.6760048 -1.7203792 -0.6365197
-0.9764841 -0.65888536 -0.7492922 -0.79579926 -1.525976 -0.5319287 0.53529364 -0.7189961
0.113600954 -1.2801355 -0.6884551 -0.5790561 -0.5158802 -0.7572088 -0.8854281 -0.34297407
-0.9557324 -1.0890236 -0.34071356 0.25253513 -0.4497652 -1.2766837 -0.62767535 -0.6737691
0.40459454 -1.1337149 -0.94074225 0.2502921 -0.06340506 -0.7649498 -0.3968344 0.50152034
-0.74848837 -0.9620881 -0.7397787 -0.51149476 -1.3484797 -0.73924124 -0.9878796 -0.7766977
-1.0324695 -0.5667319 -0.9407348 -0.1169001 -0.15501566 -0.8968507 -0.7932133 -0.70809126
-1.2335917 -0.78555065 -0.92190593 0.14233314 -0.7376837 -0.6468537 -0.90507895 -1.0004427
-0.008642957 -0.14675033 -0.73367655 0.12346213 -1.0211105 -0.64665234 -0.8975168 -0.9604312
-0.38435292 -1.1154221 -1.1272045 -0.8446206 -0.15861256 -1.1349449 -0.45648786 -1.1698464
-0.64364344 -0.7230469 -0.05088009 -1.2360681 -0.84681666 -0.96823686 -0.19398321 -1.4807036
-2.0489118 -0.18671851 -1.0518024 -1.1991049 -1.3679236 -0.047750574 -0.8325374 -1.2267638
-0.8533431 -0.901806 -0.83133847 0.022100627 0.12617584 -0.89702517 -1.1915877 -0.13357995
00000000: 0888 a1bf 1b6a 57bf 54e1 49bf 40ae 423f
00000010: fa11 c23f 5b75 1dbf f57b b0bf 289d 07bf
00000020: 0b7e 7abf 6b6b 55bf 3091 a9bf 936f 4cbf
00000030: 8756 22bf 0ac9 56bf 7eff d83e 6e1a 68bf
00000040: 2fda 66bf ca93 81bf abc4 29bf 9929 3cbf
00000050: a70a ed3e edfe 9ebe bf6c 77bf 6e8f 24bf
00000060: b752 5ebf 08c5 5ebf 7634 b23a 65bc bfbe
00000070: 8ea7 98be ba1c 69bf 8e18 bebe a40f 3fbf
00000080: f5e9 ed3e 00dd 8e3d 2b38 3fbf fceb 5abf
00000090: c7aa 33bf 56e9 2cbe 3b47 3cbf 7ed9 7bbf
000000a0: 6aaf 91bf 1902 97bf 8f72 c43e 9d8d bbbf
000000b0: abc0 77bf 389c 51bf 0e60 1dbf 0d34 c13d
000000c0: a48b b7bf 702a adbf f023 85bf c8bc a2bf
000000d0: 8d60 533f 0738 0fbf 6b2c 01bf 8512 3bbf
000000e0: 36a4 7cbf d3f9 87bf 9a94 f7be 3631 88bf
000000f0: e9da 3fbf 216d 8cbf ad1b 5ebf 7c0d aabe
00000100: e2ab fbbe 4670 68bf 2ee2 73bf 72c3 11bf
00000110: c61a debf 99b5 6abf 9cc1 87bf 9225 efbe
00000120: 2f51 84bf f59b 91bf fe09 5dbf f0f3 e2be
00000130: 8231 e1be 602f 83be 2a1b 5abf ad4a bdbf
00000140: e21e 0abf f15e 18be 589e 8abf 4d3e 9cbf
00000150: ff24 12bf 4224 97bd 42df 523d 96b4 5abf
00000160: 0a65 eabf 5e13 d0be 53c6 73bf 04f9 47bf
00000170: 7985 90bf b72d 31bd 40f7 69be dc51 83bf
00000180: ff07 2bbf 63ee b9bf eea4 56bf 06fc fd3c
00000190: ae21 6fbf 2e50 3abf 7681 e2be 49b0 95bf
000001a0: 5a45 f2be bcb6 40bf 8d44 4abf 9a14 b3bf
000001b0: 995b 99bf a1fc 27bf 8d79 c8bf 7e2d 1dbf
000001c0: 5763 21bf 3647 63bd a3b8 acbe 5ba7 9cbf
000001d0: 5b8f ecbd c9d2 8bbe d31d 5ebe 5d4a 89bf
000001e0: 43d0 42bf 69d1 14bf 26fb c7bf 90cb 70bf
000001f0: d813 80bf a5eb 7bbe 0971 4dbf 0f59 8abf
00000200: 6930 89bf 5bce 053f 9ce8 64bf 66fc 44bf
00000210: 9658 e5be 4676 abbf 3757 4cbf 7c38 6ebf
00000220: e691 46bf 0968 f6be d868 3ebf 04d8 b5be
00000230: 8a8c 5abf 9945 88bf 00a0 00bf 12c4 29bf
00000240: 296b 593f d85a 90bf f886 b0bf 6867 bbbe
00000250: 6aeb 0dbf 797c 57be 2eb1 22bf d11f 0ebf
00000260: 150a 24bf 4b60 89bf 07e4 3dbf c012 24bf
00000270: 2ab7 813e a70e 2dbf 6335 dcbf f4f2 22bf
00000280: ddfa 79bf b6ac 28bf 9dd1 3fbf 80b9 4bbf
00000290: 2e53 c3bf 7b2c 08bf 0109 093f 2110 38bf
000002a0: 9ea7 e83d 7bdb a3bf 983e 30bf 053d 14bf
000002b0: ba10 04bf 70d8 41bf 6aab 62bf 4c9a afbe
000002c0: e1aa 74bf 2065 8bbf 0272 aebe 494c 813e
000002d0: a047 e6be 5f6a a3bf 55af 20bf 227c 2cbf
000002e0: 0427 cf3e 921d 91bf 7cd4 70bf 4926 803e
000002f0: 83da 81bd c0d3 43bf e12d cbbe a363 003f
00000300: ef9c 3fbf 684b 76bf 2362 3dbf 52f1 02bf
00000310: fc9a acbf ea3e 3dbf ade5 7cbf a9d5 46bf
00000320: f627 84bf 5815 11bf ffd3 70bf 5269 efbd
00000330: 6dbc 1ebe 0298 65bf 0710 4bbf 7845 35bf
00000340: 55e6 9dbf d919 49bf 0702 6cbf c7bf 113e
00000350: d7d8 3cbf 3498 25bf 41b3 67bf 820e 80bf
00000360: 309b 0dbc b845 16be 3ad2 3bbf b7d9 fc3d
00000370: c0b3 82bf 028b 25bf a9c3 65bf d2de 75bf
00000380: e8c9 c4be 27c6 8ebf 3d48 90bf 0e39 58bf
00000390: 556b 22be e045 91bf c7b8 e9be 87bd 95bf
000003a0: d1c5 24bf 9a19 39bf a467 50bd 7b37 9ebf
000003b0: fac8 58bf 5fde 77bf 89a3 46be b287 bdbf
000003c0: 5f21 03c0 2333 3fbe 76a1 86bf 457c 99bf
000003d0: 1f18 afbf 1b96 43bd 2c21 55bf 9906 9dbf
000003e0: b274 5abf c2dc 66bf 99d2 54bf 600c b53c
000003f0: 3d34 013e 71a3 65bf f285 98bf 2fc9 08be

bn1.running_mean f4 [300]
-0.44045526 2.223406 2.7344105 3.9492016 3.604146 4.667097 0.59819853 -0.23118442
-0.47617257 0.25334343 -0.7618395 1.8073292 6.248677 -1.022247 12.447293 -6.6779156
14.786484 5.972365 6.0155926 -1.1294066 -2.6810937 4.625958 -1.0903662 3.3016999
-8.068522 -6.227059 5.58486 0.38794866 13.756713 -6.333636 -6.442105 -4.178697
0.00792793 2.0173254 7.615852 14.02755 1.4950682 -1.2380722 -0.69103134 2.012582
-4.962081 -0.36442238 2.7818959 15.087366 0.4183946 2.9753985 7.6966686 3.2842243
-1.9601781 12.15031 -6.2171865 5.6072626 0.5802968 4.285659 -0.85576785 1.4751583
0.7851785 0.93344617 -4.418293 -3.061103 3.9254022 -3.1666303 4.0269794 2.878964
3.5387485 -9.796899 -3.341632 -1.8094805 -7.601545 -0.45714173 1.7725809 5.3025546
-4.9266796 3.3512795 0.8261924 1.7182277 2.3821354 -0.6187884 13.668237 4.1740117
3.2177868 7.1809106 -0.42872 -11.553438 -3.753879 -4.7899942 -0.7645203 1.2935946
4.5700226 3.6972551 -1.1356133 2.441863 12.384353 4.548455 -2.4311793 4.6187363
0.8862404 -3.519865 -3.4056036 3.364413 -0.5259769 -3.741169 -3.44972 -4.98957
6.1226773 0.32693583 -2.9299757 2.3929896 -0.00027923082 -0.1384621 -6.832346 -5.3092723
-2.5740526 12.693164 -1.1908638 -2.9071147 -2.330047 1.4148207 6.745995 2.4768853
0.5624516 1.7499939 -7.735094 1.7013648 -0.20816739 -5.2011375 -4.099093 5.258474
7.881355 3.1584897 1.4192508 6.159508 4.535829 4.477122 -1.4462075 3.666002
5.1960278 -3.154389 1.5870082 1.895893 1.4741591 -1.9516984 -1.6434349 3.5408823
4.114896 -4.530985 -2.486269 0.048604004 9.472709 4.6771846 -3.228346 0.36018583
-3.782991 -7.9508767 4.6548285 -2.5755699 2.0180728 -0.65775436 15.125756 0.2104215
-0.2819994 -0.012873208 -2.8384452 12.161703 -3.8021328 1.0969967 4.959762 0.39409125
-1.7675931 -4.6430807 -2.356525 2.17191 8.998662 7.363288 -0.6600395 18.879745
1.8629569 12.204363 10.056231 -0.9788015 7.972922 5.7350655 -0.96101403 -6.3176885
4.579443 -4.1217976 -7.900694 5.63979 -1.034101 2.9624043 2.5671713 6.786589
-0.26767638 8.358633 -0.5553743 2.8366158 12.673278 7.8054867 -0.100275524 -2.3286405
-3.5418448 -5.1039896 8.250179 3.4003077 4.852958 -2.1863627 -3.6987667 8.219948
4.315761 5.441415 -2.4454932 4.0573087 1.9609315 -1.8988951 1.4357666 4.359263
0.1700341 -1.6841238 1.1807058 -0.9246245 -4.4175286 -1.9188643 -4.5447273 1.5479597
3.1710324 9.362189 12.046431 -6.1222754 4.6024675 -0.7973238 -4.888906 -4.7117853
3.6753366 1.8538811 0.84664714 1.3855093 0.15422584 0.48271593 -0.4460347 0.5166825
-1.0968046 -2.6195557 0.045724668 -1.5054249 7.0682855 0.018972434 0.22789699 0.37563455
9.9698715 -4.761774 -1.816788 2.893958 4.3473663 -4.9542065 -1.7089041 3.5121179
00000000: 5a83 e1be 494c 0e40 9500 2f40 b8bf 7c40
00000010: 54aa 6640 dc58 9540 8a23 193f 9cbb 6cbe
00000020: e4cc f3be 3bb6 813e ea07 43bf 9056 e73f
00000030: 29f5 c740 fdd8 82bf 1d28 4741 7cb1 d5c0
00000040: 7095 6c41 9d1d bf40 bc7f c040 6590 90bf
00000050: 0a97 2bc0 d907 9440 1f91 8bbf 0d4f 5340
00000060: ab18 01c1 1144 c7c0 2cb7 b240 35a1 c63e
00000070: 7f1b 5c41 25ad cac0 b925 cec0 e3b7 85c0
00000080: 26e4 013c dc1b 0140 0fb5 f340 d870 6041
00000090: 655e bf3f 2679 9ebf 6ee7 30bf 25ce 0040
000000a0: 5ec9 9ec0 9295 babe 950a 3240 da65 7141
000000b0: d137 d63e ee6c 3e40 1c4b f640 bb30 5240
000000c0: 1ee7 fabf ab67 4241 31f3 c6c0 b26e b340
000000d0: 558e 143f 1e24 8940 9a13 5bbf fdd1 bc3f
000000e0: 7501 493f 54f6 6e3f a862 8dc0 1de9 43c0
000000f0: ca39 7b40 12aa 4ac0 04dd 8040 f240 3840
00000100: db7a 6240 19c0 1cc1 4cdd 55c0 0f9d e7bf
00000110: db3f f3c0 7b0e eabe eee3 e23f 87ae a940
00000120: 5ca7 9dc0 5d7b 5640 5881 533f e3ee db3f
00000130: e874 1840 eb68 1ebf 19b1 5a41 8191 8540
00000140: 38f0 4d40 05ca e540 3081 dbbe e2da 38c1
00000150: 8e3f 70c0 a247 99c0 9ab7 43bf 8294 a53f
00000160: a03d 9240 d49f 6c40 c75b 91bf 7c47 1c40
00000170: 4f26 4641 f28c 9140 7198 1bc0 b0cc 9340
00000180: a7e0 623f 7845 61c0 69f5 59c0 8b52 5740
00000190: 6ca6 06bf 506f 6fc0 36c8 5cc0 8faa 9fc0
000001a0: f9ec c340 2264 a73e b984 3bc0 be26 1940
000001b0: ba65 92b9 02c9 0dbe 94a2 dac0 8fe5 a9c0
000001c0: 47bd 24c0 3317 4b41 3a6e 98bf 2b0e 3ac0
000001d0: 7d1f 15c0 d818 b53f 31df d740 4a85 1e40
000001e0: d4fc 0f3f cdff df3f e485 f7c0 52c6 d93f
000001f0: d529 55be b86f a6c0 c52b 83c0 6b45 a840
00000200: 0f34 fc40 b224 4a40 03aa b53f b11a c540
00000210: 8325 9140 9544 8f40 541d b9bf c79f 6a40
00000220: dc45 a640 82e1 49c0 1623 cb3f 9fac f23f
00000230: 3fb1 bc3f 41d1 f9bf 135c d2bf d19d 6240
00000240: 3aad 8340 d4fd 90c0 081f 1fc0 fe14 473d
00000250: 3790 1741 7fab 9540 399d 4ec0 476a b83e
00000260: 861c 72c0 956d fec0 5bf4 9440 23d6 24c0
00000270: 1b28 0140 9762 28bf 1903 7241 bc78 573e
00000280: 3a62 90be 26ea 52bc 16a9 35c0 5696 4241
00000290: 2556 73c0 636a 8c3f 5fb6 9e40 54c6 c93e
000002a0: 7e40 e2bf 1e94 94c0 4ed1 16c0 9300 0b40
000002b0: 85fa 0f41 0ea0 eb40 59f8 28bf b809 9741
000002c0: 5f75 ee3f 1245 4341 52e6 2041 bc92 7abf
000002d0: 2d22 ff40 a885 b740 0405 76bf 812a cac0
000002e0: cc8a 9240 c4e5 83c0 7cd2 fcc0 2979 b440
000002f0: 6c5d 84bf 0898 3d40 894c 2440 bd2b d940
00000300: e10c 89be f6bc 0541 032d 0ebf 1d8b 3540
00000310: bfc5 4a41 8cc6 f940 415d cdbd 7208 15c0
00000320: 96ad 62c0 e253 a3c0 bc00 0441 a49e 5940
00000330: 6f4b 9b40 5eed 0bc0 98b8 6cc0 e884 0341
00000340: b71a 8a40 1220 ae40 f682 1cc0 79d5 8140
00000350: ceff fa3f ff0e f3bf 33c7 b73f 157f 8b40
00000360: 6b1d 2e3e 5e91 d7bf 5e21 973f 31b4 6cbf
00000370: 655c 8dc0 589d f5bf 686e 91c0 8b23 c63f
00000380: 32f2 4a40 87cb 1541 2ebe 4041 aee9 c3c0
00000390: 6a47 9340 6a1d 4cbf eb71 9cc0 f2c6 96c0
000003a0: b738 6b40 fa4b ed3f debd 583f 5e58 b13f
000003b0: 61ed 1d3e 8b26 f73e a95e e4be 4e45 043f
000003c0: 1864 8cbf cda6 27c0 ca49 3b3d c3b1 c0bf
000003d0: 652f e240 146c 9b3c d45d 693e 2c53 c03e
000003e0: 9884 1f41 7460 98c0 828c e8bf 9c36 3940
000003f0: a01d 8b40 dc88 9ec0 5fbd dabf 8ac6 6040

bn1.running_var f4 [300]
0.67173475 2.4449298 0.90259403 3.0182693 0.37914568 0.53115964 0.64949757 1.9786456
2.3748376 1.0479947 1.632329 0.6081063 0.5264431 1.0223029 0.7334354 2.2916884
0.93410593 0.90040845 0.6517136 1.6222042 0.64157194 2.8705661 0.99793464 1.1975106
0.90794146 0.4461885 1.1419382 0.799248 2.5181956 1.867688 1.7836814 1.4208312
1.1258582 1.6103636 1.5269679 0.8131536 1.7825454 1.0370686 2.5968199 1.2252846
1.5323892 1.2053249 1.1953675 0.4643543 0.65759456 0.7009725 0.8669398 2.1739037
0.83297 1.0117973 1.1499211 1.9930995 1.1883929 1.6086457 0.91732186 0.47478807
2.0282538 0.87813604 1.0392488 2.7225158 1.2379302 1.046048 0.9121961 0.8459888
0.62930304 0.5102802 2.1867502 2.290155 1.1522508 2.3266883 1.6784068 1.8153245
1.8237156 1.3836175 2.0901453 0.6240867 1.19962 0.7716436 0.5605583 0.92612296
1.2573985 0.9659002 1.3477478 3.715296 0.6844844 1.0846862 0.8336382 0.9474527
0.3631289 1.0097079 1.4646053 1.812446 1.5925566 0.6451043 0.6112277 0.97734535
0.708945 1.2968737 1.8373654 0.6138219 0.95537156 3.0510075 1.6257615 1.8365693
2.0671406 1.107778 0.4370749 1.6072124 1.3346387 0.87138325 3.8415132 1.1653231
3.8664503 1.6556894 1.8634222 0.9868395 0.8584408 0.5243645 0.6949349 1.440945
0.7072292 1.9426115 3.1331992 0.8621414 0.93438494 2.7943282 1.8284565 1.3491987
0.7777452 2.1506863 1.5819532 2.683389 1.4438275 0.6009033 1.594762 1.6449922
0.7696504 1.3991231 0.8418891 1.2060052 0.57754374 0.6443688 2.0731401 0.9988229
1.1939061 0.7390707 2.420067 0.8295833 0.62271106 1.3161957 1.8586158 1.8042378
0.96048266 2.731407 0.40111288 0.56555045 1.9795793 0.23182662 0.39972517 0.27675155
1.5972569 0.74568546 1.7510194 0.60374796 1.2824816 2.1069899 1.0449157 1.0914428
0.2820591 1.0646802 3.30327 1.8708497 1.5201294 0.808358 1.4274076 0.38887933
1.6381468 1.9749418 0.99660563 0.780169 1.0809584 1.1582893 1.3948802 2.0843604
1.6776183 0.98370105 4.163522 1.8086313 0.778169 2.63192 0.78337836 0.8697909
0.94810534 0.50565714 1.6952515 2.8772597 1.0561155 1.0900261 0.82507604 0.46907938
1.44144 1.8268075 0.57150817 0.86648405 0.9497198 1.211654 0.5692775 0.8316458
0.7455776 0.95827496 1.0618947 1.0357894 0.7718526 0.9914856 1.03237 1.080307
1.5474734 1.7682438 2.5607767 0.4523707 1.845187 3.9692957 1.0716231 1.1137531
1.5459656 0.80396223 0.5449116 0.84379727 1.3558149 0.49760485 0.31339654 1.80813
1.7546196 1.4525542 1.0089834 1.808913 1.0773807 1.02246 1.1561574 0.7516019
0.7485506 1.7558465 0.96740973 1.7040889 0.6803866 1.3885549 1.7853907 1.4078505
1.204446 0.4357973 2.0458727 1.4010262 0.96851933 0.78717035 1.0405238 1.04091
00000000: cff6 2b3f bb79 1c40 6710 673f 532b 4140
00000010: 621f c23e 14fa 073f 7945 263f 4244 fd3f
00000020: 57fd 1740 b124 863f 28f0 d03f dbac 1b3f
00000030: fac4 063f d2da 823f 6cc2 3b3f 06ab 1240
00000040: 9121 6f3f 2b81 663f b4d6 263f 63a4 cf3f
00000050: 0f3e 243f 5bb7 3740 a578 7f3f 0748 993f
00000060: da6e 683f d272 e43e 082b 923f 849b 4c3f
00000070: 1e2a 2140 6610 ef3f ac4f e43f ccdd b53f
00000080: 1f1c 903f 6520 ce3f af73 c33f d62a 503f
00000090: 732a e43f aabe 843f 4c32 2640 20d6 9c3f
000000a0: 5425 c43f 1648 9a3f cd01 993f d9bf ed3e
000000b0: 1e58 283f ef72 333f c4ef 5d3f 3d21 0b40
000000c0: 863d 553f 9382 813f 9d30 933f e21d ff3f
000000d0: 421d 983f 1ae8 cd3f 9bd5 6a3f 6c17 f33e
000000e0: e9ce 0140 86cd 603f 1b06 853f b33d 2e40
000000f0: 7f74 9e3f e7e4 853f af85 693f b992 583f
00000100: 011a 213f b9a1 023f b7f3 0b40 e691 1240
00000110: f47c 933f 76e8 1440 09d6 d63f 8e5c e83f
00000120: 836f e93f 611a b13f f1c4 0540 25c4 1f3f
00000130: 268d 993f 6f8a 453f c080 0f3f 6516 6d3f
00000140: 6ff2 a03f 3c45 773f 0083 ac3f 69c7 6d40
00000150: 5f3a 2f3f ffd6 8a3f 5069 553f 438c 723f
00000160: 08ec b93e 1c3e 813f 3078 bb3f 3bfe e73f
00000170: e5d8 cb3f 8e25 253f 6b79 1c3f 4e33 7a3f
00000180: 6b7d 353f f5ff a53f ca2e eb3f 6f23 1d3f
00000190: 3b93 743f b543 4340 f418 d03f b414 eb3f
000001a0: 084c 0440 abcb 8d3f 48c8 df3e 23b9 cd3f
000001b0: 71d5 aa3f f912 5f3f 5adb 7540 4f29 953f
000001c0: ec73 7740 a1ed d33f 9e84 ee3f 83a1 7c3f
000001d0: c7c2 5b3f c03c 063f 41e7 313f e370 b83f
000001e0: f90c 353f 7ea7 f83f 5686 4840 4cb5 5c3f
000001f0: da33 6f3f 46d6 3240 dd0a ea3f 8bb2 ac3f
00000200: 4f1a 473f d8a4 0940 717d ca3f a5bc 2b40
00000210: 57cf b83f ccd4 193f 2921 cc3f 1b8f d23f
00000220: cf07 453f 7716 b33f 0b86 573f 615e 9a3f
00000230: e8d9 133f 5bf5 243f 54ae 0440 dcb2 7f3f
00000240: ead1 983f bd33 3d3f 61e2 1a40 925f 543f
00000250: fe69 1f3f 1a79 a83f 1fe7 ed3f 44f1 e63f
00000260: 31e2 753f 5fcf 2e40 ab5e cd3e eac7 103f
00000270: db62 fd3f f563 6d3e c7a8 cc3e 61b2 8d3e
00000280: ea72 cc3f 3ee5 3e3f 6721 e03f 3a8f 1a3f
00000290: 5b28 a43f ecd8 0640 ccbf 853f 66b4 8b3f
000002a0: 0d6a 903e 7147 883f c768 5340 0178 ef3f
000002b0: 9a93 c23f 8df0 4e3f 4bb5 b63f 311b c73e
000002c0: cbae d13f e5ca fc3f 8c21 7f3f 28b9 473f
000002d0: d85c 8a3f d342 943f 6f8b b23f 2966 0540
000002e0: 32bc d63f d5d3 7b3f 923b 8540 3b81 e73f
000002f0: 1536 473f 6171 2840 7c8b 483f 9eaa 5e3f
00000300: 08b7 723f bf72 013f 00fe d83f 0625 3840
00000310: cb2e 873f fa85 8b3f 2f38 533f 2c2b f03e
00000320: 1b81 b83f d4d4 e93f 5c4e 123f e6d1 5d3f
00000330: d620 733f 7a17 9b3f 2cbc 113f bde6 543f
00000340: 2cde 3e3f 8251 753f 2aec 873f bf94 843f
00000350: 2298 453f 00d2 7d3f b324 843f 8047 8a3f
00000360: 9c13 c63f d055 e23f c4e3 2340 229d e73e
00000370: 162f ec3f f108 7e40 f22a 893f 768f 8e3f
00000380: 33e2 c53f 78d0 4d3f 547f 0b3f 1903 583f
00000390: 588b ad3f 10c6 fe3e 8375 a03e ce70 e73f
000003a0: 6097 e03f 4ced b93f 5e26 813f 768a e73f
000003b0: 9ce7 893f f8df 823f f7fc 933f fb68 403f
000003c0: 03a1 3f3f 94bf e03f 2aa8 773f 961f da3f
000003d0: d12d 2e3f 2bbc b13f af87 e43f 7234 b43f
000003e0: 492b 9a3f d320 df3e 94ef 0240 d454 b33f
000003f0: e2f0 773f ff83 493f e22f 853f 8a3c 853f

fc2.weight f4 [300, 300]
-0.13190679 0.08477579 0.18543518 -0.22961691 0.048049442 -0.2316464 -0.096646026 -0.31646812
-0.09940547 -0.02383405 0.082465135 -0.28315267 -0.22919473 -0.24303444 -0.1302433 -0.00045620493
-0.060139816 0.06751874 0.04894305 -0.0051526604 -0.18106203 -0.052647308 -0.2361618 0.12589443
-0.15650946 -0.072427124 0.018391024 -0.0702486 -0.06610527 -0.07541955 -0.111307584 0.024908785
-0.28852457 -0.24733618 -0.051366176 -0.16581379 -0.008720869 -0.053063493 -0.17027064 0.1485925
-0.28186396 0.16331702 -0.21370953 -0.049596842 -0.051468387 -0.05413343 -0.21155854 -0.27922446
-0.26250103 -0.15740995 -0.28806025 -0.21054868 -0.010815065 0.101942204 -0.11847717 -0.094601676
-0.2016574 -0.040199075 -0.11540466 0.09015148 -0.3519197 -0.21861695 -0.062768556 0.20139496
-0.08256241 -0.02966241 -0.2122138 -0.030018102 0.011916506 -0.18465409 -0.27006337 0.055947136
-0.098120615 -0.2689712 -0.27371582 -0.27370897 0.009720782 -0.03611775 0.042206682 -0.08239772
0.041666396 -0.24931775 -0.06502576 0.017925465 0.0650902 -0.027789596 -0.139199 -0.35059768
-0.12880024 -0.09440726 -0.01206387 -0.015592407 -0.057306025 -0.23873056 0.10479056 -0.052535802
-0.4437858 -0.11705611 -0.047213193 0.10281406 -0.1315094 -0.051904798 -0.20657274 -0.23823588
-0.2376874 -0.09597137 -0.054874714 -0.031133614 -0.02241738 0.018348357 -0.10822583 -0.08186397
-0.043456025 -0.080642976 0.07768998 -0.002347123 -0.0032820243 -0.07306662 -0.112079464 0.0076766056
-0.13141711 -0.16649629 -0.028139925 0.06355308 -0.3655971 -0.07299361 -0.11605277 -0.11057262
-0.112340316 -0.15567365 -0.15866195 -0.13528074 -0.09567769 -0.2968899 -0.087139525 -0.07777938
-0.4042741 0.029872771 -0.20580657 0.054367073 -0.20878263 -0.017181229 -0.1734818 0.027193762
-0.0040614647 -0.12044271 -0.17594175 -0.048829556 0.012659392 -0.053961366 -0.2983884 -0.3517335
-0.22972396 -0.097577795 -0.28747654 -0.01706917 -0.39712152 -0.21323834 -0.0009059681 0.070476316
0.016163416 -0.27041018 -0.0002993029 -0.22177763 -0.20062225 -0.07706534 0.03775941 0.036921676
-0.0694877 -0.078510605 0.037098918 -0.28287062 -0.25849953 -0.04616349 -0.040976495 -0.15322813
-0.05587324 -0.22858277 -0.026537228 -0.21568626 -0.1951605 -0.21019103 -0.26017487 0.05708119
-0.111713514 -0.06681427 -0.0827536 -0.048802517 -0.2011615 -0.07264144 -0.087579064 0.042036224
-0.085512966 -0.3249754 -0.015960973 -0.010792421 -0.10787621 -0.26420972 -0.15831181 -0.1705717
0.011211133 0.0028586162 -0.17516322 -0.06425518 -0.14609355 -0.21938044 -0.040504172 -0.22292359
0.049371842 -0.0060443925 -0.00046451233 -0.1474723 -0.3327922 -0.30366224 -0.017879652 -0.19543265
-0.008878121 -0.3325834 0.113515034 -0.092142396 0.0024342397 -0.02816752 -0.044071764 -0.28982702
-0.3095471 -0.14929667 -0.078456275 -0.114841565 -0.31119367 -0.1477534 -0.060833197 0.100062706
-0.17181784 -0.019752327 -0.2665655 -0.2045647 -0.07867308 -0.15489282 -0.06622379 -0.11145242
-0.13811684 -0.088345736 -0.07547806 -0.09280694 0.023817535 -0.06355263 -0.08782467 -0.25669208
-0.16900773 -0.08041355 0.12053326 0.023631189 0.062696144 -0.003365932 -0.032463085 -0.19787857
00000000: 9312 07be ee9e ad3d b8e2 3d3e b220 6bbe
00000010: 7ecf 443d b734 6dbe 5aee c5bd 1c08 a2be
00000020: 1895 cbbd a03f c3bc 7be3 a83d 63f9 90be
00000030: 06b2 6abe 05de 78be 805e 05be ca2e efb9
00000040: 2b55 76bd 4447 8a3d 8278 483d a6d7 a8bb
00000050: 5368 39be b4a4 57bd 66d4 71be 78ea 003e
00000060: 0444 20be ac54 94bd c6a8 963c 7fde 8fbd
00000070: 3362 87bd 9175 9abd 3bf5 e3bd 820d cc3c
00000080: 7eb9 93be b245 7dbe 5765 52bd 17cb 29be
00000090: fae1 0ebc 1b59 59bd 6d5b 2ebe a228 183e
000000a0: 7950 90be 943c 273e acd6 5abe 0f26 4bbd
000000b0: 84d0 52bd 04bb 5dbd cda2 58be 82f6 8ebe
000000c0: 8966 86be 1330 21be a27c 93be 139a 57be
000000d0: ac31 31bc 13c7 d03d 29a4 f2bd 86be c1bd
000000e0: 477f 4ebe c9a7 24bd 4759 ecbd 57a1 b83d
000000f0: d22e b4be 1fdd 5fbe cd8c 80bd 7b3a 4e3e
00000100: 7b16 a9bd 95fe f2bc 934e 59be 86e8 f5bc
00000110: 733d 433c f615 3dbe bf45 8abe d328 653d
00000120: 76f3 c8bd 98b6 89be 7b24 8cbe 9523 8cbe
00000130: ea43 1f3c 35f0 13bd eae0 2c3d 23c0 a8bd
00000140: 62aa 2a3d 274d 7fbe 3a2c 85bd 6dd8 923c
00000150: 034e 853d 02a7 e3bc 2f8a 0ebe 8a81 b3be
00000160: 36e4 03be 9858 c1bd 8aa7 45bc 4c77 7fbc
00000170: b9b9 6abd c975 74be 6f9c d63d c82f 57bd
00000180: e437 e3be 1dbb efbd 9f62 41bd 2e90 d23d
00000190: 66aa 06be 209a 54bd ce87 53be 1bf4 73be
000001a0: 5364 73be a38c c4bd 4fc4 60bd ec0b ffbc
000001b0: a7a4 b7bc 4b4f 963c 81a5 ddbd 4ca8 a7bd
000001c0: f2fe 31bd 2528 a5bd ed1b 9f3d 31d2 19bb
000001d0: 3b17 57bb f4a3 95bd eb89 e5bd 098c fb3b
000001e0: 3592 06be 017e 2abe b385 e6bc 1e28 823d
000001f0: 8b2f bbbe ac7d 95bd 13ad edbd e673 e2bd
00000200: ae12 e6bd ea68 1fbe 4778 22be 0987 0abe
00000210: aaf2 c3bd f401 98be 3576 b2bd cc4a 9fbd
00000220: 04fd cebe beb7 f43c f5be 52be 02b0 5e3d
00000230: 1dcb 55be a6bf 8cbc 37a5 31be 74c5 de3c
00000240: 0916 85bb abaa f6bd 132a 34be 8001 48bd
00000250: 5769 4f3c 9806 5dbd 5dc6 98be 6a16 b4be
00000260: c23c 6bbe ded6 c7bd 2030 93be a5d4 8bbc
00000270: 8353 cbbe 275b 5abe 7d7e 6dba e355 903d
00000280: 2469 843c 3473 8abe c1eb 9cb9 ad19 63be
00000290: eb6f 4dbe 6fd4 9dbd 9ca9 1a3d 2f3b 173d
000002a0: 914f 8ebd 2bca a0bd 09f5 173d 6bd4 90be
000002b0: 0d5a 84be ed15 3dbd f8d6 27bd d6e7 1cbe
000002c0: 57db 64bd 9a11 6abe 9a64 d9bc dcdc 5cbe
000002d0: 27d8 47be 513c 57be a435 85be f7cd 693d
000002e0: 0eca e4bd ecd5 88bd b87a a9bd 26e5 47bd
000002f0: 48fd 4dbe 09c5 94bd a75c b3bd 2d2e 2c3d
00000300: 6c21 afbd 2d63 a6be 96c0 82bc b2d2 30bc
00000310: 34ee dcbd 7f46 87be 7e1c 22be 59aa 2ebe
00000320: e6ae 373c 9f57 3b3b fd5d 33be 3898 83bd
00000330: 8c99 15be 44a5 60be b4e7 25bd 1546 64be
00000340: 213a 4a3d 0a10 c6bb ca89 f3b9 fb02 17be
00000350: bd63 aabe 9e79 9bbe 5978 92bc 7f1f 48be
00000360: 8a75 11bc 5f48 aabe 927a e83d 27b5 bcbd
00000370: c487 1f3b 92bf e6bc 9884 34bd 3564 94be
00000380: f57c 9ebe 3ae1 18be afad a0bd 0e32 ebbd
00000390: c754 9fbe ab4c 17be 3b2c 79bd aded cc3d
000003a0: 04f1 2fbe a2cf a1bc 467b 88be 6979 51be
000003b0: 5a1f a1bd 399c 1ebe 57a0 87bd 2b41 e4bd
000003c0: 806e 0dbe 9cee b4bd 3e94 9abd 9111 bebd
000003d0: fe1c c33c e227 82bd 6cdd b3bd 256d 83be
000003e0: 5d10 2dbe dcaf a4bd 24da f63d 3296 c13c
000003f0: d666 803d f896 5cbb 03f8 04bd aea0 4abe

fc2.bias f4 [300]
-0.22017774 -0.15918773 -0.04794773 -0.06023883 -0.8756054 -0.027138904 -0.048115052 -0.7271762
-0.14433043 -0.537485 -0.0002375131 -0.34439394 -0.0705849 0.009034011 -0.061318737 -0.124975495
-0.15232176 -0.07577277 -0.46062982 -0.40037414 0.023586815 -0.01620735 -0.3767971 -0.2207447
-0.11752667 -0.49867645 -0.7485779 -0.1706919 -0.03101511 -0.09005421 -1.0718808 -0.12899208
-1.8262758 -0.13555236 -0.060507588 -0.07518336 -0.06533933 0.15624046 -0.038613312 -0.043808408
0.018896222 0.22448966 -0.21608557 -0.019823333 -0.23975767 -0.15270591 -0.26942912 1.0394914
-0.057840277 -1.583766 -0.09941014 -0.14121631 0.5479043 -0.061854992 -0.5230052 -0.3748218
-0.055813123 -0.3441697 -0.061715387 -0.050097547 -0.19482292 -0.071829475 -0.0028605014 -0.13678259
1.1410726 -0.10966365 -0.075384736 -0.051884267 -0.17150792 -0.2049969 -0.06629593 -0.01655
-0.07592965 -0.15987004 -0.057182845 0.4580332 -0.5424617 0.110584565 0.26035947 -0.08629828
-0.0904401 -0.10747458 -0.29434946 -0.7899944 -0.16297974 -0.12453828 -0.031624712 0.330705
-0.38317382 -0.07815337 -0.003107259 -0.24786013 -0.061275344 -0.003907061 -0.027140146 -0.07969267
-0.34825546 0.7062138 -0.06380032 -1.1737247 -1.0525529 -0.5432986 -0.30109113 -0.27795112
-0.14294405 -0.23462044 -0.09901431 -0.14048283 -0.014862661 -0.123193964 0.13054754 -0.09772496
-0.030363891 -1.0109178 -0.26885366 -0.1117966 -0.19873245 -0.31067392 -0.27620184 -0.4781201
-0.036297955 -0.32360035 -0.12812428 0.18377985 0.067770645 -0.061914016 0.5393181 -0.08027365
-0.41650447 -0.065327324 -0.07486654 0.07878629 0.09442176 -0.115057066 -0.1233161 -0.06533944
-0.15802567 0.1864674 0.42933488 -0.16409922 -0.05965797 -0.09296381 -0.15395685 -0.063798174
-0.68175036 0.906941 -0.07562206 -1.1908343 -0.06617427 0.043662068 -0.17524351 -0.118106954
-0.10259297 -0.82914084 -0.572274 -0.109993845 -0.26902315 0.49886152 -0.5188463 -0.10886402
-0.01758532 -0.1449958 -0.06440842 -0.0054440536 -0.29144818 -0.103168875 0.011243127 -0.09076532
-1.1351548 -0.25351867 -0.028221581 -0.05732879 -0.20683101 -0.3489336 -0.20597671 -0.16853297
-0.18039213 0.74266386 -0.36881867 -0.15461437 -0.16615209 0.18154134 -0.17211495 0.6581216
-0.19310546 -0.05812563 -0.17185123 -0.293981 -0.09274528 -0.2377566 -0.09363973 0.827802
-0.8527694 -0.03468291 -0.08122574 -0.13353702 0.17007379 0.53428364 -0.6983707 1.0146387
0.68279624 -0.91851795 -0.96927106 -0.105666116 -0.24555056 -0.93696475 -0.79726243 -0.36471015
-0.0441388 -0.86993015 -0.04278277 -1.0754571 -0.10756283 0.3926308 -0.17981836 -0.32891384
0.24468488 -0.18026897 -0.07541311 -0.302473 -0.10651548 0.07861915 -0.32728958 -0.9168007
-0.3771611 -0.04480481 -0.13090503 -0.19039553 -0.8474354 -0.37757713 -0.028950918 -0.687082
-0.09708296 -0.33404097 -0.1647954 0.9334571 -0.14848895 -0.036656123 -0.098717935 -0.47621557
0.42158476 0.04731546 -0.38877347 -0.08544071 -1.139872 -0.3937208 -0.18626432 -0.2353878
-0.08194409 -0.9381191 -0.06613144 -1.0927999 -0.3185507 -0.15213777 -1.4573334 0.23650606
00000000: 4676 61be 1c02 23be d764 44bd febc 76bd
00000010: ad27 60bf 6852 debc 4a14 45bd 3828 3abf
00000020: 5bcb 13be 9e98 09bf f00c 79b9 6754 b0be
00000030: d18e 90bd 6303 143c 5b29 7bbd 27f3 ffbd
00000040: 3cfa 1bbe c12e 9bbd acd7 ebbe d7fd ccbe
00000050: 2339 c13c 47c5 84bc 8deb c0be e60a 62be
00000060: d3b1 f0bd 8552 ffbe cda2 3fbf dcc9 2ebe
00000070: 6613 febc 576e b8bd 6433 89bf 8016 04be
00000080: 68c3 e9bf 3dce 0abe ced6 77bd bcf9 99bd
00000090: a0d0 85bd 80fd 1f3e fe28 1ebd 7270 33bd
000000a0: 40cc 9a3c 9ee0 653e 8945 5dbe 8b64 a2bc
000000b0: 0983 75be f05e 1cbe 9df2 89be 0e0e 853f
000000c0: ede9 6cbd d8b8 cabf 8b97 cbbd 029b 10be
000000d0: 7543 0c3f a95b 7dbd abe3 05bf a5e8 bfbe
000000e0: 4d9c 64bd 0337 b0be 46c9 7cbd 1633 4dbd
000000f0: a97f 47be 551b 93bd 4077 3bbb bc10 0cbe
00000100: ab0e 923f 5697 e0bd 5063 9abd 9984 54bd
00000110: c69f 2fbe b5ea 51be 29c6 87bd de93 87bc
00000120: 0181 9bbd f9b4 23be 8f38 6abd 5483 ea3e
00000130: c5de 0abf 297a e23d d64d 853e 27bd b0bd
00000140: a938 b9bd a21b dcbd f9b4 96be 133d 4abf
00000150: 29e4 26be ed0d ffbd ea88 01bd 2a52 a93e
00000160: 5c2f c4be e00e a0bd 28a3 4bbb 0ccf 7dbe
00000170: dbfb 7abd ce06 80bb 0355 debc e935 a3bd
00000180: 8a4e b2be 6dca 343f bea9 82bd 9c3c 96bf
00000190: 0eba 86bf 9e15 0bbf 9e28 9abe 9c4f 8ebe
000001a0: ed5f 12be 5740 70be 04c8 cabd bbda 0fbe
000001b0: 8582 73bc 1e4d fcbd 41ae 053e 0624 c8bd
000001c0: b2bd f8bc c165 81bf 30a7 89be 9ef5 e4bd
000001d0: 8580 4bbe a710 9fbe 546a 8dbe 28cc f4be
000001e0: 2aad 14bd f2ae a5be 0333 03be c930 3c3e
000001f0: 56cb 8a3d 8d99 7dbd c010 0a3f 8366 a4bd
00000200: 1340 d5be 55ca 85bd a153 99bd b55a a13d
00000210: 3260 c13d 0aa3 ebbd 278d fcbd afd0 85bd
00000220: 7bd1 21be 4ff1 3e3e c8d1 db3e a009 28be
00000230: ea5b 74bd cf63 bebd dda6 1dbe 9ea8 82bd
00000240: 3187 2ebf 492d 683f bddf 9abd 426d 98bf
00000250: 6086 87bd ffd6 323d 0973 33be 0fe2 f1bd
00000260: 431c d2bd 9342 54bf 8d80 12bf 7444 e1bd
00000270: 67bd 89be c76a ff3e 1cd3 04bf 19f4 debd
00000280: 170f 90bc c779 14be 90e8 83bd 0864 b2bb
00000290: b238 95be 344a d3bd 1835 383c 2be3 b9bd
000002a0: c14c 91bf 33cd 81be f230 e7bc 98d1 6abd
000002b0: 82cb 53be 6da7 b2be 8feb 52be e893 2cbe
000002c0: b7b8 38be 381f 3e3f cdd5 bcbe 3b53 1ebe
000002d0: c623 2abe f9e5 393e e73e 30be a87a 283f
000002e0: 70bd 45be 2415 6ebd c5f9 2fbe ad84 96be
000002f0: 3df1 bdbd 7776 73be 30c6 bfbd d5ea 533f
00000300: 184f 5abf ab0f 0ebd ae59 a6bd eebd 08be
00000310: d327 2e3e d0c6 083f 6cc8 32bf aedf 813f
00000320: bccb 2e3f fe23 6bbf 2622 78bf 7a67 d8bd
00000330: 9b71 7bbe ecdc 6fbf 6419 4cbf 4abb babe
00000340: e3ca 34bd beb3 5ebf fc3c 2fbd 94a8 89bf
00000350: e749 dcbd e706 c93e 4e22 38be 6567 a8be
00000360: ac8e 7a3e 6e98 38be 3072 9abd bedd 9abe
00000370: ca24 dabd 1403 a13d 8092 a7be 73b3 6abf
00000380: 421b c1be 4085 37bd f80b 06be 0cf7 42be
00000390: 87f1 58bf ca51 c1be 7a2a edbc 9be4 2fbf
000003a0: 6ed3 c6bd 6b07 abbe 20c0 28be 0bf7 6e3f
000003b0: 7d0d 18be bb24 16bd a12c cabd 87d2 f3be
000003c0: f5d9 d73e dbcd 413d 510d c7be 8afb aebd
000003d0: 53e7 91bf c695 c9be 13bc 3ebe 8009 71be
000003e0: 4ed2 a7bd 9328 70bf ec6f 87bd dee0 8bbf
000003f0: 1419 a3be 01ca 1bbe e789 babf a52e 723e
