bipedal_walker/bipedal_actor.pt (torch_old, 402489 bytes, 10 tensors)

fc1.weight f4 [300, 24]
000000 4f 51 21 bd 48 3a b9 3f 1d a6 17 c0 35 fe 70 40
       -0.039384183 1.4470911 -2.3695138 3.7655156
000010 64 4d 1b bf e6 2d a4 be 0a 60 7b 3e 64 a0 75 3e
       -0.60664964 -0.32066268 0.24548355 0.23986965
000020 33 e1 9b 3e fa 86 1f 3f 6f 66 df bf b1 7e db bd
       0.3044525 0.6231533 -1.7453135 -0.10717524
000030 a9 3d 1c bf 1b 34 1c bf 71 43 ad 3c bc 81 16 3e
       -0.61031586 -0.61017007 0.021150323 0.14697927
000040 2a 2b 2f 3e 75 1f 38 3e a5 f5 7c 3e 4a fe 9f 3e
       0.1710631 0.1798075 0.24703081 0.31248695
000050 b9 2d bd 3e 90 28 ed 3e a5 32 02 3f f7 23 f6 bf
       0.36948946 0.4632001 0.5085853 -1.9229726
000060 77 d3 bd 3e 63 d2 8d 3f 62 d1 9c bf 0d e6 4f c0
       0.37075397 1.107983 -1.2251399 -3.2484162
000070 16 d8 56 bf 9c 55 ac bf 17 0d 0e bf cb a1 c1 bd
       -0.8392347 -1.3463626 -0.55488724 -0.09454688
000080 16 10 5c 3f 87 f4 1d be 1c d3 ab be 23 62 ca 3e
       0.85962045 -0.15425311 -0.335595 0.39527997
000090 60 19 a5 bd ae 95 fd 3d fa e8 39 bf 4f 9c 2c bf
       -0.080614805 0.12382065 -0.7262112 -0.6742601
0000a0 de cf 1e bf 41 d5 14 bf 5f 8a ef be 7f a1 dd be
       -0.6203593 -0.581379 -0.46785256 -0.43287274
0000b0 67 83 be be 61 5f 9f be 53 95 8f 3d f2 64 3d 40
       -0.37209627 -0.31127456 0.07010903 2.9592862
0000c0 69 08 d2 be 22 bc 7d bf 30 0f 4d 40 aa ae 3a 3f
       -0.4102204 -0.9911519 3.204052 0.72922766
0000d0 49 f7 df bf 85 e2 ea 3e 14 f3 ed 3e 92 e1 81 be
       -1.749734 0.45875946 0.46474516 -0.2536741
0000e0 25 5e d9 3e 0f ca 0f be 09 5d a7 bd c1 18 23 bf
       0.4245464 -0.14041923 -0.08172042 -0.63709646
0000f0 38 fd 83 be 30 85 15 bf d7 fc 17 3e 5d 69 8a 3d
       -0.25779128 -0.58406353 0.14842544 0.06758378
000100 23 f1 19 3d 29 4b ac 3d eb d9 07 bd 20 da 4b bd
       0.03758348 0.08412773 -0.033166807 -0.049768567
000110 07 35 b4 bc 47 84 db 3d 28 19 ac 3d 48 5a 14 40
       -0.021997942 0.10718589 0.08403236 2.3180103
000120 c4 42 31 3e 34 73 36 3f 1d c1 fc 3d 66 f6 ef 3e
       0.17310625 0.71269536 0.12341521 0.46867675
000130 38 be 13 40 bc cd a0 be fa 91 50 bf 05 6d f2 3d
       2.308485 -0.31406963 -0.8147274 0.118372
000140 b3 1e 88 3f 2a 71 1c 3f 8b 60 6a 3e 5b ff c2 be
       1.0634369 0.61110175 0.2288839 -0.38085446
000150 b7 5a 33 bd db 96 2a bf 76 46 b1 3e 9c f8 8f 3e
       -0.043787684 -0.6663644 0.3462407 0.2811936
000160 b4 c3 3c 3e 53 93 de 3d dd cb 39 3d b8 19 bb 3d
       0.1843403 0.108679436 0.045360435 0.09135765
000170 b7 29 b5 3e 63 c5 28 3f 6a 0d 8b 3f 6b a6 93 3f
       0.35383388 0.6592619 1.0863469 1.1535162
000180 91 43 19 c0 88 74 56 c0 c2 85 a7 3f ce ac 49 bf
       -2.394749 -3.3508625 1.3087695 -0.78779304
000190 56 6f 9b bf b0 5c 66 be ea 3b 7c bf ee 89 a4 3d
       -1.2143352 -0.22496295 -0.9852892 0.080341205
0001a0 65 2f 29 3e 76 39 5a 3e 32 a8 5d 3e f0 d1 21 3e
       0.16521986 0.21310982 0.21646193 0.15802741
0001b0 f1 70 3c bc 7d db 96 3d 12 cc 3b 3e e8 b2 8c 3e
       -0.011501537 0.07366083 0.18339565 0.27480245
0001c0 bc d5 5d 3e 4c d0 55 3e 8b 86 12 3e 7b 73 c1 3a
       0.21663564 0.2088024 0.14309137 0.0014759147
0001d0 3d a5 48 be d0 e0 4d be 74 d6 81 3f bd 82 d9 3f
       -0.19594283 -0.2010529 1.0143571 1.6993023
0001e0 9a 3b b7 bf 72 a0 9f 40 e6 84 96 bf bc 6d 62 40
       -1.4315064 4.9883356 -1.1759307 3.5379477
0001f0 2a f0 07 bf b6 9f c8 bc 40 33 f8 3b 67 27 e6 3d
       -0.53100836 -0.024490219 0.007574469 0.11237984
000200 7c 1b de 3d 63 43 44 3f d3 34 25 3d 31 bb 0e 3f
       0.10845086 0.76665324 0.04033358 0.5575438
000210 02 70 2b be ea 5f 6d bc 57 24 35 3f 96 f9 32 3f
       -0.16741946 -0.0144882 0.70758575 0.6991209
000220 4e e0 36 3f dd 6e 50 3f 1b 6c 58 3f a8 70 5f 3f
       0.7143601 0.81419164 0.84539956 0.87281275
000230 5d c0 2f 3f b9 b0 d0 3e d5 62 a1 bd 3a ea bb 3f
       0.686529 0.4075983 -0.07880179 1.4680855
000240 36 77 12 c0 34 0e f0 be d6 98 4e 3e 55 bd 62 bf
       -2.288526 -0.46885836 0.2017549 -0.8857015
000250 90 24 e7 bf 09 83 00 be 89 98 44 bf 97 e1 d3 be
       -1.8058033 -0.12549986 -0.7679525 -0.4138305
000260 10 de 51 be 51 d1 4c 3f 96 4f 7c be 9c bd ed bd
       -0.20494866 0.8000689 -0.24639735 -0.11608431
000270 6a db ac be 44 3d ba 3d 0d ee 9c be e5 3b 42 be
       -0.3376115 0.09093717 -0.30650368 -0.1896816
000280 23 b1 1d be 3d 7b 7d bc 4b 63 16 3d 80 1c fb 3d
       -0.15399604 -0.015471277 0.036715787 0.12261295
000290 97 d5 48 3e 42 98 10 3e e3 ef b4 3b e2 96 dd be
       0.19612728 0.14120582 0.005521761 -0.43279177
0002a0 f0 49 ba bf 10 9f db 3f 16 31 ad bf 15 14 2e 3f
       -1.4553814 1.7157917 -1.3530605 0.6799939
0002b0 20 9f a4 3e 0a 84 07 bf 7c 6b 81 be 33 4f 3d be
       0.32152653 -0.5293585 -0.25277317 -0.18487243
0002c0 a1 66 59 bf 18 d4 2e 3f f4 96 eb 3e 2f fd 50 bf
       -0.84922224 0.6829238 0.46013606 -0.8163633
0002d0 2d 5d c5 bf a5 9b 37 3f a9 10 24 3e aa 76 34 3e
       -1.541906 0.7172187 0.1602198 0.17623392
0002e0 13 70 94 3e e3 98 79 3e 7c cb 9f 3e 00 78 48 3e
       0.28991756 0.24374728 0.31209934 0.19577026
0002f0 15 7e 07 3e b8 79 de 3d ec 38 0e 3f 92 fa 81 bf
       0.1323169 0.1086306 0.55555606 -1.0154593
000300 d0 e0 1a bf 3e ee 93 c0 9d 27 80 3f 36 07 9c bf
       -0.60499287 -4.6228323 1.0012089 -1.2189701
000310 33 08 29 be d2 c2 96 3f 6c 92 01 bf 8d 9c 15 bf
       -0.16507034 1.1778204 -0.5061405 -0.58442
000320 47 3f 28 bd ec 78 f0 be 95 ce 4a 3e 71 fb cc 3d
       -0.04107597 -0.46967256 0.19805367 0.10008896
000330 af 33 7a 3e 60 59 51 3f 79 45 b8 bf 67 15 9c bf
       0.24433778 0.81777 -1.4396201 -1.2194031
000340 dd 6b 95 bf 87 6c 75 bf 2d 4a 4c bf ed 27 16 bf
       -1.1673542 -0.95868725 -0.79800683 -0.5865467
000350 f7 c8 8b be de fa 08 3d f7 95 87 be a6 34 0b 40
       -0.27301762 0.03344237 -0.26481602 2.1750884
000360 58 57 9b bf 74 ab 33 40 c8 90 57 bf e9 91 59 40
       -1.213603 2.8073397 -0.84205294 3.3995306
000370 48 de ae 3f 79 54 54 be 74 c0 0f 3f a2 6c 67 bd
       1.3661585 -0.20735349 0.56153035 -0.056500085
000380 b1 98 97 be e0 40 e4 3d db 91 65 bc 8c d4 7b bd
       -0.29608682 0.111451864 -0.014011825 -0.061481997
000390 a9 a4 dc be 28 e7 aa 3e 7e ac 97 be 19 06 d5 be
       -0.43094376 0.33379483 -0.2962379 -0.41606215
0003a0 22 b7 f1 be ad 37 f9 be 1b af 29 bf 71 4a 39 bf
       -0.47210032 -0.4867529 -0.66282815 -0.72379214
0003b0 f8 eb 45 bf 22 83 44 bf 30 d5 8d bf 4c 7f 79 40
       -0.77313185 -0.7676259 -1.1080685 3.8983946
0003c0 43 46 80 3f 99 b0 1b 40 4c 95 27 bf 78 a9 64 bf
       1.0021442 2.4326537 -0.65462184 -0.8932109
0003d0 f3 8a bd 3e 46 39 98 3e 6b ac e2 be 6d ea aa bf
       0.37020072 0.29731196 -0.4427217 -1.3352791
0003e0 6e da 5f 3e f4 c9 b8 be 41 d4 1c bf 2e 0c 85 bf
       0.21860668 -0.36091578 -0.61261374 -1.0394342
0003f0 8f 9d 39 3f 2c 88 a6 3e d5 33 95 3d 24 85 d9 3d
       0.7250604 0.32525766 0.07285277 0.10621098

fc1.bias f4 [300]
000000 d9 b4 59 bc c8 88 0f 3e 09 cb 10 3b 7c 90 f8 3d
       -0.013287746 0.14017022 0.0022093675 0.12136933
000010 48 78 87 3d c5 06 45 bd ed 13 b5 bd 9c 14 ec 3d
       0.06614739 -0.04810216 -0.08841691 0.115273684
000020 a8 31 3d be b4 cc a2 3c 85 51 2c 3e 79 5b 63 be
       -0.18475974 0.019873 0.16827972 -0.22202863
000030 2d 1b ff 3d 1e 1a 4a be 62 74 63 3e f8 3f 1e be
       0.12456355 -0.19736525 0.22212365 -0.1545409
000040 d9 9e 83 3d 11 6e 2a 3e 60 e7 36 be 47 cf 41 be
       0.06426782 0.1664355 -0.178617 -0.18926726
000050 52 46 b9 3d f3 98 ae bd 4c c6 e6 3d 15 1c e1 bd
       0.09046616 -0.085252665 0.11268291 -0.10991684
000060 81 58 e2 3c a4 61 ea 3c c1 38 e4 bd 4e c2 f7 bb
       0.027630093 0.028611012 -0.111436374 -0.0075610047
000070 d9 ca 01 3e 07 d0 72 3d 70 db f4 bd e6 d8 5f be
       0.12675036 0.05928042 -0.11955917 -0.21860084
000080 a1 ce b0 3c ad 99 25 3e 90 59 0b 3e 0c 00 25 be
       0.021582903 0.16171904 0.13608384 -0.16113299
000090 cd 19 11 bd 4d 43 05 be ac 7a d3 ba 6a 27 c6 3d
       -0.035424996 -0.13013954 -0.0016134582 0.096754864
0000a0 69 fe 16 be a9 c6 b8 bb af c8 0b 3d 3d 0d 41 3d
       -0.14745487 -0.0056389165 0.034126934 0.047131766
0000b0 15 2b 0e bd 44 a8 b6 bd 2a c1 31 3e 38 d4 9b bd
       -0.034709055 -0.08918813 0.17358842 -0.07608837
0000c0 ec 87 c7 bd 26 f4 90 3c 88 22 f2 3d f4 be f7 bd
       -0.09742722 0.017694544 0.118229926 -0.12096968
0000d0 f4 2d 3c 3e 1e 45 f6 bc 40 6a b3 3d e3 4c 20 3e
       0.18376905 -0.030062255 0.087605 0.1565433
0000e0 f0 c2 30 be 0d b7 1b 3e b7 2e 0b bd 37 8f 11 3e
       -0.17261863 0.15206547 -0.033980098 0.14214788
0000f0 e1 98 4b 3d 89 6f fb bc 14 3f b0 bd 33 ba 1f 3d
       0.049706344 -0.030692833 -0.08605781 0.038995933
000100 ed 4c b7 3d 1b 0d 07 3f d6 66 18 3e 93 2b 14 3e
       0.08950219 0.5275437 0.14882979 0.14469747
000110 84 e3 51 be 73 67 3b 3e f0 b5 24 3d 01 c3 19 be
       -0.20496947 0.18301181 0.04021257 -0.15015794
000120 a0 15 2d be 6c 3b 49 3e a9 e7 b9 bd c7 50 1a 3d
       -0.1690278 0.19651574 -0.09077389 0.03767469
000130 a0 c2 e5 bd 19 d4 5e be c2 70 90 bd 9d e3 27 be
       -0.112187624 -0.21760596 -0.07052757 -0.16395421
000140 2e 95 12 3d df 9c 77 3e 31 22 14 3e 3a be 54 3d
       0.0357868 0.24180935 0.14466168 0.051939227
000150 70 a7 e7 bd 62 19 57 be 58 3a d1 bd 97 a2 d8 bd
       -0.11311233 -0.21005777 -0.10216206 -0.105778866
000160 93 dd f7 3d 9f 51 9c bd e5 a1 52 be c6 88 be 3c
       0.12102809 -0.076327555 -0.2056957 0.023258578
000170 f2 09 ca bd 21 6e 0e bd ec 1b 9c bd ce cb 16 3e
       -0.09865178 -0.034772996 -0.07622513 0.14726183
000180 16 7a 86 bd 75 e6 90 bd f2 c3 38 3e a3 f2 1d 3e
       -0.06566255 -0.07075206 0.18043497 0.1542459
000190 73 cd 33 bd 65 1a 29 be 41 ff 06 3d fa 77 23 3e
       -0.043897104 -0.16513975 0.032958273 0.15963736
0001a0 fc 10 0d 3e c5 36 d4 bd 9f 93 47 be 57 23 fc bd
       0.1377601 -0.10362009 -0.19489907 -0.12311428
0001b0 1f 38 38 be 0c 3f 19 3e 7c 65 ed bd 78 53 19 3d
       -0.17990158 0.14965457 -0.11591622 0.037433118
0001c0 16 56 38 3e ac bb ba 3d 80 b5 10 be e0 af cd bc
       0.18001589 0.09117827 -0.14131737 -0.025108278
0001d0 d1 28 2c 3e 7c 78 be 3c b5 0b 9f bb ba b6 fb 3d
       0.16812445 0.02325081 -0.0048536905 0.12290712
0001e0 c0 e6 2e be 14 1e 0b be 52 c5 93 3c 8b a8 22 3e
       -0.17080212 -0.13585693 0.018038426 0.15884607
0001f0 fd 0d 65 bd 09 0e 98 bd 1d cb 4c be 5d b3 66 be
       -0.055921543 -0.07424552 -0.19999357 -0.22529359
000200 a0 b4 69 3d 97 66 d4 bd ef ac 90 bc ba 42 85 3d
       0.057057023 -0.1037113 -0.017660586 0.06506868
000210 62 66 a9 3d 5c 83 45 be f1 1b 9f 3d 55 8c 8e bd
       0.08271481 -0.19288391 0.07769001 -0.0696036
000220 d9 8f 86 bd 2f a8 3f bd 88 23 38 be 51 cb 10 bd
       -0.065704055 -0.04679125 -0.17982304 -0.035350148
000230 4b 53 4d 3d 2b 84 2a be a1 e9 94 bd 9a ef 2e be
       0.050128262 -0.1665198 -0.07271124 -0.17083588
000240 60 e3 0c be 12 e9 eb bd ee 02 43 3e 57 c9 c4 bc
       -0.13758612 -0.11519064 0.19044086 -0.024021788
000250 58 15 1d 3e f1 b1 20 be d7 d4 bf bd 04 81 27 be
       0.15340173 -0.1569288 -0.09366768 -0.1635781
000260 31 9a cb 3d 44 37 5f be c4 b6 0c be bb 3e 3a bd
       0.09941519 -0.21798426 -0.13741595 -0.04546998
000270 d8 cb 62 3d ca 24 ac 3d f0 7a ac be 0f 34 cd 3c
       0.05537018 0.084054545 -0.33687544 0.025049238
000280 ce aa 23 3d 76 62 bc 3d 3e ba 1e bd cd 63 df bc
       0.039957814 0.091984674 -0.038751833 -0.027269268
000290 3b 50 ae 3b 6c 4e c6 3d f7 b5 c6 3d c4 74 02 be
       0.005319623 0.096829265 0.09702676 -0.12739855
0002a0 63 29 46 bd d8 f1 d9 bd 01 41 14 bc a0 35 38 bc
       -0.048379313 -0.10641831 -0.009048701 -0.011243254
0002b0 35 f4 4b bd 6f e2 41 3e 19 38 43 3e f6 88 a9 3d
       -0.04979344 0.18934034 0.19064368 0.08278076
0002c0 c4 8f ed 3b 68 7b ec bd 93 66 0b 3e 9b 47 d8 bd
       0.007249804 -0.115469754 0.13613348 -0.10560533
0002d0 fd 3c bd bd 94 38 a4 3d d7 3b ff 3d ae 0e 7d 3d
       -0.09240148 0.08018604 0.124625854 0.061781578
0002e0 14 a4 05 3d 05 61 b7 bd bd 5f fb 3d be e0 5f 3e
       0.03262718 -0.08954052 0.1227412 0.21863076
0002f0 0a d8 4e 3d 9c b6 f7 3d c4 e9 b3 bd 41 c7 74 3d
       0.050499 0.12095377 -0.08784822 0.059760336
000300 1f 86 e0 bd 02 db 54 bd 3f d9 9b 3d 1d c8 a9 3d
       -0.109630816 -0.051966675 0.07609796 0.08290122
000310 44 75 e4 3d dc ae f2 bc 8f 38 57 bd a8 70 8f 3c
       0.11155179 -0.029624395 -0.052544173 0.017509773
000320 57 78 e0 3d 2d e2 dc 3c a3 58 f3 bd 22 c9 37 3e
       0.10960453 0.026963318 -0.118821405 0.1794782
000330 d4 b2 cb 3d 97 56 84 3d f5 73 09 3d 59 73 71 3e
       0.09946218 0.06461828 0.03355785 0.23579158
000340 78 d9 61 3b 43 56 72 3c 59 c0 ea 3d 69 49 15 3d
       0.0034461897 0.014791074 0.11462469 0.036446963
000350 1e 70 64 3d d1 68 68 bb 13 f6 ce 3c 4a 8d e1 bb
       0.055770986 -0.0035462866 0.025263822 -0.006883298
000360 db 39 13 be c2 37 91 bd 4d a4 38 3e 2e 0c 51 3e
       -0.14377539 -0.07090713 0.18031426 0.20414802
000370 2c 10 26 bc b4 b9 41 b9 56 75 db bd 17 78 09 3e
       -0.010135692 -0.00018475094 -0.107157394 0.13424717
000380 5b 52 4c be 30 1d 77 3d c4 35 92 3d b7 10 18 3d
       -0.19953291 0.06033057 0.07139161 0.037125316
000390 35 9f db 3d 96 5c 52 be 76 c6 b9 bd 2b b1 d9 bd
       0.10723726 -0.20543131 -0.090710565 -0.10629495
0003a0 35 42 ad 3d 4e d9 36 be a6 4f 0b be 2a d7 99 3d
       0.084598936 -0.17856333 -0.13604602 0.075117424
0003b0 ba e1 32 3d 25 fe 42 be b4 0b 15 3e 4e 43 02 3e
       0.0436723 -0.19042261 0.14555246 0.12720987
0003c0 a9 cc 1a 3d bc 2e 43 3b a8 f2 2f be cb 94 47 be
       0.037792835 0.0029782495 -0.1718241 -0.19490354
0003d0 4e a5 33 be 7d 9f 1b be 17 fd 0f be 91 58 d8 bd
       -0.17543527 -0.15197559 -0.1406139 -0.10563768
0003e0 10 a7 5c 3e e2 8a 31 be 3d 6e 45 3e 71 b7 32 3e
       0.21548104 -0.17338136 0.19280334 0.1745279
0003f0 65 d1 29 bd b0 65 88 bd ba 17 a4 3d b2 29 94 3b
       -0.04145946 -0.0666002 0.08012338 0.004521572

bn1.weight f4 [300]
000000 1f 1f 5a 3f 4e 14 7d 3f 1b a8 98 3f f9 f2 41 3f
       0.8520374 0.9885911 1.1926302 0.7576137
000010 76 fe b5 3f 08 42 ac 3f ff f5 52 3f bb ae 55 3f
       1.421828 1.3457651 0.8240661 0.8346974
000020 49 0d 89 3f 36 95 7b 3f f4 70 45 3f a1 9e 88 3f
       1.0707179 0.9827455 0.7712548 1.067341
000030 a1 bd 9a 3f fd 9c a8 3f 09 36 ca 3f a4 1f 70 3f
       1.208912 1.3172909 1.579774 0.9379828
000040 eb 93 ac 3f 82 e4 78 3f 9f d2 d3 3f 1b cf 04 3f
       1.3482641 0.97223675 1.6548651 0.5187852
000050 70 48 76 3f 95 51 89 3f 3e 8a 40 3f 44 35 c4 3f
       0.9620428 1.0728022 0.7521094 1.5328755
000060 fe 0d 69 3f 39 10 7f 3f b2 df ad 3f 72 25 d0 3f
       0.91036975 0.9963413 1.3583891 1.6261427
000070 ee 2a 3d 3f 83 9d 3c 3f 5d 86 8f 3f d3 3f 43 3f
       0.7389363 0.73677844 1.121288 0.76269263
000080 ea b7 50 3f af 0e 3b 3f 86 6b 6a 3f 3c ca ae 3f
       0.8153063 0.7306928 0.9157032 1.3655467
000090 95 27 41 3f 1c 23 d8 3e e4 71 2c 3f e4 b8 97 3f
       0.7545102 0.42214286 0.67361283 1.1853299
0000a0 97 5d 71 3f cf d1 06 3f 35 9f a5 3f 4d 45 fb 3f
       0.9428343 0.5266389 1.2939211 1.9630524
0000b0 65 0b 94 3f 3e b7 64 3f 1a 67 de 3f 71 6f 51 3f
       1.1565977 0.89342105 1.7375214 0.8181067
0000c0 be 62 90 3f 53 05 49 3f 47 d4 56 3f ff e6 cf 3e
       1.1280134 0.7852375 0.8391766 0.40605924
0000d0 f8 b7 c1 3f c2 20 a6 3f a0 ea 58 3f e0 7f 45 3f
       1.5134268 1.2978747 0.8473301 0.77148247
0000e0 b7 55 9f 3e 03 aa 45 3f 8e c5 b0 3f cb 12 9c 3f
       0.31120083 0.7721254 1.3810289 1.2193235
0000f0 e1 98 97 3f 71 52 4a 3f a2 52 fa 3e 5c 76 be 3f
       1.184353 0.79032046 0.4889117 1.487987
000100 3e 6d 82 3f 4c 64 e3 3f bc 05 e6 3e 0b 50 99 3f
       1.0189588 1.7764983 0.4492625 1.1977552
000110 fb c9 ad 3f 4b 11 5e 3f 51 3c eb 3e a9 80 a6 3f
       1.3577265 0.86745137 0.45944455 1.3008014
000120 a6 ca f3 3e 15 88 5c 3f 25 a1 7b 3f 9d 34 87 3f
       0.47615546 0.86145145 0.9829276 1.0562931
000130 00 ca 19 3f 72 60 9f 3f 18 f3 d8 3f 93 44 c5 3e
       0.6007385 1.2451308 1.6949186 0.3852888
000140 7f 61 77 3f 2b 3e a1 3f dc 2b 82 3f 4a f4 62 3f
       0.9663314 1.2597097 1.0169635 0.88654006
000150 c3 30 56 3f 07 c9 c9 3f 9f b3 f1 3f e4 86 47 3f
       0.83668154 1.5764474 1.8882941 0.779402
000160 0b a1 a6 3f 3d a9 3e 3f 29 0f 4c 3f bf c5 83 3f
       1.3017896 0.7447699 0.7971063 1.0294722
000170 b5 98 72 3f 5c 6d dd 3f 94 f4 e9 3f d2 73 99 3f
       0.9476426 1.7298999 1.8277764 1.198847
000180 0a 47 30 3f 91 0a 07 3f ec 1b 18 3f 75 0c 55 3f
       0.68858397 0.527505 0.59417605 0.8322213
000190 91 9b 4e 3f ca f8 6c 3f 07 14 b3 3f 21 9d 8d 3f
       0.80706125 0.9256712 1.3990487 1.1063577
0001a0 99 62 30 3f 68 e0 a0 3f a1 e8 a2 3f d3 cc 0f 3f
       0.6890045 1.2568483 1.2727243 0.5617191
0001b0 cd 27 94 3f 04 b7 5d 3f 1d 36 9d 3f cf ba 5b 3f
       1.1574646 0.86607385 1.2282139 0.8583192
0001c0 bf e5 96 3f 8f d6 9a 3f 57 d3 bc 3f 15 57 a9 3f
       1.1788863 1.2096728 1.4751996 1.32297
0001d0 b3 b5 a8 3f 99 cc 6c 3f f5 09 84 3f 4c 71 83 3f
       1.318045 0.9249969 1.0315539 1.026895
0001e0 19 7a 7f 3f 19 e7 47 3f 91 b6 7d 3f 5d 9f 81 3f
       0.9979568 0.78087 0.991067 1.0126759
0001f0 04 39 68 3f 92 26 e1 3f 90 71 10 3f 31 6b 27 3f
       0.90712 1.7589896 0.5642328 0.65397936
000200 a0 2a b1 3f 7e 34 59 3f 31 ef ba 3f 88 34 64 3f
       1.3841133 0.8484572 1.4604245 0.89142656
000210 fb 68 51 3f 90 28 61 3f 95 12 4a 3f 22 cc 23 3f
       0.8180081 0.8795252 0.78934604 0.63983357
000220 00 1a 45 3f a2 45 5c 3f 25 cd cc 3f c4 29 41 3f
       0.769928 0.8604375 1.6000105 0.75454354
000230 e4 29 5d 3f 3e 61 a2 3f be 23 c2 3f d6 30 5c 3f
       0.86392045 1.2685926 1.5167158 0.8601202
000240 9d 3c e8 3f 29 f2 30 3e ff 64 4b 3f 2a 99 cc 3f
       1.8143498 0.17279877 0.7945098 1.5984242
000250 53 5c ba 3f eb 79 4b 3f 63 01 93 3f 4a c5 38 3f
       1.4559425 0.7948291 1.1484798 0.7217604
000260 fc ac 89 3f 82 16 61 3f 38 04 7d 3f 70 9d a0 3f
       1.0755916 0.8792497 0.9883456 1.2548046
000270 8f 50 6a 3f ca 6d c5 3f c6 97 0a 3f 7c 69 31 3e
       0.9152917 1.542413 0.5413784 0.17325395
000280 fb 73 83 3f c3 5c 33 3f 61 56 61 3f 94 2e 66 3f
       1.026977 0.7006342 0.8802243 0.8991482
000290 ec 61 8c 3f e0 d4 5f 3f 0e 0b a3 3f 17 3c 11 3f
       1.0967383 0.87434196 1.2737749 0.56732315
0002a0 a4 00 ff 3f 24 63 72 3f 93 b1 80 3f 15 a6 a7 3f
       1.992207 0.94682527 1.0054191 1.3097559
0002b0 98 d2 8f 3f 7f b7 8a 3f c3 c4 59 3f be 72 c1 3f
       1.1236143 1.0837249 0.8506586 1.5113142
0002c0 cd e8 fa 3e 33 5e b9 3f bf d6 a8 3f 54 0a 7c 3f
       0.49005738 1.4481872 1.3190535 0.9845326
0002d0 10 cc d7 3f b3 bd a5 3f ff 87 69 3f 6f 9b b3 3f
       1.685915 1.2948517 0.9122314 1.403181
0002e0 d9 57 76 3f ac c3 56 3f fe e9 b3 3f 4c 3b 80 3f
       0.96227795 0.8389232 1.4055784 1.0018096
0002f0 e5 dd ad 3f 46 2d 02 3f 51 a6 a5 3f bc 40 2f 3f
       1.3583342 0.5085033 1.2941381 0.6845815
000300 9f 89 cd 3f be 51 8c 3f 67 1f 35 3f 0a 75 9d 3f
       1.6057624 1.0962446 0.7075104 1.2301342
000310 fa b8 81 3f cc 0c 71 3f 3c 0a 14 3f fb da 8f 3f
       1.0134575 0.9416015 0.57828116 1.1238703
000320 18 c8 13 3f cc bd af 3f 7d ad 94 3f 16 b0 4c 3f
       0.57727194 1.3729796 1.1615444 0.79956186
000330 b0 f7 9d 3f 70 ad 59 3f 32 77 dd 3f dd 41 5d 3f
       1.2341213 0.8503027 1.7302 0.86428624
000340 34 bd 75 3f 22 5a 6e 3f 24 01 ae 3f 18 29 4b 3f
       0.95991826 0.9310628 1.3594098 0.7935958
000350 9f 1c 92 3f df 8e 72 3f b5 21 67 3f 2f 53 a5 3f
       1.1414984 0.94749254 0.9028581 1.2916011
000360 e7 9b 87 3f 4c a9 88 3f 0e 25 90 3f 6b b5 f9 3f
       1.0594453 1.0676665 1.1261308 1.9508489
000370 ac 81 9a 3f 75 4d 2e 3f b4 42 7a 3f 41 10 a3 3f
       1.2070823 0.6808694 0.9775803 1.2739335
000380 67 37 98 3f 86 17 99 3f cc 40 6d 3f e0 e5 18 3f
       1.1891907 1.1960304 0.92677 0.5972576
000390 10 0a 03 3f a3 a0 a4 3f 47 fb 9b 3f 85 5e 89 3f
       0.5118723 1.2861522 1.2186059 1.073197
0003a0 8f 7c a6 3f 99 d9 5b 3f d5 7d 4a 3f 00 eb 47 3f
       1.3006762 0.858789 0.79098254 0.78092957
0003b0 16 55 5b 3f 45 ef 53 3f 64 dd 01 3f 94 3b 7b 3f
       0.85676706 0.8278697 0.5072844 0.98137784
0003c0 19 6d a6 3e 62 1a 72 3f 89 8d 84 3f 82 a3 72 3f
       0.3250511 0.94571507 1.0355693 0.94780743
0003d0 e5 e1 a7 3f a8 94 10 bc 7d 3b 83 3f 30 1e 46 3f
       1.3115813 -0.008824505 1.0252529 0.7738981
0003e0 0b 8c e4 3f ad 11 e7 3f 56 26 94 3f 20 e1 48 3f
       1.7855238 1.8052269 1.1574199 0.78468513
0003f0 f1 95 b1 3f 69 15 a2 3f 2f 07 7b 3f 9d f8 81 3f
       1.3873883 1.2662784 0.98057836 1.0153996

bn1.bias f4 [300]
000000 09 b8 a5 bf 99 60 62 bf 1f 99 47 bf 08 5a 3c 3f
       -1.2946788 -0.88428646 -0.7796802 0.73574877
000010 d9 0d c5 3f b5 24 20 bf a8 6f b3 bf 6e d1 0f bf
       1.5394851 -0.6255601 -1.401845 -0.5617894
000020 5e 73 7f bf e7 1d 53 bf 2a bb ac bf fa 16 4c bf
       -0.9978541 -0.824675 -1.3494618 -0.7972256
000030 73 11 25 bf 05 1a 60 bf d4 bb d2 3e 67 ac 63 bf
       -0.6447975 -0.875397 0.41158926 -0.8893494
000040 a7 a9 6c bf 94 38 85 bf 5a e8 25 bf d6 ca 38 bf
       -0.9244637 -1.0407891 -0.64807665 -0.72184503
000050 7e d6 02 3f be fe 8d be f6 ec 7f bf 3d 0a 19 bf
       0.5110854 -0.27733415 -0.9997095 -0.5978125
000060 79 4f 5a bf 37 91 62 bf 3a 7b 56 bc a2 3f cc be
       -0.85277516 -0.8850283 -0.013090903 -0.39892298
000070 06 b1 a5 be 2b 5e 68 bf 63 e9 a8 be d0 af 38 bf
       -0.3236162 -0.9076869 -0.3299056 -0.7214327
000080 cb ad ed 3e f5 d7 62 3d e1 a3 3f bf 39 69 57 bf
       0.46421656 0.055381734 -0.74859434 -0.8414493
000090 d9 2b 3b bf 84 47 56 be e1 2e 37 bf b2 85 82 bf
       -0.7311378 -0.20925719 -0.71555907 -1.019705
0000a0 35 ed 91 bf b4 c0 94 bf 32 df c6 3e f8 90 bd bf
       -1.1400515 -1.1621308 0.3884216 -1.4809866
0000b0 23 ef 78 bf 63 20 56 bf 56 8a 21 bf ac 35 19 3e
       -0.97239894 -0.8364317 -0.6310171 0.1496188
0000c0 95 ff b8 bf d7 22 aa bf e3 7b 82 bf c8 bc a2 bf
       -1.4452997 -1.3291882 -1.0194057 -1.2713861
0000d0 12 2d 56 3f 83 c8 10 bf 8b 3f 02 bf 2a 84 41 bf
       0.8366252 -0.56555957 -0.5087821 -0.7559229
0000e0 36 a4 7c bf 87 fd 87 bf b9 5c fc be 68 24 89 bf
       -0.98688066 -1.0624245 -0.49289492 -1.0714235
0000f0 3b ad 46 bf d4 64 88 bf c8 ca 64 bf bd c3 a6 be
       -0.7760808 -1.065577 -0.8937192 -0.3257121
000100 05 f0 fc be 2f 39 6d bf 11 2f 7d bf 6d 00 17 bf
       -0.4940187 -0.9266538 -0.9889994 -0.58985025
000110 bd 33 db bf 44 05 66 bf 5a db 83 bf fb d2 f7 be
       -1.7125164 -0.89851785 -1.0301316 -0.48403153
000120 62 7a 87 bf 8c f7 91 bf f6 72 5e bf 3f c3 f7 be
       -1.0584223 -1.140367 -0.86894166 -0.48391148
000130 bb f0 dc be 91 c0 7b be 34 87 5c bf b6 3b c1 bf
       -0.43152413 -0.24585177 -0.86143804 -1.5096347
000140 cf ee 05 bf 29 2d 30 be 96 45 8e bf a9 12 99 bf
       -0.5231752 -0.17204727 -1.1114986 -1.195882
000150 b5 bd 0c bf 85 6a a2 bd 77 da a3 3d f6 90 5a bf
       -0.5497697 -0.07930473 0.08000653 -0.8537744
000160 b3 36 ea bf 3f 75 c9 be 6e a2 7c bf ac bb 47 bf
       -1.8297943 -0.39347264 -0.9868535 -0.7802074
000170 40 a2 8d bf af 41 12 bd 9a e3 47 be 09 96 83 bf
       -1.106514 -0.035707172 -0.19520417 -1.0280162
000180 fe fa 31 bf 28 bc be bf 2a 17 52 bf d4 89 3f 3d
       -0.6952361 -1.4901171 -0.82066596 0.046762303
000190 7a bc 70 bf a1 53 3a bf 54 86 d5 be bc 79 9b bf
       -0.9403759 -0.7278386 -0.41704047 -1.2146525
0001a0 d9 83 ec be 80 c8 40 bf e4 ad 54 bf 76 60 b3 bf
       -0.46194342 -0.7530594 -0.83077836 -1.4013813
0001b0 76 b7 9b bf 2c c8 2d bf bf 31 c7 bf 9d 22 24 bf
       -1.2165363 -0.67883563 -1.5562056 -0.64115316
0001c0 67 ce 22 bf f1 23 af bd c5 9b a3 be e3 ea 99 bf
       -0.63596195 -0.08551777 -0.3195478 -1.2024807
0001d0 12 15 08 be d5 78 7b be 25 54 46 be 27 9e 86 bf
       -0.13289288 -0.24557813 -0.19368036 -1.0517014
0001e0 1e a5 38 bf 1e cc 13 bf aa 0a c3 bf 6f 48 6e bf
       -0.7212695 -0.57733333 -1.523763 -0.93079275
0001f0 c0 63 80 bf 5d d5 8a be 29 9b 51 bf 77 4a 88 bf
       -1.0030441 -0.27115908 -0.8187738 -1.0647725
000200 1f d8 85 bf 83 6d 00 3f 8f a1 6c bf f6 15 40 bf
       -1.045658 0.501671 -0.9243402 -0.7503351
000210 ff d7 cc be 06 3e ab bf f2 54 4b bf bb 2e 72 bf
       -0.40008542 -1.3378303 -0.7942649 -0.94602555
000220 96 eb 3c bf 05 2f 01 bf 0c 7d 40 bf e0 a4 ca be
       -0.73796976 -0.5046237 -0.75190806 -0.39578915
000230 e7 7e 56 bf 01 32 8b bf b5 75 fe be c9 69 2e bf
       -0.8378739 -1.0874635 -0.49699178 -0.68130165
000240 a7 e5 5f 3f d8 5a 90 bf b1 3e b1 bf c1 7e c4 be
       0.87459797 -1.1277723 -1.3847257 -0.38377956
000250 1a eb 11 bf 35 41 36 be d9 89 1d bf 51 d9 12 bf
       -0.5699936 -0.17798312 -0.61538464 -0.5736285
000260 4e 53 25 bf de 1a 82 bf 8f 91 3a bf 64 71 23 bf
       -0.6458024 -1.0164449 -0.72878355 -0.63844895
000270 2f b1 6c 3e 23 d2 2d bf 63 35 dc bf f4 f2 22 bf
       0.23114465 -0.6789877 -1.7203792 -0.6365197
000280 3c 0c 81 bf e1 2e 25 bf a0 97 39 bf c9 8a 4a bf
       -1.0081859 -0.64524657 -0.72496986 -0.7911802
000290 46 e7 c7 bf e9 ad 09 bf e0 59 09 3f 66 1d 41 bf
       -1.5617454 -0.5378099 0.53652763 -0.75435483
0002a0 f7 53 e8 3d 59 15 a5 bf af af 30 bf 0a f7 18 bf
       0.1134414 -1.289714 -0.6901807 -0.5975195
0002b0 07 bb 09 bf e8 b5 40 bf 8d 4b 61 bf ee df a9 be
       -0.53801006 -0.75277567 -0.88005906 -0.33178657
0002c0 59 f6 72 bf 27 5d 8d bf b4 d4 ac be fd 2f 8c 3e
       -0.94907147 -1.1044053 -0.3375603 0.27380362
0002d0 7d 6f ee be 2b 45 a5 bf 44 ff 22 bf 08 78 2e bf
       -0.46569434 -1.2911733 -0.63670754 -0.68151903
0002e0 88 f4 d5 3e cb 7c 8d bf f3 37 6f bf 98 e1 8e 3e
       0.41788125 -1.1053709 -0.93444747 0.2790649
0002f0 87 22 54 bd 90 20 4f bf 23 99 af be 1f 4e 01 3f
       -0.05179074 -0.8090906 -0.34296522 0.5050983
000300 c1 4b 3b bf ad 10 7a bf 05 d3 41 bf c1 b1 f4 be
       -0.73162466 -0.97681695 -0.75712615 -0.47791865
000310 af 92 ae bf 78 53 39 bf 97 e0 83 bf 1c ae 3f bf
       -1.3638514 -0.7239299 -1.0302914 -0.74875045
000320 88 29 7b bf bc dd 15 bf 63 07 6d bf 66 1e 10 be
       -0.98110247 -0.58541465 -0.92589396 -0.14074096
000330 4f 9b 23 be f9 a3 67 bf 96 c2 4a bf 58 f2 28 bf
       -0.15977214 -0.9048458 -0.79203165 -0.6599479
000340 4c ae 9a bf 35 e5 46 bf bf fc 63 bf 03 e7 24 3e
       -1.2084441 -0.7769349 -0.89057535 0.16103749
000350 60 4b 45 bf c0 27 1e bf 4b 95 66 bf 2f 95 82 bf
       -0.7706814 -0.61779404 -0.90071553 -1.0201777
000360 60 6e a6 bc 09 f9 04 be ef 39 38 bf ef 8a ce 3d
       -0.020316303 -0.12985624 -0.719634 0.10085093
000370 29 da 81 bf 98 68 22 bf f1 a5 65 bf 78 ee 76 bf
       -1.0144702 -0.6344085 -0.8970633 -0.96457624
000380 71 84 bb be 11 e4 89 bf 1a 71 90 bf d0 52 56 bf
       -0.36624482 -1.0772725 -1.1284516 -0.8372011
000390 52 25 3e be 01 27 90 bf e6 ea fd be 80 87 95 bf
       -0.18568924 -1.1261903 -0.49593276 -1.1681976
0003a0 61 8a 19 bf 5b 96 35 bf f3 48 eb bc 1a 26 9f bf
       -0.59976774 -0.7093255 -0.028721308 -1.2433503
0003b0 33 97 58 bf 8d b0 7b bf bf bc 58 be d3 7e b6 bf
       -0.8460571 -0.9831627 -0.21165751 -1.4257454
0003c0 5f 21 03 c0 7f 97 5b be 26 73 85 bf de d6 98 bf
       -2.0489118 -0.2144451 -1.0425766 -1.1940572
0003d0 b0 89 ab bf 1b 96 43 bd 26 71 56 bf 2e 63 9d bf
       -1.3401394 -0.047750574 -0.837664 -1.2295892
0003e0 54 42 58 bf e3 31 65 bf 87 e9 51 bf 67 60 19 3d
       -0.8447621 -0.89529246 -0.8199696 0.037445452
0003f0 e0 16 d2 3d af d7 64 bf 06 0c 9c bf 26 ec 0d be
       0.10258269 -0.8939161 -1.2191169 -0.13859615

bn1.running_mean f4 [300]
000000 21 ac 1e bf b2 00 00 40 9c 5d 39 40 a5 b7 6f 40
       -0.619814 2.0000424 2.8963385 3.7455838
000010 72 d3 6f 40 66 2d 95 40 ea e0 05 3f da 2f e7 be
       3.7472806 4.661792 0.52296317 -0.45153695
000020 48 07 bd be c9 2c 1b 3e aa a1 1f bf bf ac df 3f
       -0.36919618 0.15153803 -0.62356055 1.7474593
000030 c6 f3 c7 40 50 3f 8e bf fd 53 48 41 fa 23 d1 c0
       6.2485075 -1.1113071 12.520505 -6.5356417
000040 dc 6c 6c 41 80 61 c1 40 be d6 c5 40 65 4a 78 bf
       14.776577 6.043152 6.1824636 -0.9698852
000050 26 05 19 c0 b6 02 9a 40 d0 bf 9c bf b6 f0 61 40
       -2.3909392 4.812831 -1.2246037 3.5303168
000060 df 83 fd c0 4c 02 ca c0 6e 02 b2 40 d2 e8 f6 3e
       -7.9223475 -6.3127804 5.5627966 0.48224503
000070 e9 bf 5a 41 77 c4 c8 c0 f0 22 cb c0 6a 99 7d c0
       13.671853 -6.2739825 -6.348015 -3.9624887
000080 94 bc 18 3c ea de 06 40 47 e0 f0 40 c5 0f 60 41
       0.009322304 2.1073556 7.5273776 14.00385
000090 95 d3 b2 3f ac 80 92 bf 77 5b 15 bf 83 2d fa 3f
       1.397082 -1.1445518 -0.5834269 1.9545139
0000a0 79 ed 9f c0 61 93 61 be f1 73 23 40 38 7c 73 41
       -4.9977384 -0.22028877 2.5539515 15.217827
0000b0 75 29 5e 3e 52 8d 40 40 b7 95 f6 40 33 8e 4d 40
       0.21695502 3.0086255 7.7057757 3.2118042
0000c0 4e 00 ed bf db ca 40 41 35 2f c3 c0 26 5e b6 40
       -1.8515718 12.049525 -6.0995126 5.6989927
0000d0 48 6b 1a 3f 3d 69 8f 40 0f 17 60 bf 45 6e c8 3f
       0.6031995 4.4815965 -0.87535185 1.5658652
0000e0 ae dc 4f 3f 2a d1 78 3f 1a e6 8f c0 f4 f6 45 c0
       0.81196105 0.9719416 -4.4968386 -3.0931978
0000f0 dc b9 75 40 04 46 4a c0 37 45 85 40 69 48 3c 40
       3.839469 -3.1605234 4.164699 2.9419196
000100 3d 88 63 40 97 53 1d c1 50 da 5c c0 35 74 e8 bf
       3.5551903 -9.832908 -3.4508247 -1.8160464
000110 48 0d f1 c0 10 be c9 be b1 76 c2 3f 3b 40 a7 40
       -7.5328712 -0.3940282 1.5192472 5.2265906
000120 bb 63 9c c0 12 ae 61 40 7e 3d 42 3f 17 b3 cd 3f
       -4.887174 3.5262494 0.7587508 1.6070279
000130 b5 94 1b 40 03 72 10 bf b8 ed 58 41 e6 29 83 40
       2.4309514 -0.5642397 13.558037 4.0988646
000140 09 0d 5b 40 ac 7b e9 40 bf 90 7e be ad 4d 37 c1
       3.4226706 7.2963467 -0.24859904 -11.456464
000150 63 9f 64 c0 19 7e 98 c0 d0 03 0c bf 09 b2 a2 3f
       -3.5722282 -4.765393 -0.5469332 1.2710582
000160 26 15 92 40 08 cc 65 40 5d 7b 9d bf 20 c7 13 40
       4.5650816 3.590578 -1.2303272 2.3090286
000170 39 3e 45 41 b6 31 94 40 ce 41 26 c0 8e b1 92 40
       12.327691 4.631068 -2.5977664 4.584174
000180 16 3a 6c 3f 26 29 61 c0 8a 5d 51 c0 31 6a 65 40
       0.9227613 -3.5181365 -3.2713342 3.5846064
000190 ff 2c 1c bf de 64 61 c0 c2 ef 54 c0 3f da 9e c0
       -0.6100616 -3.5217814 -3.3271337 -4.9641414
0001a0 2a ef c4 40 27 64 ef 3e 1b 41 3d c0 3d 26 17 40
       6.154195 0.46756098 -2.9570987 2.3617089
0001b0 9a bd aa bd c1 6f b5 bd 16 44 dc c0 f5 86 a4 c0
       -0.08336945 -0.08859206 -6.8833113 -5.1414742
0001c0 83 1d 2d c0 32 04 4b 41 46 0c ab bf 69 e5 3e c0
       -2.7049263 12.688524 -1.336312 -2.982752
0001d0 ef 46 20 c0 c9 85 ca 3f f9 28 d7 40 bd 65 16 40
       -2.5043294 1.5822078 6.7237515 2.3499596
0001e0 1b 3c 31 3f 04 4f d8 3f ec cf f5 c0 b6 1e cf 3f
       0.6923234 1.6899114 -7.681631 1.6181247
0001f0 21 dd 6b be 6c 11 a7 c0 62 ba 85 c0 fc ff a2 40
       -0.23033573 -5.2208767 -4.179002 5.093748
000200 db c8 fd 40 fd 80 45 40 9f a8 b3 3f 6b be c3 40
       7.9307685 3.0859978 1.4035834 6.1169944
000210 f4 ff 90 40 57 c3 90 40 24 06 a0 bf 51 1f 67 40
       4.5312443 4.523845 -1.2501874 3.6112864
000220 3f 9c a8 40 3c 58 4c c0 2b b0 c4 3f e4 16 f7 3f
       5.269073 -3.1928854 1.5366262 1.9303861
000230 9e 21 c5 3f a3 0e f4 bf 1d 2c c5 bf f7 90 64 40
       1.5400884 -1.9066967 -1.5404087 3.571348
000240 ad f1 86 40 7f fa 8f c0 62 a8 1d c0 3e d1 6c 3e
       4.2170014 -4.499328 -2.4634023 0.23126695
000250 3b cb 15 41 69 3d 9b 40 58 7f 44 c0 77 30 c2 3e
       9.362117 4.8512464 -3.0702724 0.379276
000260 68 77 77 c0 7b 5c f6 c0 38 44 96 40 9c 9e 26 c0
       -3.866663 -7.698789 4.6958275 -2.6034307
000270 51 c6 f1 3f 4c 34 20 bf 12 aa 71 41 b9 7a 32 3e
       1.8888646 -0.625798 15.104021 0.17429627
000280 ba db 51 be 9c e9 ed bb f2 03 28 c0 37 1a 43 41
       -0.20493975 -0.0072605144 -2.6252408 12.1939
000290 bb c3 72 c0 f9 80 8f 3f b8 99 a0 40 c8 ee 4f 3e
       -3.7931964 1.1211234 5.0187645 0.20305932
0002a0 da 86 f3 bf 8c 5e 98 c0 e7 b5 0c c0 be 69 0f 40
       -1.9025528 -4.7615414 -2.1986024 2.240829
0002b0 ae b9 0d 41 90 55 eb 40 b3 63 22 bf 45 12 96 41
       8.857832 7.3541946 -0.6343338 18.75892
0002c0 dd 2b 06 40 31 f0 42 41 9a 38 21 41 e3 13 81 bf
       2.0964272 12.1836405 10.076319 -1.0084194
0002d0 44 30 fe 40 27 77 ba 40 fa bc 6f bf 25 5e c9 c0
       7.943392 5.827045 -0.9364773 -6.2927423
0002e0 84 5d 90 40 e6 72 84 c0 1a a1 fe c0 4f 09 b4 40
       4.5114155 -4.1390257 -7.9571657 5.6261363
0002f0 c2 c5 87 bf a3 84 38 40 d7 5c 31 40 89 b8 de 40
       -1.0607226 2.8830955 2.7712915 6.9600263
000300 8e d9 e2 bc 25 7f 05 41 7b b3 14 bf 8d f9 43 40
       -0.027691629 8.343541 -0.58086365 3.0621064
000310 6e 3c 4a 41 43 57 fc 40 90 ef 79 bd 8f b5 16 c0
       12.639753 7.885652 -0.06101948 -2.3548315
000320 e4 15 5a c0 cb 98 a1 c0 de da 04 41 cc 9a 51 40
       -3.407586 -5.0499015 8.303434 3.275073
000330 82 d7 96 40 82 ca 06 c0 0a ad 69 c0 1a 03 03 41
       4.713807 -2.10611 -3.6511865 8.188257
000340 06 e1 8a 40 9e 99 b0 40 68 15 0d c0 54 1c 88 40
       4.3399687 5.518752 -2.2044315 4.253458
000350 d8 69 f8 3f bd 30 f9 bf 23 ba b5 3f 9e 89 85 40
       1.9407301 -1.9467999 1.419743 4.173049
000360 31 40 49 3e cf 3a d0 bf a1 0f 91 3f 5c 0b 60 bf
       0.19653393 -1.6267947 1.1332895 -0.87517333
000370 13 7a 8f c0 8b 51 e0 bf 1d 47 90 c0 b4 54 d6 3f
       -4.4836516 -1.7524885 -4.508681 1.6744599
000380 56 6d 57 40 8f cf 13 41 1c 98 42 41 1e 1c c5 c0
       3.3660483 9.2381735 12.162136 -6.1596823
000390 41 3d 92 40 26 82 5c bf c4 5f 9f c0 72 20 94 c0
       4.5699773 -0.8613609 -4.98044 -4.6289606
0003a0 ac 24 7d 40 a5 d7 f5 3f c6 45 87 3f c9 c6 b3 3f
       3.9553633 1.9206434 1.0568168 1.404504
0003b0 cc 1b 6d bd da 2a 15 3f 1c 35 10 bf a0 57 21 3f
       -0.057887837 0.5826851 -0.5633104 0.6302433
0003c0 3a 1e 8c bf ba ba 26 c0 08 eb 3c 3d 31 9e 9d bf
       -1.0946724 -2.605147 0.04612258 -1.2313901
0003d0 2a 70 e4 40 c7 cd 07 3d 89 18 0a 3e f5 04 05 3f
       7.138692 0.03315523 0.13485922 0.5196069
0003e0 9f f3 20 41 c4 f4 94 c0 8e 2c ee bf 58 88 3d 40
       10.059478 -4.6548786 -1.8607347 2.9614468
0003f0 25 36 8d 40 74 40 a2 c0 8e 34 ee bf 91 1e 5b 40
       4.4128594 -5.070368 -1.8609788 3.4237406

bn1.running_var f4 [300]
000000 51 52 32 3f 3a 15 17 40 65 40 72 3f ca dc 42 40
       0.69656855 2.3606706 0.9462951 3.044726
000010 ff f4 cc 3e d3 e4 04 3f fd 9b 30 3f da c3 ec 3f
       0.40030667 0.5191166 0.6898802 1.8497269
000020 16 4c 11 40 b2 7b 82 3f 1e ba d3 3f 27 7f 2b 3f
       2.270269 1.0193999 1.6541173 0.66990894
000030 af 97 0c 3f 7e b9 8a 3f 6d b8 42 3f 70 75 0e 40
       0.5491895 1.0837858 0.7606266 2.2259178
000040 a5 d3 66 3f d2 16 63 3f 24 2d 2d 3f 3e 23 ce 3f
       0.90166694 0.88706696 0.67647004 1.6104505
000050 40 da 1e 3f 5d 57 3b 40 f9 c7 7d 3f 06 33 a3 3f
       0.62051773 2.9272072 0.9913326 1.2749946
000060 76 11 59 3f c4 8c dd 3e 2d 3f 99 3f db b3 56 3f
       0.8479227 0.43271458 1.1972405 0.8386819
000070 54 8e 1e 40 bb 72 dd 3f cb 77 df 3f 9a 01 b1 3f
       2.477437 1.7300638 1.7458433 1.3828614
000080 7a 17 96 3f ba 60 d0 3f 94 68 c3 3f 6d 0e 52 3f
       1.1725914 1.6279519 1.526629 0.8205326
000090 da fd f0 3f 5a 13 7f 3f f4 c5 32 40 ef 03 9f 3f
       1.8827469 0.99638903 2.793332 1.2423075
0000a0 bd 13 be 3f c5 47 90 3f 35 56 97 3f 47 e3 ec 3e
       1.4849774 1.1271902 1.1823183 0.4626715
0000b0 21 cd 31 3f cd d7 3c 3f c6 40 65 3f f8 a7 0a 40
       0.69453627 0.73766786 0.8955196 2.166502
0000c0 72 f8 58 3f 40 92 86 3f d2 3c 94 3f 4d 78 f7 3f
       0.847541 1.0513382 1.1581061 1.9333588
0000d0 56 3b a1 3f 47 68 cb 3f 58 86 5b 3f 34 28 ef 3e
       1.2596233 1.5891198 0.8575187 0.4671036
0000e0 9e 48 07 40 3b 9a 63 3f 7a 77 72 3f 6c d6 3a 40
       2.1138072 0.8890721 0.94713557 2.9193373
0000f0 fe e0 9f 3f 2b 33 8a 3f 78 6e 74 3f ed ca 64 3f
       1.2490537 1.0796865 0.9548106 0.8937214
000100 e5 62 22 3f f5 1c f5 3e 7b 3e 13 40 81 2c 12 40
       0.6343215 0.47873655 2.3006885 2.2839663
000110 d0 91 90 3f f1 63 17 40 30 be d0 3f c5 41 f0 3f
       1.1294498 2.365475 1.6308041 1.8770071
000120 a0 46 f9 3f b0 bf ad 3f ec a5 07 40 9b f7 15 3f
       1.9474678 1.3574123 2.119502 0.5858094
000130 6c 2a a6 3f 55 57 4f 3f d0 00 0c 3f e7 4f 7a 3f
       1.2981696 0.80992633 0.5468874 0.9777817
000140 0e 53 a1 3f 80 c9 81 3f 63 4d a8 3f 96 ac 6d 40
       1.2603471 1.0139618 1.3148617 3.7136588
000150 71 88 32 3f 4e 1b 8c 3f 48 56 67 3f b0 be 74 3f
       0.69739443 1.0945833 0.9036603 0.95603466
000160 68 5b be 3e 6b e1 7a 3f 8a 2d bb 3f 61 9d f6 3f
       0.37179112 0.9800021 1.4623272 1.9266778
000170 b2 e5 c7 3f da c5 35 3f 01 8b 1e 3f f0 71 72 3f
       1.5616972 0.7100502 0.61930853 0.94705105
000180 95 b0 3c 3f ea f5 aa 3f 3b 83 e3 3f ab 58 2c 3f
       0.7370694 1.3356297 1.7774423 0.67322797
000190 7b 9d 66 3f 0d a5 40 40 83 c0 cf 3f 81 0a f9 3f
       0.90084046 3.010074 1.6230625 1.945633
0001a0 d2 4d 09 40 99 26 8a 3f 1b e4 dc 3e 3a 1c c8 3f
       2.1453748 1.0793029 0.4314278 1.5633614
0001b0 8d 61 ad 3f af a2 4d 3f 80 3f 75 40 29 b9 96 3f
       1.3545395 0.8032636 3.8320007 1.1775256
0001c0 dd ae 81 40 11 a5 cb 3f c4 46 ee 3f 6c 92 80 3f
       4.0525956 1.5909749 1.8615346 1.0044684
0001d0 85 70 59 3f b8 24 f7 3e 7b d3 26 3f 09 32 be 3f
       0.84937316 0.48270202 0.65166444 1.485902
0001e0 e9 6a 49 3f 0c 53 fb 3f 66 26 41 40 8f 8a 5a 3f
       0.78678757 1.9634719 3.0179687 0.85367674
0001f0 b2 df 81 3f c4 90 39 40 b0 a7 ee 3f 81 a3 a8 3f
       1.0146391 2.8994608 1.8644924 1.3174897
000200 cb a8 3f 3f 28 21 10 40 b7 f8 cf 3f e4 24 2e 40
       0.7486693 2.2520237 1.6247777 2.7210016
000210 01 6b b1 3f 7f 3e 17 3f 3e c2 d1 3f 13 9e cc 3f
       1.386078 0.59079736 1.6387403 1.598574
000220 fc a1 45 3f 4e 37 b6 3f a4 05 65 3f c5 3b 94 3f
       0.77200294 1.4235628 0.8946173 1.158074
000230 32 c8 0f 3f b8 db 23 3f d6 9f 03 40 d4 0d 76 3f
       0.5616485 0.6400714 2.0566306 0.9611485
000240 f9 04 a4 3f 85 c6 30 3f 82 c5 1c 40 f6 c4 4c 3f
       1.2814018 0.69052917 2.449555 0.7998804
000250 20 63 26 3f f5 a2 ab 3f 79 2f ee 3f f9 69 f5 3f
       0.64995 1.3409106 1.8608238 1.9172965
000260 c5 16 81 3f 85 53 36 40 6c 35 d2 3e 17 d0 11 3f
       1.0085074 2.8488476 0.41056383 0.56958145
000270 54 42 00 40 e8 2a 68 3e 04 c5 c5 3e fd b5 8e 3e
       2.0040483 0.22672617 0.38626873 0.2787322
000280 d2 46 c2 3f 88 79 42 3f f9 4a e8 3f c4 e5 20 3f
       1.5177863 0.7596669 1.814788 0.62850595
000290 f0 ae 9e 3f 60 16 09 40 06 65 83 3f 47 aa 91 3f
       1.2397137 2.1419907 1.0265205 1.138009
0002a0 d9 d6 91 3e 68 2a 80 3f 01 cd 4b 40 9a c7 f5 3f
       0.28484228 1.0012941 3.1843874 1.9201539
0002b0 29 20 cf 3f 17 64 4d 3f 02 bd b2 3f da 6f be 3e
       1.618169 0.8023085 1.3963931 0.3719471
0002c0 fd dd cc 3f cd fa 01 40 73 82 87 3f 73 e9 43 3f
       1.6005245 2.0309327 1.0586685 0.7652809
0002d0 16 0c 9a 3f 62 d2 99 3f 3d d0 be 3f 24 00 02 40
       1.2034938 1.2017329 1.4907299 2.0312586
0002e0 f9 36 d9 3f d0 a6 6b 3f f5 fa 8a 40 15 c9 ea 3f
       1.6969901 0.9205141 4.3431344 1.8342615
0002f0 77 0c 4a 3f 1c f0 21 40 c1 11 49 3f b7 31 61 3f
       0.7892527 2.53028 0.78542715 0.87966484
000300 e7 57 76 3f 0e 61 0e 3f aa e1 cd 3f 45 32 3b 40
       0.9622788 0.55616844 1.6084492 2.9249432
000310 37 73 8f 3f c8 21 8d 3f 23 cc 4e 3f e4 28 f1 3e
       1.1207036 1.1025934 0.8078024 0.4710151
000320 62 98 b3 3f e4 eb e9 3f 46 5f 0b 3f 12 d4 59 3f
       1.4030879 1.8275113 0.5444225 0.8508922
000330 10 42 7e 3f 73 eb 9c 3f 97 4c 13 3f 17 43 5f 3f
       0.99319553 1.2259353 0.5753874 0.87211746
000340 c5 8c 4c 3f fc 79 6e 3f 68 1b 86 3f 1d d8 86 3f
       0.799023 0.93154883 1.0477114 1.0534703
000350 f9 cb 3f 3f 8e 52 82 3f f5 bb 87 3f 15 a7 8a 3f
       0.7492061 1.0181444 1.0604235 1.0832239
000360 11 6a c3 3f 89 56 de 3f 1b 9a 30 40 49 c8 f3 3e
       1.5266744 1.7370158 2.7594059 0.47613743
000370 9d 07 f6 3f 5f 57 70 40 ef 1b 91 3f 4c 51 86 3f
       1.9221073 3.7553327 1.133665 1.049356
000380 8b 59 ce 3f a6 c7 48 3f 49 9d 08 3f dd 36 57 3f
       1.6121076 0.7842964 0.53365 0.8406809
000390 e9 03 aa 3f 98 33 0a 3f 63 a5 a1 3e 05 9b d6 3f
       1.3282443 0.53984976 0.31571493 1.6766058
0003a0 80 03 d7 3f da 1a c1 3f 23 35 84 3f 39 39 fa 3f
       1.6797943 1.508632 1.0328716 1.9548713
0003b0 59 4c 97 3f 87 df 86 3f d5 1b 8f 3f 42 47 33 3f
       1.1820174 1.0536965 1.1180369 0.70030606
0003c0 c5 9b 47 3f 02 05 e4 3f b5 c6 6e 3f 03 f1 d4 3f
       0.7797206 1.7814028 0.9327195 1.6636051
0003d0 1e e8 2c 3f bd d2 b8 3f 0f e8 d8 3f c5 83 b8 3f
       0.6754168 1.4439312 1.6945819 1.4415213
0003e0 e4 e5 9d 3f 90 1f e6 3e ec b7 07 40 88 13 b2 3f
       1.2335782 0.44945955 2.1206007 1.391221
0003f0 2b 14 7e 3f 25 2c 47 3f 15 cc 7c 3f 51 54 88 3f
       0.99249524 0.77801734 0.98748904 1.0650731

fc2.weight f4 [300, 300]
000000 93 12 07 be ee 9e ad 3d b8 e2 3d 3e b2 20 6b be
       -0.13190679 0.08477579 0.18543518 -0.22961691
000010 7e cf 44 3d b7 34 6d be 5a ee c5 bd 1c 08 a2 be
       0.048049442 -0.2316464 -0.096646026 -0.31646812
000020 18 95 cb bd a0 3f c3 bc 7b e3 a8 3d 63 f9 90 be
       -0.09940547 -0.02383405 0.082465135 -0.28315267
000030 06 b2 6a be 05 de 78 be 80 5e 05 be ca 2e ef b9
       -0.22919473 -0.24303444 -0.1302433 -0.00045620493
000040 2b 55 76 bd 44 47 8a 3d 82 78 48 3d a6 d7 a8 bb
       -0.060139816 0.06751874 0.04894305 -0.0051526604
000050 53 68 39 be b4 a4 57 bd 66 d4 71 be 78 ea 00 3e
       -0.18106203 -0.052647308 -0.2361618 0.12589443
000060 04 44 20 be ac 54 94 bd c6 a8 96 3c 7f de 8f bd
       -0.15650946 -0.072427124 0.018391024 -0.0702486
000070 33 62 87 bd 91 75 9a bd 3b f5 e3 bd 82 0d cc 3c
       -0.06610527 -0.07541955 -0.111307584 0.024908785
000080 7e b9 93 be b2 45 7d be 57 65 52 bd 17 cb 29 be
       -0.28852457 -0.24733618 -0.051366176 -0.16581379
000090 fa e1 0e bc 1b 59 59 bd 6d 5b 2e be a2 28 18 3e
       -0.008720869 -0.053063493 -0.17027064 0.1485925
0000a0 79 50 90 be 94 3c 27 3e ac d6 5a be 0f 26 4b bd
       -0.28186396 0.16331702 -0.21370953 -0.049596842
0000b0 84 d0 52 bd 04 bb 5d bd cd a2 58 be 82 f6 8e be
       -0.051468387 -0.05413343 -0.21155854 -0.27922446
0000c0 89 66 86 be 13 30 21 be a2 7c 93 be 13 9a 57 be
       -0.26250103 -0.15740995 -0.28806025 -0.21054868
0000d0 ac 31 31 bc 13 c7 d0 3d 29 a4 f2 bd 86 be c1 bd
       -0.010815065 0.101942204 -0.11847717 -0.094601676
0000e0 47 7f 4e be c9 a7 24 bd 47 59 ec bd 57 a1 b8 3d
       -0.2016574 -0.040199075 -0.11540466 0.09015148
0000f0 d2 2e b4 be 1f dd 5f be cd 8c 80 bd 7b 3a 4e 3e
       -0.3519197 -0.21861695 -0.062768556 0.20139496
000100 7b 16 a9 bd 95 fe f2 bc 93 4e 59 be 86 e8 f5 bc
       -0.08256241 -0.02966241 -0.2122138 -0.030018102
000110 73 3d 43 3c f6 15 3d be bf 45 8a be d3 28 65 3d
       0.011916506 -0.18465409 -0.27006337 0.055947136
000120 76 f3 c8 bd 98 b6 89 be 7b 24 8c be 95 23 8c be
       -0.098120615 -0.2689712 -0.27371582 -0.27370897
000130 ea 43 1f 3c 35 f0 13 bd ea e0 2c 3d 23 c0 a8 bd
       0.009720782 -0.03611775 0.042206682 -0.08239772
000140 62 aa 2a 3d 27 4d 7f be 3a 2c 85 bd 6d d8 92 3c
       0.041666396 -0.24931775 -0.06502576 0.017925465
000150 03 4e 85 3d 02 a7 e3 bc 2f 8a 0e be 8a 81 b3 be
       0.0650902 -0.027789596 -0.139199 -0.35059768
000160 36 e4 03 be 98 58 c1 bd 8a a7 45 bc 4c 77 7f bc
       -0.12880024 -0.09440726 -0.01206387 -0.015592407
000170 b9 b9 6a bd c9 75 74 be 6f 9c d6 3d c8 2f 57 bd
       -0.057306025 -0.23873056 0.10479056 -0.052535802
000180 e4 37 e3 be 1d bb ef bd 9f 62 41 bd 2e 90 d2 3d
       -0.4437858 -0.11705611 -0.047213193 0.10281406
000190 66 aa 06 be 20 9a 54 bd ce 87 53 be 1b f4 73 be
       -0.1315094 -0.051904798 -0.20657274 -0.23823588
0001a0 53 64 73 be a3 8c c4 bd 4f c4 60 bd ec 0b ff bc
       -0.2376874 -0.09597137 -0.054874714 -0.031133614
0001b0 a7 a4 b7 bc 4b 4f 96 3c 81 a5 dd bd 4c a8 a7 bd
       -0.02241738 0.018348357 -0.10822583 -0.08186397
0001c0 f2 fe 31 bd 25 28 a5 bd ed 1b 9f 3d 31 d2 19 bb
       -0.043456025 -0.080642976 0.07768998 -0.002347123
0001d0 3b 17 57 bb f4 a3 95 bd eb 89 e5 bd 09 8c fb 3b
       -0.0032820243 -0.07306662 -0.112079464 0.0076766056
0001e0 35 92 06 be 01 7e 2a be b3 85 e6 bc 1e 28 82 3d
       -0.13141711 -0.16649629 -0.028139925 0.06355308
0001f0 8b 2f bb be ac 7d 95 bd 13 ad ed bd e6 73 e2 bd
       -0.3655971 -0.07299361 -0.11605277 -0.11057262
000200 ae 12 e6 bd ea 68 1f be 47 78 22 be 09 87 0a be
       -0.112340316 -0.15567365 -0.15866195 -0.13528074
000210 aa f2 c3 bd f4 01 98 be 35 76 b2 bd cc 4a 9f bd
       -0.09567769 -0.2968899 -0.087139525 -0.07777938
000220 04 fd ce be be b7 f4 3c f5 be 52 be 02 b0 5e 3d
       -0.4042741 0.029872771 -0.20580657 0.054367073
000230 1d cb 55 be a6 bf 8c bc 37 a5 31 be 74 c5 de 3c
       -0.20878263 -0.017181229 -0.1734818 0.027193762
000240 09 16 85 bb ab aa f6 bd 13 2a 34 be 80 01 48 bd
       -0.0040614647 -0.12044271 -0.17594175 -0.048829556
000250 57 69 4f 3c 98 06 5d bd 5d c6 98 be 6a 16 b4 be
       0.012659392 -0.053961366 -0.2983884 -0.3517335
000260 c2 3c 6b be de d6 c7 bd 20 30 93 be a5 d4 8b bc
       -0.22972396 -0.097577795 -0.28747654 -0.01706917
000270 83 53 cb be 27 5b 5a be 7d 7e 6d ba e3 55 90 3d
       -0.39712152 -0.21323834 -0.0009059681 0.070476316
000280 24 69 84 3c 34 73 8a be c1 eb 9c b9 ad 19 63 be
       0.016163416 -0.27041018 -0.0002993029 -0.22177763
000290 eb 6f 4d be 6f d4 9d bd 9c a9 1a 3d 2f 3b 17 3d
       -0.20062225 -0.07706534 0.03775941 0.036921676
0002a0 91 4f 8e bd 2b ca a0 bd 09 f5 17 3d 6b d4 90 be
       -0.0694877 -0.078510605 0.037098918 -0.28287062
0002b0 0d 5a 84 be ed 15 3d bd f8 d6 27 bd d6 e7 1c be
       -0.25849953 -0.04616349 -0.040976495 -0.15322813
0002c0 57 db 64 bd 9a 11 6a be 9a 64 d9 bc dc dc 5c be
       -0.05587324 -0.22858277 -0.026537228 -0.21568626
0002d0 27 d8 47 be 51 3c 57 be a4 35 85 be f7 cd 69 3d
       -0.1951605 -0.21019103 -0.26017487 0.05708119
0002e0 0e ca e4 bd ec d5 88 bd b8 7a a9 bd 26 e5 47 bd
       -0.111713514 -0.06681427 -0.0827536 -0.048802517
0002f0 48 fd 4d be 09 c5 94 bd a7 5c b3 bd 2d 2e 2c 3d
       -0.2011615 -0.07264144 -0.087579064 0.042036224
000300 6c 21 af bd 2d 63 a6 be 96 c0 82 bc b2 d2 30 bc
       -0.085512966 -0.3249754 -0.015960973 -0.010792421
000310 34 ee dc bd 7f 46 87 be 7e 1c 22 be 59 aa 2e be
       -0.10787621 -0.26420972 -0.15831181 -0.1705717
000320 e6 ae 37 3c 9f 57 3b 3b fd 5d 33 be 38 98 83 bd
       0.011211133 0.0028586162 -0.17516322 -0.06425518
000330 8c 99 15 be 44 a5 60 be b4 e7 25 bd 15 46 64 be
       -0.14609355 -0.21938044 -0.040504172 -0.22292359
000340 21 3a 4a 3d 0a 10 c6 bb ca 89 f3 b9 fb 02 17 be
       0.049371842 -0.0060443925 -0.00046451233 -0.1474723
000350 bd 63 aa be 9e 79 9b be 59 78 92 bc 7f 1f 48 be
       -0.3327922 -0.30366224 -0.017879652 -0.19543265
000360 8a 75 11 bc 5f 48 aa be 92 7a e8 3d 27 b5 bc bd
       -0.008878121 -0.3325834 0.113515034 -0.092142396
000370 c4 87 1f 3b 92 bf e6 bc 98 84 34 bd 35 64 94 be
       0.0024342397 -0.02816752 -0.044071764 -0.28982702
000380 f5 7c 9e be 3a e1 18 be af ad a0 bd 0e 32 eb bd
       -0.3095471 -0.14929667 -0.078456275 -0.114841565
000390 c7 54 9f be ab 4c 17 be 3b 2c 79 bd ad ed cc 3d
       -0.31119367 -0.1477534 -0.060833197 0.100062706
0003a0 04 f1 2f be a2 cf a1 bc 46 7b 88 be 69 79 51 be
       -0.17181784 -0.019752327 -0.2665655 -0.2045647
0003b0 5a 1f a1 bd 39 9c 1e be 57 a0 87 bd 2b 41 e4 bd
       -0.07867308 -0.15489282 -0.06622379 -0.11145242
0003c0 80 6e 0d be 9c ee b4 bd 3e 94 9a bd 91 11 be bd
       -0.13811684 -0.088345736 -0.07547806 -0.09280694
0003d0 fe 1c c3 3c e2 27 82 bd 6c dd b3 bd 25 6d 83 be
       0.023817535 -0.06355263 -0.08782467 -0.25669208
0003e0 5d 10 2d be dc af a4 bd 24 da f6 3d 32 96 c1 3c
       -0.16900773 -0.08041355 0.12053326 0.023631189
0003f0 d6 66 80 3d f8 96 5c bb 03 f8 04 bd ae a0 4a be
       0.062696144 -0.003365932 -0.032463085 -0.19787857
