bipedal_walker/bipedal_critic.pt (torch_old, 85090 bytes, 9 tensors)

fc1.weight f4 [128, 24]
-0.075910926 -0.21930794 0.093634084 -0.05494808 0.0033700934 0.021029009 0.036388703 0.061897546
-0.033202086 -0.06583742 0.035814423 -0.07641359 -0.027015587 0.037533145 0.033419043 -0.010571821
0.052776974 0.039485954 -0.060636643 0.0754367 -0.07100437 -0.054719046 0.007935963 0.025798373
0.0027113312 0.05083497 0.07070517 -0.14578345 0.026745433 0.05732495 -0.043342344 0.016798804
0.0043093874 -0.01024607 0.0026059782 0.041178748 0.00050167384 -0.012078035 -0.02085597 -0.1194134
-0.082022555 -0.08352529 0.042298853 -0.10063432 -0.09718247 -0.003596081 -0.10548161 -0.06421789
-0.050869737 0.02201285 -0.09017151 -0.11636362 0.011122254 0.0120069785 -0.011311578 0.018117603
0.012684029 -0.018950928 0.010063061 -0.012159032 0.020795831 -0.00044320393 -0.0010037642 -0.033128757
-0.14968649 -0.087016106 -0.078465514 -0.08325418 -0.08627281 -0.10210335 -0.016593577 -0.041024394
0.046850402 -0.11175501 0.10245411 0.0134603605 0.009815414 -0.00733234 -0.013462247 0.03485041
-0.057801317 0.020564847 0.038973376 0.0060661254 0.0051703895 -0.046532985 -0.007450765 -0.10113921
-0.010276006 -0.054851927 -0.09850044 -0.073090345 0.017427213 -0.018545758 -0.098697804 0.13032061
-0.0077809184 0.051738817 0.076057725 -0.029520467 -0.08675459 -0.06646941 -0.022626031 0.063320585
-0.026552899 -0.0031186768 -0.014446226 0.03598209 0.052006368 0.0052577346 -0.1460331 -0.070525885
-0.16294307 -0.10003995 -0.13593397 -0.06846396 -0.1538007 0.005867744 -0.10885773 0.061606605
-0.03847846 0.09246098 -0.18034272 -0.061962783 -0.019734073 -0.012714447 0.0036133223 -0.061035547
-0.03037736 -0.004084633 -0.0026026792 -0.010497685 0.014163584 0.007534633 0.038710877 0.053180758
0.052576743 -0.06560477 0.033067517 -0.054459475 0.061471485 -0.016480396 -0.08605282 -0.14608018
0.00011998114 -0.060847726 -0.057830438 -0.07472898 -0.04630044 -0.1600934 0.03851777 0.047860365
-0.05495343 -0.008660403 -0.03628421 0.010097084 0.028032692 -0.02739349 0.030913956 -0.057226803
-0.043434866 0.043832764 0.018501434 -0.001784242 -0.011031201 -0.041417282 -0.07727185 0.075350456
0.022388097 -0.008357962 0.104540005 -0.14751245 -0.024122223 -0.05735735 0.019211974 -0.01074945
-0.028885921 -0.026556166 0.009998975 -0.058658667 0.04988139 0.037428435 -0.09151431 -0.06315029
-0.088595994 -0.09343889 0.0111928005 0.022575628 0.021634318 -0.07516578 -0.13964689 0.044906937
0.015310877 -0.015007661 0.050752275 -0.15844971 -0.031081153 0.03248813 0.03184666 -0.02701168
-0.050262187 0.037099294 0.06726261 0.0041994364 0.021533804 -0.08733276 -0.04128474 -0.09581905
-0.09709261 -0.027247377 0.060583785 -0.031546168 -0.08340775 -0.0027360804 -0.05444013 0.016421618
-0.03078405 -0.010946164 -0.015538686 -0.14332028 -0.028112467 -0.051012263 -0.019607808 -0.0702082
0.028017698 -0.0063511515 0.07063338 -0.0027352124 0.05808134 -0.024350664 -0.05079767 -0.14012673
-0.16004525 -0.03237647 -0.13776526 -0.071350865 -0.04092437 0.007016085 -0.03866308 -0.032385323
0.048661165 -0.035215616 -0.08126423 -0.1300137 0.029553523 -0.060415585 0.07113677 -0.036890045
-0.0032104505 -0.07212129 0.031843152 -0.015522423 0.008512344 -0.041171588 -0.006519993 -0.07672074
00000000: 3077 9bbd 4392 60be 3ac3 bf3d 3d11 61bd
00000010: c9dc 5c3b 0745 ac3c 520c 153d 4888 7d3d
00000020: e9fe 07bd c5d5 86bd 25b2 123d ba7e 9cbd
00000030: cb4f ddbc 5bbc 193d 68e2 083d 6e35 2dbc
00000040: ab2c 583d 06bc 213d 215e 78bd 8e7e 9a3d
00000050: bd6a 91bd 1421 60bd d705 023c 1c57 d33c
00000060: 97b0 313b 5438 503d dfcd 903d 4248 15be
00000070: 3d19 db3c 91cd 6a3d be87 31bd a59d 893c
00000080: c335 8d3b 22df 27bc 0fc9 2a3b 0cab 283d
00000090: c382 033a f3e2 45bc 24da aabc 038f f4bd
000000a0: 71fb a7bd 4f0f abbd 9041 2d3d 5e19 cebd
000000b0: 9a07 c7bd 3aac 6bbb be06 d8bd ab84 83bd
000000c0: c95c 50bd 4b54 b43c d7ab b8bd 0d50 eebd
000000d0: 1d3a 363c ebb8 443c 3254 39bc 5e6b 943c
000000e0: acd0 4f3c fa3e 9bbc 89df 243c ad36 47bc
000000f0: 055c aa3c d35d e8b9 bd90 83ba 05b2 07bd
00000100: 6a47 19be 8035 b2bd 87b2 a0bd 2b81 aabd
00000110: cdaf b0bd 901b d1bd 41ef 87bc 3209 28bd
00000120: 35e6 3f3d d0df e4bd 76d3 d13d d888 5c3c
00000130: d5d0 203c 2044 f0bb c290 5cbc 4ebf 0e3d
00000140: 13c1 6cbd 9c77 a83c 8ca2 1f3d 59c6 c63b
00000150: 5f6c a93b 5f99 3ebd 8c25 f4bb 1322 cfbd
00000160: b15c 28bc 6aac 60bd 99ba c9bd 64b0 95bd
00000170: 84c3 8e3c 46ed 97bc 1322 cabd c472 053e
00000180: 13f7 febb 15ec 533d 27c4 9b3d e8d4 f1bc
00000190: 64ac b1bd 1d21 88bd 3a5a b9bc 39ae 813d
000001a0: 7785 d9bc b762 4cbb ddaf 6cbc f561 133d
000001b0: a104 553d 1349 ac3b b389 15be e06f 90bd
000001c0: 8cda 26be bfe1 ccbd 4632 0bbe d536 8cbd
000001d0: ee7d 1dbe 3446 c03b cdf0 debd 3557 7c3d
000001e0: 979b 1dbd 2f5c bd3d c3ab 38be b0cc 7dbd
000001f0: 5aa9 a1bc 4250 50bc 7dcd 6c3b 6900 7abd
00000200: f1d9 f8bc 63d8 85bb b691 2abb 7bfe 2bbc
00000210: 610e 683c 15e5 f63b 4c8f 1e3d 11d4 593d
00000220: b65a 573d cb5b 86bd ce71 073d e610 5fbd
00000230: 86c9 7b3d e501 87bc 763c b0bd 0b96 15be
00000240: 629e fb38 773b 79bd 9cdf 6cbd 820b 99bd
00000250: 88a5 3dbd 86ef 23be cfc4 1d3d 3b09 443d
00000260: d916 61bd 5de4 0dbc c09e 14bd 3d6e 253c
00000270: d1a4 e53c 5068 e0bc 443f fd3c a766 6abd
00000280: c2e8 31bd fc89 333d 5290 973c 3add e9ba
00000290: 36bc 34bc 2ba5 29bd b440 9ebd 5751 9a3d
000002a0: 3e67 b73c d5ef 08bc 1219 d63d 810d 17be
000002b0: f89b c5bc 8aef 6abd 6e62 9d3c 761e 30bc
000002c0: 2ba2 ecbc 518c d9bc bed2 233c 1244 70bd
000002d0: 6e50 4c3d 8f4e 193d db6b bbbd f054 81bd
000002e0: d171 b5bd e45c bfbd 0262 373c 86f0 b83c
000002f0: 743a b13c 84f0 99bd 98ff 0ebe 56f0 373d
00000300: 79da 7a3c b1e2 75bc 9ee1 4f3d a440 22be
00000310: e79d febc 4612 053d a571 023d 9947 ddbc
00000320: b9df 4dbd 6ef5 173d fbc0 893d 6d9b 893b
00000330: a967 b03c 85db b2bd 301a 29bd c73c c4bd
00000340: 7ed8 c6bd e435 dfbc b426 783d 8e36 01bd
00000350: afd1 aabd d04f 33bb 9dfc 5ebd a186 863c
00000360: d52e fcbc 8a57 33bc f995 7ebc 8dc2 12be
00000370: 1e4c e6bc 3cf2 50bd 8ea0 a0bc 51c9 8fbd
00000380: 5f85 e53c 521d d0bb 3ca8 903d 4041 33bb
00000390: b3e6 6d3d 0b7b c7bc 3811 50bd 627d 0fbe
000003a0: e7e2 23be 309d 04bd 5612 0dbe 6720 92bd
000003b0: 50a0 27bd 30e7 e53b 2e5d 1ebd 79a6 04bd
000003c0: ee50 473d 403e 10bd dc6d a6bd 5022 05be
000003d0: 3b1a f23c 5576 77bd 28b0 913d 041a 17bd
000003e0: 6c66 52bb 54b4 93bd f76d 023d c351 7ebc
000003f0: 5c77 0b3c 8aa3 28bd aaa5 d5bb c31f 9dbd

fc1.bias f4 [128]
0.13500737 -0.18008007 -0.1377991 0.059768107 0.006456373 0.11519204 0.084627986 0.008876906
0.033623654 0.13987152 -0.19174273 -0.07075567 0.13365334 -0.1635063 0.09590186 0.13678926
0.0655424 -0.13702539 -0.11457848 0.04807411 -0.09849069 0.080358095 0.05558567 0.0421867
0.1852516 -0.20031095 -0.19426414 0.13482668 -0.069017485 -0.20177625 -0.070030235 0.15669605
-0.031020246 0.103253365 0.10907077 -0.06757085 0.10744776 0.062356614 -0.13085037 -0.039612625
0.12373142 0.073292136 0.03174465 -0.020656344 -0.130545 -0.07375209 0.13310231 -0.008637284
-0.11916854 0.031762782 -0.16502927 -0.026246892 -0.008914965 -0.2006221 -0.13458118 -0.14921328
-0.13773315 0.15892924 0.078528926 -0.14574835 -0.076427266 0.14939843 0.18372521 0.033771794
0.00055722904 -0.153306 0.103587784 -0.05818787 0.01620133 -0.045562457 0.06907105 0.048434466
-0.048574675 -0.02769947 0.0020888944 -0.16462035 -0.026094476 -0.15389149 0.16117835 0.10223212
-0.0268035 0.13148603 0.017514512 0.18766636 0.041042786 0.095039725 0.030835703 -0.10951614
-0.1924374 -0.084867425 0.1570417 0.096194 -0.06974393 -0.12957029 0.20228273 0.022463597
-0.17532241 -0.07215162 0.012911646 -0.007414314 -0.0744364 0.06465308 -0.14283434 0.08551666
-0.12647109 0.16349511 0.1552249 0.19946691 -0.21228509 -0.07348681 -0.037371125 -0.18659978
0.08840225 -0.07901567 -0.004044101 0.09582263 -0.1538412 0.02677879 -0.09218219 0.14473778
0.17986377 -0.05310141 -0.13397337 0.11804243 -0.14134108 0.19751924 0.16275287 0.08496367
00000000: 5f3f 0a3e e966 38be 351b 0dbe 67cf 743d
00000010: fb8f d33b cee9 eb3d 7051 ad3d 7170 113c
00000020: f5b8 093d 7b3a 0f3e 3558 44be 59e8 90bd
00000030: 6cdc 083e 326e 27be 3268 c43d 7c12 0c3e
00000040: 183b 863d 6250 0cbe 1fa8 eabd 5ce9 443d
00000050: 7db5 c9bd c992 a43d cdad 633d f6cb 2c3d
00000060: 98b2 3d3e 501e 4dbe 2eed 46be 0110 0a3e
00000070: 0a59 8dbd 6f9e 4ebe 036c 8fbd ee74 203e
00000080: 2c1e febc 8076 d33d 7f60 df3d 9662 8abd
00000090: 920d dc3d a669 7f3d a4fd 05be d940 22bd
000000a0: e666 fd3d 301a 963d ae06 023d 7e37 a9bc
000000b0: 97ad 05be 560b 97bd f94b 083e 6583 0dbc
000000c0: a30e f4bd b119 023d 6ffd 28be b903 d7bc
000000d0: 1310 12bc e16f 4dbe a6cf 09be 5ecb 18be
000000e0: eb09 0dbe 59be 223e c6d3 a03d 0e3f 15be
000000f0: e685 9cbd e7fb 183e 7622 3c3e 4b54 0a3d
00000100: 0213 123a 40fc 1cbe d525 d43d 6756 6ebd
00000110: a7b8 843c b39f 3abd 1f75 8d3d 3863 463d
00000120: 3df6 46bd 00ea e2bc d5e5 083b 3d92 28be
00000130: 15c4 d5bc bb95 1dbe f00b 253e 135f d13d
00000140: 0393 dbbc 46a4 063e 987a 8f3c 9c2b 403e
00000150: 7b1c 283d 30a4 c23d 289b fc3c ff49 e0bd
00000160: 4f0e 45be f9ce adbd 8acf 203e 5c01 c53d
00000170: e8d5 8ebd 13ae 04be 3423 4f3e 9405 b83c
00000180: b887 33be 3bc4 93bd 5e8b 533c c6f3 f2bb
00000190: 1c72 98bd d668 843d 2a43 12be 5c23 af3d
000001a0: a381 01be 436b 273e 47f3 1e3e 0e41 4c3e
000001b0: 4361 59be 4180 96bd 7712 19bd 0314 3fbe
000001c0: 3d0c b53d f8d2 a1bd 6184 84bb a83e c43d
000001d0: 8c88 1dbe 315f db3c 04ca bcbd 2436 143e
000001e0: 352e 383e dd80 59bd 5130 09be 3bc0 f13d
000001f0: b7bb 10be 7c42 4a3e b0a8 263e 6f01 ae3d

bn1.weight f4 [128]
1.0674042 1.0603005 1.0491035 1.1054776 1.0551685 1.1638552 1.0538327 1.0507195
1.0599852 1.0488735 1.0830554 1.3714231 1.1597472 1.1193206 1.1287407 1.0608405
1.1500443 1.1700103 1.159939 1.1073632 1.104184 1.0870199 1.0352418 1.2053516
1.1151106 1.0467333 1.1597316 1.2796793 1.1788089 1.201147 1.2480575 1.1699139
1.0416434 1.0579085 1.1680027 1.0553445 1.0509462 1.0417273 1.2326927 1.0562315
1.0394269 1.0525895 1.2938598 1.2403129 1.0760126 1.0484678 1.3704803 1.2422208
1.0154759 1.1151814 1.1473945 1.0326062 1.0812045 1.3198671 1.0746679 1.4175322
1.0480255 1.0873203 1.0554088 1.1363622 1.0605834 1.0754408 1.0595922 1.0763996
1.0666319 1.057331 1.2944387 1.2690811 1.0811043 1.0338013 1.0666213 1.1917658
1.0694084 1.0717647 1.0477859 1.080192 1.1175095 1.2189573 1.058466 1.2804532
1.2346017 1.1107534 1.0799441 1.2630547 1.0412246 1.1599337 1.0449514 1.3303444
1.2215956 1.1677986 1.0731378 1.2491401 1.0360752 1.1692363 1.0586768 1.1592723
1.2056342 1.1064548 1.0481484 1.2425771 1.0905136 1.1053916 1.0658345 1.0356258
1.0637628 1.0966941 1.0560395 1.0645323 1.3070612 1.100229 1.3617934 1.2442923
1.0491482 1.2237011 1.2584968 1.1391774 1.0660188 1.057891 1.0704913 1.157677
1.0345603 1.2322917 1.0606107 1.1099359 1.0484506 1.075385 1.0761745 1.0850478
00000000: b3a0 883f edb7 873f 0649 863f 4a80 8d3f
00000010: c30f 873f 35f9 943f fde3 863f fa7d 863f
00000020: 98ad 873f 7d41 863f 8fa1 8a3f cb8a af3f
00000030: 9972 943f e645 8f3f 937a 903f 9fc9 873f
00000040: a734 933f e6c2 953f e278 943f 14be 8d3f
00000050: e755 8d3f 7823 8b3f ce82 843f f648 9a3f
00000060: f2bb 8e3f 5bfb 853f 1672 943f 88cc a33f
00000070: 36e3 963f 2fbf 993f 59c0 9f3f bdbf 953f
00000080: 9254 853f 8c69 873f 1d81 953f 8715 873f
00000090: 6885 863f 5257 853f e0c8 9d3f 9832 873f
000000a0: f10b 853f 41bb 863f 339d a53f 93c2 9e3f
000000b0: c8ba 893f 3134 863f e66b af3f 1701 9f3f
000000c0: 1dfb 813f 44be 8e3f d3dd 923f 712c 843f
000000d0: e964 8a3f 68f1 a83f b88e 893f b271 b53f
000000e0: b325 863f 502d 8b3f a317 873f 5174 913f
000000f0: 32c1 873f 0ba8 893f b8a0 873f 76c7 893f
00000100: 6587 883f 9f56 873f 2bb0 a53f 4071 a23f
00000110: a061 8a3f 9a53 843f 0c87 883f c88b 983f
00000120: 60e2 883f 962f 893f d91d 863f bb43 8a3f
00000130: 8d0a 8f3f cb06 9c3f d07b 873f e4e5 a33f
00000140: 6e07 9e3f 2b2d 8e3f 9c3b 8a3f c7ab a13f
00000150: d946 853f b578 943f f8c0 853f ba48 aa3f
00000160: 3f5d 9c3f 6d7a 953f 945c 893f d3e3 9f3f
00000170: 1d9e 843f 89a9 953f b982 873f 0963 943f
00000180: 3952 9a3f 50a0 8d3f ba29 863f c40c 9f3f
00000190: f395 8b3f 797d 8d3f 446d 883f 638f 843f
000001a0: 6129 883f 7960 8c3f 4d2c 873f 9842 883f
000001b0: c84d a73f 4ed4 8c3f 3f4f ae3f f844 9f3f
000001c0: 7d4a 863f 3da2 9c3f 6c16 a13f 91d0 913f
000001d0: 4e73 883f f968 873f dc05 893f c32e 943f
000001e0: 796c 843f bcbb 9d3f 17c2 873f 6112 8e3f
000001f0: a133 863f 37a6 893f 16c0 893f d9e2 8a3f

bn1.bias f4 [128]
-0.0055750376 -0.012743955 0.010528162 0.03146102 -0.01521283 0.050850097 0.0059348713 -0.0063771554
0.028274434 0.0040175766 0.015187007 0.2027781 0.11418451 0.0996791 -0.036504913 -0.0033149067
0.105580695 0.06303749 0.040610872 0.05264357 -0.010937337 -0.04810963 0.057050385 0.07003509
0.0067092604 -0.02056145 0.08183484 0.13648358 0.10155536 0.0885051 0.10545139 0.005805445
-0.0207563 0.03807109 -0.059696734 -0.007335415 -0.0038247406 0.028036078 0.09181736 -0.0131464
0.028719077 0.0026240796 0.12173803 0.10174874 0.0036561773 -0.009654563 0.1765559 0.119554274
0.034087382 -0.09121877 0.105933 0.0067071044 -0.020729607 0.19633059 0.0040997933 0.13472557
0.0017468603 -0.0048868055 0.007348554 0.036735803 -0.011820113 -0.009790406 -0.007403687 -0.013128603
-0.007028244 -0.0024997743 0.15807179 0.11438105 0.009739829 0.022333654 -0.014059489 0.08515362
-0.027064063 -0.0044705034 0.02505075 -0.02285126 0.010397499 0.14227228 0.00036749462 0.16831082
0.08544897 -0.036363203 -0.002566817 0.11008856 0.0034958117 0.11219352 0.028125118 0.119743094
0.10875457 0.120018356 0.0029570535 0.09171256 0.0024380689 0.039677847 0.009682644 0.08349136
0.07964303 0.038548075 0.032798942 0.05650594 -0.011865677 0.01411168 -0.0105828345 -0.0025183056
-0.0006436438 0.099740036 0.0022820618 -0.001038523 0.14957902 0.014091039 0.10709682 0.14599036
0.02261251 0.03857319 0.10644468 0.07997833 0.0035058383 -0.02107823 -0.03399498 0.10707985
-0.007851385 0.11140808 -0.0012568159 0.070421234 -0.008450613 -0.044183478 0.040025078 0.0004240282
00000000: ceae b6bb 05cc 50bc 507e 2c3c 45dd 003d
00000010: 3c3f 79bc 3148 503d 4f79 c23b 75f7 d0bb
00000020: c99f e73c e0a5 833b edd2 783c 10a5 4f3e
00000030: 92d9 e93d 8e24 cc3d 2d86 15bd e83e 59bb
00000040: b13a d83d cd19 813d 9657 263d c9a0 573d
00000050: 8432 33bc 9a0e 45bd aaad 693d 8f6e 8f3d
00000060: 5bd9 db3b 7c70 a8bc 0699 a73d 5ac2 0b3e
00000070: 42fc cf3d 2942 b53d e6f6 d73d 9a3b be3b
00000080: 1e09 aabc 6ef0 1b3d 9084 74bd ec5d f0bb
00000090: 80a8 7abb ebab e53c bd0a bc3d 0064 57bc
000000a0: 4544 eb3c c0f8 2b3b ca51 f93d a561 d03d
000000b0: 7a9c 6f3b 2c2e 1ebc 12cb 343e dfd8 f43d
000000c0: 369f 0b3d e8d0 babd 67f3 d83d 45c7 db3b
000000d0: 23d1 a9bc e30a 493e 8f57 863b 80f5 093e
000000e0: e8f6 e43a 7f21 a0bb 24cc f03b 4878 163d
000000f0: 26a9 41bc f067 20bc a19a f2bb 5a19 57bc
00000100: 2f4d e6bb 41d3 23bb 92dd 213e 9d40 ea3d
00000110: ce93 1f3c 11f5 b63c c559 66bc 0565 ae3d
00000120: 74b5 ddbc 4d7d 92bb 3b37 cd3c 9132 bbbc
00000130: 465a 2a3c d3af 113e 4bac c039 ac59 2c3e
00000140: dfff ae3d 95f1 14bd 0b38 28bb 1c76 e13d
00000150: fd19 653b b7c5 e53d a666 e63c de3b f53d
00000160: b7ba de3d 2fcc f53d 20cb 413b cbd3 bb3d
00000170: 02c8 1f3b 3d85 223d f4a3 1e3c 85fd aa3d
00000180: e31b a33d 96e4 1d3d 2f58 063d c672 673d
00000190: 4268 42bc ad34 673c a063 2dbc 280a 25bb
000001a0: 34ba 28ba 8144 cc3d a58e 153b 0d1f 88ba
000001b0: 3e2b 193e 1ade 663c 9455 db3d 7f7e 153e
000001c0: df3d b93c ecfe 1d3d abff d93d aecb a33d
000001d0: 35c2 653b 41ac acbc 523e 0bbd ae4c db3d
000001e0: 18a3 00bc eb29 e43d bebb a4ba 0239 903d
000001f0: 7174 0abc bcf9 34bd 56f1 233d 1a50 de39

bn1.running_mean f4 [128]
0.19960313 -0.5483256 -0.47475165 -0.09058605 -0.40608004 -0.08116907 0.031797 -0.18329903
-0.17039657 -0.1651082 -0.2772855 0.17451403 0.2937897 -0.19355318 0.11641809 0.006419517
0.12604317 -0.08568955 -0.03958225 0.21500798 -0.03660501 -0.08176604 -0.43176356 0.1555509
0.18478021 -0.58352715 0.0055671106 0.6909492 0.40833735 -0.25344905 -0.010322732 0.018201135
-0.30344126 -0.05691241 -0.064470634 -0.18789333 -0.12566373 0.022497563 0.059530996 -0.19346853
-0.24915238 -0.3276027 0.37675253 0.296621 -0.3633496 -0.7510134 0.7968102 0.2605663
-0.41351628 -0.23251158 -0.10788225 -0.13626456 0.18261746 0.13915817 -0.057247512 0.34844568
-0.51206845 0.0364186 -0.46827808 -0.12685186 -0.20203821 -0.020200705 -0.22399846 -0.13371377
0.022581616 -0.34245992 0.3850241 0.4340279 0.0051427265 -0.2927426 -0.441628 0.40874612
-0.5709915 -0.24132198 -0.123684004 0.04711337 -0.019192282 0.19745186 -0.077001356 0.32267156
0.19866961 0.19345208 -0.08040017 0.60235876 0.054887433 0.7320099 -0.20042372 0.31787023
0.18627717 0.3203305 0.1219335 0.63036954 -0.7305257 0.21816868 0.18598934 0.10009876
0.021778297 -0.21215817 -0.014485389 -0.4368834 -0.41350174 0.22978878 -0.48758057 -0.3713635
-0.14181416 0.07335626 -0.12936357 0.025193388 0.55515695 0.1964302 0.34036472 -0.11588505
-0.11915244 -0.21442531 0.6426125 0.08447546 -0.65894246 -0.28438538 -0.12838857 0.63470167
0.1554576 0.47779226 -0.4537011 0.3462016 -0.6842702 -0.22884353 0.094399124 0.20736295
00000000: c364 4c3e 115f 0cbf a612 f3be 2e85 b9bd
00000010: b9e9 cfbe f83b a6bd 923d 023d beb2 3bbe
00000020: 707c 2ebe 2012 29be 5df8 8dbe ceb3 323e
00000030: 9b6b 963e ce32 46be 9c6c ee3d d05a d23b
00000040: 7611 013e 017e afbd ff20 22bd 0d2b 5c3e
00000050: 23ef 15bd f474 a7bd 1d10 ddbe bc48 1f3e
00000060: 0637 3d3e 0962 15bf 4f6c b63b 0ce2 303f
00000070: 9811 d13e 13c4 81be ad20 29bc 8c1a 953c
00000080: a75c 9bbe fd1c 69bd 2e09 84bd 1c67 40be
00000090: fead 00be cf4c b83c c6d6 733d 9d1c 46be
000000a0: cd21 7fbe 8bbb a7be b5e5 c03e b5de 973e
000000b0: f508 babe 6a42 40bf c1fb 4b3f f268 853e
000000c0: 68b8 d3be 8417 6ebe 5ef1 dcbd f088 0bbe
000000d0: 1200 3b3e 7b7f 0e3e 5e7c 6abd 7967 b23e
000000e0: eb16 03bf ab2b 153d 25c2 efbe 74e5 01be
000000f0: 1be3 4ebe f37b a5bc da5f 65be 43ec 08be
00000100: 15fd b83c e856 afbe e121 c53e e838 de3e
00000110: 5184 a83b 5ce2 95be 111d e2be 2c47 d13e
00000120: 802c 12bf 1c1d 77be 0a4e fdbd f3f9 403d
00000130: 2239 9dbc d230 4a3e e3b2 9dbd 3535 a53e
00000140: 0c70 4b3e 4d18 463e d8a8 a4bd 2f34 1a3f
00000150: a5d1 603d 0065 3b3f e03b 4dbe e3bf a23e
00000160: 71bf 3e3e 5c02 a43e 45b8 f93d e65f 213f
00000170: bb03 3bbf 9c67 5f3e fd73 3e3e 9400 cd3d
00000180: 6668 b23c fe3f 59be 2054 6dbc 2eaf dfbe
00000190: 80b6 d3be c04d 6b3e 29a4 f9be 5b23 bebe
000001a0: bb37 11be cf3b 963d e277 04be 5d62 ce3c
000001b0: c41e 0e3f 0025 493e 4944 ae3e 2455 edbd
000001c0: 3206 f4bd 4f92 5bbe 4182 243f 7801 ad3d
000001d0: 74b0 28bf f69a 91be 4b78 03be cf7b 223f
000001e0: 4730 1f3e 30a1 f43e 834b e8be 5641 b13e
000001f0: 552c 2fbf f555 6abe 5454 c13d f456 543e

bn1.running_var f4 [128]
0.011128278 0.009952367 0.009827182 0.0048364503 0.019991513 0.0032069525 0.01496729 0.0086679105
0.010300795 0.01679917 0.008417913 0.013952617 0.010412749 0.009533136 0.005960773 0.0108858785
0.011125742 0.004680939 0.0018913586 0.009008755 0.0074395537 0.012945095 0.015986096 0.00679323
0.0063658934 0.013569102 0.010676405 0.002635517 0.011065534 0.012992687 0.0040346957 0.0031941482
0.013955507 0.010002788 0.0020965307 0.0049659675 0.01436936 0.009638932 0.019407699 0.009081772
0.019812273 0.018022938 0.0071343416 0.009963735 0.005962144 0.029373987 0.007474554 0.018248437
0.014970553 0.0062643155 0.01682049 0.01287183 0.010392852 0.00047860804 0.005098476 0.0033431547
0.02540662 0.002743805 0.026603712 0.009370646 0.0035732307 0.007860933 0.011938322 0.008527382
0.005488155 0.008981849 0.0025482294 0.005398764 0.0074793883 0.01249805 0.014667715 0.007952401
0.015156311 0.007582778 0.01446128 0.0060418723 0.0029762855 0.00057921215 0.010353294 0.0029093404
0.0070431437 0.002264841 0.0030473778 0.0050548078 0.007995263 0.007358107 0.011848092 0.005714375
0.011444404 0.0069873217 0.007022857 0.007924749 0.027513593 0.007585621 0.009642017 0.014371895
0.0122228945 0.011321082 0.019366259 0.0004839602 0.0066665336 0.01007227 0.012536765 0.01395699
0.0060245977 0.019016476 0.0075958907 0.0120783225 0.004252569 0.0035351873 0.0021920698 0.0013050868
0.013882171 0.0029479272 0.0051534073 0.00991897 0.019914778 0.01957146 0.01129906 0.006567921
0.01068552 0.004766804 0.013677233 0.024121452 0.020432271 0.00942371 0.013668442 0.0035198433
00000000: 6253 363c 410f 233c 3002 213c 167b 9e3b
00000010: 3ec5 a33c bc2b 523b 5d39 753c da03 0e3c
00000020: aac4 283c 6a9e 893c 49eb 093c 8499 643c
00000030: 3c9a 2a3c df30 1c3c 9752 c33b af5a 323c
00000040: bf48 363c 9062 993b 77e7 f73a 7599 133c
00000050: 80c7 f33b aa17 543c 46f5 823c be99 de3b
00000060: fc98 d03b f050 5e3c 17ec 2e3c a3b8 2c3b
00000070: 374c 353c 47df 543c 7b35 843b ea54 513b
00000080: a4a5 643c bce2 233c f365 093b 8eb9 a23b
00000090: 776d 6b3c 9cec 1d3c e5fc 9e3c b6cb 143c
000000a0: 594d a23c d7a4 933c 32c7 e93b ef3e 233c
000000b0: 175e c33b b7a1 f03c 1aed f43b bf7d 953c
000000c0: 0d47 753c e344 cd3b 20cb 893c 5ee4 523c
000000d0: c846 2a3c afed fa39 1e11 a73b d418 5b3b
000000e0: 8b21 d03c 69d1 333b 07f0 d93c 5787 193c
000000f0: dd2c 6a3b 25cb 003c f498 433c 6fb6 0b3c
00000100: fbd5 b33b 9b28 133c 3200 273b 1de8 b03b
00000110: a815 f53b 9fc4 4c3c db50 703c ca4a 023c
00000120: 2d52 783c f478 f83b 01ef 6c3c e6fa c53b
00000130: c90d 433b 45d6 173a dda0 293c a2aa 3e3b
00000140: 2cca e63b ba6d 143b 84b6 473b cda2 a53b
00000150: 90fe 023c 461c f13b 801e 423c a73f bb3b
00000160: 4f81 3b3c e7f5 e43b ff1f e63b ced6 013c
00000170: 3064 e13c cd90 f83b 8df9 1d3c 1978 6b3c
00000180: 8942 483c 0f7c 393c fda5 9e3c 0abc fd39
00000190: f072 da3b 2a06 253c 0167 4d3c dcab 643c
000001a0: fd69 c53b 71c8 9b3c f3e6 f83b 28e4 453c
000001b0: 2259 8b3b 9aae 673b d4a8 0f3b 720f ab3a
000001c0: 0c72 633c 0332 413b eadd a83b 2d83 223c
000001d0: 5124 a33c 5454 a03c b11f 393c b737 d73b
000001e0: 5212 2f3c da32 9c3b 7916 603c 5a9a c53c
000001f0: 9461 a73c e865 1a3c 9af1 5f3c 2cad 663b

fc2.weight f4 [128, 132]
-0.021118911 0.11783904 -0.018505953 -0.007203432 -0.0040494264 -0.056523055 0.088517874 0.057448134
0.022335438 -0.008254655 0.0599153 -0.17543834 -0.16256168 -0.12956335 0.09377209 0.010862466
-0.14862788 0.1465619 0.13488479 -0.046463817 0.13432863 0.028554134 0.048879035 -0.10675625
-0.171544 -0.0140347695 -0.10174107 -0.20157489 -0.1818369 -0.039711107 -0.12419454 -0.17868769
0.043382283 -0.0068692067 0.16962297 0.0005295062 -0.006055697 -0.046305753 -0.20671427 0.004780381
0.08380554 0.04947882 -0.31479314 -0.1289604 0.12569414 0.09555066 -0.33494124 -0.118888326
-0.01013043 0.11610353 -0.100084096 -0.01943359 0.1113175 -0.28333324 0.14365365 -0.34599385
-0.048788052 0.17845857 0.025645228 0.13763995 -0.0006208854 0.04158755 0.13287337 0.14055689
0.1407134 0.04941171 -0.21392101 -0.16508883 0.019438814 -0.039805412 0.13080375 -0.08781859
0.1706121 0.009165111 -0.04653558 0.13902488 0.13425757 0.08289415 0.050988227 -0.023746938
-0.24160175 0.07197487 0.008929694 -0.1686913 0.027199075 -0.110203005 -0.037185982 -0.26427102
-0.09787135 -0.18843132 0.15932217 -0.27045688 0.09653343 -0.07253334 -0.047144398 -0.17888086
-0.13911882 -0.053134106 0.0328491 -0.20112501 0.14987029 0.011855095 0.018765133 0.0016799569
0.014362384 -0.12932426 0.02373868 0.10577904 -0.31114814 0.073344275 -0.340713 -0.1507566
0.09053092 -0.24613057 -0.17976327 -0.08823588 0.084346585 0.04314104 0.098943815 -0.12394751
0.00084928155 -0.12560415 0.14646164 -0.040570486 0.02463394 0.15873477 0.103976056 0.11472721
0.06792414 0.0044605928 -0.0044635236 -0.06716093 0.06844659 -0.023890184 -0.04181923 0.059087418
0.006510566 0.0034952364 0.052886117 -0.025801904 0.086915225 0.1149397 0.16669588 -0.27093238
-0.089752816 -0.17074105 0.16238591 0.015085571 -0.11828958 0.0645855 0.122198865 -0.15813078
0.11806237 0.049753513 -0.0036990265 -0.23390655 0.004476042 0.1347808 -0.23966788 -0.2577018
-0.15220806 -0.22127855 -0.22476935 -0.080288954 0.1309524 -0.025529815 0.2133591 0.03656535
-0.0025753796 0.11426553 -0.28769723 0.0136641 -0.015489146 0.15528795 -0.16471389 -0.1692281
0.1507658 -0.003907056 -0.30877838 -0.13723813 -0.006964927 0.16600667 -0.17174599 0.010705624
0.019236054 -0.20661509 0.021992847 -0.28615803 -0.009864004 0.14697768 0.04615148 0.07357096
0.08265702 0.09838134 0.12522802 0.062709235 0.036901023 -0.00032850896 -0.2633114 -0.21009572
0.12412172 -0.04371809 0.03966394 -0.088431165 -0.002011898 0.130827 0.10126452 0.08651114
0.081249125 0.14582877 0.008861293 0.00161712 -0.21934445 0.11258923 0.12241201 -0.23752293
-0.030144889 -0.11939912 0.09291553 -0.2255871 -0.17618026 -0.14729615 0.030879013 -0.16155095
0.09216079 -0.12110799 0.050745554 -0.20630929 -0.23887612 -0.013162968 -0.034914862 -0.17114417
0.032932475 0.12959254 0.07605108 0.044203058 0.036847517 -0.10646757 0.10185017 0.113384545
-0.34167397 0.16777526 -0.30075076 -0.2783392 0.05650174 -0.22512193 -0.19142063 0.009996203
0.09378682 0.048790846 0.1001788 -0.12044698 0.013919015 -0.27950323 0.08589027 -0.070278525
00000000: 9101 adbc 9855 f13d cc99 97bc c40a ecbb
00000010: 0db1 84bb b884 67bd dc48 b53d bc4e 6b3d
00000020: cff8 b63c 883e 07bc bf69 753d 1ca6 33be
00000030: 9276 26be 41ac 04be 950b c03d 7cf8 313c
00000040: e831 18be 5314 163e 3d1f 0a3e d850 3ebd
00000050: 728d 093e 5cea e93c 6235 483d 05a3 dabd
00000060: 3ba9 2fbe 17f2 65bc 9f5d d0bd a669 4ebe
00000070: 7433 3abe 1da8 22bd b559 febd e8f9 36be
00000080: 9fb1 313d 1517 e1bb a5b1 2d3e 8fce 0a3a
00000090: de6e c6bb 1aab 3dbd e8ac 53be bea4 9c3b
000000a0: 3da2 ab3d 4eaa 4a3d 912c a1be 320e 04be
000000b0: f7b5 003e 10b0 c33d 6b7d abbe b97b f3bd
000000c0: 1afa 25bc b0c7 ed3d e4f8 ccbd 3133 9fbc
000000d0: 6efa e33d 0e11 91be f119 133e 1b26 b1be
000000e0: fbd5 47bd d8bd 363e f115 d23c 7df1 0c3e
000000f0: eac2 22ba b557 2a3d f50f 083e 25ee 0f3e
00000100: 2c17 103e ef63 4a3d 1c0e 5bbe 0c0d 29be
00000110: 263e 9f3c 000b 23bd 6bf1 053e 3cda b3bd
00000120: f0b4 2e3e 4329 163c 189c 3ebd 8a5c 0e3e
00000130: d17a 093e 68c4 a93d 08d9 503d f088 c2bc
00000140: 7366 77be 9067 933d da4d 123c 6abd 2cbe
00000150: 98d0 de3c 1db2 e1bd 5450 18bd 884e 87be
00000160: c670 c8bd 24f4 40be 5a25 233e 5379 8abe
00000170: 52b3 c53d 5c8c 94bd 7c1a 41bd 8b2c 37be
00000180: 2a75 0ebe 26a3 59bd c78c 063d b7f3 4dbe
00000190: 9977 193e df3b 423c 56b9 993c 0032 dc3a
000001a0: 3450 6b3c 946d 04be 9f77 c23c aea2 d83d
000001b0: cf4e 9fbe 8635 963d ef71 aebe f05f 1abe
000001c0: 4668 b93d a709 7cbe dd13 38be 03b5 b4bd
000001d0: e7bd ac3d a9b4 303d 0ea3 ca3d 31d8 fdbd
000001e0: 52a2 5e3a 609e 00be 0afa 153e 3d2d 26bd
000001f0: 1ecd c93c 5e8b 223e 66f1 d43d 19f6 ea3d
00000200: d01b 8b3d 2a2a 923b c042 92bb ab8b 89bd
00000210: ba2d 8c3d 59b5 c3bc a44a 2bbd a605 723d
00000220: 9656 d53b 5610 653b 1d9f 583d 845e d3bc
00000230: 9c00 b23d 8165 eb3d 53b2 2a3e a6b7 8abe
00000240: 53d0 b7bd bed6 2ebe 7e48 263e 7929 773c
00000250: cf41 f2bd 6745 843d 6643 fa3d 09ed 21be
00000260: afca f13d 57ca 4b3d 5e6b 72bb 3385 6fbe
00000270: c3ab 923b fa03 0a3e 7f6b 75be 7ef1 83be
00000280: 6edc 1bbe d896 62be f029 66be 896e a4bd
00000290: 6318 063e e723 d1bc cf7a 5a3e 8cc5 153d
000002a0: b3c7 28bb 0c04 ea3d 0d4d 93be 64df 5f3c
000002b0: 30c6 7dbc ce03 1f3e c2aa 28be 224a 2dbe
000002c0: 5a62 1a3e c306 80bb 3318 9ebe 2788 0cbe
000002d0: 0b3a e4bb a7fd 293e 2ede 2fbe a466 2f3c
000002e0: ee94 9d3c e892 53be 582a b43c 4e83 92be
000002f0: a29c 21bc 5181 163e 5609 3d3d 5fac 963d
00000300: 1548 a93d 287c c93d c63b 003e b36d 803d
00000310: 8725 173d ba3b acb9 c0d0 86be 5523 57be
00000320: 8733 fe3d bd11 33bd a876 223d 661b b5bd
00000330: 0cda 03bb 83f7 053e c663 cf3d c12c b13d
00000340: f165 a63d 2354 153e f52e 113c 8bf5 d33a
00000350: d59b 60be 2f95 e63d 26b3 fa3d 3639 73be
00000360: 6af2 f6bc 8787 f4bd 7f4a be3d 4e00 67be
00000370: 9968 34be cdd4 16be fcf5 fc3c 9d6d 25be
00000380: ccbe bc3d 7707 f8bd 92da 4f3d be42 53be
00000390: f19b 74be 7da9 57bc e302 0fbd 6b40 2fbe
000003a0: 34e4 063d e8b3 043e abc0 9b3d 440e 353d
000003b0: 6ced 163d ab0b dabd d296 d03d 2836 e83d
000003c0: e4ef aebe 47cd 2b3e 01fc 99be 7a82 8ebe
000003d0: 5e6e 673d 5d86 66be c503 44be 1dc7 233c
000003e0: 4e13 c03d e9d8 473d 8b2a cd3d e8ac f6bd
000003f0: 950c 643c 0c1b 8fbe 3de7 af3d 30ee 8fbd

fc2.bias f4 [128]
0.030001985 0.005206995 0.024433117 0.047642257 0.07478573 -0.111039005 0.12249786 0.01966668
0.05536832 0.029283835 0.06227904 -0.07168942 0.059932657 0.009045716 0.11000889 -0.04453545
-0.0046907826 0.023267336 0.028272292 -0.009776168 -0.07787397 0.07632915 -0.071510464 -0.09001793
-0.014731622 0.122965105 0.0071623973 -0.0819291 0.040237214 0.034949146 -0.022011623 0.056041528
0.16853496 -0.010669554 -0.005261723 0.075761184 -0.032842163 0.024368111 0.007207541 -0.014248636
0.06841382 0.089471 0.07055643 -0.0031430044 -0.021991573 0.09751318 0.085788324 -0.058493078
0.020426119 -0.035344377 0.0782762 -0.060124304 -0.079776764 -0.014487153 -0.009897803 0.028837873
-0.013860516 -0.010540736 0.0009858077 0.058504622 0.04509971 -0.0577036 0.05139239 -0.08278478
0.059927363 -0.033026338 0.03302526 0.035244245 0.010165218 0.0339368 -0.090974785 -0.0860843
-0.04690386 -0.027713794 0.05405709 0.108932756 0.084171645 0.055874605 0.07871051 0.022267496
0.031449616 0.051222082 0.036618605 0.06401186 -0.05603213 -0.05627644 -0.06271616 0.011459123
-0.074692905 0.08750838 -0.011085354 -0.09431387 0.079048365 -0.035050668 -0.0384811 0.044912755
0.09850223 -0.08171262 -0.053442758 0.02966746 -0.029777486 0.21889848 -0.059132453 0.05177159
-0.059809595 -0.04160795 0.07702683 -0.021312753 -0.09552885 -0.012602209 0.0657542 -0.00045407424
0.03854135 0.100543246 -0.02811572 -0.0020858473 0.022911495 0.10088005 0.003508917 0.16443922
-0.013170969 0.05314475 -0.004055596 -0.058426574 -0.024698116 0.09726939 -0.05240159 -0.08506941
00000000: b9c6 f53c 719f aa3b f627 c83c 8724 433d
00000010: 4329 993d 6b68 e3bd 28e0 fa3d 041c a13c
00000020: e4c9 623d a7e4 ef3c 4f18 7f3d e7d1 92bd
00000030: f27b 753d 7c34 143c 574c e13d ce6a 36bd
00000040: 23b5 99bb 249b be3c 4b9b e73c 382c 20bc
00000050: 637c 9fbd 7552 9c3d 1474 92bd 525b b8bd
00000060: e75c 71bc 21d5 fb3d 8bb2 ea3b 72ca a7bd
00000070: c7cf 243d d626 0f3d b851 b4bc cd8b 653d
00000080: 6e94 2c3e 5acf 2ebc 886a acbb ae28 9b3d
00000090: 8185 06bd a29f c73c 3c2d ec3b 1c73 69bc
000000a0: 8b1c 8c3d 923c b73d e47f 903d ddfa 4dbb
000000b0: ac27 b4bc fdb4 c73d cab1 af3d 7096 6fbd
000000c0: ad54 a73c 44c5 10bd 464f a03d e744 76bd
000000d0: 0062 a3bd 865b 6dbc 652a 22bc 673d ec3c
000000e0: 3817 63bc 0db3 2cbc 3836 813a 8ba2 6f3d
000000f0: 79ba 383d 9c5a 6cbd d480 523d 118b a9bd
00000100: 6576 753d a046 07bd 7f45 073d 455c 103d
00000110: 048c 263c 5001 0b3d fd50 babd f74c b0bd
00000120: 431e 40bd 0a08 e3bc f86a 5d3d 2318 df3d
00000130: 2f62 ac3d c5dc 643d fa32 a13d 536a b63c
00000140: 50d1 003d 3fce 513d 64fd 153d a618 833d
00000150: f281 65bd 2082 66bd 5571 80bd 0cbf 3b3c
00000160: 98f8 98bd 9837 b33d 589f 35bc a127 c1bd
00000170: 1ce4 a13d 4a91 0fbd 5c9e 1dbd 70f6 373d
00000180: 8abb c93d f258 a7bd cbe6 5abd 2c09 f33c
00000190: eaef f3bc ec26 603e df34 72bd 720e 543d
000001a0: e8fa 74bd 196d 2abd 3ec0 9d3d 1598 aebc
000001b0: a1a4 c3bd 7f79 4ebc 23aa 863d d010 eeb9
000001c0: 89dd 1d3d 9ee9 cd3d f052 e6bc b6b2 08bb
000001d0: e3b0 bb3c 339a ce3d dcf5 653b c162 283e
000001e0: 0ccb 57bc 4fae 593d cee4 84bb b450 6fbd
000001f0: b453 cabc 2d35 c73d 0da3 56bd df38 aebd

fc3.weight f4 [1, 128]
-0.24352512 -0.23534068 -0.12422707 -0.12049792 -0.13098349 -0.19370668 -0.10910513 0.15132508
-0.11174286 -0.226005 -0.10720824 -0.23629537 0.19103031 0.16330136 -0.08304342 -0.19649087
-0.10732443 -0.14419834 -0.10323777 -0.21361774 -0.14822535 -0.10171399 -0.22936799 -0.18461113
-0.16118115 -0.17498218 -0.20063 -0.1794107 0.19301707 -0.14714919 -0.1749699 -0.12983905
-0.2283823 -0.24984872 -0.17915884 0.22141553 -0.14345673 -0.1738922 0.16870101 -0.12603666
0.14906202 -0.23920174 -0.13558355 -0.20031229 -0.22309192 -0.1160023 -0.1443534 -0.11412183
-0.17656453 -0.135798 -0.17207281 0.21334328 -0.14194657 -0.17837597 -0.19545113 -0.15137792
-0.23677984 -0.15598816 -0.09384569 -0.12473865 0.23960783 -0.21207395 -0.23898868 -0.12584731
-0.20844936 -0.1706521 -0.104396455 -0.12056 -0.18261003 -0.20832853 -0.1857003 -0.20533888
-0.23841676 -0.099335134 -0.122930825 0.2479404 -0.13696072 -0.20593749 -0.08477132 -0.12295172
-0.24746679 -0.2058077 -0.22460093 -0.19253863 -0.16733123 -0.24092406 -0.17688157 -0.15898684
-0.22433269 -0.09195183 0.16078644 -0.22881474 -0.17163526 -0.22938918 -0.14182498 -0.18369137
-0.102510385 -0.20296168 -0.25747538 -0.18597956 -0.25175568 -0.3195012 -0.18770903 -0.19173792
-0.24088913 -0.25013247 0.20233658 -0.21484709 -0.22338818 -0.20841688 -0.16882262 -0.25947663
-0.19403437 -0.13538048 -0.17750135 -0.0947584 0.23032899 -0.13217382 -0.15437745 -0.21662597
-0.12951592 -0.08747916 -0.17275052 -0.22170824 0.17892794 -0.09267815 -0.23816106 -0.22746007
00000000: a65e 79be 26fd 70be c36a febd 9dc7 f6bd
00000010: 8920 06be 0b5b 46be 8372 dfbd f6f4 1a3e
00000020: 71d9 e4bd db6d 67be fe8f dbbd 6af7 71be
00000030: 739d 433e 7938 273e ab12 aabd e734 49be
00000040: e9cc dbbd bba8 13be 536e d3bd 9cbe 5abe
00000050: 63c8 17be 6d4f d0bd 71df 6abe b30a 3dbe
00000060: ac0c 25be 872e 33be f371 4dbe 70b7 37be
00000070: 44a6 453e 47ae 16be 4f2b 33be 87f4 04be
00000080: 0ddd 69be 58d8 7fbe 6a75 37be c1ba 623e
00000090: 52e6 12be cc10 32be f5bf 2c3e c10f 01be
000000a0: b7a3 183e 4df1 74be 6ad6 0abe aa1e 4dbe
000000b0: 3572 64be 9d92 edbd 61d1 13be b5b8 e9bd
000000c0: 55cd 34be a20e 0bbe db33 30be a976 5a3e
000000d0: 715a 11be 31a8 36be 5724 48be d002 1bbe
000000e0: 6a76 72be 5cbb 1fbe 2b32 c0bd fa76 ffbd
000000f0: c15b 753e ea29 59be 73b9 74be 1ede 00be
00000100: c073 55be 6dbf 2ebe cfcd d5bd 29e8 f6bd
00000110: 20fe 3abe 1354 55be 3828 3ebe 5b44 52be
00000120: 8623 74be 3870 cbbd 28c3 fbbd 17e4 7d3e
00000130: 6e3f 0cbe 47e1 52be 969c adbd 1dce fbbd
00000140: ef67 7dbe 41bf 52be c9fd 65be d928 45be
00000150: e158 2bbe ccb4 76be 7120 35be 72cd 22be
00000160: 78b7 65be 3e51 bcbd 33a5 243e 694e 6abe
00000170: 27c1 2fbe ffe4 6abe 913a 11be 9719 3cbe
00000180: f7f0 d1bd 30d5 4fbe d0d3 83be 6d71 3ebe
00000190: 1fe6 80be a995 a3be cc36 40be f256 44be
000001a0: a4ab 76be 5d11 80be 5231 4f3e e000 5cbe
000001b0: dfbf 64be 3c6b 55be d6df 2cbe 1fda 84be
000001c0: f2b0 46be 2ea1 0abe eac2 35be b110 c2bd
000001d0: 5ddb 6b3e 9358 07be 1f15 1ebe 33d3 5dbe
000001e0: d29f 04be 4628 b3bd 83e5 30be 7c07 63be
000001f0: e338 373e 0bce bdbd 7ee0 73be 4beb 68be
