bipedal_walker/bipedal_critic.pt (torch_old, 403677 bytes, 9 tensors)

fc1.weight f4 [300, 24]
00000000: 5ab9 08ba 0d4a 9bbe 0535 2abe 39a4 d8bd
00000010: 47c0 88bc 7a5c d23c 47af 94bd 71d2 343c
00000020: 4b62 dcbd 864f 7c3b 4edb 02be 1ad5 8e3e
00000030: 703b 073c ab8e e339 ef63 f2bc 70e6 cabb
00000040: 768a 3d3d cd86 a23c 1c07 72bc d491 373b
00000050: dabf 463d 011c 1b3d c42b 50bd 003a eb3d
00000060: c26d 74bd c171 05bd 5bba 353d 9963 6f3e
00000070: c91f 073e e731 833d 120e 183d 5206 5ebc
00000080: 0692 0abc a215 01be cf69 b1bc d4c6 173d
00000090: e4bf 813b 968d 9f3d 3189 4f3d 2468 d1bc
000000a0: f7b5 323d ab16 913c fb4b c4bc d8e5 193d
000000b0: 8659 47bd 7a95 95bd 1617 1b3e b73d 60be
000000c0: 4f1f e8bb e618 a0bc 546a 453d 2546 0c3e
000000d0: 790f 203d 220d d1bb 8d1d c2bd 26cf aeba
000000e0: 302d 743d fcea b13d 9325 1f3c a21b 7c3b
000000f0: 8577 85bc 0688 683d 45fb a73d ffe5 3a3d
00000100: 4d72 c33d 3f69 373d bb11 193d 7661 a03d
00000110: 20f9 803c 9e4e da3d 0ec4 0b3e d4cf c43f
00000120: 337a 6abd c368 8cbd 8840 663e 8f9b 9c3e
00000130: 53f9 54bd 0df5 3cbd 9e1a 10ba c6a0 7abc
00000140: 61bb 473d bd7b 83bc 3507 dbbb e282 5cbc
00000150: 8cf5 2d3c 426a ee3d 8037 5d3d 4761 b23d
00000160: aa07 173e 0f0e c23d e457 e83d c5c5 173e
00000170: 0ce4 2d3d f7e7 0c3e 21e1 c83d 6b15 c03c
00000180: f44d 6839 fdba 29be 7d4e c4bd b4a1 88ba
00000190: 64f2 d5bc 925f 5c3c 0cdb 60be c130 2dbe
000001a0: 6c2f edbd 651e a53c 2405 c83c 8e9e 6fbd
000001b0: d4d5 b0bc fa08 17bd 25c4 29be 5fc9 8dbd
000001c0: 8f24 bfbd 9cc0 3bbd d185 573c 8157 9cbd
000001d0: e49d 8abd ca22 c43c 8721 013d 5474 d23e
000001e0: 57e0 863c 7841 833a 5849 8dbe 9adc 99be
000001f0: d8e8 3e3d 6d87 df3c 3742 063d 8da6 d3bb
00000200: 0f54 73bd 561e 2dbc f886 ccbd a879 ba3d
00000210: bba6 53bc 00f9 523d 6ef5 dabd 49a6 1abe
00000220: 016a 0abe 7cf9 c6bd af0c dcbd e38f 6fbd
00000230: 29cc 09be 114f c4bd fca1 003c 561b 5e3c
00000240: 3b04 f73d fc5a 503e 5ae5 b83d dab7 eb3d
00000250: 06f0 acbd d2d2 663a bdcb 9e3d d643 e23c
00000260: a31a 963a 31ae 7b3d 0f15 b4bc 7101 3d3d
00000270: e927 ca3c e0e7 fdbb 8eb5 123e 264c db3d
00000280: cde5 843d 3cba 873d 8e0c bf3c 9d00 e33d
00000290: 95cc a23c c363 a33d 7afa a83d 8acd 92be
000002a0: 86d7 19bd 0627 92bd 8f7c d2bd 2e3a f3be
000002b0: e0bb bd3d 60b0 15bc db87 933d e93f 07bc
000002c0: 189a dbbc 4180 313d 0bdb 523d 6504 1f3d
000002d0: a259 ddbb d8b3 85bd 4ed6 a7bd d7b3 f9bd
000002e0: 12e9 dfbd 9c5e d5bd e7e0 c5bc 698d f5bd
000002f0: 6edf dabd f812 91bc 305c 8d3c fb4b dbbd
00000300: 858a fabd cfb4 a2bc 4113 693e 5774 67bd
00000310: 46da 09be d32e 55bc bf23 60bd ecd8 9bbb
00000320: 6f41 843a b4cf 87bd 8150 3abd 9a20 f53d
00000330: 7a59 3bbc 3775 19bc 5684 d93d fcd6 983d
00000340: dc51 913d 97ae ca3d faea ea3b edd5 edbc
00000350: 7663 593c eb44 b23d b7f4 503d b5bc 033e
00000360: 411f 863a 38a2 073e 2b8d 05be c3aa a2be
00000370: f392 f5bd a93b 963c 4117 183d 677a 4a3c
00000380: bb5a debb bf7f 5b3c fded 193c 3401 b3bd
00000390: 6786 c7bc b8c8 463e e27b b0bc 967a 88bd
000003a0: 5be6 b9bd 5669 99bd 66d4 8ebc 4931 8bbd
000003b0: efed 2ebd 6f7d e5bd e347 e13d f24c 2fbe
000003c0: 91ab da3c c4e6 883d ea02 533e b23e b3bd
000003d0: 0e39 23be bdda a8bd f9d9 d63d 2446 ed3c
000003e0: f442 ef3d 450d 51bc 4479 e83d fd8d e13c
000003f0: 6b1a 15bc 7aef 523d 6b1c 5ebd be23 3dbc
-0.0005215608 -0.30329934 -0.16621788 -0.10578198 -0.016693247 0.025678862 -0.07259994 0.011036501
-0.107609354 0.0038499548 -0.1277897 0.2789696 0.008253917 0.0004340311 -0.029588668 -0.006192021
0.046274625 0.019839669 -0.014772203 0.0028010504 0.048522808 0.037868503 -0.05082299 0.11485672
-0.059674986 -0.032579187 0.044367176 0.23377837 0.13195719 0.064060025 0.037122793 -0.013551312
-0.008457666 -0.12605909 -0.021656899 0.03705485 0.0039596427 0.07790677 0.050667945 -0.025562353
0.043630566 0.017711004 -0.023962012 0.03757271 -0.04866936 -0.07303901 0.15145525 -0.21898542
-0.0070838104 -0.019543123 0.048197106 0.13698633 0.039077256 -0.0063797394 -0.094782926 -0.0013336882
0.059613407 0.08687398 0.009713548 0.003846862 -0.016292343 0.056770347 0.08202223 0.045629498
0.095432855 0.044778105 0.037370425 0.07831089 0.015743792 0.10659526 0.13649008 1.5375924
-0.057245445 -0.06855919 0.22485554 0.30587432 -0.051995587 -0.046132136 -0.00054971303 -0.01529712
0.048762683 -0.016050214 -0.0066842088 -0.013458939 0.010617625 0.11641361 0.054008007 0.087099604
0.14749017 0.09475338 0.11344889 0.14821537 0.04245381 0.13760363 0.09808565 0.023447713
0.00022154284 -0.16575237 -0.09585283 -0.0010424168 -0.026116557 0.01345052 -0.2195856 -0.1691313
-0.11581311 0.020156095 0.024416514 -0.05850082 -0.021586336 -0.036873795 -0.1657873 -0.06923174
-0.09333145 -0.045837983 0.013154463 -0.076338775 -0.067683965 0.02394237 0.031526115 0.41104376
0.016464395 0.0010014018 -0.2759502 -0.30051118 0.046608776 0.027286256 0.03277799 -0.0064590634
-0.059406336 -0.010566315 -0.09986681 0.09105235 -0.01291817 0.051506996 -0.10691343 -0.15102495
-0.13517 -0.09715554 -0.10744607 -0.05848683 -0.13456787 -0.09585393 0.00785112 0.013556322
0.12061354 0.20347208 0.0902812 0.11509676 -0.08444218 0.00088052184 0.07753704 0.027620237
0.001145203 0.06144542 -0.021982698 0.046143953 0.024677234 -0.007748589 0.1432707 0.107078835
0.064891435 0.06627318 0.023321416 0.11084101 0.019872943 0.079780124 0.082508996 -0.2867244
-0.037559055 -0.071363494 -0.10277664 -0.47505325 0.0926435 -0.009136289 0.07203647 -0.008254983
-0.026806876 0.043335203 0.051478427 0.03882255 -0.00675507 -0.06528443 -0.08195172 -0.12192505
-0.109331265 -0.10418436 -0.024155093 -0.119898625 -0.10687147 -0.01770924 0.017255872 -0.107078515
-0.12233452 -0.019861607 0.22761251 -0.056507435 -0.13462171 -0.013011652 -0.05472159 -0.0047560837
0.0010090302 -0.06631413 -0.04548693 0.11969109 -0.011434907 -0.009366325 0.10620944 0.0746288
0.070956916 0.098965816 0.0071691247 -0.029032672 0.013268342 0.08704551 0.05101463 0.12864955
0.0010232703 0.13245475 -0.13042133 -0.31770906 -0.11990919 0.018338995 0.03713155 0.012358285
-0.0067857183 0.013397156 0.00939512 -0.08740464 -0.02435608 0.19412506 -0.021543447 -0.066640064
-0.0907714 -0.07490794 -0.017435264 -0.0679651 -0.04270738 -0.11205565 0.110000394 -0.17119196
0.026693137 0.0668464 0.2060658 -0.087521926 -0.15939733 -0.08244846 0.10490794 0.02896411
0.11682692 -0.012759511 0.113512546 0.027533526 -0.009100537 0.051497914 -0.05422632 -0.011544166

fc1.bias f4 [300]
00000000: cc05 a1bc f359 363e 19b3 3cbb bbce bd3d
00000010: 067f 74bc 1d54 23bd d2ad 32bd 04dd c13d
00000020: b398 57be 3341 383c af32 473e 5250 31be
00000030: db1b 163e 1605 2dbe 8808 4b3e ce94 29be
00000040: 5da1 263e 042c 223e 4fb3 0abe 7991 68be
00000050: b0cb 3a3d e4ae 60bd 2b80 ee3d 2b93 b0bd
00000060: 3660 ce3c b2ec fd3c 2f3e a6bd d430 c3ba
00000070: ae20 fe3d 9de6 443d 68c3 babd 5d90 48be
00000080: 5e0f db3c ab37 1a3e 2ae0 c23d 61d3 2abe
00000090: a469 ddbc 4b74 f7bd 55fc 93bd 2f37 be3d
000000a0: 7ba3 27be 6d17 92bc 6e00 34bd ad10 5a3d
000000b0: f5c8 46bd 4ee4 c8bd a0c8 003e 9d97 8ebd
000000c0: 671b babd 7bd0 01bd c9ce c43d cd9e e0bd
000000d0: 4879 2d3e 77a8 6abd 92a1 be3d 095e fd3d
000000e0: bd02 3abe 482b 2f3e 9326 1dbd 11bc 3a3e
000000f0: 06be 903d b168 363c 8ce2 d2bd 51f6 173d
00000100: 0488 a53d a538 153e 265b 2a3e 3f4b 3e3e
00000110: 94df 3abe 415d 483e ecc0 2b3d 0530 0ebe
00000120: e040 29be 9b61 473e 1b7a 0ebe cd54 533d
00000130: d261 ffbd 8999 4fbe 47c7 ed3d 668f 03be
00000140: 20a5 b23c eca7 573e 6e45 263e 9417 503d
00000150: 44c7 d4bd eb1c 48be 919f a0bd 7d93 94bd
00000160: f75e 3e3e 659f abbd c5f2 60be 0d79 17bc
00000170: dcf3 1fbe 90a0 c3bc 2cee edbd 3767 2a3e
00000180: b8ad 99bd 2656 99bd e587 463e d990 0d3e
00000190: 64db 35bd 8e41 2fbe 4c05 8a3d 7ee1 143e
000001a0: 3398 073e e9d3 d3bd 2f3e 47be ac05 cfbd
000001b0: abb9 3bbe f248 f83d 987e f1bd 2f64 c33c
000001c0: 4d0b 3e3e bb3c a83d 5963 31be f15d ca3c
000001d0: 181b 713e de6c 953c c2cd b2bc 38ec 343e
000001e0: 2e2c 3dbe b61c bebd e8c3 853d 34f2 193e
000001f0: 7d06 91bd c4bd 05be 9486 4cbe 5e8d 38be
00000200: 16aa e13d f969 e6bd 08fa 5abc cc5b 843d
00000210: 155a 903d 5229 4ebe ef7f dd3c 7a89 9dbd
00000220: def2 8abd 648d 32bd fbe1 33be 63cb 44bd
00000230: a821 713d c04a 41be b133 04be bf9d febd
00000240: 27e8 02be 13cb e3bd 01a5 283e 154b 4c3d
00000250: 2ab1 b33d 06f7 1dbe 48e5 b0bd 48a4 11be
00000260: ecc3 013e 2399 46be 1076 50be d8e0 1abc
00000270: aafc 6f3d b6d1 ce3d 9d9c 04bd d64f 333d
00000280: bfdc 083d 1725 b33c 20f7 9bbd 78ab 033e
00000290: 6cbe ac3b bd60 953d a540 99ba 59af fdbd
000002a0: 38f1 bdbd 8879 ffbd 533e cbbc 0337 2b3d
000002b0: 7a80 31bb 2713 273e f0c4 333e 1b43 863d
000002c0: 153b 6ebd b1c4 08be 2f1e 953d 4449 b9bd
000002d0: d3bd 3abe fba5 953d 8452 ee3d 166f 863d
000002e0: f4eb 9e3d d61e a0bd 1a97 cb3d 9e96 3f3e
000002f0: 76f3 a03d 5097 aa3d c5df dabd 75e7 ba3d
00000300: d650 c6bd 527a 39bd 0900 ae3d 3976 7e3d
00000310: 2c95 b83d 0a47 99bd eedb b2bd 6718 943c
00000320: 65b8 d53d cd67 f93c 32bf 1bbe 24d6 453e
00000330: ce2c c03d 15e7 9d3d d6b1 b3bd 6c26 403e
00000340: 0222 fdbb bce5 3ebd 59bd 583d b980 02bc
00000350: 22b0 f93d a5c2 1cbc 3f3f 3e3d 575c 343c
00000360: 4802 c1bd 791a 19bd 8fc4 463e 5226 1a3e
00000370: f0ad d6bc 1378 5e3d 07b7 01be 5e20 0d3e
00000380: 6f07 26be 3e57 c53d 96ad 143e ee98 563d
00000390: 83f8 c93d 7b0b 5fbd fa6e 6fbd 1c04 e7bd
000003a0: c981 ac3d eaeb 23be c5ba 02be d9da a03d
000003b0: b27f aa3d 2c87 3fbe 1b6c 293e 790e fb3d
000003c0: c5cf 2b3d 3288 29bb b4ca 3abe 1151 56be
000003d0: 263d 29be b797 02be 8833 eebd a297 c8bd
000003e0: ddae 5d3e fcff 43be 134a 263e 2776 323e
000003f0: 65d5 393d eeef 693c 7f38 c53d 4e0a 5e3c
-0.019656084 0.1780775 -0.0028793274 0.09267946 -0.014922863 -0.03987514 -0.0436228 0.094659835
-0.21054344 0.011246013 0.19452928 -0.17315796 0.14659064 -0.16896471 0.19827473 -0.1656067
0.16272493 0.15837103 -0.13544963 -0.22711743 0.045604408 -0.05485429 0.1164554 -0.0862182
0.025192361 0.030996654 -0.08117329 -0.0014891871 0.12408577 0.048071492 -0.09119302 -0.1958632
0.026740726 0.15060298 0.09515412 -0.16682197 -0.027027912 -0.12082728 -0.07225863 0.09287869
-0.16370957 -0.017833436 -0.043945722 0.05323856 -0.04853149 -0.09809171 0.12576532 -0.06962512
-0.09087258 -0.031692963 0.09609754 -0.10967789 0.16940796 -0.057289567 0.09308161 0.123714514
-0.18165107 0.17106354 -0.038366865 0.18235804 0.07067494 0.011133359 -0.10297117 0.03710014
0.080825835 0.1457239 0.16636333 0.18583392 -0.18249351 0.19566824 0.04193203 -0.13885505
-0.16528654 0.19470827 -0.13913767 0.051594544 -0.124698296 -0.20273413 0.11610275 -0.12847671
0.021807253 0.21060151 0.16237423 0.050803736 -0.103895694 -0.19542281 -0.07842935 -0.07254694
0.18590914 -0.083800115 -0.21967609 -0.009245169 -0.15620369 -0.023880273 -0.11617693 0.16640936
-0.07503837 -0.07487135 0.19387777 0.13824786 -0.04439868 -0.17114851 0.067392915 0.14539143
0.13241653 -0.10343153 -0.19457315 -0.10108504 -0.18332545 0.12123288 -0.11791724 0.023851482
0.18558998 0.082147084 -0.17323054 0.024702998 0.23545492 0.018240388 -0.021826629 0.17668235
-0.18473884 -0.0928282 0.06531507 0.150338 -0.07081316 -0.13060671 -0.19973212 -0.18022677
0.110187694 -0.112506814 -0.013365276 0.06462821 0.07048432 -0.2013295 0.027038543 -0.07692237
-0.067846045 -0.04359187 -0.17566673 -0.048045527 0.058869988 -0.18876171 -0.12910344 -0.124324314
-0.12783872 -0.11122718 0.16469194 0.04987629 0.08774026 -0.15426263 -0.08637482 -0.14222825
0.12672395 -0.19394355 -0.20357537 -0.009453021 0.05859057 0.10098593 -0.03237592 0.04377731
0.033413645 0.021868272 -0.07615495 0.12858379 0.0052717235 0.07293842 -0.0011692239 -0.123869605
-0.092745245 -0.12474352 -0.024809992 0.04180051 -0.0027084635 0.163159 0.17555594 0.06555768
-0.058161814 -0.13356282 0.07281148 -0.090471774 -0.18236475 0.07307049 0.11636832 0.06564157
0.07759848 -0.078183815 0.0994093 0.187098 0.078589365 0.08329642 -0.10687212 0.09126178
-0.09683387 -0.04528267 0.084961005 0.062124465 0.09012827 -0.07484253 -0.087333545 0.018078042
0.10435561 0.030445004 -0.15209654 0.1931997 0.09383546 0.07710091 -0.08774154 0.18764657
-0.0077250013 -0.04660581 0.05291495 -0.00796526 0.12191798 -0.009567891 0.046447035 0.011008344
-0.09424263 -0.037378762 0.19410919 0.1505368 -0.026205987 0.05431373 -0.12667476 0.13781878
-0.16213773 0.09635781 0.14519343 0.05239194 0.09861853 -0.054454308 -0.058455445 -0.11280081
0.08423192 -0.16007963 -0.1276656 0.07854242 0.08325137 -0.18703908 0.16545145 0.1225862
0.04194619 -0.0025868532 -0.18241388 -0.20929362 -0.16527233 -0.12753187 -0.116309226 -0.09794547
0.21648736 -0.19140619 0.16239195 0.17427884 0.045369525 0.014278395 0.096299164 0.0135522615

bn1.weight f4 [300]
00000000: eb8c 7c3f c8c5 843f 2860 913f dd39 7b3f
00000010: d140 663f 867f 773f 5d98 a43f a303 813f
00000020: 6abc 883f 6650 833f 0de4 883f 8b3f 6f3f
00000030: 9044 8d3f 2989 6d3f fdfe 843f 93e9 913f
00000040: 89c5 803f bc63 5f3f 0d92 a13f 3178 803f
00000050: 0413 903f 033f 8c3f cb07 843f 3c5c 973f
00000060: f835 953f cd46 803f c0ba 573f c905 963f
00000070: d15a b13f 248a 8b3f 7e94 9d3f 6993 4f3f
00000080: 5fd2 a93f 2e86 803f 1736 773f 1687 813f
00000090: 77db 943f 5a0f 873f 3826 8e3f 3a94 943f
000000a0: 196e 903f db25 753f 1711 c13f 4dc3 983f
000000b0: e4e4 903f 995b 803f 3940 ff3f 89fb a33f
000000c0: cc5a 9a3f d631 b03f bdf3 9f3f 7a07 893f
000000d0: 0ba3 a43f e981 933f bb05 6d3f 7d04 933f
000000e0: 9dfc 893f db45 843f baae 8c3f 08a1 913f
000000f0: 2f1b 833f 4288 933f 9609 803f a3f0 833f
00000100: a2da a23f 1765 8a3f 3f72 8a3f 751c b13f
00000110: 4a79 913f adf5 723f 2be2 6e3f 43a5 9d3f
00000120: 7418 813f 9780 a83f ec23 b43f d8d6 be3f
00000130: 35aa 8b3f b5db 643f ba43 823f 420e 813f
00000140: 951f 723f 38f0 7d3f 8ee2 933f 73c0 7f3f
00000150: a864 953f 6822 923f ca33 b93f 2101 d43f
00000160: b348 813f 4bfe 543f 5071 7e3f 4cd8 8d3f
00000170: ffea b73f 0025 7e3f ca88 4c3f 0a49 9f3f
00000180: 5c76 843f 49d0 783f ef11 773f e356 8b3f
00000190: 2c9f 953f 0e8f a13f dd20 803f f716 903f
000001a0: ede2 8c3f 7e36 723f 04e9 883f e884 ab3f
000001b0: cdcc 883f 6498 853f 8849 8b3f 2d67 7f3f
000001c0: c382 7b3f e848 933f aff4 8c3f 2e59 913f
000001d0: c111 983f d644 873f 43e0 c03f dfdc 9b3f
000001e0: a9eb 863f aa0e 883f 57bf a63f dba3 773f
000001f0: cb8d 963f a2d8 7a3f 3f3b 833f 86ab 8d3f
00000200: bd7b 6b3f b16e 7c3f b002 853f 6602 693f
00000210: dd12 7c3f 90ef 9b3f 1ded b43f 787a 893f
00000220: 9511 7a3f 2d7a 833f 029f 813f 6e83 863f
00000230: 552a 8f3f 21bd 953f 5a35 ad3f a616 893f
00000240: 8730 853f f5a1 623f 1938 903f 3847 9b3f
00000250: c69a 893f 33cd 993f 0cf2 833f 4b7c 8f3f
00000260: e3b0 823f 8b0f 6e3f c29a 853f f493 5f3f
00000270: a06c 6c3f aaba c53f 0561 6a3f 2187 833f
00000280: e667 843f 05c1 9c3f da61 923f 4ab8 803f
00000290: 31e3 723f eff6 843f 0ae6 9b3f 0d22 8f3f
000002a0: ea1f 733f 74b8 853f 7287 6e3f 0857 903f
000002b0: c0f3 873f 590a 813f 190f 883f 111c 703f
000002c0: 1d2e 8a3f b187 753f 8070 aa3f a192 833f
000002d0: 38a4 a63f bacb 833f b7ad 813f 4861 ac3f
000002e0: b9b5 943f 08d9 773f 9227 863f ed84 7e3f
000002f0: 403c 9f3f 99d0 8f3f 1efa 883f fa07 623f
00000300: 174c 6c3f 930c 5c3f 2480 833f ac11 6e3f
00000310: 159a 853f 1e31 923f 402f 873f 50c7 a13f
00000320: 7ac0 883f 062d 973f 1fc2 8e3f 2293 673f
00000330: 523c 833f c3e5 a13f 20c6 883f acbe 7f3f
00000340: 15a0 8c3f 021b d03f 176a a53f 2292 853f
00000350: 7643 8c3f 4eb8 8b3f 353a 693f 1449 a13f
00000360: d3de 963f 1372 7f3f 9421 ac3f 84d6 8d3f
00000370: 5232 803f c0ea a53f 2274 953f ed1a 8f3f
00000380: 85ba 983f 7b84 803f 77b8 423f 8f18 9b3f
00000390: 587c 713f 4046 933f 8696 813f 38d9 7e3f
000003a0: 73a4 993f c1e4 833f 69ee 943f 6127 813f
000003b0: bd30 943f ab7a a33f 01b9 8a3f 7968 903f
000003c0: a3bc a43f 24f5 903f a240 863f 8cf8 8f3f
000003d0: 9a48 803f 9aa5 9f3f 9525 973f 26d5 893f
000003e0: 6021 743f 426b b83f c28b 863f 4053 533f
000003f0: 29e7 943f 1b29 843f de11 c43f ea5f 833f
0.98652524 1.0372858 1.135747 0.9813517 0.8994265 0.9667896 1.2858998 1.0079235
1.06825 1.0258911 1.0694596 0.93456334 1.1036549 0.92787415 1.0390316 1.1399406
1.0060283 0.8726156 1.2622696 1.003668 1.1255803 1.095673 1.0314878 1.1825023
1.1657095 1.0021607 0.8426933 1.1720515 1.385584 1.0901532 1.2310941 0.81084305
1.3267325 1.0040948 0.9656691 1.011935 1.1629475 1.055156 1.1105413 1.1607735
1.1283599 0.9576089 1.508334 1.1934601 1.1319852 1.0027953 1.9941474 1.2811137
1.2058959 1.3765209 1.2496258 1.0705407 1.2862257 1.152402 0.9258687 1.1485745
1.0780216 1.0333818 1.0990822 1.1377268 1.0242671 1.1525958 1.0002925 1.0307811
1.2722971 1.08121 1.0816115 1.3836809 1.136514 0.9490612 0.93313855 1.2316059
1.0085588 1.3164243 1.4073462 1.4909315 1.0911318 0.89397746 1.0176919 1.0082476
0.9457944 0.9919467 1.1553514 0.9990303 1.1671343 1.141675 1.446893 1.6562845
1.0100311 0.8320052 0.9939165 1.1081634 1.436859 0.9927521 0.79896224 1.2444165
1.034862 0.9719282 0.9651174 1.0885891 1.16892 1.2621782 1.0010029 1.1257008
1.1006752 0.946144 1.0696111 1.3399935 1.06875 1.0437131 1.0881815 0.9976681
0.982464 1.1506624 1.1012172 1.135534 1.1880418 1.0567882 1.5068439 1.217678
1.0540668 1.0629475 1.3027142 0.967344 1.1762022 0.97986805 1.0252455 1.106797
0.91985685 0.986064 1.0391445 0.91019285 0.98466283 1.2182484 1.4134861 1.07405
0.9768308 1.027166 1.012665 1.0508859 1.1184794 1.1698343 1.3531907 1.0710037
1.0405434 0.88528377 1.126712 1.2131109 1.0750358 1.2015747 1.0308242 1.1209806
1.0210232 0.92992467 1.0437853 0.87335134 0.9235325 1.544759 0.9155429 1.0275613
1.0344207 1.2246405 1.1436112 1.005624 0.94877917 1.0387858 1.2179577 1.1182266
0.9497057 1.0446916 0.93175423 1.127656 1.0621262 1.0081283 1.0629607 0.93792826
1.0795323 0.95910174 1.3315582 1.0279123 1.3018866 1.0296547 1.0131139 1.3467188
1.1617957 0.9681554 1.0480826 0.9942158 1.2440262 1.1235534 1.070133 0.8829342
0.92303604 0.85956687 1.027348 0.92995715 1.0437647 1.1421239 1.0561295 1.263895
1.0683739 1.1810615 1.1152991 0.9045888 1.0252783 1.2648243 1.0685463 0.9990032
1.0986353 1.6258242 1.2923001 1.0435221 1.0958087 1.091562 0.9110444 1.2600427
1.178675 0.9978344 1.3447747 1.108109 1.0015357 1.2962265 1.1676066 1.1180092
1.1931921 1.004043 0.7606272 1.211687 0.9433036 1.1505814 1.0124061 0.995502
1.2003311 1.0304185 1.1635257 1.0090142 1.1577374 1.277181 1.0837709 1.1281883
1.2870067 1.1324811 1.0488474 1.1247725 1.0022156 1.2472413 1.1808344 1.0768173
0.95363426 1.4407732 1.0511401 0.82548904 1.1633044 1.0325044 1.5317953 1.0263646

bn1.bias f4 [300]
00000000: de4d fabc 5fb1 34be 40fb 2cbe 490e 1dbe
00000010: 4f2e cfbe 1750 543d 8b73 ba3e 0395 253e
00000020: 62d9 ddbb f496 483c 5ae5 b53e 4f5c e6bb
00000030: dd39 693d fade 63be 356b 16bd 850b 82bd
00000040: 4d82 8e3e c13f c73e 562b 213e 37ca 61bd
00000050: 8c53 543e df4b c43b e5ca 56be e0ba 3abd
00000060: fa62 5ebe a18e 8c3e 3755 0dbf 91fc 91be
00000070: f28f 0c3f b94d dd3e 19c6 14be ea6f dd3d
00000080: 13d8 ab3e fae4 1c3e eeb7 bcbe 8d37 fdbd
00000090: 4521 ac3e 9cbb a73d 1e35 1fbe 034b 053e
000000a0: f1fb 43be ced6 a13d 88ec af3e 6bff 2bbe
000000b0: 2f60 47be 22f5 fc3d eddb fb3e 0587 bfbe
000000c0: 9531 b3bd e59c e33d 764e 853e b1ce cc3d
000000d0: 4d30 093f 7082 99be 89a0 00bc 0705 d6bb
000000e0: 9551 0e3e 250c 10be dbcd d33d 776d 853e
000000f0: e38a 463a 2f30 88bc 4738 f63d 2248 31bd
00000100: aba7 943e 3c5a 72be 33d6 323e 1dbd 753d
00000110: 72d7 bcbe 665d 473d c43b 84be 3a2b 8cbc
00000120: 109d 9a3d 244d 663d 4456 c93e dc20 ff3d
00000130: 4089 29be ed82 043f 3dad a43e 3ec1 c93d
00000140: 7db6 0b3e a4b6 7abd 81d7 3dbe 33bd a3be
00000150: f5b6 633e 3cce 013d 8ada e03e 9bae 2d3e
00000160: ea2a 0cbe df6e 793d 3f48 04be 6595 afbd
00000170: b03a a03e f41e 7ebd af41 d33d 10cc ebbc
00000180: f012 6cbe 8513 863c 1989 2f3d 9a36 83be
00000190: c22e 2dbe 6e8f 0c3f e43a eebc 3a23 4f3e
000001a0: 4a8a 093d 1864 7f3e db46 723e 4f7e ab3c
000001b0: f686 b3be d564 943d c526 233e 5b6e 0cbd
000001c0: c029 053e 4982 3e3f 2182 3ebe d815 653e
000001d0: 0290 87bd fa9c 133e afed 623e fc4e ee3c
000001e0: 06cd f4bd 2ee7 cbbe b8a7 fcbd defd 9dbd
000001f0: eaaa 613e bf86 fbbc c3e4 e3bd d27d 2dbe
00000200: 2e33 ed3c 2e3c 1ebe 0035 dcbe beed cfbe
00000210: cbc6 afbd 8372 893e 264b e9be 47c0 e4bd
00000220: eaf4 f73d 7e26 953d 73b2 eb3d 628b 02be
00000230: ccc1 7e3e 04d9 f5bd f86b ab3d 82d0 cabd
00000240: 5f0e 7d3e 1916 063f 7fb4 b93d e518 c1be
00000250: bf8b aa3e 5d96 5bbe 95eb a3be 808b 0f3e
00000260: c719 fcbd 9bf3 55be 14d0 94be 5d23 9a3e
00000270: 91b4 cdbe 12c2 bf3e 8997 7c3e eb7d 383e
00000280: cd71 48be 3048 46be c65f bebd 4e7b 4e3e
00000290: 7035 3dbe 13a0 88bd a425 c7be f343 853d
000002a0: 9452 50be c5e0 08be 031f 03bf e6af a63e
000002b0: 277b c6be 7e48 1fbf 124f 12be 13ef 9ebd
000002c0: ef69 183e 9260 063f cda1 70be 3011 02be
000002d0: fee0 83be 1793 5fbe 9f76 00bf 8cc7 cc3e
000002e0: 1960 54be 023c 703e 8e86 0cbe 8541 bb3e
000002f0: 9499 d03d 508e 8bbe 50cb b53e 2eef 883b
00000300: 2269 d4bd 1757 de3e 6ab6 a03c c038 883d
00000310: 6f66 cbbc 5875 03bf 7aef 93be 0ac0 f63c
00000320: d47e 66be 032a 3a3e cad5 e2bd d326 b1be
00000330: 8697 f73e ae45 6f3e 75bb 4fbe 3190 533e
00000340: e036 543d 7157 693c 134c b8ba 50c5 0f3e
00000350: a86a 98bd 774d 5ebe 17c3 db3d 554e de3e
00000360: bd96 61be bb97 a4be 1a66 3c3e b39c 093e
00000370: 1e50 bc3d 139f 273e 4267 0f3e 5694 d4bd
00000380: acd6 8d3e 3c4d 0fbe 9a8b a33e 14d6 5ebb
00000390: b709 0dbe 3ad2 84be 9a25 31be c220 b23e
000003a0: 6c61 88bd 13cf b2be b0a1 1b3e 41ba d23d
000003b0: c6db 333e 47f2 b9bd 5f56 173d 4b77 ec3e
000003c0: 0c08 e03e e268 98be 30fc d1bd bad0 033d
000003d0: ec31 a23d 9362 543e 36a4 d63e 930b 853c
000003e0: 6e4f 713d def4 813e c346 8cbd 5d07 153f
000003f0: 8d7b 9abe 6c38 f6be 1e03 423f f3f9 89bd
-0.030554708 -0.17645787 -0.1689272 -0.1533748 -0.40465018 0.051834192 0.36416277 0.16170125
-0.006770299 0.012243021 0.35526544 -0.007030047 0.05693995 -0.22253028 -0.036723334 -0.063498534
0.27833787 0.38915828 0.15739188 -0.055124488 0.20734996 0.00599049 -0.20975836 -0.045588374
-0.21717444 0.27452567 -0.5520815 -0.28513005 0.54907143 0.4322336 -0.14528693 0.108123615
0.3356329 0.15321723 -0.36859077 -0.12364111 0.33619133 0.081900805 -0.15547606 0.13016896
-0.19139077 0.07902299 0.34360147 -0.16796653 -0.19470285 0.12351443 0.49191228 -0.374077
-0.087496914 0.1111391 0.26036423 0.10000361 0.53589326 -0.29982328 -0.007850775 -0.006531361
0.13898309 -0.14067133 0.10341998 0.26060078 0.00075737963 -0.016624538 0.12022453 -0.04328168
0.2903417 -0.23667234 0.17464523 0.059994806 -0.36883122 0.048673056 -0.25826848 -0.017110456
0.075494885 0.05622591 0.39323628 0.12457439 -0.16556263 0.51762277 0.3216342 0.09851311
0.13643833 -0.061209336 -0.1853924 -0.31980285 0.22237761 0.03169082 0.43916732 0.16961138
-0.13688245 0.06089675 -0.12918185 -0.085734166 0.31294775 -0.062041238 0.103152625 -0.028783828
-0.23054099 0.01636673 0.042855356 -0.25627595 -0.16912368 0.54906356 -0.029080816 0.20228282
0.03357915 0.24940526 0.23659842 0.020934252 -0.35063905 0.07245795 0.15932758 -0.03428493
0.13004208 0.7441755 -0.18604328 0.22371614 -0.06619264 0.1441535 0.22160982 0.029090397
-0.119531676 -0.39824814 -0.12336677 -0.07714437 0.22037855 -0.0307039 -0.11127617 -0.16942528
0.028955068 -0.15452644 -0.43009186 -0.4061107 -0.085828386 0.26845178 -0.45565146 -0.111694865
0.121072605 0.072827324 0.11508646 -0.12748483 0.24878615 -0.12004283 0.08370203 -0.09903051
0.24712513 0.5237747 0.0906763 -0.37714306 0.33309743 -0.21444078 -0.32015672 0.14018059
-0.12309604 -0.2089371 -0.29065 0.30105105 -0.40176824 0.3745275 0.24667181 0.18016784
-0.19574662 -0.19363475 -0.09295611 0.20164225 -0.18477416 -0.06671157 -0.38895905 0.06507101
-0.20344001 -0.13366993 -0.51219195 0.32556075 -0.38765833 -0.6221999 -0.14287975 -0.077604435
0.1488416 0.52491105 -0.23499222 -0.12701869 -0.25757593 -0.21833454 -0.50181 0.39995992
-0.20739783 0.23460391 -0.13723204 0.36573425 0.10185543 -0.27257013 0.35506678 0.004178903
-0.10371615 0.4342582 0.019618232 0.06651449 -0.024829118 -0.5135093 -0.28893644 0.030120868
-0.22509319 0.18180089 -0.11075933 -0.34599933 0.4835779 0.23366424 -0.20286353 0.20660473
0.051810145 0.014242039 -0.0014060758 0.14040112 -0.07442218 -0.21709238 0.1073057 0.43419138
-0.22030158 -0.3214701 0.18398324 0.13438682 0.09194969 0.16369276 0.14004233 -0.10379855
0.27702844 -0.13994306 0.31942445 -0.0034002112 -0.13773237 -0.2594164 -0.172995 0.34790617
-0.06659207 -0.3492361 0.15198398 0.10289431 0.17564306 -0.09079414 0.036947604 0.46184763
0.4375614 -0.2976752 -0.10253179 0.03218148 0.07919678 0.20740728 0.41922158 0.01624087
0.05891364 0.2538213 -0.06849434 0.5821436 -0.30172387 -0.4808992 0.75786006 -0.06737127

bn1.running_mean f4 [300]
00000000: b0c0 843e c26f 80bd 90e8 0240 6d3b 253f
00000010: d555 4f3e 2d37 debe 2a62 053e d893 90be
00000020: d4be 713e d1fe a7be 0322 9b3e 4a13 37bf
00000030: b35f b23f cb1e ffbe 2164 a0be 5e91 00bf
00000040: f840 cabd 1865 8fbe 8522 d33f eaba db3d
00000050: 2821 413e 738d b73f bcfd 62be 6bcb 553f
00000060: 0c04 a53f 3b57 983f 3b7f 7ebd 77ed 1c3e
00000070: 1785 803e a01c 9e3e 2931 823e e5c2 2ebf
00000080: 4848 423e 506c 3a3e a810 6d3f ebb3 a43f
00000090: 8f77 83bf 4320 0dbf b58e f83f f257 683c
000000a0: e2fd 9fbe 18c8 06be 1f59 1bbe 76fe 9d3e
000000b0: 2034 56be bd4b 3ebf 1a34 2b3f 352e 18bd
000000c0: 2efd a4be 0017 70bd a649 3f3c baa7 dfbe
000000d0: 8c11 963e 0645 00bf 76f8 bfbd e427 b93d
000000e0: 851e 603e 558c 473e cfa9 47be 2098 603f
000000f0: 0758 0d3f 7f64 97be ea0c 23bf ae7b 1abb
00000100: 8789 79be c321 1d3f 1e5c dd3e be75 85bd
00000110: 3cc9 a93f 6bce 713d c37b 463d 1ded a73e
00000120: 1bc7 f7be 8350 0c3f b894 9cbd f575 383f
00000130: 4af1 febe 128c 39bf c2f0 c43f c9a4 aabe
00000140: d389 47bd 1303 163f eff5 ce3e ab63 be3e
00000150: c8cd 673d 2351 04be 3e5d 653c a06a 8a3e
00000160: 717f 263e 0213 693d e925 69bf 322d a33f
00000170: 1ed9 ae3e c4fc c2be c1de d6be f056 5d3f
00000180: d626 05be 0e62 a73e 651b f8bc ba95 803e
00000190: bad8 493f a1fb 253f bbc9 293d 9be8 263e
000001a0: e5a9 d33e 1610 0ebf 2369 a53f 4517 703e
000001b0: af9b 8bbe ae0d 263e ca0b e6be 64aa e3bd
000001c0: 0502 8c3f 9b3e 133f 0d12 fbbe 8416 593f
000001d0: 745b 333e bf8c 163f 42f2 a03d 2307 41be
000001e0: 7e5f ac3e 9a50 5d3e 292f 0f3e 0c1a 493e
000001f0: 4e42 97be 6c5a bb3d 2f85 17bf 8eff e23e
00000200: ffda 3bbe 4b8e 233e 2417 e43f db5a c83b
00000210: 2568 ed3e 0921 d13f 4a55 aa3f 327f d0bc
00000220: 58d1 f23d 1ba9 5bbe e540 ec3c 8ba0 91be
00000230: dd18 1e3f ebc0 1d3f 76e1 c8be 48e2 b0bf
00000240: 925a da3e de97 d2bd de99 c03d 86b0 dbbe
00000250: 23f4 2fbf 9177 0cbf c6ad 80be 8bde 98be
00000260: 5863 833d ce08 c93f 0f7e 193e ed45 b0be
00000270: 9299 c93b 4f19 1d3f 9edc 02bf 0e2c 613f
00000280: ad68 3f3e 44a0 ef3e 2c93 3b3e 524a e73e
00000290: a59d 7a3d 8ad1 af3f b255 8a3f fc75 32bf
000002a0: c881 bcbe f168 033e ebfe 503f 31bf b8be
000002b0: 45a0 ddbe 7859 0e3f 518a 313e c2d3 1b3f
000002c0: 46a7 913e 722c a23d 42dc ebbe b5c7 843e
000002d0: 05b5 f3be d864 ed3e bbc7 81be feb5 463d
000002e0: 1c62 a23f 6ee8 89be 03c1 8e3e a60f 273f
000002f0: 6e88 083f 7d7d 053e 89cc 0cbe 49f1 3e3f
00000300: 013c ce3d f314 bfbe 2052 07bf daa1 f43e
00000310: d766 08bf 761b 433f 69eb d23e 50d2 d8be
00000320: 167d a7be 35cb bfbe 4807 82be 9070 143f
00000330: 1f38 393f ce9f be3e fc82 06bc 6b47 5abe
00000340: 2125 c63e c1b5 59be 70fc 213c 9dab 233e
00000350: 0681 833f b36e 2b3f ab76 79be 2008 d13e
00000360: 39f0 e5be 13b1 883f 94df 683f dde9 873e
00000370: f974 b43d 9bbd f33f 5e87 6cbe 4e89 02bf
00000380: e430 fcbc a36f 603e f86a e13d c58c 50bd
00000390: 671b 29be 1d32 d93f 79a6 af3e f2e7 4d3f
000003a0: 8374 ae3d 0cb0 c93f e99d c1be 43da 7f3e
000003b0: de8a 5f3f a7a1 6ebe 6600 5c3f de1a b73e
000003c0: d8fe b13e 2585 4e3e 94a3 23bf 01de 073e
000003d0: 2a76 123e 0c81 063f 915c 213e 93c8 63be
000003e0: ec4c 443f 473d 4b3f 75bd fc3d fe77 843d
000003f0: ddc4 373f a638 adbe 42b6 c43d fcf6 003f
0.2592826 -0.06271316 2.0454445 0.645438 0.20247586 -0.4340147 0.13025728 -0.28237796
0.23607951 -0.32811597 0.30299386 -0.7151381 1.3935455 -0.4982818 -0.31326392 -0.5022181
-0.09875673 -0.28006816 1.649491 0.107290104 0.18860304 1.4340042 -0.22167104 0.83513516
1.289186 1.1901621 -0.062133055 0.1532496 0.2510154 0.30881214 0.2542813 -0.68266135
0.18972886 0.1820538 0.9260354 1.2867407 -1.0270861 -0.5512735 1.9418551 0.014181124
-0.31248385 -0.13162267 -0.15170716 0.308582 -0.20918322 -0.7433432 0.66876376 -0.03715344
-0.3222441 -0.058615685 0.011675274 -0.43682653 0.29310262 -0.5010532 -0.09373562 0.09040812
0.21886642 0.19487126 -0.1949837 0.87732124 0.55212444 -0.2956886 -0.6369158 -0.0023572254
-0.24368869 0.6137964 0.43234342 -0.06516598 1.3264537 0.059034746 0.048457872 0.3279809
-0.48394093 0.5481035 -0.07645553 0.7205499 -0.49793464 -0.72479355 1.5385973 -0.33328846
-0.048715424 0.5859844 0.40422007 0.37185416 0.056592733 -0.12921576 0.013999281 0.27034473
0.16259553 0.056902893 -0.9107347 1.2748168 0.34150022 -0.3808347 -0.41966823 0.8646078
-0.13003096 0.32691997 -0.0302865 0.25114232 0.78846323 0.6483708 0.04145215 0.1629967
0.41340557 -0.55493295 1.292271 0.23446377 -0.27267215 0.16216156 -0.4493087 -0.11116484
1.0938116 0.57517403 -0.4903721 0.8479998 0.17515355 0.5880851 0.07858707 -0.18850379
0.33666605 0.21612778 0.13982834 0.19638842 -0.29542774 0.09148106 -0.591876 0.44335598
-0.18345259 0.15972249 1.7819562 0.0061143464 0.46368518 1.6338207 1.3307278 -0.025451276
0.118563354 -0.21451227 0.028839538 -0.28442797 0.6175669 0.61622494 -0.39234513 -1.3819056
0.42647225 -0.102828726 0.09404348 -0.42908114 -0.687319 -0.54869944 -0.2513258 -0.29857287
0.06415433 1.5705812 0.14989494 -0.3442835 0.00615234 0.6136674 -0.51117885 0.8795785
0.18692274 0.4680196 0.1831786 0.4517389 0.061185498 1.3735821 1.0807402 -0.6971128
-0.36817765 0.12833 0.81638974 -0.36083367 -0.43286338 0.5560527 0.1733792 0.6086999
0.28447932 0.079186335 -0.4606648 0.25933614 -0.47599044 0.46366 -0.25347695 0.048513405
1.2686191 -0.26935142 0.2788163 0.6525825 0.53333175 0.13036151 -0.13749899 0.7458692
0.100700386 -0.3732067 -0.5285969 0.47779733 -0.5328192 0.7621378 0.4119523 -0.42347956
-0.3271262 -0.37459722 -0.2539618 0.57984257 0.7235126 0.37231296 -0.00820994 -0.21316306
0.38700202 -0.2126074 0.009886846 0.15983434 1.027375 0.6696579 -0.24361674 0.4082651
-0.44909838 1.0679039 0.90966153 0.2654561 0.08811373 1.9042238 -0.23098513 -0.5099076
-0.030785032 0.21917586 0.11006731 -0.0509155 -0.1651436 1.6968418 0.34306696 0.80432045
0.085183166 1.575685 -0.37815788 0.24985604 0.8732127 -0.23303853 0.8593811 0.35762686
0.34764743 0.20167978 -0.63921475 0.13268282 0.14302889 0.5254066 0.15757968 -0.22244482
0.76679873 0.79390377 0.123408236 0.06468199 0.71784765 -0.33832282 0.096050754 0.5037687

bn1.running_var f4 [300]
00000000: 606c 7f3c 632f 533c fbf0 f93b 5eb3 013c
00000010: 44a6 193d b6ce 4f3c 8d08 f23b 83ce 393b
00000020: cdf5 7e3b 8252 af3c 297c 043d 26ea e73c
00000030: 510f 083c 5dc5 743c db36 043b 2c44 033c
00000040: 69dd 5c3c da93 ec3c 4fa5 be3b e86f 2e3c
00000050: bd33 943b 7f9e ef3b 6ba4 3b3b bdd9 523c
00000060: 6cd8 043c 80f6 d63c 8ef5 f83c 8068 e63b
00000070: f32d 353c 55fb 733c 14c7 033c 3888 db3c
00000080: d434 003c 68c7 e73c 2e87 db3c 4509 663c
00000090: de77 ca3b b304 b43b 407c c33b c764 683c
000000a0: 05e7 3c3b c153 b53c ebd8 c73b 83ed 1c3c
000000b0: 3ae6 283c 23e8 d23c ceba a53b bcdf ce3b
000000c0: b5be a53b 6371 ab3b cec0 603c ca7f a43b
000000d0: f495 023c caae 453c 866c 413c 391b a33c
000000e0: 8bd1 6a3c c16a cf3b 8f05 863c ab53 ce3b
000000f0: c900 083c 7f00 f53b d0de 3f3c d10d 9c3b
00000100: c2d5 973b 187e 913c cbb3 c63b 88fd c73b
00000110: 2c60 b03b c54e 923c 4c2e 0c3d 0b2f 143c
00000120: 299c 053c df10 3c3c f7ea a73b feeb 3f3b
00000130: 1c91 003c 611e 603c d233 473c a929 273c
00000140: 9312 9a3c 54af 283d 2454 4e3c b5c4 c63c
00000150: 5799 943b 2519 f63b 266d 493c 38a4 303c
00000160: 142f 8d3c b5b0 ac3c 1457 9d3b 4fb4 c43c
00000170: b941 043c 0d2f c53c b35d 8d3c 7589 843c
00000180: 0871 df3b ef88 033d ef6d 2f3c 39f1 143d
00000190: 5133 dd3b 9e09 893b 0d3a f23b c6d3 0f3d
000001a0: 7828 d23c dd55 d83b 879c a03b cafb 803b
000001b0: 2f50 bc3b 87af f43b 310b 1a3d b124 063c
000001c0: 3d06 003c 7d8c 6c3b f6e5 603c a0ee 983b
000001d0: 72ac 933b 7aac b73b 4311 a93c 1ce0 fe3a
000001e0: 9c44 023c ab73 0a3b 77df a83b 394a 6e3c
000001f0: 52fe 4f3c 6e18 343c 1950 323c cb42 ba3b
00000200: bf8d 1b3d 14f4 003c 2e30 063c cae5 c03c
00000210: 7ade db3b f0a9 e83b 9c9b 993b 9f15 023d
00000220: 1ec0 fc3c ab54 933c beb5 a23c 14fd 653c
00000230: 5536 323b 4796 a73b ed7f a03b b64f f83b
00000240: dd09 a43b d0d8 bb3b 8288 aa3b 3fe5 873c
00000250: 9fd3 203d 2139 613b b05b 903b 4085 3a3b
00000260: 0d76 923c a421 283d 6f6a a33b 5d2a 9b3c
00000270: 38c5 243d 0fbb 9b3c 5268 143c c0c8 4c3b
00000280: 9c6d 903c 67bb f13b 1144 a13b 80e2 223d
00000290: 9e4c 8f3c 2d7a 5e3c b211 783b 6c36 303c
000002a0: 7711 723c edea ff3b 8591 f73b 2dee 853c
000002b0: e451 803c 85c5 f03b d861 4e3c 34d4 733c
000002c0: e48c 0a3c f62e 093d daa4 a53b 5f45 653c
000002d0: 3965 063c 4197 3e3d f8b8 2a3c acbd 193c
000002e0: 9a47 e13b dc37 b13c e61f f23b 47a8 723c
000002f0: 2592 f13b 51fe 3c3b 05d4 833b 15f0 643c
00000300: 5b13 3e3c a45e c73c aa1c 153d 5040 8e3c
00000310: f2eb 913b e353 a53b d396 273c 32cb 7b3b
00000320: a7d3 c33c 46b8 9c3c 9891 193c d4e3 243c
00000330: 2d14 c23b 84d5 c13c 8942 033c 23e0 cb3c
00000340: 4e5d 093c 00f2 8e3a bd00 913b 1b0a 273c
00000350: 8fd4 a83b 624d 1b3c b907 c43c 6fc7 833c
00000360: b493 7d3b 433c 8c3c a9d1 723c 1a15 033c
00000370: bfe8 f53c 7ad2 d93b 2313 ea3c 564d 323c
00000380: fa4a de3b 6378 113c 04c6 753c a60e 123c
00000390: 185a 963c 26b8 c93b 4fc9 5a3c 78e3 d63b
000003a0: 5cde 8b3b 1d97 f93b edb0 7f3c 88c4 063c
000003b0: e416 583b 15f2 a13b 4743 393c 6f56 d13b
000003c0: b868 bf3b e38c ce3b a4ea 253c 0a77 9f3b
000003d0: 0edd c63b 0fcd ba3b fc68 153c 5878 553c
000003e0: 51b0 f93b cdcb 203c ff2d f53b 48cc ac3c
000003f0: 143d 803c 1ef1 dc3b e654 373c fdd1 693c
0.015589803 0.012889716 0.007627604 0.0079163 0.03751208 0.012683561 0.0073862732 0.002835185
0.0038903833 0.021401647 0.03234497 0.028309893 0.008304433 0.014939633 0.0020174298 0.008011859
0.013480523 0.028879095 0.005818046 0.010646798 0.0045227692 0.0073125954 0.0028631936 0.012869296
0.00810824 0.026240587 0.030390527 0.0070315003 0.011058318 0.014891465 0.008043069 0.026798353
0.007825095 0.028293326 0.026797857 0.014040296 0.00617884 0.0054937243 0.0059657395 0.014184183
0.0028824222 0.022134664 0.0060988567 0.009578112 0.010308797 0.025745457 0.0050576692 0.0063132923
0.0050581344 0.0052320226 0.013717843 0.0050201165 0.007970322 0.012065599 0.011805659 0.019910442
0.0143321855 0.0063298647 0.016360072 0.006296595 0.008300968 0.007476866 0.0117108375 0.004762389
0.004633636 0.017760321 0.0060639135 0.0061032213 0.0053825583 0.017859826 0.03422384 0.009044419
0.008154907 0.011478632 0.0051244455 0.002928495 0.007847097 0.013679118 0.012158351 0.010202804
0.018807685 0.04118283 0.012593303 0.02426372 0.004534881 0.0075103217 0.012294089 0.01078134
0.017234363 0.021080354 0.0048016403 0.02401176 0.00807231 0.024070287 0.017256593 0.016178826
0.0068188943 0.032113012 0.010707363 0.03636286 0.006750502 0.0041820547 0.007392174 0.035114072
0.025654063 0.0066020326 0.004901472 0.0039362656 0.0057468633 0.0074672136 0.03760833 0.008187459
0.007813987 0.003609448 0.013726702 0.004667118 0.004506641 0.0056052776 0.020638114 0.0019445452
0.007950928 0.0021126072 0.005153592 0.014544063 0.012694912 0.010992153 0.010883355 0.005684232
0.037976976 0.007870693 0.008190198 0.023547072 0.006709871 0.0071003363 0.0046877395 0.0317589
0.030853327 0.017984709 0.019862052 0.014037389 0.002719303 0.00511435 0.0048980624 0.0075778617
0.0050060586 0.005732633 0.0052042613 0.016588805 0.039264318 0.0034366327 0.0044054613 0.002846077
0.017878557 0.041047707 0.004987053 0.018941099 0.040227145 0.019010095 0.009058075 0.0031247586
0.01763039 0.0073770764 0.004921444 0.03976679 0.017492589 0.013578934 0.0037852344 0.010755163
0.014774672 0.0078099878 0.007555189 0.016348923 0.015664048 0.007347765 0.01259657 0.014882136
0.0084564425 0.03349205 0.005055052 0.01399359 0.008202844 0.046530966 0.010420077 0.0093836
0.0068749906 0.021633081 0.0073890565 0.014810628 0.007372158 0.0028838108 0.0040230774 0.013973256
0.011601294 0.02433712 0.03640429 0.017364651 0.0044531757 0.0050454005 0.01022883 0.0038420674
0.023904635 0.019130837 0.009373091 0.010064084 0.0059228153 0.023661382 0.008011469 0.02488715
0.008384062 0.0010905862 0.004425137 0.01019528 0.005152292 0.009478899 0.023929464 0.016086308
0.0038692774 0.017118579 0.014820495 0.0080006365 0.030018209 0.006647405 0.028573578 0.010882696
0.0067838402 0.0088788 0.015000824 0.008914625 0.018353507 0.0061559854 0.01335366 0.006557878
0.0042684507 0.007616891 0.015606147 0.008225568 0.0032972628 0.0049421885 0.011307544 0.0063884775
0.005841341 0.006303416 0.0101267435 0.0048664855 0.0060688322 0.0057007144 0.0091192685 0.0130291805
0.0076198955 0.009814215 0.00748229 0.021093503 0.015654124 0.0067426106 0.011189675 0.0142712565

fc2.weight f4 [300, 304]
00000000: 8cb7 98bd 049b 0a3e ceee 22bd 8269 123c
00000010: e632 5ebe b3a4 d13c 9146 46bd 1f60 16bd
00000020: 6bf8 413c 3849 a2bc e460 b13d e80a 1e3d
00000030: 9ed3 3e3d 72da 8e3c 09d4 8dbd eda4 4bbe
00000040: 8c31 ae3d 4ccd 973c a4d3 ac3d 34ec a1bc
00000050: 9b5f 6e3e 1cf0 603d 232a 143d e1d1 a3be
00000060: 4eb6 e83c 5e20 1c3e f1df 10be 4a8c 1d3d
00000070: 6b10 783d f28b fc3d f83c 143e 540b 9cbc
00000080: ac06 f23c 0301 e03c 633e 21bc fd87 c43c
00000090: 20a0 2b3e a58c da3d c1e1 dbbd a5e2 c1bc
000000a0: 8ccb e8bc 5f3e 693d 8f26 c1bd ba1e 823d
000000b0: f938 8ebe 02a0 c43d 5048 ae3c ecf0 1dbd
000000c0: 637e e9ba ceb1 8f3c fc10 bd3c 90a8 743c
000000d0: 0792 903d 1431 afbd 7753 2bbd 7158 813e
000000e0: 5a69 353c 08db 0f3d b9d0 473d d101 5c3d
000000f0: 2450 0ebb 5f68 05be 2d9f b43d 680f 463d
00000100: b4a3 883e c90f adbd c7bc 4c3d 9efc ae3e
00000110: 3a83 32be b626 3dbd d18e f0bd a7b3 0dbe
00000120: 3010 533e b299 93bd 723b ca3d 37fb 833c
00000130: a75a cabd cea6 c0bb 34c4 753c 2fb7 bd3d
00000140: ec05 853d 2252 b33b 8702 09bc c03d de3c
00000150: a137 923e 71ca a63d a132 e63c 6106 32bd
00000160: b132 b6bd fe39 4c3b 0793 2c3e 2f68 153d
00000170: 5223 d33d 8bd0 50bd 035b 3cbd 9cde c43d
00000180: f826 2abb ebcc ae3c ab5e 183e cec5 9f3d
00000190: c2df a53d b300 5a3c 9276 8c3c 2e0f 183d
000001a0: b934 3f3d 83d9 323d b372 2a3e 1601 523d
000001b0: 1952 053d 99a4 b13d cd3f ae3c 3a69 ca3d
000001c0: 9395 db3d 912a 543d d537 b8bc c308 233e
000001d0: 4138 293e e5aa 0e3e 7813 aebd ae57 20be
000001e0: af49 e0be da71 a7bc 7dc5 253e cf83 bcbd
000001f0: be3f 273e 28c8 33be 6341 793d 4779 97be
00000200: 1153 b33d 86c7 6f3d 50be 4d3e 3914 7cbe
00000210: 7773 1c3d fb1c 8b3c bc79 fbbd 6cc6 2a3d
00000220: 7c72 7d3d 6322 bfbd 5d2c 9c3c 864c 9a3c
00000230: 044b f3bd ae36 adbc ff77 803e 0ec0 003c
00000240: fc88 723e bfc4 26be 0368 423e 8936 0c3d
00000250: 7894 c6ba f2ac 15be 1ae9 813c 1d71 3e3e
00000260: b3e2 433c 39be 54bd 130b c13c 84dd fa3d
00000270: 9623 06be e5bb 423a 04c7 463d 4510 9d3c
00000280: f2fa 503d 0372 e53d b921 923c 7447 05bd
00000290: 5bdb 2a3c 042d b43d 3eae 3bbd 4f89 2b3e
000002a0: b00b d4bc cdce cfbd e102 0cbe d7c9 93bc
000002b0: 9f17 11be 7ce7 48be 393b 8d3d 6f1a 0bbe
000002c0: b2c9 933e 4aa2 003e f7b8 a43c 8ded 21bd
000002d0: b233 d9bd 9855 fd3d 44a7 4fbe 2fd0 00bc
000002e0: 143f 383d 9300 20be 108a fabd 0cba 99bd
000002f0: 7128 cebd 3dfb 273d 04a9 a63e 1713 70be
00000300: 0c13 59bd aaa1 553d 2f10 2dbc 2aae 8a3d
00000310: 13d9 93bd 0e45 89bd 3ff4 b43c 5a36 53bc
00000320: aeb4 57bc 7ec0 c33c d76f 34bd 58ec 093e
00000330: e8f2 623e 8b15 bcbc 77da d03c 0937 073c
00000340: 2643 3a3c f329 7dbb b4fa 803e 65e2 e9bc
00000350: 02e7 1bbe bbff 84bc 8817 9a3d 4f47 d93d
00000360: f86d 25be 259b 873c c0af 92bd 4620 223e
00000370: 5861 62bd c167 253e a4d1 85bd 6d3a c9bd
00000380: bc71 713e 5b88 afbd 66f1 873d 7778 bfbc
00000390: b6cc c03d 906d df3d e8ec 3fbd 4cd1 2b3e
000003a0: 829f 833e f457 e63d 224f d73c 6da1 6bbd
000003b0: 1850 003e 1530 49bc 1e8c 26bd 77dc ee3d
000003c0: 37da 1f3d 5cde 02be ea0d bebc 273b ffbd
000003d0: d22f 3c3e a91f 17bd 9b5b 283c 64d3 a1bd
000003e0: 0bbf 933d ddd5 c83d b868 1ebe 22e2 d13d
000003f0: 9e1e 8bbd 59a4 86bd af27 df3d 401e 06be
-0.07456884 0.13535696 -0.039778523 0.008936288 -0.21699104 0.02559123 -0.04840714 -0.036712762
0.011839013 -0.019810304 0.086610585 0.03858462 0.046588533 0.017438147 -0.06925208 -0.19887133
0.08505544 0.01853051 0.08438805 -0.01976595 0.23278658 0.054916486 0.036172997 -0.31996062
0.028407242 0.15246722 -0.14147927 0.03846387 0.060562532 0.1233138 0.14476383 -0.01904837
0.029544197 0.027344232 -0.009841534 0.023990626 0.16760302 0.10671357 -0.107364185 -0.023667643
-0.028417371 0.056944247 -0.094311826 0.06353517 -0.27777842 0.096008316 0.021274716 -0.03855984
-0.0017814155 0.017540839 0.023079388 0.014932767 0.070591025 -0.08554283 -0.041827645 0.25262788
0.011072481 0.035120994 0.048783038 0.05371267 -0.0021715248 -0.13028096 0.08819423 0.048354536
0.26687396 -0.084502764 0.04998472 0.34177107 -0.17432871 -0.046179496 -0.1174599 -0.13838063
0.20611644 -0.072070494 0.098746195 0.016111 -0.09880572 -0.0058792597 0.015000392 0.09263455
0.0649527 0.0054724375 -0.008362419 0.027129054 0.28558066 0.081440814 0.028100314 -0.043463115
-0.08896387 0.0031162496 0.16852961 0.03647631 0.10309471 -0.050980132 -0.045985233 0.09612772
-0.0025963169 0.021337947 0.14879863 0.078014 0.08099319 0.013305831 0.017146382 0.03712385
0.04668114 0.043664467 0.16645317 0.051270567 0.032548998 0.08673973 0.021270657 0.098833516
0.107218884 0.051798407 -0.02248756 0.15921311 0.16525365 0.13932379 -0.08499807 -0.15658447
-0.43806216 -0.02044003 0.16188617 -0.09204828 0.1633291 -0.17556822 0.060853373 -0.29584715
0.08756078 0.05853989 0.2009213 -0.2461709 0.038196053 0.016981592 -0.12279078 0.041693136
0.06187676 -0.093327306 0.019064123 0.018835317 -0.118795425 -0.021144237 0.2509155 0.007858289
0.23685068 -0.1628599 0.1898499 0.034231696 -0.0015150448 -0.14616755 0.015858222 0.18597837
0.011955905 -0.051939223 0.02356485 0.12249282 -0.13099512 0.0007428511 0.04852964 0.019172797
0.05102057 0.11203387 0.017838346 -0.032538846 0.010428275 0.087976485 -0.045820467 0.16751598
-0.02588448 -0.10146866 -0.13672973 -0.01804058 -0.14169167 -0.19619554 0.068960615 -0.13584302
0.2886482 0.12561908 0.02010773 -0.039533187 -0.10605563 0.12369841 -0.2027865 -0.007862135
0.04498203 -0.15625219 -0.122333646 -0.07506189 -0.10066307 0.041011084 0.32550824 -0.23444782
-0.05299668 0.052156128 -0.0105629405 0.067715004 -0.07219138 -0.06702624 0.022089122 -0.012891376
-0.013165636 0.023895498 -0.04405197 0.13469064 0.22162974 -0.022959491 0.025494797 0.0082528675
0.0113685485 -0.003862974 0.2519127 -0.028550336 -0.15224841 -0.016235223 0.075240195 0.10609304
-0.16155231 0.01655347 -0.07162428 0.15832624 -0.055268615 0.1615286 -0.065341264 -0.09825597
0.23578542 -0.085709296 0.0663784 -0.023372872 0.094140455 0.10909569 -0.04685679 0.16779059
0.25707632 0.112472445 0.02628285 -0.057526994 0.12530553 -0.01227953 -0.04066097 0.11663144
0.039026465 -0.12780136 -0.023199994 -0.12462454 0.18377617 -0.036895428 0.010275747 -0.07901648
0.07214173 0.09806416 -0.15469635 0.102482095 -0.06792949 -0.065743156 0.10896241 -0.13097477

fc2.bias f4 [300]
00000000: f04f e93e 4c6c cc3d aa22 7abe bb74 8f3d
00000010: 8002 84be 83c2 babe c19b 273f 3764 513e
00000020: 9090 2b3e 1a2c 163f 0193 173f b60a 063e
00000030: 536b 9f3d 0596 d03d bef5 9cbe 2ccc 2c3e
00000040: 151d ed3b b520 193f 4aa3 bd3d 333f 25be
00000050: 1b2d 973d d1c7 1e3f 7b39 a7be 5473 233d
00000060: 8c35 f53c 6e04 133e c250 48b9 9d02 233f
00000070: bf42 d43d 2095 f93e 682e ee3e 81fa 273f
00000080: e048 81be aa77 213e 61d7 703d b7b0 bcbb
00000090: 6f85 08be 2c08 a93d 590c 243d d7c4 f73d
000000a0: f618 603d 120a b53d 34cc e5bc dcbb 1f3e
000000b0: ff2b 273e a6c7 123e 7a0f e73e 83d0 0fbc
000000c0: 2163 f43d a973 b53d d0bd 873d d061 b83e
000000d0: a960 bf3d 79c5 3e3d 3ba4 ec3b dd28 1b3f
000000e0: e9df b9be 1139 013e 9b64 aeba 9819 033e
000000f0: ed63 973d d3f9 9e3e 124f 893a 6930 433e
00000100: dd77 983d 6a41 1e3e 6147 ad3c 93f5 a93d
00000110: c87d 923e 5d35 d53d 0744 c0ba e25e 85bb
00000120: 9a24 ac3b 34d2 523d 436d dcbb c95c 393c
00000130: c6eb e23d dbbb 87bc 2081 82be 7565 2b3f
00000140: e8b1 7e3c 842e 053e 808f dc39 67d7 243d
00000150: 2bcf 2f3e 93f7 ffbd baeb d93d ba83 313d
00000160: ae1b 083e 7204 2e3f 02fe 60bb c897 2f3e
00000170: 0f7c 3a3e 0f93 f13d f7c3 153e df70 a93d
00000180: 2217 593d 788c 203e 7f5a f23d 4184 723d
00000190: 24af 9d3d 90b1 2d3e 26e4 013e 69fb 33be
000001a0: 1be0 1b3f f3e8 1f3e 4f9e ec3d 465e 983d
000001b0: 05c5 ae3c 8fdb b43e 54c1 bcbc b1de 013d
000001c0: b588 343d 3a54 a6bd 2ac5 373d 2770 153f
000001d0: 7adf 1e3e 21a8 2f3d 198a 07bd 1aa7 473c
000001e0: cf2c 56bd c516 a8be 796b b43d a4a6 a33e
000001f0: 3915 fd3d 2420 12bc 6fcd 303e b1f7 813d
00000200: 4d55 e93c 6dc6 9cbe 5b04 263e 78c7 483d
00000210: 5600 283e eb0a b93d 65d7 2f3d c2cf 633e
00000220: 4cbb 313e 5348 a6bb 9ea0 9fbd a10c 123e
00000230: f980 233f feae 2e3e 819c 97be 4c5f dd3d
00000240: 05dc 0e3e 6496 eb3e b9bf 1f3f 9efc 083f
00000250: a08e cb3d a299 2a3f b884 713d 6c45 8a3d
00000260: 6999 253e 17f5 c23c fed6 123e 2dc6 393f
00000270: 0b60 343d ccbd 7f3d bf36 71bc 4470 cf3d
00000280: dc9c 913d 97af 8e3d 38cb af3d f537 1c3e
00000290: 45e2 dcbc a5a3 2a3d e7ff 0bbe f7de 193e
000002a0: 657f 13bd d099 b93e 038a dd3e a3a1 ef3d
000002b0: 5cc9 c83c f96c 453d d585 113e 40a7 31bb
000002c0: 5fe8 163e ac0b c13e 4524 1c3e c2b1 8dbd
000002d0: d375 89be dbc3 30bd 544d 2c3d f271 013d
000002e0: 77ca 2a3f cc46 263d 2260 a13b d4fb d33d
000002f0: 8c30 403d 4b11 3dbb e503 803e ccbe 9a3d
00000300: 723e e43d e698 443e 6220 123e d8c2 8d3d
00000310: 57f2 1e3e 03c2 13be 039c 8fbc 92e7 6f3d
00000320: 6cda a4be 22d2 ea3d ec9c 6b3e 372e d23d
00000330: 4498 9a3d d7bb 81bd 6bfb b43c d474 e53d
00000340: 2a87 58bc 1bc0 633d 0489 88be 4064 b23e
00000350: 2e8b cb3d ce5b 293e 2565 253f 58d4 a83c
00000360: 5e7e e13c 41f7 793c d80a f23c a0a8 0a3e
00000370: 37ec 2b3e 5960 d33d 9eb4 f93d db50 2d3d
00000380: b1e1 0cbf b2aa 003d c4c1 bebc 3d1d ccbe
00000390: 42bc 2b3f 94d1 9bbc 334e 23bd 80de 743d
000003a0: e477 053d c5c2 d73e 5654 12bd f0a1 08be
000003b0: a4ba cebd c227 ce3d eaa0 263f bd79 623e
000003c0: 9fb5 2d3b 0b8b 023f 6b20 8b3d 788e e03c
000003d0: 48bd 143e b4a8 e63d a138 dc3d 41cb 013e
000003e0: 6e04 533c d374 38be 5386 94bc 7e60 2a3f
000003f0: ecca 273f 7299 523d 62bb 5b3d 38a1 8c3d
0.455688 0.099815935 -0.24427286 0.070046864 -0.25783157 -0.36476526 0.65472037 0.20448385
0.16754365 0.58661044 0.59208685 0.13090023 0.07784142 0.10184864 -0.30656236 0.1687476
0.007236133 0.5981553 0.092596605 -0.1613739 0.0738165 0.62023646 -0.32661042 0.039904907
0.02993276 0.14357159 -0.00019103571 0.6367586 0.10364293 0.48746586 0.4651978 0.65616614
-0.25250912 0.15768304 0.05879915 -0.0057583707 -0.13332151 0.08253512 0.04005084 0.12098091
0.054711305 0.088398114 -0.028051473 0.15599006 0.16325377 0.14333972 0.45128995 -0.00877774
0.1193297 0.08859951 0.06628001 0.36012125 0.09344608 0.046575043 0.0072217262 0.6060923
-0.36303642 0.12619425 -0.0013305129 0.12802732 0.07392106 0.31049976 0.0010475835 0.19061436
0.07444737 0.15454641 0.0211522 0.08298793 0.28611588 0.10410569 -0.0014668711 -0.004070149
0.0052533867 0.051469997 -0.006726892 0.011313626 0.110801265 -0.016569069 -0.2548914 0.66951686
0.015545346 0.13006026 0.00042068586 0.040244486 0.17168872 -0.12498393 0.106406644 0.043338515
0.13291809 0.67975533 -0.0034331088 0.17147744 0.18211387 0.11795627 0.14625536 0.082734816
0.053000577 0.15678585 0.11833667 0.05920816 0.07699421 0.16962266 0.12684688 -0.17576374
0.6088883 0.15616207 0.115536325 0.07439856 0.02133418 0.3532376 -0.023041405 0.031706516
0.044075686 -0.08121534 0.044865765 0.58374256 0.15514937 0.04288495 -0.033090685 0.012185836
-0.052288827 -0.32829872 0.08809561 0.31963074 0.123575635 -0.008918796 0.17265867 0.063460715
0.028483057 -0.30620137 0.16212599 0.049018353 0.16406378 0.090352856 0.042930026 0.22247222
0.17356604 -0.0050745397 -0.07794307 0.1426263 0.6386867 0.17058942 -0.2961159 0.10809192
0.13951118 0.46013176 0.6240192 0.53510463 0.09939313 0.66640675 0.05896446 0.067515224
0.16171803 0.023798509 0.14339826 0.7256802 0.044036906 0.062436864 -0.014722525 0.10128835
0.07109997 0.06967085 0.08583683 0.15255721 -0.026963362 0.04165997 -0.13671838 0.1502646
-0.036010165 0.36250162 0.43269357 0.11700752 0.024510078 0.048199628 0.14211209 -0.0027107745
0.1473708 0.37704217 0.1524821 -0.0691867 -0.26847705 -0.043155532 0.042065933 0.031602807
0.66715187 0.04059486 0.00492479 0.10350767 0.046921298 -0.0028849419 0.2500297 0.07555923
0.11144723 0.19198951 0.14270166 0.06921929 0.15522133 -0.14429478 -0.017530447 0.058570452
-0.32197893 0.11465861 0.2300908 0.10262721 0.075485736 -0.06334656 0.022092542 0.11203924
-0.013215819 0.055603128 -0.26667035 0.3484211 0.09938656 0.16538927 0.6460746 0.020609066
0.027526077 0.015256704 0.029546186 0.13540888 0.16789328 0.10321111 0.12192653 0.042313438
-0.5503188 0.031412788 -0.023285754 -0.39866057 0.67084134 -0.019020833 -0.0398695 0.059782505
0.03258504 0.42140785 -0.03572496 -0.13343024 -0.100941926 0.10066177 0.65089285 0.22116752
0.002650596 0.5099341 0.067932926 0.027411684 0.1452533 0.11262646 0.107529886 0.12675191
0.012879474 -0.18013315 -0.018130457 0.66553485 0.6554401 0.051415868 0.0536455 0.068666875
