bipedal_walker/bipedal_actor.pt (torch_old, 402489 bytes, 10 tensors)

fc1.weight f4 [300, 24]
00000000: 571c d63e 9bb8 73bf 088a fa3f ef38 52bf
00000010: 1a52 b33d 50c3 1ebd eecd 063f 1175 4a3f
00000020: 9c4f 37be 942b 28bf 4c7a 473e c42c 02bf
00000030: 0899 14be f15f 75be 5722 9abe 724a 7cbe
00000040: cd2b 95be f634 99be eeb2 8dbe a3c9 69be
00000050: ecbb 89be 399e 9ebe 75fd 8c3e 5bbd 1640
00000060: f952 26bf 3944 4a3f 22b7 47bf 3696 76be
00000070: 6982 5bbe 1a55 773e c35e 3dbe 8c9f 81bf
00000080: d3fd 90bd 547d 1bbf 154d 82bf 0164 b7bd
00000090: 8bcb f5be 833a cf3e 5b46 77be 00b8 81be
000000a0: 7a54 86be 7e4f 8fbe fecd 62be af0c 6ebe
000000b0: 7507 63be b9ae 4cbe 3222 74be a22d bb3e
000000c0: dbd2 353f 88b5 5540 c65b bbbf c0be 4e3e
000000d0: 0dc4 863e 65e8 6f3e fa7c 19bf 0fd3 a73d
000000e0: 9874 873e 3960 e73e 867d 04be 3896 ffbe
000000f0: d312 16be 474d 983e 744a c23e 2c2d af3e
00000100: 6099 b23e e44c d83e 9e81 ad3e ba98 ad3e
00000110: f68c a73e 9a99 a73e 0398 fb3e 8223 2340
00000120: ef7e 0d3f be6a f23f bfa7 dabf 6790 2cc0
00000130: 53ef 013f 0d76 633e e45d b43e cd58 c83d
00000140: 2f86 13be 54a1 8a3e dc0f 1a3e b470 ae3e
00000150: d0b7 6d3d 1d39 95bd c3fc 72bd 431c 44bd
00000160: c87b 97bd 8a24 aebd def1 e7bd 7d49 cebd
00000170: d45f babd c352 a0bd 528f cf3e f003 e13e
00000180: b9ea d33e 653c 8dbe 0274 873f 9bb5 2fc0
00000190: ef74 9abe a997 3dbe fbe7 243e 9d5b 063f
000001a0: 2d39 593e d242 88bf d341 b53d e82e 91bd
000001b0: 7d62 043e 2493 f33d 0299 dbbd 3486 d0bd
000001c0: 57ae 37be b7ce 23be ccf0 01be d0a6 f1bd
000001d0: 70b9 28be 6195 21be 0991 06be a9e2 d0bd
000001e0: 2e1a 3fbe 2a9b 943f cc50 16bf efc5 ecbe
000001f0: 6b4f 7c3f 79a8 593f 81e7 b13e c8ae 17bf
00000200: eac8 e33e 7fb5 453d 0c0d a5be 24aa cabd
00000210: 82ae 7ebe d218 f53d 025b c13d f387 c43d
00000220: c01f d83d 76b8 093e 7735 c93d 3c40 1f3e
00000230: d127 223e 46d4 fa3d d4fa 7a3e f3ee fdbe
00000240: 5de6 1d3f 343f d9bf e454 043f 2dc2 5b3f
00000250: 3ffb febe ae9e 06bf 1619 06bd 94c5 a23e
00000260: 0545 d6be bb9e c6be 2594 73be 40dd c73d
00000270: 8f8d 9e3e 4776 49be edf9 40bf 910d 31bf
00000280: a996 3dbf 5e1c 3abf ad35 49bf e48e 40bf
00000290: 1ed9 35bf 2284 31bf 74af 8cbf 2a14 41be
000002a0: 9710 2bbf 8b0c f1bf db31 54bf 2f46 b3bf
000002b0: ac8c 943e 59c0 833e 7490 95be d833 5f3d
000002c0: 9300 08bf 6d26 94be af11 663e 5de2 09bf
000002d0: aa16 8ebe 742d c83b 0b10 ad3e ba73 a33e
000002e0: e0c8 c83e 71d6 9f3e 1671 b63e 951b 9d3e
000002f0: 9f9f a33e 6018 c33e 01a6 193e 9d85 a23f
00000300: 0438 293f a2bf 84be 7353 3540 13b1 cc3f
00000310: b675 ac3e 09da 803e 9de7 8fbe 4abb 843d
00000320: 5f51 0abe bb21 643e bac3 603e e1d3 56be
00000330: d72a 843d abe1 1f3e ed77 053e 262b 553e
00000340: 59a2 1a3e 534e 6a3e 200d 4e3e 126a 5d3e
00000350: fbde 483e d112 0a3e 8453 843e 600e cd3f
00000360: 15a2 603e bc96 e63e 1e8f 36bf 7816 eabe
00000370: d420 73bc 704f e43d 2d15 cd3d 27aa b83f
00000380: 4032 773c eeb7 953e 0b3e 0cbf 8fea b7bf
00000390: 8436 52bd c1f7 893e 82a1 c9be be55 e4be
000003a0: 40a1 e7be a091 c2be f1d8 e2be 6437 c4be
000003b0: a15f c9be cc58 bdbe 1784 4dbd 2751 db3f
000003c0: a0d0 8ebf 32b4 a3bf 26e5 343f b676 65bf
000003d0: 26d1 d83e 13ab bf3e 6370 753e 5ac3 0a3f
000003e0: 7cb5 1d3f ba90 24be 7ea8 843e 08fe 103e
000003f0: 6cee c43d 0359 f4be 3c9d 2abe be8b 0bbe
0.41818497 -0.9520356 1.9573374 -0.82118124 0.08755894 -0.038760483 0.52657974 0.7908488
-0.17901462 -0.65691495 0.19480246 -0.50849557 -0.14511502 -0.2396238 -0.30104324 -0.24637774
-0.2913498 -0.29923218 -0.27675575 -0.22830825 -0.26901186 -0.3098009 0.27537122 2.3553073
-0.64970356 0.7901035 -0.78013813 -0.24080738 -0.21436466 0.24153557 -0.1849318 -1.0126815
-0.07079663 -0.6073811 -1.0179774 -0.08954621 -0.48006853 0.40474328 -0.24147932 -0.25335693
-0.26236326 -0.27990335 -0.22148892 -0.23247026 -0.22170813 -0.19988526 -0.2384117 0.36558253
0.71024865 3.3392048 -1.4637382 0.20189953 0.2632145 0.23428495 -0.59956324 0.08194553
0.2645614 0.451906 -0.12938508 -0.49919295 -0.14655618 0.29746458 0.37947428 0.3421415
0.3488264 0.42246163 0.33887953 0.33905584 0.32724732 0.32734376 0.49139413 2.5490422
0.5527181 1.8938825 -1.7082442 -2.6963136 0.50755805 0.22213002 0.35227883 0.097825624
-0.14406656 0.2707621 0.15045112 0.3407036 0.058036625 -0.07286284 -0.059323084 -0.047878515
-0.07396656 -0.08503063 -0.113254294 -0.100726105 -0.09100309 -0.078282855 0.40539032 0.43948317
0.41390017 -0.2758514 1.0582278 -2.7454593 -0.30167338 -0.18514885 0.16104119 0.5248354
0.21213217 -1.0645392 0.088504456 -0.07089025 0.12928195 0.11893299 -0.10722543 -0.10181847
-0.17937599 -0.15996824 -0.12689513 -0.11799395 -0.16476989 -0.1577964 -0.13141264 -0.10199482
-0.1866233 1.1609852 -0.58717036 -0.4624476 0.9855868 0.85022694 0.34746936 -0.5925107
0.44489223 0.04826879 -0.32236516 -0.09895733 -0.24871257 0.11967625 0.094411865 0.09596243
0.10552931 0.13449273 0.09824651 0.15551847 0.15835501 0.12247519 0.24509746 -0.49596366
0.6167963 -1.6972413 0.5169203 0.85843164 -0.4980106 -0.52585876 -0.032738768 0.31791365
-0.41849533 -0.38792977 -0.23786981 0.09758997 0.30967376 -0.19674025 -0.75381356 -0.69161326
-0.74058014 -0.72699535 -0.7859753 -0.75218034 -0.7103442 -0.69342244 -1.0991044 -0.18855348
-0.6682219 -1.8831953 -0.82888573 -1.4005793 0.29013574 0.25732687 -0.2921177 0.0544928
-0.53125876 -0.28935567 0.22467683 -0.5386103 -0.27751666 0.006108934 0.33801302 0.3192423
0.39215755 0.31218293 0.35633153 0.30685106 0.3195772 0.38104534 0.15004732 1.2697026
0.661011 -0.25927454 2.8332183 1.5991539 0.33683556 0.25166348 -0.28106394 0.06481035
-0.13507603 0.22278492 0.21949664 -0.20979263 0.064534836 0.15613429 0.1303403 0.20817241
0.15100993 0.22881441 0.20122194 0.21622494 0.1961631 0.1348374 0.25844967 1.6020012
0.2193683 0.45036876 -0.7131213 -0.45720267 -0.01483937 0.11147964 0.100138046 1.4426926
0.015087664 0.2924189 -0.5478217 -1.4368457 -0.05132152 0.26946834 -0.39381033 -0.44596666
-0.4524021 -0.38001728 -0.44306138 -0.3832351 -0.39330772 -0.3698181 -0.0501748 1.7134141
-1.1157417 -1.2789366 0.7066215 -0.89634264 0.42347068 0.37435207 0.23968653 0.5420433
0.6160505 -0.16070834 0.259098 0.14159405 0.09615788 -0.4772416 -0.16661543 -0.13627526

fc1.bias f4 [300]
00000000: 33a8 26bd 4b2c 113e 6e86 673d 6261 333d
00000010: 42d2 3ebd 15de 5dbc 2c49 78bd c1b3 fc3d
00000020: 60c3 2dbe 8dbc dd3c 7aed 353e c97e 41be
00000030: 0b92 0d3e b86c f1bd e162 083e 37dd 2abe
00000040: 0564 123e 23b5 293e 51de 26be 714b c8bd
00000050: 4cfe b53d e7a0 bfbd 3560 c13d 0aad 00be
00000060: ba92 1f3d d54a f73d e620 05be 7c47 0d3c
00000070: fe8f 003e 641b 663d d5aa e9bd e667 63be
00000080: 0514 d53c 14f4 133e 10ce 9f3d 9dd7 2abe
00000090: 69a0 2cbd 3766 09be 42b8 a9bc 7c4f 733d
000000a0: e5fd 53be b57d bfbb 8aff d3bc dad6 823d
000000b0: 57f8 29bd c3f2 9dbd b262 0b3e eea6 babd
000000c0: 0fa4 babd c458 e1bc a1ca d33d 5e4f f8bd
000000d0: 0734 423e fbf6 3bbd 59a8 a53d 6e56 133e
000000e0: f75e 34be f8ac 1a3e 7c7c 55bd 732a 013e
000000f0: 52bf 863d 8033 39bd 1fbd dcbd f809 27bd
00000100: bb03 a13d 4682 003e 79fc 233e 2072 283e
00000110: fe01 61be ad58 263e 6b0b 383d 9ebc e5bd
00000120: e794 38be 4d0f 473e 5ac8 f4bd cd61 ad3c
00000130: bc60 00be 41ab 5cbe 8313 013e 709d 3dbe
00000140: abd6 7f3c 744c 473e 1589 383e cd53 583d
00000150: 1c11 0fbe 9fcb 63be aa25 d3bd c205 44bd
00000160: 0301 fc3d 60e6 b1bd 4438 4cbe ac10 853b
00000170: 1714 16be 8fda 81ba 2415 26bd d5e4 133e
00000180: 805a afbd 25e7 8fbd 9cd2 0a3e a694 0d3e
00000190: 18be 273c c584 35be 374a 963d f3b1 1f3e
000001a0: 2a50 033e 1729 e0bd 7937 3ebe f468 c9bd
000001b0: 03ef 2abe 108d db3d 7915 f7bd fe81 0e3c
000001c0: 2cb9 623e 362d f73c 42e6 89be 97cb ddbc
000001d0: 1c40 383e fd2c 9a3d a330 f83c 0270 833d
000001e0: 0e3e 23be 02de cbbd 9786 063d c1ed 1c3e
000001f0: 2540 82bd 920a f9bd e468 2fbe 19fc 3dbe
00000200: dfda e23d 17ea 86bd 67b4 2a3c 1880 013d
00000210: 0896 623d a85b 41be accf bc3d 6c72 bebd
00000220: 98ad 78bd 3147 68bd d723 2cbe 2f51 11bd
00000230: 1894 133d 74d8 4abe e04a c0bd 68e4 08be
00000240: 810d 1cbe 7a29 23be 3738 353e f0fd 773d
00000250: b168 073d 8443 1cbe 918c a7bd c1ff 20be
00000260: c0b1 533d fadc 42be 4c30 22be 9017 6cbc
00000270: 1774 553d 2415 803d 5bde debc 80e7 243c
00000280: 6cdd 033d 1685 7b3d 0374 c8bc 7ea4 ee3d
00000290: e745 ee3a a477 f73d 970a 873d 6a88 00be
000002a0: 84a1 8fbd 24e7 06be 59ab 183c 2abc db3a
000002b0: 9a5e 65bb c328 623e 245a 353e 509a 2ebd
000002c0: 6c4d 763d 2f5e 11be d670 0f3e 44db 4bbd
000002d0: 3d74 1cbe f915 283e bac5 f03d d603 d93d
000002e0: 7e63 803c e2cd c0bd 60a2 113e f89c 3c3e
000002f0: c836 de3c 7c87 d73d fe3d c8bd c8ca 963d
00000300: 5719 bcbd f409 debc ee30 ad3d 83f3 583d
00000310: 9880 273e 784e 28bc 7917 59bd 82a8 f73c
00000320: f599 fa3d f844 973b 2cf6 1bbe 8ecf 5e3e
00000330: 2107 d03d e117 843d 149a 94bd 40dc 303e
00000340: 32c4 c43b 6ebf eebb 2c3a b53d feee a5bb
00000350: 077f 7a3c 1346 823d ad03 3b3d c6f5 8e3c
00000360: 42f0 04be 439b d5bd 278f 473e 1ac8 113e
00000370: 1b38 633d 3cf1 c13c f6fe ebbd 0018 dc3d
00000380: 58c0 57be eacc dd3d a155 153e b91e c63d
00000390: 3040 fd3d 6c64 21be 8a0a babd be07 e8bd
000003a0: 25a8 0a3e 1457 50be b2be f6bd b7eb cd3d
000003b0: 6cdc 553d 3808 41be 9a96 183e d6d4 0b3e
000003c0: ccb1 163d 6208 6a3d 46a1 18be f929 3abe
000003d0: 6a69 1abe c449 85bd 0978 09be 2ea9 e2bd
000003e0: d3dc 4b3e cc05 41be 2842 293e a58d 2b3e
000003f0: 718c 1c3d 1c9d 8938 c36a 843d f1a1 133b
-0.04068775 0.14177053 0.056524687 0.043794043 -0.046587236 -0.013541718 -0.060616657 0.12338973
-0.16969061 0.027067447 0.17766371 -0.18896021 0.13825242 -0.117883146 0.1331897 -0.1668595
0.14295967 0.16573004 -0.16295744 -0.09780014 0.08886394 -0.093568616 0.09442178 -0.12566009
0.03895829 0.1207482 -0.13000831 0.008623 0.12554929 0.056178465 -0.11409537 -0.22207603
0.026010523 0.14448577 0.07802975 -0.16683812 -0.042145167 -0.13417898 -0.020717744 0.059401974
-0.20702322 -0.005843843 -0.025878686 0.06388636 -0.0414966 -0.07712319 0.13611868 -0.091138706
-0.09113323 -0.027508147 0.10341383 -0.12124513 0.1896516 -0.045889836 0.080887504 0.14388439
-0.17614351 0.15105045 -0.05212067 0.1261385 0.0657946 -0.04521513 -0.107782595 -0.04078099
0.0786204 0.12549695 0.1601428 0.16449785 -0.21973416 0.16244765 0.044932764 -0.112176165
-0.18025552 0.1943943 -0.119522765 0.0211648 -0.12536901 -0.21549703 0.126051 -0.18517089
0.015615146 0.19462758 0.18021043 0.052814294 -0.1397137 -0.22245644 -0.10309918 -0.047857054
0.123048805 -0.08686519 -0.19943339 0.0040608253 -0.14656101 -0.0009907054 -0.040547505 0.14442761
-0.085621834 -0.07026509 0.13556904 0.13826236 0.010238193 -0.17726429 0.07338374 0.15595226
0.12823549 -0.10945337 -0.18575849 -0.09834471 -0.16692738 0.10720265 -0.120646425 0.008697985
0.2214095 0.030172925 -0.26933485 -0.027074618 0.17993206 0.07528112 0.03029663 0.06417848
-0.1594164 -0.09954454 0.0328432 0.15325071 -0.06359891 -0.12160219 -0.17129856 -0.18553199
0.110769026 -0.06587618 0.010418988 0.0316163 0.055318862 -0.1888262 0.09219298 -0.09299168
-0.060712427 -0.05670852 -0.16810547 -0.035477813 0.036029905 -0.19809133 -0.09389281 -0.1336838
-0.15239526 -0.15933791 0.17697226 0.060544908 0.033058826 -0.1526013 -0.08181108 -0.15722562
0.051683187 -0.19029608 -0.15838736 -0.014409915 0.052112665 0.06254032 -0.027205637 0.0100649595
0.032193586 0.061406218 -0.024469381 0.11652468 0.0018178792 0.120833665 0.06593817 -0.12552038
-0.070132285 -0.1317411 0.009318196 0.0016764451 -0.0034999014 0.22085862 0.17710167 -0.042627633
0.06013243 -0.14196084 0.14007887 -0.049769655 -0.15278716 0.16414632 0.11756463 0.10596435
0.015672442 -0.09414269 0.14222097 0.18419254 0.027125731 0.105238885 -0.09777449 0.07362896
-0.09184521 -0.027104355 0.08456598 0.052966606 0.16357648 -0.010272615 -0.0530009 0.030231718
0.12236396 0.004616376 -0.15230626 0.21758863 0.1015761 0.06449867 -0.072559506 0.17271519
0.0060048336 -0.007286004 0.08848986 -0.0050638905 0.015289075 0.06361022 0.045657802 0.017451178
-0.12982276 -0.104300044 0.19488202 0.14236489 0.05547343 0.0236746 -0.11523239 0.10746765
-0.21069467 0.108301 0.14583446 0.09673829 0.123657584 -0.15760964 -0.090840414 -0.11329602
0.13540705 -0.20345718 -0.12048091 0.10054725 0.052212164 -0.18850791 0.149012 0.13655409
0.036790654 0.0571369 -0.14905271 -0.18180074 -0.15079275 -0.0650821 -0.13424696 -0.11067425
0.19908457 -0.18849868 0.16529143 0.16753252 0.038219873 6.561933e-05 0.06465676 0.0022526945

bn1.weight f4 [300]
00000000: 4514 893f c47c 5c3f 3ce3 933f fb49 a03f
00000010: 5a84 9a3f 2997 983f 50e6 583f 3b1a 503f
00000020: 0b97 8c3f 08cd a53f 26c1 2a3f 6c48 813f
00000030: e3d6 c53f c0d9 983f c414 d23f f357 3d3f
00000040: f2eb bb3f 1074 7b3f 4991 ad3f 3651 c03f
00000050: 97e3 1d3f 02ab 4d3e 2216 673f 8118 2f3f
00000060: a8ff 7a3f 14ae b33f 5e21 933f fe4c c33f
00000070: 9003 ce3f f129 593f 5aaf 463f f639 a63f
00000080: db88 693f f68a 323f 69e1 b73f ae64 8c3f
00000090: 913c a13f a812 943f 66fd 8f3f 994f ca3e
000000a0: 939e 933f 5b66 8b3f 7b69 973f 383e 453f
000000b0: 1117 3b3f bc59 963f 4457 253f 5d91 7e3f
000000c0: 47e7 943f a907 a43f 9c9f 603f 2d02 7e3f
000000d0: c076 843f 1cbe dd3f 3acf 8e3f eb8c 813f
000000e0: 1dd8 853f d26f 873f ea33 783f 5f54 1f3f
000000f0: 22ef aa3f 8822 7b3f 1630 803f 3413 aa3f
00000100: 814e a03f a442 4b3f e7c7 483f db58 653f
00000110: 906f aa3f 360a ba3f 46a5 873f 01f0 dc3f
00000120: 1d26 b43f 620d 9e3f 9e6c bf3f 4e06 513f
00000130: 6994 a13f 6f1e 5d3f 1ddb 823f f9fb cb3f
00000140: d495 833f e3af 593f 298f 883f 7f67 9c3f
00000150: 6f84 613f 6615 523f 17e8 a63f dc86 eb3f
00000160: c468 9f3f 0e96 9f3f 7712 653f b3ec 763f
00000170: 3f2f 043f 3be2 a03f ed19 dd3f 6a0e 823f
00000180: c0a5 863f d6d7 643f fd62 903f 606b 263f
00000190: 7a4c f93f f4a7 be3f 10f0 933f 509d 8d3f
000001a0: 6eb2 803f 7609 0a3e c2aa 903f 95be 863f
000001b0: 41c1 623f 3dac d63f d43d 993f b4c9 b73f
000001c0: ccee f33f 31d7 9e3f 4bc0 bb3f f88d 883f
000001d0: b5aa be3f f086 8d3f d2ad 8c3f 429c 583f
000001e0: cabb 933f 4b9e 3b3f 4bac 793f 25b4 9c3f
000001f0: e093 d93e ea1e 223f 6d28 bb3f 1511 a03f
00000200: 285c 7b3f 9f46 ea3f cee9 9f3f 14de 443f
00000210: 9bda 803f cd3f 713f e25f b23f abb5 793f
00000220: 6be0 6a3f b456 8a3f e5cc 883f 22ef 913f
00000230: c8d4 873f eea5 4f3f 63a7 773f 9246 883f
00000240: 2f84 c43f 37d6 783f 5236 9b3f c343 9b3f
00000250: 06e8 bb3f dd5a 863f 278e 863f 2a2e a53f
00000260: 0288 c43f 137e b83f 55fc 7f3f 5c52 ae3f
00000270: 2bf3 983f 58b6 893f ce30 5c3f d1fa 8a3f
00000280: 55f0 623f a1df 773f 142f 913f 1e87 913f
00000290: a9b1 643f 3f80 723f c8a0 a83f 60c2 de3f
000002a0: 7a6d 983f 00e2 873f d727 ba3f 749f 593f
000002b0: 0627 a23e 3253 bc3f f67b 793f ec69 b13f
000002c0: 082f be3f b33b 783f 6602 393f dfa4 c73f
000002d0: 10a7 053f 0129 b83f 802b 9c3f 9d7f 843f
000002e0: d293 9a3f 71f1 923f 37ba b93f facc 843f
000002f0: 48cf cd3f 5731 873f 7a0a b53f da40 163f
00000300: 171c 983f 48ba 9b3f 1c8f d93f ea42 673f
00000310: b77c 9d3f 6184 9a3f 0847 9a3f 2ad2 a33f
00000320: 2777 3d3f 24a8 853f a6ea 873f 7d4b a03f
00000330: 77dc 6e3f 7049 623f ddf4 7e3f b050 883f
00000340: 678a 573f 036f 923e f5cd ef3e 6790 713f
00000350: 7961 323f 8e99 7a3f cd82 663f a52a 433f
00000360: 5b0a 843f d008 2e3f 82ce 8b3f 2c0b af3f
00000370: b841 943f 3006 393f 87cd ab3f aea5 cd3f
00000380: b317 9e3f 540d 113f 3a64 873f 93c0 a13f
00000390: e050 b63f 81bc c53f 0ded a63f ae57 ae3f
000003a0: 106e 993f f26c a73f 0b17 4c3f cbfa 803f
000003b0: 1f57 d03e 7a39 f53f 3853 813f 5016 0e40
000003c0: fc44 de3e 9f19 a33f ede3 9e3f 7deb 353f
000003d0: 3e52 733f fc97 a33f 1dcd 433f 1513 ac3f
000003e0: b908 d33f e00d 9e3f 55f9 c53f c682 073f
000003f0: b0b0 933f 5c8d 2f3f a597 663f 6042 663f
1.0709311 0.8612788 1.1553721 1.2522577 1.207164 1.192113 0.8472643 0.81290025
1.0983595 1.2953196 0.6670097 1.0100226 1.5456203 1.1941452 1.6412587 0.73962325
1.468138 0.9822397 1.3559963 1.5024784 0.616754 0.20084766 0.90268147 0.68396765
0.9804635 1.40375 1.1494558 1.5257871 1.6094837 0.8482962 0.77611315 1.2986438
0.9122445 0.6974329 1.4365665 1.0968225 1.2596608 1.1568193 1.1249206 0.39513853
1.1532768 1.0890611 1.1829065 0.77048063 0.7308207 1.1746135 0.6458628 0.99440557
1.163308 1.2814838 0.87743545 0.9922207 1.034874 1.7323642 1.115699 1.012113
1.0456578 1.0581 0.96954215 0.62238115 1.3354228 0.98099566 1.0014675 1.328711
1.2523957 0.7939856 0.78430027 0.8958871 1.3315296 1.4534366 1.0597312 1.7260743
1.4074131 1.2347834 1.4955022 0.81650245 1.2623416 0.8637456 1.0223118 1.5936271
1.0280099 0.85034007 1.0668689 1.2219085 0.880927 0.820639 1.3039578 1.8400531
1.2453847 1.2467668 0.894813 0.96454924 0.5163459 1.256904 1.7273537 1.0160649
1.0519333 0.8939184 1.1280209 0.6500759 1.9476464 1.4895005 1.1557636 1.1063633
1.0054452 0.13480172 1.1302111 1.0526911 0.8857613 1.6771313 1.1971993 1.435843
1.905725 1.2409421 1.4668058 1.0668325 1.4895846 1.1056805 1.0990546 0.8461343
1.1541684 0.7328841 0.97528523 1.2242476 0.42495632 0.6332842 1.4621712 1.2505213
0.98187494 1.8302802 1.2493227 0.76901364 1.0066713 0.9423798 1.3935511 0.9754283
0.91748685 1.080771 1.0687529 1.1401103 1.0611811 0.81112564 0.96739787 1.0646536
1.5352839 0.97201866 1.2125952 1.2130054 1.4680183 1.0496479 1.0512131 1.2904713
1.5354006 1.4413475 0.99994403 1.3618884 1.1949209 1.0758772 0.8601197 1.0857793
0.8864797 0.96825606 1.1342492 1.136936 0.8933359 0.9472694 1.3174067 1.7403069
1.190841 1.0615845 1.4543408 0.8500893 0.31670398 1.4712889 0.97454774 1.386045
1.4858103 0.96966094 0.72269285 1.559719 0.5220804 1.4387513 1.2200775 1.0351444
1.2076361 1.1479932 1.4509953 1.0375054 1.6078882 1.0561932 1.4143822 0.58692706
1.1883572 1.2166224 1.6996799 0.9033648 1.2303685 1.2071649 1.2052927 1.2798512
0.7400994 1.0441937 1.0618484 1.2523037 0.9330515 0.88393307 0.9959238 1.0649624
0.8419556 0.2860032 0.4683682 0.94360965 0.6967998 0.97890556 0.90043336 0.76236945
1.031566 0.67982197 1.0922396 1.3675284 1.1582556 0.72275066 1.3422097 1.6066186
1.2350982 0.5666096 1.0577462 1.2636894 1.4243431 1.5448152 1.3041092 1.3620508
1.1986713 1.3080122 0.7972266 1.0076536 0.40691468 1.9158165 1.0103521 2.2201118
0.43412006 1.2742194 1.2413307 0.7106245 0.95047367 1.2780757 0.76484853 1.3443323
1.6487037 1.2347984 1.5466715 0.5293392 1.1538296 0.6857507 0.9007514 0.8994503

bn1.bias f4 [300]
00000000: 49c3 abbe dd7e 1dbe 7b0c 3ebf f0a9 1ebf
00000010: 2d1c ebbe f479 e1be 29f7 d2be ad5e c3be
00000020: eeb5 1cbf c80f 2fbe 0e16 52bf cc9a 24bf
00000030: b8a0 8dbe 64aa 17bf ced6 a3be c8a1 50be
00000040: 5385 ebbd 291e 1a3e d17c 43bf 3ed8 f0be
00000050: effe 58bf 41e8 78bf 69ad 08bf f6d1 1dbf
00000060: 5e08 63be 5aa9 05bf 263c 44bf 7aa8 033d
00000070: 4951 94be c586 98bf 07ca 0abf cf93 2cbe
00000080: 5184 18bf 72ad 74bf 7222 90be 89b3 cfbe
00000090: b5b9 d5be 20da 2fbf 8927 36bf ccb0 a53d
000000a0: ab2f 68be 9545 48be f296 04bf e4ea 05bf
000000b0: d7c3 07bf eee1 25bf af38 d5be 634c eebe
000000c0: 073d 22be 6778 e3be 84ed 2dbf c3b9 cfbe
000000d0: 4f8b 03bf 5987 84be 5981 863c e029 903e
000000e0: dbe8 1abf d3bf abbe 2410 8dbf a171 02bf
000000f0: a181 87be 72c1 a4bf a376 313d e7d6 5abf
00000100: 2e10 52bf aa17 01be 9e4c 09bf ad0b 0abf
00000110: fc44 6cbf 3531 0cbf c9ec fcbd d933 783e
00000120: 7be2 cfbd a57d 8bbf ed95 cfbe e30e d03d
00000130: 8eab 92be 6dfa b6be b56c 103e 4548 5fbe
00000140: c690 983e f04d 1abe 932d 8abe 6079 8cbe
00000150: 736e c8be 454f 8e3e 3061 10bf 7709 0d3e
00000160: 4d64 43be 9da7 2abe c897 f0be 2240 65bf
00000170: e1c6 53bf 80ea d5be 2733 20bf dfc1 45bf
00000180: cd61 1ebf acce 4bbf 0d5a b2be 9bac 7dbf
00000190: 0c25 33be 4419 8abe fe96 07bf fedd ccbe
000001a0: d937 11bf fba3 a3be c3c0 70bf 1aa2 2abf
000001b0: 95b1 2dbf 75d6 b93c c66d 5abd 7404 72bf
000001c0: db8a 81be f894 94be d602 edbe f43f efbe
000001d0: 88fa 07bf 95b4 eabe 4294 06bf 3974 39be
000001e0: 3925 36bf f94a 25bf f6f7 4abf 1052 26bf
000001f0: 8be4 ca3e 1d32 93be d6c9 0a3e 63c4 dabe
00000200: 6e75 51bf f79b 0b3d 6f91 1c3d 11aa fbbe
00000210: 1b66 27bf c0c9 33bf 9230 23be 0e02 acbe
00000220: 0628 dfbe 04eb 20bf bf42 81be 3e8e 8dbe
00000230: 2f51 e7be 0ada bfbe 01c4 f4be 4ff8 dfbe
00000240: 0a47 8ebe 974e 4ebf 68dc 32bf a7b7 b0be
00000250: 24bb cbbe 0467 15be c36c 61be 2b90 2dbe
00000260: 2585 d1be 4997 3ebd d783 1dbf ce47 2dbf
00000270: 160f d3be dd70 26bf 3d84 28bf 9d1d bdbe
00000280: c785 1abf 308d b7be a091 f3be 98b7 febe
00000290: f083 73bf 89da 2cbd 1e0c 08bf 94d4 0bbe
000002a0: c074 43be f57f 35bf 4635 73bf b1f3 2dbf
000002b0: 0d5f 81bf 9427 06be 6176 5ebe 3ee1 c1be
000002c0: 7755 89bc 2580 6ebf 95d8 82bf c893 42be
000002d0: ecd1 a3be 15a1 e8be 83c2 e7be 6841 13bf
000002e0: 5259 11be ba96 68bf 10aa 07bf 7444 43bf
000002f0: 2c68 08bf 9cf7 39be 6b8a 3abf 567c 18be
00000300: 11c3 01bf a3bd 20bf bc85 1bbe 1f78 2ebf
00000310: da89 2abf c5c4 633c 2ebd 32bf 67ba 26bd
00000320: abb8 d8be 948a a4be 0e9a 6c3d b2e4 28bd
00000330: 9dc5 15bf eb33 90be 33dc 29bf a593 4ebe
00000340: 730f 25bf 5abb 22bf f780 37bf 6d9e 9bbf
00000350: 04aa 1cbe d16e d43c c474 4bbf ea3a 39bf
00000360: c1c9 90be fbba bdbd ade0 193b 3dc4 dfbe
00000370: f216 db3d b00c d0be 7cb0 a8be 3958 cbbd
00000380: 498d f0be e97d 1abf b68d b4be 2ea3 ecbe
00000390: b6bf 38bf 5576 c6be ff87 84be e5d4 60bd
000003a0: 7337 dabe 5bda a93e d3a9 18bf 8085 f0be
000003b0: cb7d a4bd e863 f43e 4b3e fbbe 49ee 983e
000003c0: d871 43bf f803 94be 13f9 debe 0204 a1be
000003d0: b88b 64bf 6b1c e1bd c707 8ebe 5ddf 1cbe
000003e0: eb74 a6be 04cf 08be 7218 5ebd 45a0 89bf
000003f0: e637 27bf 1f3a 1dbf 21ea 08bf af88 9cbe
-0.33547428 -0.15380426 -0.74237794 -0.61978054 -0.45919934 -0.44038355 -0.41204193 -0.3815817
-0.612151 -0.17095864 -0.820649 -0.642987 -0.2766168 -0.5924437 -0.3199982 -0.20374215
-0.11500039 0.15050568 -0.7636233 -0.4703998 -0.84764 -0.9722939 -0.533896 -0.616485
-0.2217116 -0.52211535 -0.7665428 0.032143094 -0.28968266 -1.1916128 -0.5421452 -0.1685326
-0.595769 -0.95577157 -0.2815128 -0.40566662 -0.41743246 -0.6869221 -0.71154076 0.08090362
-0.22674434 -0.19557793 -0.51792824 -0.5231154 -0.530332 -0.64797866 -0.4164481 -0.46542653
-0.15843593 -0.44427797 -0.67940545 -0.40571412 -0.51384443 -0.25884512 0.0164191 0.28156948
-0.6051156 -0.33544788 -1.1020551 -0.50954634 -0.26466087 -1.2871535 0.04332603 -0.85484165
-0.8205594 -0.12606683 -0.53632534 -0.53924066 -0.9229276 -0.54762584 -0.12349851 0.24238528
-0.101506196 -1.0897719 -0.40544072 0.101590894 -0.2864651 -0.35737935 0.14103968 -0.21804912
0.29797953 -0.15068793 -0.26987895 -0.27436352 -0.39146766 0.27794853 -0.56398296 0.13773142
-0.1908123 -0.16665502 -0.469908 -0.89550984 -0.8272534 -0.41780472 -0.6257805 -0.7724895
-0.6186798 -0.7961223 -0.34834328 -0.990915 -0.17494601 -0.269724 -0.5296477 -0.40013117
-0.5672584 -0.31961045 -0.9404413 -0.666536 -0.67849094 0.022685269 -0.053327344 -0.94538045
-0.2530125 -0.29019904 -0.46291226 -0.4672848 -0.53116655 -0.45840898 -0.52569973 -0.18110742
-0.7115055 -0.64567524 -0.7928461 -0.6496897 0.3962749 -0.2874917 0.13553557 -0.42727956
-0.8181981 0.034084287 0.038224634 -0.49153188 -0.65390176 -0.7022972 -0.15936497 -0.33595318
-0.43585223 -0.62858605 -0.25246236 -0.27647585 -0.45179126 -0.37471038 -0.4780579 -0.43744132
-0.27788574 -0.8058867 -0.69867563 -0.34515116 -0.39791214 -0.14590079 -0.22014146 -0.16949527
-0.40921894 -0.046530996 -0.61529297 -0.6768769 -0.41222447 -0.65015966 -0.6582678 -0.36936656
-0.6036038 -0.35849905 -0.4757204 -0.49749446 -0.95123196 -0.0422006 -0.5314349 -0.13655311
-0.19087505 -0.7089837 -0.95003164 -0.6794997 -1.0107132 -0.13101035 -0.21724845 -0.3786716
-0.016764386 -0.93164283 -1.0222346 -0.19001687 -0.31996095 -0.45435396 -0.45265588 -0.57521677
-0.14194229 -0.9085499 -0.5299387 -0.76276326 -0.53283954 -0.18160862 -0.7286746 -0.1489118
-0.5068827 -0.6278936 -0.15187734 -0.6815204 -0.66616595 0.013901894 -0.69819915 -0.04070511
-0.4232839 -0.32136977 0.057764105 -0.041233726 -0.5850466 -0.2816461 -0.6635162 -0.2017351
-0.644767 -0.63567126 -0.7168116 -1.2157723 -0.15299231 0.025931748 -0.79475045 -0.7235552
-0.28278926 -0.09264179 0.0023479864 -0.43704405 0.10697736 -0.4063468 -0.32947147 -0.099289365
-0.46982792 -0.60348374 -0.35264367 -0.46218246 -0.7216753 -0.38762155 -0.25885007 -0.054890532
-0.4262043 0.33174405 -0.5963413 -0.46976852 -0.080318056 0.47732472 -0.49070963 0.29869297
-0.76345587 -0.28909278 -0.43549404 -0.3144837 -0.89275694 -0.109917484 -0.2774031 -0.15319581
-0.32511076 -0.1336022 -0.05422253 -1.0752035 -0.6531967 -0.6141681 -0.5348225 -0.3057303

bn1.running_mean f4 [300]
00000000: 69c8 f53f 64ce c7bd b963 a940 b854 053f
00000010: 5a25 473b 3324 743f 4fb1 66c0 4470 2640
00000020: a329 3740 27ce ab3f 02b0 30bf 1c67 56be
00000030: be47 e53f 2e06 9f40 a444 823e c7c9 a3bf
00000040: 9ec1 6140 ea7e b8bf db46 a43f 8e7e b1c0
00000050: 8673 4e3e f2ea 35c0 1162 2c40 cecb 0740
00000060: e632 41be 0a02 3f3f c44b a0bf 5ffe 7bbd
00000070: 2f5d a5bf 9e62 d5bf 1d6e 8b3f f93d 823f
00000080: 3b76 163f 9eb4 a3bf 0483 3040 13b6 96bf
00000090: 1055 2e40 fa3a 3d3f d408 41be e08f 00be
000000a0: 559d 513f 615f 9d40 c64c e3be 871c 243e
000000b0: 28c1 bb3f d683 2fbe d7cb 0dc0 08c8 a43e
000000c0: 1f68 ac3f 9452 7bbf f424 b53e 8a32 6840
000000d0: cfa3 ae3f cdd8 8f40 14be 7fc0 4c8c bec0
000000e0: 8f99 3240 2eb3 f73f 802c 68c0 c471 a23f
000000f0: 8120 823f 20f0 1440 2690 16c0 d135 34c0
00000100: 9bf5 a6c0 a28c 53bd ccb7 1e40 d297 8340
00000110: 9113 dcc0 5070 6f40 a7cc aabf bdb9 cb3e
00000120: 8b39 cfc0 b4a3 e8c0 0f2c dfbf 9681 92be
00000130: d17c 67bf 3f08 67be abec 79bf 2df1 523f
00000140: 86c0 63c0 0733 d5bf 3470 8340 5b84 5140
00000150: 8f7e 55bf 92fc 97bf 5755 bf3f 6c21 5ec0
00000160: b1ce 9c40 3a19 bbc0 f92a 3240 41fc 5a40
00000170: 731c 70bf 3413 e5bf dd70 7840 3dd4 cf3b
00000180: 1334 b33f 0e74 fa40 8ee3 2f40 2878 57bf
00000190: a780 9c3f e833 c63f dfd8 d040 0b75 b83e
000001a0: f822 01bf 0e07 583f cfdc 1140 2d3e 96c0
000001b0: b99d 3c3e 4272 d8c0 4b10 343f 485f 09c0
000001c0: 0670 45bf 1e17 debf 23b4 2640 4075 9b3d
000001d0: e185 4740 cef5 a3bf 2f91 1240 7ca2 3cc0
000001e0: 012b 69c0 cae4 2c40 ea8b 82c0 534a 0b40
000001f0: dbbf 32c0 cbe5 4740 007f a4c0 6881 dabd
00000200: a398 08c0 69c3 4940 ef38 12bf dfe7 52be
00000210: 93f5 9040 6241 9d40 cb8b b63f 4483 a2c0
00000220: 6f70 1740 76e2 7a40 0c2d f6bf eef9 62c0
00000230: 00ed 9b3f 4904 7f40 8197 0140 59d0 22c0
00000240: 61a3 2440 73f7 8140 f189 293f c8b0 0f40
00000250: c34f cc3f 6937 fa3e 559a 5640 c033 0640
00000260: 5c3b b33f ee01 99be 9ab7 28be 24ff 6840
00000270: ef53 8fc0 2a2a 73c0 a07a 7740 9ba8 613f
00000280: dd76 b43f b146 06c0 6e33 8240 58e6 94c0
00000290: 6391 d03b 9c2c 5c3f 3ce7 10c0 35da 5f40
000002a0: 2580 5c40 2816 f23f 8fac 4440 3493 1440
000002b0: 1881 4d3e bf7c 83c0 c3ad 9740 e3f0 eebf
000002c0: c266 553f 72a4 59bf be4e 83c0 eb6f 9140
000002d0: e8bb 15c0 3dfc fd3f 8435 1c3f d12d bd3d
000002e0: 1ecd 3b40 b336 f33f 081f 4640 b820 d33f
000002f0: f254 4bc0 a62d e3bf 0425 513f 9827 5cc0
00000300: 7719 4940 5874 c540 d3a4 7640 a395 c53d
00000310: 517a a740 938a 3040 a7e3 ec3f 9450 833e
00000320: 28b0 99c0 bb05 2fc0 0dbc 83c0 cee6 4b3f
00000330: cbb5 15c0 dd12 6940 5b62 da3f 7023 1d40
00000340: b314 2a40 4a78 0f40 c899 413f 6597 7a40
00000350: 824a 4340 d46e 6e40 6e6f c83f 6c08 35c0
00000360: 00a4 30bf 9d8e 5bc0 0c18 87c0 a3ac b140
00000370: df6a 14c0 80eb fb3f c601 dd3f eebe 0f40
00000380: d745 af3e fbf3 b5bf 0a32 663f 6e94 ad40
00000390: da0e 8e40 bcd4 f83f 4d8f 2cbe 0d5e e63f
000003a0: 49dc a640 9112 77c0 5705 ff3f 292b a640
000003b0: d106 18c0 ea21 e93f 8da0 acbf 7449 bdc0
000003c0: 44aa 003f 5a5b f9bf a906 5740 0ce3 17bf
000003d0: cf56 9e3f 8b32 1540 7c92 a9bf cf54 57bf
000003e0: a153 5040 9816 cbbf 7778 103f 744b 79c0
000003f0: ea20 5d40 a7da 46c0 2f12 babe bded 2d40
1.9201785 -0.09756163 5.293423 0.52082396 0.0030387254 0.95367736 -3.604572 2.6006021
2.8619163 1.3422288 -0.69018567 -0.2093777 1.7912519 4.9695044 0.25442994 -1.2795953
3.5274425 -1.4413731 1.2834123 -5.5466986 0.20161256 -2.842465 2.6934855 2.1218143
-0.18867072 0.74612486 -1.2523122 -0.061521884 -1.2919062 -1.667072 1.0892979 1.0175163
0.58774155 -1.2789495 2.7579966 -1.1774315 2.7239418 0.73918116 -0.18851024 -0.12554884
0.81880695 4.917893 -0.4439451 0.16026507 1.4668322 -0.17140135 -2.2155664 0.32183862
1.3469275 -0.9817288 0.35379755 3.6280847 1.364374 4.495215 -3.9959764 -5.954626
2.7906225 1.9351556 -3.627716 1.2690969 1.016617 2.327156 -2.3525481 -2.8157847
-5.217481 -0.05164779 2.479968 4.1122828 -6.8773885 3.74123 -1.3343705 0.39790145
-6.4757743 -7.2699833 -1.7435321 -0.2861449 -0.9042483 -0.2256174 -0.9762675 0.82399255
-3.5586257 -1.6656197 4.1074467 3.2737033 -0.8339624 -1.1873953 1.4947919 -3.47079
4.900231 -5.8468294 2.7838728 3.4216464 -0.9379341 -1.7896485 3.8818886 0.0063424394
1.4000267 7.826667 2.7482638 -0.8416772 1.2226762 1.548459 6.5264735 0.36026797
-0.50443983 0.84385765 2.279102 -4.69509 0.18419541 -6.7639475 0.7033736 -2.1464405
-0.7712406 -1.7350805 2.6047447 0.07590723 3.1175463 -1.2809389 2.2901113 -2.9474173
-3.6432498 2.7014642 -4.0795794 2.1764114 -2.79296 3.1234004 -5.140503 -0.106692135
-2.1343162 3.152552 -0.57118124 -0.20596264 4.5299773 4.9142313 1.4261411 -5.0785236
2.3662374 3.920072 -1.9232497 -3.5465045 1.2181702 3.9846365 2.024872 -2.5439665
2.5724719 4.061456 0.66226107 2.2451649 1.5961841 0.488704 3.3531697 2.0969086
1.400249 -0.29884285 -0.16476288 3.6405725 -4.478996 -3.7994485 3.8668594 0.88147897
1.4098774 -2.0980647 4.068778 -4.653118 0.0063649877 0.8600557 -2.2641134 3.4976933
3.4453213 1.8913012 3.0730321 2.3214846 0.20068777 -4.108978 4.739961 -1.8667263
0.8335992 -0.8501655 -4.103362 4.544912 -2.339594 1.9842602 0.6101916 0.092372544
2.9343944 1.9001068 3.095644 1.649436 -3.1770597 -1.7748306 0.81697106 -3.4399166
3.1421793 6.170452 3.85381 0.096476816 5.233681 2.758458 1.8506974 0.25647414
-4.8027534 -2.7347248 -4.1167054 0.79649055 -2.3392208 3.6417763 1.7061266 2.455288
2.6575134 2.2417169 0.75625277 3.9154904 3.0514226 3.7255144 1.5659006 -2.828639
-0.69000244 -3.4305794 -4.2216854 5.552324 -2.319023 1.9681244 1.7266166 2.2460284
0.3423297 -1.4215082 0.89920104 5.424369 4.439313 1.9439921 -0.1685154 1.7997452
5.2143903 -3.8605082 1.9923505 5.1927686 -2.375416 1.8213475 -1.3486496 -5.9152164
0.50259805 -1.9481003 3.3597815 -0.5933082 1.2370242 2.33121 -1.3247828 -0.8411378
3.2551043 -1.586627 0.56433815 -3.8952303 3.455134 -3.1070955 -0.36341998 2.7176354

bn1.running_var f4 [300]
00000000: 9c32 093f a0db aa3e 1401 973e 8c81 bc3d
00000010: ce43 f23e 217e 323f 002d 913e a2a9 9e3e
00000020: a637 b43d e24d 3a3f 2955 ee3e 30f4 133f
00000030: 84da 153e 14e6 7c3e 8e82 b43d 93d9 693f
00000040: ee7b 723e 7502 b93f f848 073f 0df2 e83d
00000050: ab3b 013f af78 c13e 0444 703e ac9f 803e
00000060: 5489 0f3f f979 9d3f 75c7 913e 9fd4 4f3e
00000070: 2bbb b23f 73b1 2b3f 6cfb e13e 5863 3a3f
00000080: dedb 7b3e fe7d a33e 6ec3 1b3e 4ffc f93e
00000090: 3b3f c63e b9ea a53e a461 f73d f24a 553e
000000a0: ecab 9d3e 4218 b43f ea39 3c3e a2b3 383f
000000b0: c2d9 073f c618 de3e 10cf a13e 0dde 1d3f
000000c0: 5ab7 2b3f 7afb f83e bf6c 443f 3bc3 2f3f
000000d0: 921d fc3e bbdb 153f c342 a03e 0c37 3e3f
000000e0: 7a50 ba3e a2e6 893e 4b0c a63e 79d4 ac3e
000000f0: b074 3b3f 1634 1e3e eedd f53e 8a21 883e
00000100: 174f 823e e89c 593f d193 863f a778 813e
00000110: 66f2 243e 2652 6d3e 939b 3d3f 7254 063f
00000120: 722e 733f 5af2 823e db56 d13e a117 973e
00000130: 8af2 133f 9919 8c3e cdfb 023f bfb5 773e
00000140: e466 1e3e a679 7d3f 9cff ea3e 75fc ec3e
00000150: b7d9 ec3e ef02 bf3e 8f06 f63f f934 723f
00000160: 5d30 7b3f 1730 563e 600b 9b3e 6143 553e
00000170: 9d02 983e de68 d23e b66b af3e ae1a 883e
00000180: 586c d13e 1e65 823e e56e bc3e 3f1b 4d3f
00000190: 908c c83e 65fb 003f 681a 333f a4bd d73f
000001a0: 5eee a63e c62e d73e 0ece 523e f01b e53e
000001b0: 95ec 573f 39af e53e 180c f33e e6ff 8b3e
000001c0: ffe4 cf3e c47f 473e f896 f43e 33ff 8d3e
000001d0: 957b 7f3f c7e1 fb3e 33a8 083e fac4 5f3f
000001e0: 5f36 923e 31f9 8d3e b823 ee3e 724f e53d
000001f0: 0940 863f aea1 973f d06d 8f3e 1007 1f3f
00000200: fe59 a23e 9df9 aa3f 156e 893e 95fb 963e
00000210: 7f20 b93e 36c9 073e 1594 8a3f 443d 2c3f
00000220: eb8d e33e 79b2 953e 7334 a23e a419 053f
00000230: 605f f33d d786 7a3f 1214 983e bd72 2b3f
00000240: c1cd 933e b15c ca3e ea2f f23e 5354 833f
00000250: a0d6 ac3f 1169 573f 98eb 223f f788 b13e
00000260: d0a8 673e 0ed1 dd3e fdd7 113e afcd 973e
00000270: 0707 a43e 4382 863e 2f2c bb3e d74d 893f
00000280: caed d73e df4e 433e 0041 353f ef9b db3e
00000290: 4697 073f 4c4c 973f 3b13 c03e d03c 353f
000002a0: 9845 563f 768a d73e 7acf 613e 1b13 473e
000002b0: affa 9d3e 38b0 733e 45cd f23e 5688 9c3e
000002c0: e339 933e 74ad c03e afea 5c3d 3659 893d
000002d0: 527b f53e b3e9 143f 9011 243f 3535 843e
000002e0: 7425 d33f 4c3d 8c3e 418f af3e 12af 833e
000002f0: 3bb2 813e aaa9 b23f 9462 d23e d5e4 293f
00000300: ffd4 0840 a8dc a93f aa33 873f f35d 883e
00000310: bce8 843e 01fd 263e fdea ea3e 1184 443f
00000320: 2db7 743e ce0e 4e3f efdd 603f f74c a93e
00000330: edef 033f f78e 323f e069 153e 5d87 133f
00000340: cd03 3b3f bd19 cc3e 95e6 313e 2cbc a13e
00000350: eefa 803e 46e8 903e 6b67 163f 4add a13e
00000360: 9952 ae3f 7b3e c13e 6eaa d93e 88ec 203f
00000370: 8d5d 443e 46e8 8f3e 2b0c 473e 353a 533f
00000380: f7ad f13e 0701 d93e 63b9 893e 6504 4b3e
00000390: 2823 c23f 02fc 253f ca53 803e c9f7 903e
000003a0: c79d 3a3e 0da7 383e f54e 3d3f 0fea 903e
000003b0: 11c5 553f 9b86 e33e f48a 7b3f 96b9 543f
000003c0: c010 333e 0bea 563e 8661 893f 56e5 803e
000003d0: 3298 bc3e c67f e93d e258 fc3e da9e 193f
000003e0: 7ba3 1240 657f 133e a670 833f e558 853f
000003f0: 2dd9 1a3f 54f8 a33e 9886 ae3e ebbf f43f
0.5359285 0.33370686 0.2949301 0.092043966 0.47317356 0.6972371 0.28354645 0.30988795
0.087996766 0.7277509 0.46549347 0.57794476 0.14634138 0.24697143 0.08813964 0.91347617
0.23680088 1.4453875 0.52845716 0.113742925 0.5048167 0.37787387 0.23463446 0.2512182
0.5606892 1.2302848 0.28472486 0.20295952 1.3963369 0.6706764 0.44137132 0.72807837
0.24595591 0.31932062 0.1521127 0.4882531 0.38720116 0.32405642 0.1207917 0.2082937
0.30795228 1.4069903 0.18381467 0.721491 0.5306665 0.43378276 0.3160329 0.6166695
0.6707665 0.4862936 0.76728433 0.68657273 0.4924131 0.5853841 0.31300935 0.74302745
0.36389524 0.2693377 0.32431254 0.33755854 0.73224926 0.15449557 0.4802088 0.26588088
0.25450966 0.85005045 1.051386 0.25287363 0.16108093 0.23175868 0.7406551 0.52472603
0.94992745 0.25575525 0.40886578 0.29510215 0.5779196 0.2736328 0.5116547 0.24190424
0.15468937 0.99013746 0.4589814 0.4628636 0.46259853 0.37306926 1.9220752 0.9461208
0.9812067 0.20916782 0.30282116 0.20826484 0.29689494 0.41095632 0.34261864 0.26582855
0.40902972 0.2546777 0.36803356 0.801197 0.3916974 0.503836 0.6996217 1.6854749
0.32603735 0.42027873 0.20586416 0.44747877 0.8434537 0.44860247 0.47470164 0.27343673
0.40604398 0.19482332 0.4777143 0.27733764 0.99797946 0.49195692 0.13345413 0.8740994
0.28557107 0.2772918 0.46511626 0.111967936 1.0488292 1.1846216 0.28013468 0.6212015
0.31709284 1.3357426 0.26841798 0.29488817 0.36157605 0.1326035 1.0826441 0.67280984
0.44444212 0.29237726 0.3168064 0.5199225 0.11883426 0.97862 0.29702812 0.6697195
0.28867915 0.39523843 0.4730218 1.0260109 1.3502998 0.84144694 0.6364074 0.34674808
0.2262299 0.4332356 0.14242549 0.29649112 0.3203661 0.26271257 0.36557147 1.072688
0.42173606 0.19073056 0.7080231 0.42892405 0.529652 1.1820159 0.37514672 0.7079592
0.8369994 0.42097825 0.22051802 0.19440882 0.3085532 0.23797691 0.47422233 0.30572766
0.28755102 0.37632334 0.05393475 0.06706469 0.47945648 0.58169097 0.640893 0.25821844
1.6495805 0.27390516 0.34288982 0.25719506 0.25331292 1.3958027 0.41090834 0.66364795
2.1380002 1.3270464 1.0562642 0.26634178 0.25958812 0.16307451 0.45882407 0.7676402
0.23898001 0.8049134 0.87838644 0.33066532 0.5153797 0.697494 0.1459117 0.5762842
0.73052675 0.39863387 0.17373116 0.31588876 0.25191444 0.2830221 0.58751553 0.31614143
1.3618957 0.3774298 0.4251284 0.6286092 0.19176312 0.28106898 0.19438235 0.8251069
0.47203037 0.42383596 0.2689925 0.19825895 1.5166979 0.6483766 0.25063926 0.28314045
0.1822425 0.18032475 0.73948604 0.28303573 0.83503824 0.44438633 0.982589 0.8309568
0.17486858 0.20987718 1.0732887 0.2517497 0.36834866 0.11401324 0.49286562 0.60008013
2.291228 0.14404066 1.0268753 1.0417753 0.60487634 0.32025397 0.34087062 1.9121069

fc2.weight f4 [300, 300]
00000000: dcc1 1cbd cba1 243d c3e6 ea3c 75ef c0bd
00000010: e14d 3b3e 046c b4bd 6f20 06bd a0f0 5fbc
00000020: 3151 f539 37f5 e23b a842 933b 1187 21bd
00000030: 4b3f d0bc a9d1 42bd 0e2d 8ebc c395 b1bc
00000040: 7397 97bc 479b 01be 3e88 6dbd 39ba 3f3d
00000050: 1e08 d3bd 001e c2bd cc57 b1bd 4625 0ebd
00000060: 1ea4 00be 2d1f 793d 9560 19bd 03eb 90bd
00000070: bbf1 cebc 94ec f03a 1b69 01bc cbee 243c
00000080: 8d12 373c b7ee dabb d5ed 2a3c 7529 443c
00000090: d91d 7dbd 86ba 74bd 4291 37bd 5b71 683d
000000a0: 1a3b 1dbd 3531 acbc 893e 95bd 374d 26bb
000000b0: c7d9 49bd 7743 80bd 7a5e 9bbd 98f5 b5bd
000000c0: 3f3b d1bd a8b3 e3bd 75ff 8ebd 38d6 f8bc
000000d0: 0f69 13bb a6af febb b691 00be 32ed 02bd
000000e0: 948c b2bd 2b33 88bd 7758 91bd 0c56 ed3b
000000f0: 1528 dfbd 55fc eabc 125a cd3c 958e 4c3d
00000100: eafa cdbd 6bf5 8fbd d8b6 19bc 6c74 08bd
00000110: 10c2 3b3d fbe0 0cbe 1f0c 53bd 8077 31bd
00000120: 48b9 54be 1995 05be 1bc9 27bd 7416 6ebd
00000130: 815d ebbd 3bb9 3cbe 81f5 9c3c c96c 69bd
00000140: e493 4cbd 8ca3 5bbe fa9b 85bd 4414 8fbc
00000150: 7aaf 533c 6156 8abd 6334 0abd e810 0e3d
00000160: 2a5f 8abe 3f88 39be f3f1 19bc 52b9 c6bd
00000170: 3498 a3ba de21 393c 5331 113c a53c f0bd
00000180: 1736 c5bd abdf 0fbd 98ec b33b c667 ca3d
00000190: e6eb 3ebd 6e0d 19bd 358c 37be 164d 31bd
000001a0: a9eb 09be 947b fcbd 54d0 31bd 1eb8 9bbc
000001b0: 9e49 c33d ffc3 b1bc 98a0 0dbd f3ff f4bc
000001c0: d4d8 c7bc 6309 7cbc e6eb 2c3d ddf3 80bd
000001d0: 5213 d03d eecf eebd bbfe 42bd d481 53bd
000001e0: 74da 88bd c478 433d a104 30be a05c 22bd
000001f0: e339 13be 0d89 85bd c2f9 a0bd fe72 943d
00000200: 45b2 bbbb ab50 f6bd 7d8c 093d c6c4 253b
00000210: 50fd dbbc 555c 44bd 5a57 1abe 130d ee3c
00000220: dbf3 b03b dd42 97ba d632 353d 1df1 bdbc
00000230: c88d 4f3b a4d5 1ebe bce0 99bd 2a09 68bc
00000240: 5987 bd3c 806b 96bd 7f77 44bd 6a93 a63d
00000250: 0155 0c3d 5021 18be b490 91be a238 35be
00000260: b3fe 9dbe 1c7e 16be d4ae b3bd 72d4 1dbe
00000270: 036a 72bd 3ad9 04bd 5273 4e3b 1861 97bd
00000280: 10f3 cdbb c22a 05be 78da f1bc 5f10 8bbd
00000290: 9fae 983c 09e9 b3ba 7abe a03d 7d7c 2fbe
000002a0: e477 cbbd 6f4a 35bc dfe5 8e3c c94d 123d
000002b0: d7c6 b6bd fa02 5ebd 5671 aabb 1fe5 38bd
000002c0: bd8f e03c 0ebb f1b9 880d c3ba 9a8a 1abd
000002d0: 7020 24be 6dcc 3b3d e094 bbbd 0a7b a9bc
000002e0: ad8e 8c3c a5aa c3bd 963b 0dbe 6738 6fbd
000002f0: 31d3 6cbd f80a aabc 014f ab3c b31c 89bd
00000300: 57e4 42bc 1e8e 16be 132f 8fbd 9b55 3ebd
00000310: 8f78 ecbd 3e12 f3bd e37d c3bd 4de7 6dbd
00000320: c2b8 cebc c044 6bbd bd20 ffbd d678 89bd
00000330: d760 b7bd 7250 31be fe47 b8bc e31d 8fbd
00000340: 1298 5e3c ff7b debd bfbe 92bc 8764 37be
00000350: 23f5 023c fa9e 3cbe 24b3 023d f120 82bd
00000360: 9da3 77bd a86d 67bd 4e84 b4bc 9c56 64bd
00000370: 05ab 0ebd 8efe f0bd de5e 87be 4bcc f5bd
00000380: b49f ca3d bb54 d3bd 7ccf afbd 564a 09be
00000390: 4c00 5cbe d166 c2bd 9af1 09bd 2ec5 91bb
000003a0: 9797 9fbc fc67 b3bc 435b 26bd e720 79bd
000003b0: 2927 ccbd 0668 e3bd 945c 32be c73a 14be
000003c0: ceea 2fbd fc8a 82bd dbc0 ecbc 0044 8f3d
000003d0: 9c07 35bd f5bd 863c 29d6 99bd ed58 f0bd
000003e0: 5237 39bd f7df 5f3d ac57 d73c 1112 60bd
000003f0: d3a2 a5bd 2627 83ba 02dc 6c3c 9760 613c
-0.038270816 0.04019336 0.028674489 -0.09420673 0.18291427 -0.08809665 -0.032745775 -0.013668209
0.00046790534 0.0069262045 0.00449403 -0.03943545 -0.025420805 -0.04756323 -0.017355468 -0.021677857
-0.018504834 -0.1265689 -0.05799126 0.046808455 -0.103042826 -0.09478378 -0.08659324 -0.034703515
-0.12562606 0.060820747 -0.037445623 -0.07076075 -0.02526175 0.0018381053 -0.007898594 0.010066698
0.011173856 -0.006681289 0.01043268 0.011972775 -0.061796043 -0.059748195 -0.044816263 0.05674873
-0.03838644 -0.021019557 -0.07287318 -0.0025375613 -0.049279954 -0.06262868 -0.07586379 -0.08884734
-0.102163784 -0.11118251 -0.06982318 -0.030375585 -0.002249304 -0.007772404 -0.12555584 -0.03196449
-0.087182194 -0.066503845 -0.070969515 0.0072429236 -0.10896317 -0.028684774 0.025067363 0.049940664
-0.10057624 -0.07029232 -0.009381972 -0.033314154 0.04583937 -0.13757698 -0.05152523 -0.043326855
-0.20773804 -0.13045157 -0.040963273 -0.05812688 -0.11492444 -0.18430035 0.019160034 -0.05698851
-0.049945727 -0.21449107 -0.06523891 -0.017465718 0.012920255 -0.06754757 -0.033741366 0.03468409
-0.2702573 -0.1811838 -0.009396064 -0.09703316 -0.0012481273 0.0112995785 0.0088618575 -0.11730317
-0.096294574 -0.035125416 0.0054908507 0.098830745 -0.04661169 -0.037366323 -0.17924578 -0.043286406
-0.13468803 -0.12328258 -0.043411568 -0.019008692 0.09535526 -0.021699904 -0.034576982 -0.029907202
-0.024395384 -0.015383097 0.042217158 -0.06296513 0.10159935 -0.11660753 -0.04760621 -0.051637486
-0.066822916 0.047722593 -0.17189266 -0.039639115 -0.14377551 -0.06520281 -0.078601375 0.072484955
-0.0057280385 -0.12027105 0.033581246 0.0025294288 -0.026854187 -0.047939617 -0.15072384 0.029058969
0.0054001636 -0.0011540313 0.044237934 -0.02318626 0.0031670202 -0.15511185 -0.07513568 -0.014162341
0.023135828 -0.07344723 -0.047965523 0.08133586 0.034260754 -0.14856458 -0.28430712 -0.17697385
-0.30858383 -0.14696544 -0.0877358 -0.15413073 -0.059183132 -0.032433726 0.0031501842 -0.07391566
-0.006285079 -0.13004592 -0.02952312 -0.06790232 0.018637953 -0.0013726066 0.078488305 -0.17137332
-0.09934977 -0.01106511 0.017443595 0.035718713 -0.089246444 -0.054202057 -0.005201499 -0.045140382
0.02741229 -0.0004610647 -0.0014881352 -0.037729837 -0.16027999 0.045849252 -0.09159255 -0.020688552
0.017157877 -0.09554032 -0.13792261 -0.0584034 -0.057818595 -0.020757183 0.020911695 -0.06694927
-0.011895261 -0.14702651 -0.069914006 -0.04646836 -0.11546432 -0.11868714 -0.09545495 -0.058081914
-0.025234584 -0.057438612 -0.12457416 -0.06712501 -0.089540176 -0.17315844 -0.022495266 -0.06988122
0.013586061 -0.10863494 -0.01791322 -0.17909442 0.007993015 -0.1842002 0.031909123 -0.06353939
-0.06045877 -0.05650106 -0.022035744 -0.05574666 -0.034831066 -0.117673025 -0.26439565 -0.120018564
0.09893742 -0.103188954 -0.085844964 -0.13407263 -0.21484488 -0.09492267 -0.033677675 -0.0044485545
-0.019481463 -0.02190017 -0.040614378 -0.060822394 -0.09968407 -0.11103825 -0.17418128 -0.14475547
-0.042948537 -0.063741654 -0.028900554 0.06995392 -0.04419671 0.016448 -0.07511551 -0.11735711
-0.045218773 0.05465695 0.026286922 -0.05470473 -0.08087697 -0.0010006174 0.014456751 0.013755939

fc2.bias f4 [300]
00000000: fca1 dabd 1010 aebd 90ba 7cbd 7e49 77bd
00000010: 00f5 0fbc 2df6 043c d10f 9ebd 6c09 f23b
00000020: 8408 c2bd a515 f3bd 375a 15bd 9c1a 3dbf
00000030: 7692 a1bc e25e d0bc efff 86bb b81b 49bd
00000040: 23b2 ea3c a780 7dbc 4780 c3bc 2811 9c3b
00000050: 5868 9abc 307c 11bd 0dd5 22bd fee6 98bc
00000060: 5d46 443c 006d b2bd d7a0 06bd 626d e33a
00000070: ec34 f6bc 3444 5bbd 0e27 a43e adc9 76bf
00000080: 2ebb 06be e17d 81bd 0ac8 67bd c1ab e9bd
00000090: ba8d 4f3c 9b7e e4bd 5de9 623d 7050 20bd
000000a0: 172f 4cbc 9229 0ebe 28e1 88bc 03d4 553e
000000b0: 3da9 7abd b2ea 97bc 43c6 2fbe c899 19bc
000000c0: 45db 8cbc 2e61 1c3f 8609 34bd 3095 d1bd
000000d0: 2e2b 143d 22c9 d8ba 3b24 13bd c2b5 afbd
000000e0: 302f 0ebd 2686 abbb b6b5 c2bc 4db1 f9bd
000000f0: 9f45 45bd 3165 cbbd 1ec2 cdbd f854 fbbd
00000100: 96c0 a4bd 49d1 c0bd 571f 973e 14e4 d6bd
00000110: 1a58 b43e 2ae2 dfbd 9c42 efbc e043 ddbb
00000120: 9e12 a8bc c0ec 9dbd e13a 92bd efbf 6bbd
00000130: 78a1 85bc ce70 f03b 4c8d 83bd 1252 48bd
00000140: b469 40bd aead ffbd 55cc 443b 85c7 62bd
00000150: 0f2c 74bd a8b8 82bd 5162 0bbb aca0 6fbd
00000160: 38dc 08bd bf67 003f b1d2 a03c 6501 aebd
00000170: 1e67 05be 355f 48bd 1dc2 cfbc 3466 aabd
00000180: 72c9 adbd 6add e7bc 22b1 efbd cca1 07bc
00000190: 2075 95bd 3e71 1cbe 7b2a 44bd 7132 90bd
000001a0: f5b8 d8bd 821c c4bb 6b92 8dbc 0245 b5bd
000001b0: 355c bd3d e01e afbe 3559 92bd 23d1 66bd
000001c0: 3c0f 88bd 26ce c2bd 0058 fbbd c98e a33b
000001d0: 4416 aabd b6b3 00be 1aa3 ab3e fd4e 2b3b
000001e0: 0aab e1bd a7c5 443e 53dd 42bd 6e59 7f3b
000001f0: e5f7 70bd e3ee 62bd 47af c4bd c780 07be
00000200: 4b21 ccbc 20f9 4ebd 8446 cf3b ccdc 9dbe
00000210: 3e37 25be f8a0 c7bd 34e5 8ebd 21a3 8abd
00000220: 4f45 f2bd 24ac 52bf 0119 483c 8a04 edbd
00000230: aa42 c7bd 749e 133e 864a fabd a689 393e
00000240: 4b43 48bc 16e3 d7bd 847a b9bd 11f2 01be
00000250: 9424 35be 2efc 81bd 496c ecbd ed5e 0bbd
00000260: 04f0 bcbe efcf ccbd 7cc7 16be 20df 003f
00000270: 0ecd a0bd 61b3 34bd c178 70bd bda5 af3b
00000280: 5342 c5bd 7c87 c0be b2bc 8cbd 12e3 dc3d
00000290: f777 b6bd 9799 b9ba 2a42 5cbd cd35 2d3c
000002a0: 399d edbc 6a29 43bc c2f3 30bd 4d3d dcbc
000002b0: ac97 53bd a352 9bbd 06f2 99bd 8c84 a2bd
000002c0: 09e2 48be ad1e afbd 30b2 25bd d5fc c63d
000002d0: 889a 9bbd bb6d 17bd b506 14bd f917 5ebd
000002e0: 843a b3bd c41c 8bbd c19c 08bd dc64 bcbd
000002f0: f2c5 3abc 61fc aabd 3666 37bd f135 47bd
00000300: 63f5 4abc cf22 f03b 17d7 aebd 8c4d eebc
00000310: 15dc a1bd c844 34bd 9986 26bd 635b 0fbe
00000320: dbed cabd d92a 03bd 1cbc d9bd 30f9 2b3e
00000330: a3b6 66bd 653b 48bd adc1 c03b e733 18bd
00000340: 459c 1cbd e20f 59bd e649 96bc b3db c7bd
00000350: 6249 f5bd e867 483e d18e e9bd 986c 3bbd
00000360: 07ba a8bc f3f1 293c 4d96 23bd 30a0 a5be
00000370: a2a0 79bb b6df 32be 14d7 9ebe e51d d5bd
00000380: 1c21 25bd a967 173f 53dd 1bbd 780c 623e
00000390: 217e edbc d53a 8abd 7aed 04bd a976 a6bd
000003a0: 2bb9 bdbd 2f0a 0ebd 512f a9bd a2b3 abbd
000003b0: e3f4 4cbd 9128 73bd b983 70bd c488 f6bd
000003c0: 50c0 16bd d85c 8cbe 8562 63bd be72 10be
000003d0: 6a70 24ba 4f1a 20bd 7359 0fbd bd77 72bc
000003e0: 41fc 44be 1ad8 753c c15b 34bc ceb5 b6bc
000003f0: f91b 94bd ca8b a0bd 8104 0f3b b614 5cbd
-0.10675427 -0.084991574 -0.061701357 -0.060372822 -0.00878644 0.0081153335 -0.077178605 0.007386377
-0.094742805 -0.11869363 -0.03646299 -0.7386873 -0.019723158 -0.025435869 -0.004119865 -0.0490987
0.028649395 -0.015472568 -0.023864878 0.0047627874 -0.018848583 -0.035518825 -0.039753962 -0.018664833
0.011979667 -0.08712196 -0.032868233 0.0017351324 -0.030054532 -0.05353184 0.32061046 -0.9640148
-0.13157341 -0.063228376 -0.056587256 -0.114097126 0.012668068 -0.111569606 0.055398334 -0.03913921
-0.012462399 -0.13883045 -0.016708925 0.20881657 -0.061196554 -0.018544529 -0.17165475 -0.009375043
-0.0171944 0.61085784 -0.043954395 -0.102335334 0.03617399 -0.0016539434 -0.035923224 -0.085795894
-0.03471297 -0.0052344976 -0.023768287 -0.121920206 -0.0481621 -0.0993141 -0.100467905 -0.12272066
-0.08044545 -0.09414918 0.29516098 -0.10492721 0.35223466 -0.10931809 -0.029206567 -0.006752476
-0.02051669 -0.07711172 -0.071401365 -0.05755609 -0.016312346 0.007337666 -0.064234346 -0.048906393
-0.046975806 -0.12484299 0.0030029018 -0.055366058 -0.05961233 -0.06382877 -0.0021268318 -0.058502838
-0.033413142 0.50158304 0.019631715 -0.0849636 -0.13027617 -0.04891892 -0.025361115 -0.08320275
-0.08485688 -0.02830382 -0.11703707 -0.0082783215 -0.072977304 -0.15277573 -0.047892075 -0.07040871
-0.10582153 -0.0059848437 -0.017281732 -0.08851053 0.09246103 -0.34203243 -0.07145921 -0.056351792
-0.06643531 -0.09511976 -0.12272644 0.0049913866 -0.08305028 -0.12568554 0.33522874 0.002613961
-0.11018951 0.19216023 -0.047574352 0.0038963216 -0.05883016 -0.0554036 -0.09603744 -0.13232718
-0.02491822 -0.050530553 0.006325545 -0.30832517 -0.16134354 -0.09747499 -0.06977311 -0.067693956
-0.11829626 -0.82293916 0.012212993 -0.115731314 -0.09729512 0.14415914 -0.122212455 0.18118915
-0.012223075 -0.1054136 -0.09056571 -0.12689997 -0.17689735 -0.063469276 -0.11544091 -0.034026075
-0.36901867 -0.10000598 -0.14724535 0.5034046 -0.07851611 -0.04411638 -0.05870891 0.0053603337
-0.09631791 -0.37603366 -0.06871928 0.10785498 -0.089096 -0.0014160153 -0.053774036 0.010571909
-0.029005634 -0.011911729 -0.043201216 -0.0268847 -0.051658317 -0.07584121 -0.075168654 -0.079354376
-0.19617476 -0.08550773 -0.040453136 0.09716193 -0.07597834 -0.03696988 -0.03613921 -0.05422208
-0.08751395 -0.06792596 -0.033352617 -0.09198925 -0.011399733 -0.08348919 -0.04477521 -0.048635427
-0.012387606 0.0073283683 -0.08537119 -0.029089712 -0.079033054 -0.044010907 -0.040655706 -0.13999705
-0.099086486 -0.032023285 -0.10631582 0.16794276 -0.05632652 -0.048884768 0.005882463 -0.037158873
-0.038234968 -0.052993663 -0.018345784 -0.09758701 -0.11976887 0.19570887 -0.11404193 -0.04575786
-0.020596517 0.010372627 -0.03993826 -0.32348776 -0.003809013 -0.17468151 -0.31023467 -0.104060926
-0.04031478 0.5914255 -0.038052868 0.22075069 -0.028990807 -0.067495026 -0.032453038 -0.081281014
-0.092638336 -0.03467768 -0.08260978 -0.083838716 -0.05003823 -0.05936486 -0.05871937 -0.12037805
-0.036804497 -0.27414584 -0.055513877 -0.1410627 -0.00062728545 -0.03908759 -0.034997415 -0.014799056
-0.19236852 0.015005136 -0.011008204 -0.022303488 -0.07231898 -0.07839163 0.0021822753 -0.05373069
